output/dqn/model/4x4/1000.pth (torch, 53468 bytes, 8 tensors)

fc_layers.0.weight f4 [128, 16]
00000000: 5928 0b3e 181f f23e 008c a53c b551 e23e
00000010: 88c6 ea3e 8079 f0bd 41e2 ea3e a609 f13e
00000020: f2e4 5b3e 563f 143f e7b8 e7be 80d7 e8be
00000030: 5136 103f 3830 153f b847 bf3d 5841 9a3e
00000040: b810 75be 5779 883d 0595 f33c ea98 fbbe
00000050: 2339 093e 3657 f83e 20db c8be 2a5f 0bbf
00000060: b13a 8e3e 402f 09be 4697 a7be 2096 1dbd
00000070: abe9 163f 4295 1a3f c8b3 6abd 6e88 07be
00000080: 104c 39bd 52b1 e1be 553b c6bb db8b 40bd
00000090: 8508 b7be 9ead ce3e ff4f e33e fae5 28be
000000a0: e366 753d 8da6 013f 00e1 c63e c053 d1bd
000000b0: fed6 af3e 3132 12bf 7150 043f 0081 a03d
000000c0: fd5a e4be 5b55 173e 099e 08bf 2bef 33be
000000d0: 5b8d 5bbe 4a95 9f3e de88 0dbf d80b a2be
000000e0: d96c cf3e 2c40 cd3e 1650 413e 488e 983e
000000f0: 28bf 91be ac01 0d3f 1a45 be3e 1850 e3bd
00000100: cfde ba3d de3c 603e 6b56 5c3e 6183 07bf
00000110: 5c1d 1abf 969c f73e a43b e3be e062 6abe
00000120: d531 e53e c21b 17be b840 d13e bc67 3cbe
00000130: 5861 a6bd 47a9 9cbe 1fa4 cc3e a59d 053f
00000140: da83 dfbe a0a9 55be cc84 22be 9f04 893e
00000150: dc16 05bf 9a67 a53e 58a2 cf3d a0be 8fbc
00000160: c0ea d23e 720b 703e 4e68 6dbe b282 1fbe
00000170: 60b4 5a3d bd66 713e 9856 8b3d aca1 0bbf
00000180: 666d aebd 25fc 2cbe 596a 88be 88a2 0cbf
00000190: ca30 08bd b0fd 7f3e 35cf 0fbf ae1d 14be
000001a0: 4d65 56be 52e5 86be 7dcd c03e 0a11 db3e
000001b0: 6820 abbd 1aa3 69bd 4194 a73e 9894 5d3e
000001c0: c0d2 abbc aad8 a4be 1f32 f8be 7286 f7be
000001d0: 004c 333b f07f 69be 3ace 043f 70de 49bd
000001e0: c6e5 693e 4cd9 dbbe 178c 233e 4440 be3e
000001f0: c422 6cbe ee20 0d3f e01e cc3d f8cd 19bf
00000200: 1cd9 763e d302 ff3e 98d0 c2bd a85f ccbe
00000210: f6ae 0cbe 7b89 fbbe 128e 33be 7815 dcbe
00000220: 186e 07bf 5faa 0d3f ced2 4dbe 5cf2 683e
00000230: 38e5 f9be bfce b4be 3ed7 143f 2801 f6bd
00000240: 1015 a13e cc88 16bf 8ed1 14bf 5f09 00bf
00000250: 7a6e 04be 664c da3e c8e2 ddbe 589d f5be
00000260: a4fb 853c 5e49 793e c5c7 8d3e 982b 1cbe
00000270: 40d4 fcbd 004d b93e c610 83bd dfd8 0abf
00000280: 8c9d 583c 40fe a8bd da36 10bf 8616 27be
00000290: 6451 fcbe 76c7 963e b8dc 093e 2ebd c83e
000002a0: 0529 5b3e 0f3d 013f 873e c63e f074 903d
000002b0: a672 993e c592 06bf fc81 bb3e 4abb 863e
000002c0: ce6e f93e 9f64 283e 60e4 53be 9357 a3be
000002d0: 9810 b73e 5a92 81be 6207 ea3e 98a9 203e
000002e0: ecde 483e ba12 f23e 388b fcbd 04cd 18be
000002f0: f618 f43e 1e0b ad3d 2a25 2fbe 4095 babc
00000300: 0889 10bf a89b 083f 4a78 803e 7ef9 0cbf
00000310: 0530 ca3e 30f5 4d3d e862 22be 2db9 afbe
00000320: bcb0 1bbf 000b 873e 9bca 213f 1008 1cbe
00000330: a8a1 c6be 964e dabe 2abd d23e 609e edbc
00000340: 3f27 053f 8276 0a3f d0a9 c7be 8a92 563e
00000350: 39db 983e ca24 ce3e e75e a73e e64a a83e
00000360: 2cbf 9b3e 286f 3a3e 5a82 9dbe 20c5 13bd
00000370: df0a 103f c6eb b73e 9467 13be 30a8 d4bd
00000380: 72b0 06bf 6680 f53e fcf8 bcbe c0a8 3a3c
00000390: ed48 8abe 2e49 d73e 1684 a1be a138 0b3f
000003a0: cf9a ff3e 554d 773e d2a4 12bf 8213 9e3e
000003b0: e001 5bbe ae06 4abe 31d0 9bbe 92e3 cc3e
000003c0: c8a1 603e 50be 353e 0727 073f 4cad bcbe
000003d0: 9985 893d 6866 4d3e 9aa5 aa3e 00dc 743e
000003e0: f6e0 16bf e618 333e 1594 bf3d a22c bd3e
000003f0: 2c95 3b3e 2095 143f 870c 58bd 3038 11bd
0.1358961 0.47289348 0.020208359 0.44202963 0.45854592 -0.11741924 0.45875743 0.47077674
0.21474054 0.5790914 -0.45258257 -0.45476913 0.5633288 0.582767 0.09339851 0.30127978
-0.23932159 0.06663769 0.029734144 -0.49140102 0.13400702 0.48504037 -0.3922968 -0.54442084
0.27779153 -0.1339693 -0.327326 -0.03847325 0.589503 0.60384 -0.05730036 -0.13235638
-0.045238554 -0.44080597 -0.0060495534 -0.047008377 -0.35748687 0.40366834 0.4439697 -0.16493979
0.059912574 0.5064476 0.38843536 -0.10221052 0.34343714 -0.57107836 0.51685244 0.07837105
-0.4460067 0.14778654 -0.5336614 -0.17571704 -0.21440642 0.31168586 -0.5528697 -0.3164966
0.40512732 0.40088022 0.18878207 0.29796052 -0.28466153 0.55080676 0.37162095 -0.11099261
0.091245286 0.21898219 0.21517341 -0.52934843 -0.6020105 0.48361653 -0.4438144 -0.2288928
0.4476458 -0.14756683 0.4086969 -0.18398947 -0.081240356 -0.30597898 0.39968964 0.5219367
-0.43655282 -0.20865488 -0.1587097 0.26761338 -0.51988006 0.32305604 0.101383865 -0.017546952
0.41194725 0.23441866 -0.2318432 -0.155772 0.053394675 0.23574348 0.06803626 -0.54543567
-0.0851696 -0.1689306 -0.26643637 -0.54935503 -0.033249654 0.24999118 -0.5617555 -0.14464447
-0.2093708 -0.26346833 0.37656775 0.42786437 -0.083557904 -0.05704031 0.32730296 0.21638715
-0.020974517 -0.32196552 -0.4847574 -0.4834476 0.0027358532 -0.2280271 0.51877177 -0.0492844
0.22841558 -0.42939222 0.15971409 0.37158406 -0.23060137 0.5512837 0.099668264 -0.6007991
0.24106258 0.49806842 -0.09512442 -0.3991673 -0.13738617 -0.49128327 -0.17534664 -0.4298513
-0.52902365 0.5533809 -0.20099947 0.22748703 -0.48807693 -0.35313985 0.58140934 -0.12011939
0.31461382 -0.58802485 -0.58132255 -0.500143 -0.12932768 0.42636412 -0.43337083 -0.47971606
0.016355343 0.24344394 0.27691475 -0.15251005 -0.12345171 0.3619156 -0.06399684 -0.5423717
0.013221156 -0.08251619 -0.56333697 -0.16317186 -0.49280846 0.29449052 0.13463104 0.39206833
0.21402366 0.50483793 0.3871958 0.07053554 0.29970282 -0.525677 0.36622608 0.26314765
0.4871735 0.16444634 -0.20692587 -0.3190275 0.35754848 -0.2530697 0.45708758 0.15689695
0.19616288 0.47279912 -0.12331241 -0.14921957 0.47675294 0.08449386 -0.1710402 -0.022776246
-0.56459093 0.5336251 0.25091773 -0.55068195 0.3948976 0.050282657 -0.15858042 -0.34320965
-0.6081655 0.2637558 0.63199776 -0.1523745 -0.3879521 -0.4263808 0.41159946 -0.029006183
0.5201301 0.5408708 -0.38996744 0.20954338 0.29854754 0.40262443 0.32689592 0.32869643
0.3041929 0.18206465 -0.30763513 -0.036076665 0.5626659 0.35922068 -0.1439498 -0.10383642
-0.52612984 0.47949523 -0.3690871 0.011392772 -0.27008763 0.4204802 -0.31546086 0.54383284
0.49922797 0.24150594 -0.57282746 0.30874258 -0.21387434 -0.1972911 -0.30432275 0.40017372
0.21936715 0.1774838 0.52793926 -0.36850965 0.06714935 0.20058596 0.3332947 0.23912048
-0.58937013 0.17489967 0.09354416 0.36948115 0.18318623 0.58040047 -0.052746322 -0.035453975

fc_layers.0.bias f4 [128]
00000000: 5f2b 09be a088 5f3d 6077 383e 4ccf 5e3e
00000010: 1ad8 cdbc 309a 93be e01b 593e 6792 4fbe
00000020: 90d5 283d 3538 d63d e9f3 0c3d cf51 593d
00000030: 8013 32be eebb d4bd 6f7a 03be efab 153e
00000040: ee83 18be b384 b3bd 9b0d 2e3e 1e97 a23d
00000050: b038 16be 363a 39be c2bc ed3d 33dc 103d
00000060: dd06 10be 81df 4e3e 9a45 33be 19dd 1a3e
00000070: 5dc6 823d a4d1 0f3e cfb0 1dbe e61d 48bd
00000080: e094 5ebe 9e1d e33d 3ab4 44bc d496 653d
00000090: 7ff0 17be ca65 233e 1ca8 ea3d 2b81 0ebe
000000a0: b724 893d 795e 21be 213b 6cbe 5496 3cbe
000000b0: e8c1 16be eabf d6bc c36a f4bd eaac d9bd
000000c0: 9e23 043e ea40 7f3b 8222 33be 0632 c5bd
000000d0: bc96 1bbe 96e1 833d b9d6 193e 5f29 e43d
000000e0: a072 09be 6088 0ebd b41e 2c3c 2240 0cbe
000000f0: d6c6 5a3d b7e4 f2bd 2a7e 69bd c930 61be
00000100: f821 d23d 8d39 2ebe 7a25 bbbd 5875 55be
00000110: 079c 393e 24ad c6bb 2508 e33c 153f 61be
00000120: dd9e 92bc 85b4 b33c 4214 163e 5d88 1e3e
00000130: edde 0abe 7f36 a0bc 92b2 0d3d 749d 1dbe
00000140: acd4 e0bd 9ccd 6abe 3d78 9fbe 0f46 05be
00000150: e827 383c 278d ccbb b1f5 adbd ec65 05bc
00000160: 56a3 b3bd 68d6 6abe 4345 173e 5147 43be
00000170: ba33 3d3a 45be 183e 6732 563c a953 1fbe
00000180: 836c bebd 0137 083e b7da b2bd cef5 273e
00000190: b29b 8e3d 0642 153e ed46 4dbd b5fb 1abe
000001a0: 9599 30be f27a eabc d050 0d3e f14d db3d
000001b0: ce85 373e 682b 3a3e bc68 453e 2a40 39be
000001c0: 255a bebd e9c3 80bd b242 bdbd 1e1d 3dbe
000001d0: 99dd aabd b5fd 203e 54f5 b5bd 906d 593e
000001e0: c1c7 3ebe 93d7 73be 7bc1 7cba 4e20 c2bd
000001f0: 515b 1fbe c726 46be 42c5 463c 25b7 d5bd
-0.13395451 0.054573655 0.18014288 0.21758765 -0.02512746 -0.28828573 0.2120204 -0.20270692
0.041219294 0.104599394 0.0344123 0.053056534 -0.17390251 -0.10387407 -0.12839673 0.14616369
-0.14894077 -0.08765545 0.16997378 0.079389796 -0.14670062 -0.18088612 0.11608268 0.03536625
-0.14065118 0.20202447 -0.1750702 0.15123405 0.06385491 0.14044815 -0.15399478 -0.04885664
-0.21736479 0.110896334 -0.01200586 0.056052044 -0.14837836 0.15956798 0.114578456 -0.13916461
0.06696456 -0.15758695 -0.23069431 -0.1841672 -0.14722407 -0.026214559 -0.11934426 -0.10628684
0.12904212 0.0038948604 -0.17493632 -0.09628682 -0.1519422 0.064395115 0.15023316 0.111407034
-0.13422632 -0.034798026 0.010505367 -0.1369634 0.05341228 -0.1186003 -0.057005085 -0.21991266
0.10260385 -0.17014141 -0.091380075 -0.20845544 0.18125926 -0.0060631204 0.027713845 -0.2199672
-0.017898018 0.021936664 0.14656165 0.15481706 -0.13561602 -0.019557236 0.034594126 -0.15392095
-0.10978064 -0.22929996 -0.31146422 -0.13015006 0.011239983 -0.0062424126 -0.084941275 -0.008141976
-0.08771388 -0.22933352 0.14772515 -0.19070174 0.00072174857 0.14916332 0.01307354 -0.15559258
-0.09298041 0.13302232 -0.08733123 0.16402361 0.0696329 0.14575967 -0.05011647 -0.15135081
-0.17246087 -0.028623078 0.13800359 0.107082255 0.17922136 0.1818062 0.19278234 -0.18090883
-0.092945375 -0.06287367 -0.09241237 -0.18468139 -0.08343048 0.15721782 -0.08884683 0.21233201
-0.18630888 -0.23812704 -0.0009641868 -0.09478818 -0.15562178 -0.1935073 0.012131991 -0.10435323

fc_layers.3.weight f4 [64, 128]
00000000: 2c77 193e d8d2 3bbe aaf9 a7bd 301e 36be
00000010: 2a22 d3bd 270e 883d 17ee 3a3d 507a c23c
00000020: 121b 663d 85c3 b93c 8b28 82bd 6823 54bd
00000030: 6dbf 76be 3320 c43d c992 93bd e7dd fcbd
00000040: 41c2 d53d 81ea 1abd 8796 d13d 1151 4e3d
00000050: 5533 55be c30c 803d 16e6 903c b03f c8bd
00000060: c631 37bd 9abe 18be 7ed7 b6bd 1dc1 51bd
00000070: ec2f 08be ceee 4fbd c314 f33d eb8e 8fbc
00000080: a532 ea3d 1b4e 11ba 20ef cebd b00c ca3d
00000090: 4940 dbbd d10f 41be ea2d 043e 7750 5dbe
000000a0: f0f5 eebc 64fe 4cbe fc97 38be 4f52 e73b
000000b0: a109 04be 621a 7a3d 5702 853d cbbb 9abd
000000c0: 7dca 2d3d 9d80 2ebe 733b 103e e355 c1bc
000000d0: f407 e83d 2e1a 50be 63dc 3fbe 5688 253e
000000e0: 0127 6abe 2cab 38be 1f59 32be 3056 303e
000000f0: a285 003e 9db5 f9bd cf63 f0bd c13b ce3d
00000100: 36a4 1ebe eb25 6a3d 705d 24bd e9d6 a3bd
00000110: 3383 33be 1821 edbd 2560 e73d b76c 5b3e
00000120: 2501 8abd 92d2 82bc 6710 40be df0d 54be
00000130: 9b03 aabb 3092 2c3e 31a2 4dbd 3480 e53d
00000140: 1015 46be 2bef 383d 10da 2d3e 017c 2cbe
00000150: 7857 283e c7c1 17be ab55 7bbd 158b ff3d
00000160: a753 77bd 58d4 28be 5db8 c33d 55b3 3fbd
00000170: f571 2fbd a254 c6bd 7d3f 153d 6e7e ccbd
00000180: 16b6 ae3d 54c8 0abe 9ef5 38be 0bc9 d23d
00000190: 0d90 303e 0c65 a73d 714d 8cbd 2de5 343e
000001a0: 6f7d 75be 96aa 45be 6dd3 c63c d073 8b3d
000001b0: 01d2 a9bd b8c2 f7bc e890 583d 7c85 f13d
000001c0: a11e 22be 5e6e 0ebd 9ae3 433c 585e 56be
000001d0: 1993 25be fcab 56bc 148b f4bd f2eb 49be
000001e0: 04c7 353e a076 103e 6fb1 7fbd 5fcb 8bbd
000001f0: 9d54 70be 16f3 48be cfa4 f2bd a408 1ebe
00000200: 4a52 783d 3f6d ee3d 9f91 de3d 289c 1cbc
00000210: 812c 2d3e 2276 73bd e4f4 593d 9ce3 073e
00000220: 5979 69be 4e80 92bc 8f5f 1dbe 9715 37be
00000230: 3482 09bd 6f2a c03d 06ba b4bc f76e 913d
00000240: 53ef dc3d 4123 b5bc 3382 a7bd d955 0e3d
00000250: c2ba 5bbe dcd5 1fbd 2037 fabc f8ae 0c3e
00000260: 9411 f6bd e340 cf3c c95a 3c3e 0611 0ebe
00000270: 2758 5bbd f649 013e 1def 11be ffa2 06be
00000280: 7673 dc3d 824a c93d f007 4abe 6ab2 b3bd
00000290: a800 42be f63a ecbd 648d 54be f760 e5bd
000002a0: c825 e33d e0df 00be 6321 39be 1b67 8bbd
000002b0: 51f9 43be 0885 e4bd 7362 d6bc 7fb4 14be
000002c0: e615 48bd 8348 adbc 2e3a cd3d 0e3b 28be
000002d0: 8ccf 34bd 8e5f 113e 288e 5abe 8eaf c63c
000002e0: 65c2 003e 2adc 16be 73ce 57be b6b4 553d
000002f0: 5c33 a63d 14a6 30be 449e f8b8 769f d13d
00000300: 1f5f 27be 993c 153d 9b1b a1bc 1f51 afbd
00000310: 71c1 c7bb 311c 3dbe 241f a4bd 101d 583e
00000320: 2058 98bd 7645 803d e41b 053e 01f7 1bbd
00000330: 3b75 6dbe 787f 61be 92e8 40bc 2228 713d
00000340: eb87 813d 0b26 9a3c 84ed ebbd da27 55be
00000350: 8dff 66be 559f 7bbd 6906 693d 80e7 b1bd
00000360: f11a 02bc b8ae 133e 1e63 91bc 92ac fbbc
00000370: 9924 543c 6568 123e 82a2 b1bd 035c fd3d
00000380: 4b6c 503d fb74 26be 5811 e73d cf5a 4f3d
00000390: e448 913d 3d41 8c3b b5b7 0dbd dcbc 28bc
000003a0: 1304 febd 4cd8 173d 32f8 bb3d 6486 0dbd
000003b0: 9185 43be 4198 1dbe 2871 143e c69f 1abe
000003c0: 09d9 7ebe d118 113e c930 4dbd be71 d6bd
000003d0: a53f 283e f49f 3bbe 7f37 be3d aa10 b9bc
000003e0: df7e 4c3e 4c0a cf3d 8051 6ebe 18f8 2fbe
000003f0: ac6a 383e eda4 ae3d 3054 39be 0861 a8bd
0.14986867 -0.1834215 -0.082019165 -0.17784953 -0.10309251 0.06643324 0.045637216 0.023739964
0.05617816 0.022676239 -0.06355389 -0.05179158 -0.2409646 0.09576454 -0.072057314 -0.12347012
0.104374416 -0.037821297 0.10233789 0.05037028 -0.20820363 0.06252434 0.017687839 -0.097777724
-0.044725202 -0.14916459 -0.089278206 -0.051209558 -0.1329953 -0.05076485 0.11869194 -0.017524203
0.11435441 -0.00055429497 -0.10104203 0.09865701 -0.10705621 -0.1885369 0.1290814 -0.21612726
-0.029170007 -0.20018917 -0.18026727 0.0070593725 -0.12894298 0.061060317 0.06494587 -0.0755535
0.042429436 -0.1704125 0.14085178 -0.023600524 0.11329642 -0.20322487 -0.18736415 0.1616529
-0.22866441 -0.18034047 -0.1741681 0.17220378 0.12550977 -0.12192843 -0.11737787 0.10069991
-0.15492329 0.057165068 -0.04012817 -0.07999975 -0.17530517 -0.11578578 0.11297635 0.2142819
-0.067384996 -0.015969548 -0.18756257 -0.20708416 -0.005188418 0.16852641 -0.050203506 0.112060934
-0.19343972 0.045149963 0.16977715 -0.16844179 0.16439617 -0.14820014 -0.061360996 0.124777
-0.06038251 -0.16487253 0.09556649 -0.046801884 -0.042833287 -0.09684111 0.0364375 -0.09985052
0.08530824 -0.13552982 -0.18062446 0.10292252 0.17242451 0.0817357 -0.06850708 0.17665549
-0.2397363 -0.19303355 0.024270738 0.06809199 -0.08292008 -0.030244216 0.05287257 0.11793038
-0.15831997 -0.034773223 0.01195612 -0.20934427 -0.16169395 -0.013102528 -0.119405895 -0.19718912
0.177517 0.14107752 -0.062425073 -0.06825899 -0.23469777 -0.1962398 -0.11847841 -0.15432984
0.060625352 0.11641931 0.10867619 -0.009558715 0.16911508 -0.059438832 0.05321206 0.1327042
-0.22800197 -0.017883446 -0.15368484 -0.1787933 -0.033571437 0.093830936 -0.02206136 0.07101243
0.10787835 -0.022111537 -0.081791304 0.03474984 -0.21457961 -0.03902231 -0.030543864 0.1373862
-0.120150715 0.025299495 0.18394007 -0.13873681 -0.053550866 0.1262587 -0.1425137 -0.13148116
0.1076421 0.09828664 -0.1972959 -0.08774264 -0.18945563 -0.115346834 -0.20757061 -0.11200135
0.110911906 -0.12585402 -0.18079142 -0.06806775 -0.19138075 -0.11158186 -0.026169991 -0.14521979
-0.04884901 -0.02115274 0.100208625 -0.16428778 -0.044143245 0.14196607 -0.21343291 0.024253633
0.12574156 -0.14732423 -0.21074848 0.052174293 0.08115265 -0.17250854 -0.00011855041 0.10235493
-0.1634488 0.036434744 -0.019666484 -0.085603945 -0.006096058 -0.18467785 -0.08013752 0.21104836
-0.074386835 0.062632486 0.1299892 -0.03807736 -0.23189251 -0.22021282 -0.011774199 0.058876164
0.063247524 0.018816968 -0.11519912 -0.20815983 -0.22558422 -0.061431248 0.05689088 -0.08686733
-0.007940994 0.14422119 -0.017747458 -0.030721936 0.012948179 0.14297636 -0.08673574 0.123710655
0.050884526 -0.16255562 0.11282605 0.05062371 0.07093981 0.004280238 -0.034599025 -0.010298934
-0.12403121 0.03707151 0.09178199 -0.034551993 -0.1909392 -0.15390112 0.1449629 -0.15100011
-0.2488748 0.14169623 -0.050095353 -0.10470913 0.16430528 -0.18322736 0.09287929 -0.022590954
0.19970272 0.10109386 -0.23273277 -0.17184484 0.18009442 0.08527551 -0.18098521 -0.08221632

fc_layers.3.bias f4 [64]
00000000: ff2b 96ba 959d 01be 53ac f0bc c621 a0bd
00000010: c903 c6bd 388b c4bb 46c5 86bb 40c9 a0bb
00000020: 16cb d9bd c552 a03d b43a c3bd 9cb3 cabb
00000030: 3fb3 593c 164c 2dbd e8e1 b8bd 63d8 7cbc
00000040: e1e2 243d ae1c 93bd f892 3fbc bd5c 9ebd
00000050: d167 b8bd eabb 473c 3c01 17bd 674b f6bd
00000060: 338a 09be 0951 ddbd 371b 96bc 7ed1 cdbd
00000070: d607 81bd 9f3d 08be b442 50bd 5bf0 27bd
00000080: 9089 77bc bcbd cd3c b3da c2bc 1daa 06be
00000090: 8ba4 d13c 6a64 b73c 9cba babb 84fc 45bc
000000a0: 1135 1dbe 6ca5 2ebc 167c 7a3d 06a2 05be
000000b0: 4704 cebd 6ac4 19bd e7af 17be 8732 70bb
000000c0: 8765 8abb 1886 773c ce27 90bd 0f8e bfbd
000000d0: a1cf b7bd ea74 41bd 8f3b 51bd c07c 0b3d
000000e0: 9468 03bd d26b 623c 21a1 e53c fde1 53bd
000000f0: 85f0 17be e206 babd cd23 f7bd 6e1d 45bd
-0.0011457204 -0.12657769 -0.029379046 -0.07818942 -0.09668691 -0.0059980415 -0.0041128723 -0.0049068034
-0.10634439 0.07828287 -0.09532681 -0.006185962 0.0132873645 -0.04230889 -0.09027463 -0.01543245
0.04025543 -0.071832046 -0.011692755 -0.07732532 -0.090041764 0.012190798 -0.03686641 -0.120261006
-0.13431625 -0.10806472 -0.018323524 -0.10049723 -0.06300323 -0.13304757 -0.050844863 -0.041000705
-0.015108481 0.025114886 -0.023785925 -0.1315083 0.025591156 0.022386748 -0.005698515 -0.01208413
-0.15352274 -0.010659557 0.061153494 -0.13050088 -0.100594096 -0.03754083 -0.14813195 -0.003665121
-0.004223529 0.015107654 -0.07038842 -0.093532674 -0.08975149 -0.04723064 -0.05108219 0.034054518
-0.032082155 0.013819652 0.028030934 -0.05172919 -0.14837845 -0.09083344 -0.12067375 -0.04812377

fc_layers.6.weight f4 [32, 64]
00000000: 14e1 5b3e 6b01 21bc ea89 6ebe 7f9d 193e
00000010: 2e2f d3bc 89bf 5ebd 8c48 843e d691 843e
00000020: 7b49 bbbb 8e0c 01be a3db 16bd 5311 813e
00000030: e3a6 b6bd 8725 29be 82e4 ac3d fc6e 03be
00000040: d689 923e cf28 b13c 96bf b2bc 0b2a 943e
00000050: ca95 a33d 65ca 2dbe 4938 0cbc e18d cb3d
00000060: 0103 78be f176 a5be 1ad3 b7bd c1ff 6abc
00000070: abf5 0abd a4d3 353d 46a2 92be 403e 54bb
00000080: c3a7 153d 4e40 64be b8ec 563e f096 60be
00000090: 280e 40be 1f13 89bd 0d6c 9ebe eea8 a0be
000000a0: 5985 68be f6db 953d 0a01 3bbe 9397 8bbe
000000b0: da9c 9a3d f493 eabd 1e27 7abd ab3f 4d3e
000000c0: 7130 f63d 2409 89bd 4934 38bd 2e38 833d
000000d0: 5608 06bd 66e0 78be 4fa4 063e b3bf 3dbe
000000e0: acd5 5cbe bf1b 3abd 14c1 9e3d 5969 3dbe
000000f0: feca 813d cf6b 243e 530c a63d 315b bfbc
00000100: 173d 3fbe 5486 953d b767 84be 755e 96be
00000110: 504a 14be 8e42 8d3d 09a6 823e 3276 723e
00000120: 706f adbd 4664 53be 3b88 453e b78d 303e
00000130: b335 90be b019 79be 04c0 87be 9642 88be
00000140: c451 60bc 2987 19be 24f8 5d3c 6b2d 783e
00000150: fee9 0d3e 22df 80be cd28 79be bc15 7bbe
00000160: e8f7 ce3d 114a 47be 052f 0c3c cc6d 72be
00000170: e4bb 94be 19a5 bb3d d0a8 d7bd 3818 9cbe
00000180: cec8 3fbe b174 133d 9f26 5fbd 29be 86bb
00000190: 65e8 383e 47b7 05b9 2a34 9fbe 80a5 db3d
000001a0: a5f2 dfbd d0c9 f73d 17e5 ddbd b13c 283e
000001b0: b221 783e 8dfc cc3d 12e4 34be 9e04 8ebb
000001c0: 422e 423e c5f5 67bd 4c86 39be f253 a6be
000001d0: 7ecc 74bd 6c0d 6d3e eb07 03bd 67f2 0abd
000001e0: d71c fcbd 5be6 efba 0de9 c03c e23f 59bc
000001f0: f629 6b3e af74 093e 6a80 283e 9deb 203d
00000200: 0967 5fbe f3e3 9ebe 04f6 aa3d ebbf 2b3d
00000210: f999 28be 5c16 7e3d ae08 97be 0f3b 893e
00000220: e639 873e f8f1 6f3c 4fa9 6b3d 4138 dd3d
00000230: 1d6b 2cbe 0a0e 3c3d 359f a33c 885e da3d
00000240: e2f3 94be 60f1 0b3e 52ae 9b3c 8d8d 0c3e
00000250: 0bdd 53be df35 01bd a503 b9bd 80cb 4b3d
00000260: ded9 99be bfeb 8bbe f356 343d 3953 303e
00000270: 92b2 17be 9b12 39be fa22 fe3d 3db1 853e
00000280: 3d5a 15be d52d 9abe 4842 1fbe 3e5f 8dbe
00000290: 5834 17be 87aa 1fbe 045d 933d 50a4 243e
000002a0: 1289 e53d 25ed 84be bf65 a1be 32ee 7dbd
000002b0: 7627 923e eb36 8b3d 413b 1a3e 987e a4be
000002c0: 3982 67be 98b6 9f3d cf1b 89bd 0ede 1cbe
000002d0: 9422 dc3d 22f5 74bd d215 5ebe 9732 89be
000002e0: 6c59 573e f57d 473e 4b91 d1bd 8cd6 a1be
000002f0: 9dd6 03be b5fd ae3d b9bb 25be f1ab 25be
00000300: f49a 703d c3dc 97be 3478 26be fc6e 98bd
00000310: 1103 613e 8458 2ebe 4880 7d3e 3b7a 95bc
00000320: 94ee fdbc 3d2e 1abe 8387 4e3e a0d5 abbd
00000330: 6d77 d6bd 2e06 203e d2fb 78be b787 7ebe
00000340: 7523 debd 24eb eb3d 2dd7 8dbe 91b3 153e
00000350: 1445 9bbd 56e4 c63d 0a40 fe3d ae9e a7bd
00000360: e3ba 71be 91ca 0c3d eb95 f83d e460 163e
00000370: 9f42 2ebe 3572 97bd 8620 25bd 9bfc fa3c
00000380: 0b79 a03d 46bd 02be b4f8 d43b cae8 b5bd
00000390: 4927 d738 f60a d1bd 2f14 17be 765c 9fbd
000003a0: cabd 5ebe e501 043e ca1b 37be c162 813d
000003b0: 8117 223d 3e07 593e c309 8a3e f482 34be
000003c0: 55ce fcbd dd7c 47be efa0 99be 822e 5abe
000003d0: 8043 b53b 9edf 353c a06e 3dbe db53 063d
000003e0: 6b37 903e 6331 923e a152 253e c716 6bbe
000003f0: 4355 693e d4bc fabd 50af 2fbd cb17 393b
0.21472579 -0.009826998 -0.23294798 0.15001486 -0.025779333 -0.05438188 0.258366 0.25892514
-0.0057155467 -0.12602445 -0.036830556 0.2520853 -0.0891855 -0.16518222 0.08442022 -0.12835306
0.28620785 0.021625904 -0.02181987 0.28938326 0.07987554 -0.16971739 -0.008558341 0.09939171
-0.24219896 -0.32317308 -0.08975811 -0.014343203 -0.033925693 0.04439129 -0.2863943 -0.0032385737
0.036536943 -0.22290155 0.20988739 -0.21932578 -0.187554 -0.066931 -0.3094181 -0.31378883
-0.22707118 0.07317345 -0.18262115 -0.2726408 0.07549448 -0.11454001 -0.06107246 0.20043819
0.12020958 -0.066911966 -0.044971738 0.064072 -0.032722794 -0.24304351 0.13148616 -0.18530159
-0.21565884 -0.045436617 0.077516705 -0.18497218 0.06337546 0.1605675 0.081078194 -0.023358913
-0.18675648 0.07301012 -0.25860378 -0.2936894 -0.14481473 0.0689746 0.255173 0.236779
-0.08468521 -0.2064372 0.19290249 0.1724156 -0.2816597 -0.24326205 -0.26513684 -0.266133
-0.013691369 -0.14992966 0.013547931 0.24236076 0.13858792 -0.25170237 -0.2433197 -0.2452001
0.10105878 -0.19461848 0.008556132 -0.23674697 -0.290496 0.09162349 -0.10530245 -0.30487227
-0.18728945 0.035999957 -0.05448019 -0.0041120243 0.18057401 -0.00012752145 -0.31094486 0.10724926
-0.10934953 0.120990396 -0.10834711 0.16429402 0.24231604 0.10009108 -0.17665127 -0.0043340465
0.18962958 -0.05663087 -0.18117636 -0.3248592 -0.05976533 0.23149651 -0.031989973 -0.03392258
-0.12310188 -0.0018302904 0.023548627 -0.01325986 0.22965226 0.13423418 0.16455236 0.0392872
-0.21816649 -0.31033286 0.08347705 0.041931074 -0.16464986 0.062033042 -0.2949881 0.2680287
0.2641136 0.014645092 0.057534512 0.10801745 -0.16837735 0.045911826 0.019973377 0.10662562
-0.29092318 0.13666296 0.01900402 0.13725872 -0.2068979 -0.031545516 -0.09033898 0.04975462
-0.30049032 -0.27328297 0.044028234 0.17219247 -0.14814213 -0.18073504 0.12409015 0.26111785
-0.14585204 -0.30113092 -0.15552628 -0.27611727 -0.14766061 -0.15592395 0.07195476 0.16078305
0.11207785 -0.25962177 -0.3152294 -0.06199474 0.2854573 0.06797584 0.15061666 -0.32127833
-0.2260827 0.07798499 -0.06694757 -0.15319082 0.10748783 -0.05980409 -0.21688011 -0.2679641
0.21030205 0.19481643 -0.102327906 -0.31609 -0.12874837 0.085444845 -0.16184892 -0.16178872
0.058741525 -0.29660615 -0.16256791 -0.074430436 0.21973826 -0.17025954 0.24755967 -0.01824676
-0.030997552 -0.15056701 0.20168881 -0.08390355 -0.104719974 0.15627357 -0.24314812 -0.24856459
-0.10846607 0.11519459 -0.2770323 0.1461928 -0.07581535 0.097115204 0.12414558 -0.081845626
-0.23606448 0.03437287 0.121379696 0.14685398 -0.17017601 -0.0739483 -0.04031422 0.03063803
0.07835587 -0.12767515 0.0064993743 -0.088822916 0.00010259316 -0.10207169 -0.14753793 -0.077813074
-0.21752086 0.12891348 -0.17881694 0.06317664 0.039573196 0.21194169 0.26960573 -0.1762808
-0.12344042 -0.19481225 -0.30005595 -0.21306804 0.0055317283 0.011100678 -0.18499231 0.032794815
0.2816728 0.28553304 0.16144802 -0.22957908 0.22786431 -0.12243047 -0.0428918 0.0028242941

fc_layers.6.bias f4 [32]
00000000: a172 06be 48f1 1abe 4235 0abe 8234 e8bd
00000010: 4db2 7d3d 9c5c 35be 46f7 1dbe 5912 e1bd
00000020: 6d05 4dbe 3178 38bd fac2 0abd 74bd bcbd
00000030: ecb9 b7bd 136e a7bb 2e59 23be 58bd a0bd
00000040: 187f a03d 0aa7 4dbb 1615 29be 4f46 073c
00000050: 74a8 e43d 5e26 2cbe a0a5 96bd 743d 4dbd
00000060: 6cd7 cdbd 4d62 fdbd 9d9e c1bd 9df4 a8bd
00000070: 1890 22be 73c4 1c3b 33fb 203e 652a 173d
-0.13129665 -0.15131104 -0.13496879 -0.1133814 0.06193762 -0.17711109 -0.15426359 -0.10989828
-0.20021601 -0.0450365 -0.03387735 -0.09215823 -0.08971009 -0.0051095574 -0.15951988 -0.078486145
0.07836741 -0.003138008 -0.1651195 0.008256509 0.111649424 -0.16811511 -0.07355809 -0.050107434
-0.10050854 -0.12372265 -0.09454081 -0.08249781 -0.1587528 0.0023920804 0.15720825 0.036905665

fc_layers.8.weight f4 [4, 32]
00000000: 5608 2fbe 0ab8 58be 2a38 85be 566c 893e
00000010: 253d 76b9 06b5 fabd 3650 8fbe bf84 e6bd
00000020: 254c a0be e38b c5bc 75b7 583e d64a a1be
00000030: d71e 38be 1943 44be 560f 3fbe 4e5f a33d
00000040: 0760 22bd bf1b 5fbe bcaf 823e 8872 423e
00000050: 0056 333e 6021 2b3e 6d1d 99be f824 a6bd
00000060: 49fd 46be 154a c7bc 3bb3 a6be 6fac cb3e
00000070: 8c11 1dbd 9320 2cbe c8f5 aa3e 0377 2fbe
00000080: 3e6b 93be bc35 8ebe f864 71be f03b 67be
00000090: f1b1 a5bc 638b b1be 8055 45be 8d44 cfbb
000000a0: 1cfa 1ebe 5e05 b83e 66b6 ae3e 9b58 2c3d
000000b0: 13ef babd bc52 a33e 66e3 a1be f397 89bd
000000c0: 7b99 453e edde b23e 7072 67be 58fe b8bd
000000d0: c25a 293e e3ef 8fbe c76f 923e fd70 173e
000000e0: 9256 483e 5967 16be 355a 3cbe b471 723e
000000f0: 35b8 c1bd 9c45 7f3d 5ad5 173e da2e 2bbe
00000100: e5cb 653d 181e f2bd cc8e ddbc 2a60 df3b
00000110: 6f03 73be bd95 9d3e c70e adbe a98e 60be
00000120: 6834 e0bb 3015 023d 0fdb 26be bc5e 94be
00000130: f30a 963e 1c7d 18bd 36a3 80be 2918 4ebc
00000140: 6ac3 d6bd a174 033e b06d be3b 5373 a63d
00000150: a1fe 653e 1165 913e 8e11 053e 4784 69be
00000160: 7999 933e eb62 07bd 77eb b33e e533 a03e
00000170: 6984 7dbe 9eec 343e 70a1 a13e e3d8 75be
00000180: d275 4fbd 64b4 44bd b0ac 8bbe f910 2cbe
00000190: 4a23 29be 65de aebe f0c2 95bd 0685 633d
000001a0: 6e2e 9c3e 3e5e 1fbe e63f 2a3d 19a9 b43e
000001b0: 9778 1f3d 3ce1 3a3d cca4 aa3e 0f03 16be
000001c0: c9d7 153e 287c 023e aab2 583e da60 4abd
000001d0: daed c03d afc3 3ebe b54b 62be 88b4 a23e
000001e0: b12f 32be ebec e7bd 1c01 02be 5418 ac3c
000001f0: 6485 343e b61e c23e 6c07 3a3d 8b2c 3cbe
-0.17093024 -0.21163955 -0.26019412 0.26840466 -0.00023483166 -0.12241559 -0.27990884 -0.11255788
-0.31308094 -0.024114555 0.21163733 -0.31502408 -0.17980514 -0.1916622 -0.18658194 0.07977162
-0.03964236 -0.21787928 0.255247 0.18989003 0.17513275 0.1671195 -0.29905263 -0.0811252
-0.19432558 -0.024327317 -0.32558617 0.39779994 -0.038346812 -0.16809301 0.3339064 -0.17135243
-0.28792757 -0.2777537 -0.23573673 -0.22581458 -0.02022645 -0.34676656 -0.19270897 -0.0063253106
-0.15525097 0.35941595 0.34123534 0.04207669 -0.09127631 0.3189906 -0.31618804 -0.06718435
0.1929683 0.34935704 -0.22602248 -0.09032887 0.16538528 -0.28112707 0.28600904 0.14789195
0.19564274 -0.14687862 -0.18393786 0.23676187 -0.09458963 0.062322244 0.14827481 -0.16717091
0.056102652 -0.11822146 -0.02704563 0.0068168836 -0.23731779 0.30778304 -0.33800337 -0.2192942
-0.006842185 0.031758487 -0.16294502 -0.28978527 0.2930523 -0.03722869 -0.2512452 -0.012579002
-0.10486491 0.12837459 0.0058114156 0.08127465 0.22460414 0.2839742 0.12994978 -0.22804366
0.28828028 -0.03305332 0.35140583 0.31289592 -0.24757542 0.17668387 0.3156848 -0.24008517
-0.05064947 -0.048023596 -0.27280188 -0.1680335 -0.16517368 -0.3415405 -0.07312572 0.055546783
0.30504173 -0.15563294 0.041564845 0.3528526 0.038933363 0.045624956 0.33328855 -0.14649604
0.14633097 0.12742674 0.21161905 -0.04940877 0.094203666 -0.18629335 -0.22099192 0.3177836
-0.17401005 -0.113244854 -0.12695736 0.021007694 0.1762901 0.37914056 0.045417234 -0.18376367

fc_layers.8.bias f4 [4]
00000000: 857c 2a3c e748 833c fb92 c23c c435 683d
0.010405664 0.016025973 0.023751726 0.0566919
