output/dqn/model/4x4/10000.pth (torch, 53480 bytes, 8 tensors)

fc_layers.0.weight f4 [128, 16]
00000000: 5634 0a3e cd52 563e 008c a53c fd4d 643e
00000010: 9cdf 043f 8079 f0bd 683b 0c3f a609 f13e
00000020: 0e51 413e b534 db3e e7b8 e7be 80d7 e8be
00000030: 5136 103f 60ef 003f b847 bf3d 5841 9a3e
00000040: b810 75be 376f e3bc 8f48 c43d ea98 fbbe
00000050: 1bfe 5e3e 3657 f83e 20db c8be 2a5f 0bbf
00000060: a80d c03e 402f 09be 4697 a7be 2096 1dbd
00000070: abe9 163f f400 c83e f198 73bd 6e88 07be
00000080: dbe1 07be 52b1 e1be 4cb0 a5bd c215 023e
00000090: 8508 b7be 9ead ce3e 0a85 b63e fae5 28be
000000a0: 23ab 5cbd 1ed3 493e 8b0c 913e c053 d1bd
000000b0: fed6 af3e 3132 12bf 932d 9c3e 0081 a03d
000000c0: fd5a e4be 5999 3a3e 099e 08bf 1445 14be
000000d0: 9273 5dbe 4a95 9f3e de88 0dbf d80b a2be
000000e0: c4e9 063f 7e0c 413e 2ab8 223e 488e 983e
000000f0: 28bf 91be e381 9f3e 50cc 4c3e 1850 e3bd
00000100: 0701 9c3c c9a1 ae3e ced6 2f3e 6183 07bf
00000110: 5c1d 1abf 969c f73e a43b e3be e062 6abe
00000120: 917d b93e c21b 17be b342 a43e bc67 3cbe
00000130: 5861 a6bd 47a9 9cbe e5d3 553e a59d 053f
00000140: da83 dfbe a0a9 55be cc84 22be 9f04 893e
00000150: dc16 05bf 9a67 a53e 58a2 cf3d a0be 8fbc
00000160: 2e88 b23e 720b 703e 4e68 6dbe b282 1fbe
00000170: 60b4 5a3d bd66 713e 9856 8b3d aca1 0bbf
00000180: 5f02 3bbe 63ce 52be 596a 88be 88a2 0cbf
00000190: 2377 693c b0fd 7f3e 35cf 0fbf ae1d 14be
000001a0: 921a 59be 52e5 86be 57da 603e 0a11 db3e
000001b0: 6820 abbd cec9 95bd d9c9 fb3d 9894 5d3e
000001c0: c0d2 abbc aad8 a4be 1f32 f8be 7286 f7be
000001d0: 004c 333b f07f 69be 43aa f03e 70de 49bd
000001e0: 1e7a 4f3e 4cd9 dbbe 178c 233e 4440 be3e
000001f0: c422 6cbe a21b 023f e01e cc3d f8cd 19bf
00000200: d040 903d 6196 f13e 98d0 c2bd a85f ccbe
00000210: f6ae 0cbe 7b89 fbbe 128e 33be 7815 dcbe
00000220: 186e 07bf 4d83 033f ced2 4dbe 5cf2 683e
00000230: 38e5 f9be bfce b4be 68ab 7f3e 2801 f6bd
00000240: 094b 1d3e cc88 16bf 8ed1 14bf 5f09 00bf
00000250: 7a6e 04be 664c da3e c8e2 ddbe 589d f5be
00000260: 6ca2 33bd e574 cb3d cd70 5b3e 982b 1cbe
00000270: 40d4 fcbd 2fcd 8a3e 64ba 9dbd dfd8 0abf
00000280: 9c39 c1bc 40fe a8bd da36 10bf 8616 27be
00000290: 6451 fcbe 76c7 963e 72e9 0e3d 2ebd c83e
000002a0: a701 233d 6fc6 943e 22fe b33e f074 903d
000002b0: a672 993e c592 06bf 3020 7d3e 4abb 863e
000002c0: 5f3e d03d f77b 2f3d 60e4 53be 9357 a3be
000002d0: 581e b33e 5a92 81be 9b0a d13e 98a9 203e
000002e0: 3c4d 6d3e 360a 9b3e 388b fcbd 04cd 18be
000002f0: f618 f43e 70d7 e3ba 2a25 2fbe 4095 babc
00000300: 0889 10bf 2f1c 5f3e 136b 523e 7ef9 0cbf
00000310: dae9 dc3e 30f5 4d3d e862 22be 2db9 afbe
00000320: bcb0 1bbf 4cca 683e abf4 e13e 1008 1cbe
00000330: a8a1 c6be 964e dabe df4a c63e 609e edbc
00000340: 4e62 9e3e 8b0c db3e d0a9 c7be b879 413e
00000350: dd16 e53e ca24 ce3e c291 a83e e64a a83e
00000360: a518 073f b20d 043e 5a82 9dbe 20c5 13bd
00000370: df0a 103f be59 0c3e 9467 13be 30a8 d4bd
00000380: 72b0 06bf c4dc 8f3e fcf8 bcbe a449 db3d
00000390: ed48 8abe 2e49 d73e 1684 a1be a138 0b3f
000003a0: 5275 103f 84b3 c53e d2a4 12bf 8213 9e3e
000003b0: e001 5bbe ae06 4abe 31d0 9bbe 92e3 cc3e
000003c0: fe93 80bc 52f9 9a3d d7e2 de3d 4cad bcbe
000003d0: 083f 873d 6866 4d3e 5580 a93e 00dc 743e
000003e0: f6e0 16bf d910 953d c1d7 9f3d a22c bd3e
000003f0: 2c95 3b3e 8240 e23e 7de5 e4bd 3038 11bd
0.13496527 0.20930023 0.020208359 0.22295375 0.519037 -0.11741924 0.54778147 0.47077674
0.18878576 0.4281365 -0.45258257 -0.45476913 0.5633288 0.5036526 0.09339851 0.30127978
-0.23932159 -0.027762992 0.09584152 -0.49140102 0.21776621 0.48504037 -0.3922968 -0.54442084
0.3751042 -0.1339693 -0.327326 -0.03847325 0.589503 0.39063227 -0.05947203 -0.13235638
-0.13269751 -0.44080597 -0.080902666 0.12703612 -0.35748687 0.40366834 0.35648376 -0.16493979
-0.053874146 0.19709441 0.28329882 -0.10221052 0.34343714 -0.57107836 0.3050352 0.07837105
-0.4460067 0.1822256 -0.5336614 -0.14479476 -0.21626118 0.31168586 -0.5528697 -0.3164966
0.5270045 0.18852422 0.15890566 0.29796052 -0.28466153 0.31153783 0.19999814 -0.11099261
0.019043459 0.34107807 0.17171785 -0.52934843 -0.6020105 0.48361653 -0.4438144 -0.2288928
0.36228612 -0.14756683 0.32082137 -0.18398947 -0.081240356 -0.30597898 0.20881613 0.5219367
-0.43655282 -0.20865488 -0.1587097 0.26761338 -0.51988006 0.32305604 0.101383865 -0.017546952
0.34869522 0.23441866 -0.2318432 -0.155772 0.053394675 0.23574348 0.06803626 -0.54543567
-0.18262623 -0.20586543 -0.26643637 -0.54935503 0.014249596 0.24999118 -0.5617555 -0.14464447
-0.21201542 -0.26346833 0.2195829 0.42786437 -0.083557904 -0.07313882 0.12294359 0.21638715
-0.020974517 -0.32196552 -0.4847574 -0.4834476 0.0027358532 -0.2280271 0.470049 -0.0492844
0.20261428 -0.42939222 0.15971409 0.37158406 -0.23060137 0.50823414 0.099668264 -0.6007991
0.07043612 0.47185043 -0.09512442 -0.3991673 -0.13738617 -0.49128327 -0.17534664 -0.4298513
-0.52902365 0.51372224 -0.20099947 0.22748703 -0.48807693 -0.35313985 0.2496773 -0.12011939
0.15360655 -0.58802485 -0.58132255 -0.500143 -0.12932768 0.42636412 -0.43337083 -0.47971606
-0.04385607 0.09934405 0.21429749 -0.15251005 -0.12345171 0.27109668 -0.07701567 -0.5423717
-0.02358704 -0.08251619 -0.56333697 -0.16317186 -0.49280846 0.29449052 0.0348906 0.39206833
0.039796498 0.29057643 0.35154825 0.07053554 0.29970282 -0.525677 0.2471931 0.26314765
0.10168146 0.04284283 -0.20692587 -0.3190275 0.34984088 -0.2530697 0.40828404 0.15689695
0.23173994 0.30281228 -0.12331241 -0.14921957 0.47675294 -0.0017382931 -0.1710402 -0.022776246
-0.56459093 0.21788095 0.20548658 -0.55068195 0.43147165 0.050282657 -0.15858042 -0.34320965
-0.6081655 0.2273342 0.4413198 -0.1523745 -0.3879521 -0.4263808 0.38728997 -0.029006183
0.30934376 0.42783007 -0.38996744 0.18894088 0.44744006 0.40262443 0.32923704 0.32869643
0.5277198 0.1289585 -0.30763513 -0.036076665 0.5626659 0.13706109 -0.1439498 -0.10383642
-0.52612984 0.28098118 -0.3690871 0.10707405 -0.27008763 0.4204802 -0.31546086 0.54383284
0.56429017 0.38613522 -0.57282746 0.30874258 -0.21387434 -0.1972911 -0.30432275 0.40017372
-0.015695568 0.07567085 0.1088311 -0.36850965 0.06603819 0.20058596 0.33105722 0.23912048
-0.58937013 0.07278604 0.07804824 0.36948115 0.18318623 0.4418984 -0.11176584 -0.035453975

fc_layers.0.bias f4 [128]
00000000: ffab 86be f285 cabd 2279 61be dbd2 ecbc
00000010: 86cd 41be e5de b3be 863f 0bbd 517f 8fbe
00000020: 0aea 10be 0bdf f1bd 4582 51be 9fc0 55be
00000030: 8c94 97be d29b 1cbe debc 333d 0063 f2bd
00000040: dad9 9ebd 7763 29be 33fb 20be 7233 93be
00000050: 886c 9dbe 0142 25be 98be 49be 40eb bebd
00000060: a390 52be 2d70 913c bdbb 9dbe 7e9c a53c
00000070: 3ffd 39be 12fc 1b3e 0849 8ebe 20d6 0bbe
00000080: 6fec e6be 4b18 3dbd 8b15 6cbe cbcf 38be
00000090: d641 bdbe 4125 00be 9643 6cbd 6902 afbe
000000a0: da1b 23bd 9982 8ebe 6bc1 78be d78d 0fbe
000000b0: 6acb d3bd 93b8 c5bd 6df0 23be f975 b2be
000000c0: daa2 fbbc 19f6 89bd bfbd 39be 6607 e4bd
000000d0: 6ef0 82be b4ab 6dbe ced8 8d3c 52d2 07be
000000e0: 5979 72be 8f45 a8be 5a3a cdbd 8417 1ebe
000000f0: aa20 953b 9366 28be e940 9abe d2eb 4abe
00000100: b595 b3bd 8b37 afbe aeb7 56bd 61a8 82be
00000110: ba27 263e 88ed f7bd 189b 0bbe cd87 a9be
00000120: 7557 69be 6acc acbd 4367 84bd d8d6 98bd
00000130: 4186 64be 0b95 d4bd 17fd 27be 0040 8fbe
00000140: 269b 42be 12ce 95be d384 79be 9d2d 83be
00000150: 3c04 6fbe da3d 25be 69a5 67be 3741 92bd
00000160: 2885 9fbe 93fd 2bbe 7e97 0fbd 7fce ecbe
00000170: 2ce6 30be 3ec8 bbbd 7f02 b3bd fe8a bebe
00000180: d5df d6bd 6813 8fbd 54ad 6bbe 89f5 1abd
00000190: bd6c 3fbe ba81 97bd ae3c 2cbe fa07 d4be
000001a0: d884 7ebe 2bf4 4ebe 8904 adbd 8c39 31bb
000001b0: 4720 0fbe 6139 f23d e3e4 e93b 3a7f a0be
000001c0: 7b65 9cbe 2f2f 51be abdb 9abe ddb4 a1be
000001d0: 85f1 3cbe 1a32 28be 991b 77be 9259 e4bd
000001e0: 748e abbe 7986 c4be 535d 99be d923 49be
000001f0: b6c0 84be d7e3 09be c934 24be 5181 8dbe
-0.26303098 -0.09888829 -0.22018865 -0.028909137 -0.18926057 -0.35130993 -0.033996128 -0.28026822
-0.14151779 -0.1181012 -0.2045985 -0.2087426 -0.2960552 -0.15293816 0.04388129 -0.11835289
-0.07756396 -0.16541849 -0.15720825 -0.28750187 -0.30746865 -0.1613846 -0.19701612 -0.09322214
-0.20562987 0.017753685 -0.30807295 0.020216223 -0.18163012 0.15232876 -0.27790093 -0.13655901
-0.4510226 -0.046165746 -0.23055093 -0.18048017 -0.3696429 -0.12514211 -0.057681642 -0.34181526
-0.039821483 -0.27834013 -0.24292533 -0.14018951 -0.103415325 -0.09654345 -0.16009684 -0.3485563
-0.030717302 -0.067363925 -0.18138789 -0.11134224 -0.25574058 -0.23210031 0.017315295 -0.13263825
-0.23679103 -0.3286557 -0.10020895 -0.15438658 0.004551013 -0.16445379 -0.30127648 -0.19816521
-0.08768789 -0.34222063 -0.052421264 -0.25519088 0.16226092 -0.12105852 -0.13633382 -0.3311142
-0.22787268 -0.084374264 -0.06465008 -0.07462853 -0.22316839 -0.1037999 -0.1640514 -0.27978516
-0.19004497 -0.29258782 -0.24367075 -0.25620738 -0.23341459 -0.16136876 -0.22621693 -0.07141345
-0.31156278 -0.1679595 -0.035056584 -0.46251294 -0.17275304 -0.091690525 -0.087407105 -0.37215418
-0.10491911 -0.06986123 -0.23015338 -0.037831817 -0.18693824 -0.0739779 -0.16820022 -0.41412336
-0.24855363 -0.2021033 -0.08448131 -0.0027042357 -0.13977157 0.118273504 0.007137881 -0.31347066
-0.30546173 -0.20428155 -0.30245718 -0.315833 -0.18451507 -0.16425362 -0.24131621 -0.11149897
-0.3350712 -0.38383844 -0.29954013 -0.19642581 -0.25928277 -0.1346582 -0.16035761 -0.27637723

fc_layers.3.weight f4 [64, 128]
00000000: 1efe cd3d e754 33be d4e1 0fbe abe6 44be
00000010: 929f d5bd 270e 883d 09ab 753c b9bc b9bc
00000020: c4a2 3a3d 9858 c3ba 424c 84bd 15cb abbd
00000030: 223d 89be ad3a 4abc aa47 a3bd d7da 28be
00000040: 41a2 7d3d c874 75bd 5b6b 9b3d 8bac 19ba
00000050: 845f 65be 91a6 bc3c 5a4a c93b bc2b f0bd
00000060: 1260 85bd 0e54 2abe 60f5 d5bd c5e1 dbbd
00000070: bffc 18be 4436 bdbd d0e0 d83d 4b83 32bd
00000080: c9b6 cb3d d8fd 30bd 03cc f5bd 5257 b03d
00000090: d4f0 eebd a8f0 4fbe ac10 8d3d 6305 6ebe
000000a0: 2986 aebd 9947 59be da16 5dbe bfe8 93bd
000000b0: 66cb 02be 9880 893c 88bb 013d 0c93 a5bd
000000c0: 80a3 0abd 449b 2cbe b90f 033e e18c 8bbd
000000d0: 4642 b03d 474c 4ebe 9070 4fbe 0174 bb3d
000000e0: 8c3e 66be 288a 2dbe 9465 3dbe 2dfc 223e
000000f0: a7a8 c43d ccf6 20be 9678 00be 55cb 563d
00000100: d360 4abe 8567 183d 25cc 78bd c020 bdbd
00000110: 6016 58be 3df0 e1bd 8aa8 6b3d b683 4f3e
00000120: c012 adbd 27a1 06bd 4ffa 46be ffbb 61be
00000130: a4bc 94bc 9187 e13d 682d 94bd f844 bd3d
00000140: 03b2 53be b0bc 313d 331c 093e 24ce 20be
00000150: 3a3b 073e 18d0 24be a906 a6bd 6783 283d
00000160: e4b6 85bd d734 47be 481b a33d b064 7dbd
00000170: b85d 51bd a254 c6bd c32a e1ba 0378 c7bd
00000180: 04bd 553b 1378 14be 9836 59be b280 8d3d
00000190: f007 0e3e 4168 393d d460 8fbd 2bf2 2b3e
000001a0: 2eb6 87be acf3 41be a3c9 38bc f5e1 5e3d
000001b0: ef6c b9bd 4de2 e6bd a303 84bc 3a60 cd3d
000001c0: 00a2 3fbe 135e 30bd dee4 20bd 9923 72be
000001d0: d9af 30be 80fc 22bd 3b9f 2fbe 1a53 6bbe
000001e0: 3f02 143e f191 ee3d 2ce3 96bd 9f52 d2bd
000001f0: a667 5cbe effd 54be 326f f5bd 145f 37be
00000200: 26ff 82bd 3c88 8a3e 5a03 6dbd 9961 f73d
00000210: 2fe5 943e 6593 41bd 80be 15bc d91a 293d
00000220: 96f4 8dbe 6085 35bd 0f6a 36be 09ee 8ebd
00000230: d71b d9bd 95cc 213e a36b de3d 7ac9 34be
00000240: fe7c 14be 4f3b 253e bd6e 3abe 77b7 b0bd
00000250: 8b1b e6be 89ad 703e f211 95bd c991 633b
00000260: 7f7e 55be 0b8d f23c dba1 e93d c42e 62be
00000270: 9b0c 133e 1975 2b3e 35d3 27be cb7e 4fbe
00000280: f456 513d e347 1fbe dc62 fabd 2d47 74be
00000290: bd7e a4be 5b75 19be 4147 b0be 8183 32be
000002a0: f041 7abd 7b75 ddbe 2972 87bc 59f7 333e
000002b0: 51f9 43be 2b7a 92be 27b8 77bd ea77 76be
000002c0: 7e04 d4bd 5ca7 413e 0714 cd3d fec1 96be
000002d0: 1055 1c3e 04eb b23d a04b 59bd 94f9 cfbd
000002e0: 4317 523e 8fd5 64be a936 5abe 4090 703e
000002f0: ffe5 3d3e 6b20 abbe 9ece 28be 1c34 333c
00000300: 6302 a2bd 502c 863c 6731 08be 9f19 a9bd
00000310: 4cba abbe 292a c7bd dd74 a1be e90a 153e
00000320: 21e9 9cbd 2218 95bd 0ff5 a9bc ca57 43be
00000330: 87f1 d9be 468a 6ebe d224 b3bd e989 3fbd
00000340: cdfa 3cbe 7fb6 693d 96f3 67be 1162 62be
00000350: f139 c4be b0dd 3d3d dee6 5cbe 08f7 8dbe
00000360: f857 a4bd 529e 6ebe f849 263e 70c6 d7bd
00000370: 2395 ddbb 728d 903e 669b 55be ab14 173d
00000380: 4d73 0e3e 69db 58be ffc6 153e 46b7 043e
00000390: 333f 8cbd b38e 473c a1a5 293e 1679 a53d
000003a0: a79d 7abe 01bb 433d a328 5fbd e123 a9be
000003b0: e2b5 01be f7aa 1fbe 390a 6b3e 7385 3bbe
000003c0: 1dbe 30be 68ed 903d d086 85be f452 5fbe
000003d0: b73b d5bd 1dc5 e0bd c016 f23c ae70 83bd
000003e0: 5f28 143e f87c 9c3d 7dc2 63be 9511 2cbe
000003f0: 6d91 d53c b6e4 553e b0f2 b5bc e079 a5be
0.10058235 -0.17512856 -0.1405099 -0.19228618 -0.10430826 0.06643324 0.014994391 -0.022672998
0.04556538 -0.0014903722 -0.064598575 -0.08388344 -0.26804453 -0.012343091 -0.07972653 -0.16489731
0.061922316 -0.059925824 0.07588836 -0.0005862198 -0.22399718 0.023028644 0.0061428966 -0.11727092
-0.065124646 -0.16633627 -0.10447192 -0.107364215 -0.14940165 -0.09238866 0.105897546 -0.043582242
0.09946973 -0.043210834 -0.12001803 0.08610405 -0.11667028 -0.20306647 0.068879455 -0.23244242
-0.08521683 -0.21218719 -0.21590748 -0.07222127 -0.12772903 0.016784951 0.031672984 -0.080846876
-0.033847332 -0.16856104 0.12798966 -0.0681398 0.08606391 -0.20146285 -0.20257783 0.09152985
-0.22484797 -0.16947234 -0.1849578 0.1591651 0.096024804 -0.15719146 -0.12546 0.052440006
-0.19763498 0.0372081 -0.060741562 -0.09234762 -0.21102285 -0.1103215 0.05753378 0.20265087
-0.08450842 -0.03286853 -0.19431423 -0.22044371 -0.018156357 0.11012185 -0.07235223 0.0924167
-0.20673375 0.043392837 0.13389663 -0.15703636 0.13206187 -0.16095006 -0.08106739 0.04114094
-0.06529024 -0.1945375 0.07964188 -0.0618636 -0.051114768 -0.09684111 -0.0017178882 -0.09739687
0.0032613883 -0.1449893 -0.21212232 0.06909312 0.13870215 0.04526544 -0.070008904 0.16791598
-0.2650618 -0.1894061 -0.011278543 0.05441471 -0.090539806 -0.11273632 -0.016115015 0.100281194
-0.18714142 -0.043058466 -0.039280765 -0.23646392 -0.1725458 -0.039791584 -0.17150585 -0.2298092
0.14453982 0.1164893 -0.07367548 -0.10269665 -0.21523914 -0.20799993 -0.119840994 -0.17907363
-0.06396322 0.27057064 -0.057864524 0.12079162 0.29081103 -0.047259707 -0.009139657 0.04128537
-0.27725667 -0.04431665 -0.17813896 -0.06978995 -0.10601013 0.15800698 0.10860374 -0.17654982
-0.14500806 0.16135906 -0.18206306 -0.08628743 -0.4494289 0.23503698 -0.072788134 0.0034724346
-0.20849036 0.02960827 0.114078246 -0.22088152 0.14360277 0.16743888 -0.16389163 -0.20263211
0.051108316 -0.15554766 -0.12225887 -0.23855276 -0.32127944 -0.14986174 -0.34429362 -0.17432977
-0.06109804 -0.43253693 -0.016533928 0.17574824 -0.19138075 -0.28608832 -0.060478356 -0.24069181
-0.10352419 0.18911499 0.100135855 -0.2944488 0.15266824 0.08736232 -0.053050637 -0.10155025
0.20516686 -0.22347091 -0.21309914 0.23492527 0.18544768 -0.3342317 -0.16485068 0.010937717
-0.079106115 0.016378552 -0.13300095 -0.0825684 -0.3354057 -0.09724838 -0.31534472 0.14554943
-0.07661653 -0.072799936 -0.020746736 -0.19076458 -0.42567083 -0.23294935 -0.08747257 -0.04676238
-0.18455048 0.057058807 -0.22651514 -0.22107722 -0.38325456 0.046353996 -0.21572444 -0.27727532
-0.08024591 -0.23302582 0.16239154 -0.10535896 -0.0067621632 0.28232914 -0.20860061 0.036884945
0.13911171 -0.21177448 0.14626692 0.12960538 -0.06847992 0.012180018 0.16567089 0.08079736
-0.24474202 0.047785763 -0.054482114 -0.33035186 -0.12667039 -0.15592562 0.22953118 -0.18312626
-0.17260022 0.07076532 -0.26079416 -0.21808988 -0.1041178 -0.109750964 0.029551864 -0.06417976
0.14468525 0.076410234 -0.2224216 -0.16803582 0.026070321 0.20888028 -0.022210449 -0.32319546

fc_layers.3.bias f4 [64]
00000000: 0bf2 a0bd 7a52 10bd b524 c03d 3ea2 94bc
00000010: 3501 02be 971e 0e3e d323 14bd 45f5 1bbe
00000020: 8dda 8d3a 6409 943e 4565 483a 82de 9d3d
00000030: e63e c5bc 5544 ecbd aae1 13be 2e3a fb3d
00000040: ce48 293e 30c1 34be aff6 963c bba7 213d
00000050: fa3e 863d 09f0 143e 1d91 a6bd e9dc 13bd
00000060: 0b3a 46be d206 80ba 1305 943d 2eec 133d
00000070: bae7 f3bd 832b 8f3d 20c1 01be 75bc 2c3e
00000080: aa22 993d f20c dd3d 544e acbd dde0 45be
00000090: a54a 97bd e156 e33d f271 af3d 9da7 903d
000000a0: 97e3 55be d934 933b 25cd 4d3e dd63 3ebe
000000b0: 6139 35be 4892 12bd dcf3 64bc 7b59 2d3e
000000c0: 8d62 8ebd 6702 5d3d 5441 343d 12e6 043d
000000d0: 08e0 31be 3992 e43b fa9a fcbc 4292 6b3d
000000e0: 8e00 193e 9f8f 87bd bb2f 77bd 957f 783d
000000f0: 7e0c 52be f200 d43c c591 3c3d 46a6 f93d
-0.07858666 -0.035234906 0.09382001 -0.01814377 -0.12695773 0.13878857 -0.036166977 -0.15230282
0.001082258 0.28913414 0.0007644485 0.077084556 -0.024077844 -0.11536471 -0.14441553 0.12266956
0.16531679 -0.1765182 0.018428175 0.0394666 0.065549806 0.14544691 -0.08133147 -0.03609935
-0.19358079 -0.0009767658 0.0722753 0.03611391 -0.11909433 0.06990721 -0.12671328 0.16868766
0.07477315 0.10793485 -0.084133774 -0.1932406 -0.07387284 0.11100555 0.08566655 0.0706322
-0.208876 0.004492384 0.20097788 -0.18592782 -0.1769767 -0.035784036 -0.013974156 0.16928665
-0.06952391 0.05395737 0.044007614 0.032445975 -0.17370617 0.006975439 -0.030835617 0.05751253
0.14941618 -0.066191904 -0.060348254 0.060668547 -0.20512578 0.025879357 0.046037454 0.12189917

fc_layers.6.weight f4 [32, 64]
00000000: e517 5e3e 963e b6bd ca33 81be 65fe 4f3d
00000010: 2e2f d3bc 988c 7e3d 697b 483e fa1f 793e
00000020: 3dcf 43be f6c3 87bd 59b0 9ebd 7a45 933e
00000030: 6412 29bc b81d 4dbe 72ab 103c 8c5f aebd
00000040: feee af3d 8632 b93c 68fc 5ebd 762e fbbc
00000050: 5629 693e 6165 65be 2578 a7bc 2439 0ebe
00000060: 0103 78be 699e 86be 6aa1 edbd 0a78 133c
00000070: 72bf 89bc f369 e1bd 5a06 93be 43af 613d
00000080: 558a 903b 2441 2cbe 3fa6 6f3e f096 60be
00000090: 57b3 52be 75a0 bc3b cfad d9be cd5b abbe
000000a0: 5985 68be e1a5 ba3d b4fb 84be 85fb 89be
000000b0: 11d5 d63d 51d1 4abe 12eb fcbd b25c 9c3e
000000c0: a49f 093e 9cd7 f2bd 1640 36be 86db 143e
000000d0: 5608 06bd 1f1a 81be 569d 153e 0ec4 86bb
000000e0: 0344 d4be 7724 3abd 14c1 9e3d 3813 a2be
000000f0: 3dd9 3b3d a71d ba3b 8744 e3bd b538 85be
00000100: 173d 3fbe 30e9 253d f753 74be 755e 96be
00000110: 5045 21be 3a8c b93c bdd8 813e 9260 6b3e
00000120: 612b 1bbe 8002 f1bd 3206 463e 4057 d83d
00000130: 3c81 97be 68d4 78be 04c0 87be 57c2 68be
00000140: 4771 c3bd 475d 1cbe eb7b 3d3b 2d09 2f3e
00000150: aa19 f43c d29f 5ebe 862f 7abe c251 59be
00000160: a4ff cd3d 6616 54be 1e03 43bd a314 79be
00000170: 9343 9bbe 2585 de3c d0a8 d7bd cbe4 9dbe
00000180: fadb 3cbe 6166 83bc 83cb 2fbd 29be 86bb
00000190: 79e6 333e efd3 79bd 957c 8fbe 8170 0c3d
000001a0: a5f2 dfbd d0c9 f73d 14e2 2cbe b13c 283e
000001b0: b221 783e 8dfc cc3d f434 0dbe f711 64bd
000001c0: 8b83 423e f509 cbbc 3700 21be 7ee4 90be
000001d0: 7ecc 74bd 97b7 333e 0a68 fbbd 67f2 0abd
000001e0: 5d62 5dbe 5e96 6cbb 0de9 c03c 6294 c9bd
000001f0: f629 6b3e 345e 6c3d 4ee0 2c3d b782 56bd
00000200: 5bd6 7ebe 74ce ecbe 9c8d 6dbe 21be 6d3d
00000210: 4212 28be b915 0ebf 05e4 98be c988 873e
00000220: e6f8 b23e c471 703e 466b 02be 9b7d 95be
00000230: 744e 4cbe 23a0 a13c 359f a33c 23ee 23be
00000240: 6d1d ddbe 5634 253e d9f7 293e b680 a83e
00000250: c98a c7be b263 b1be 2676 efbd b925 1bbe
00000260: ded9 99be f4e9 c0be f91c 01be d93d 3abc
00000270: ba35 b2bd aabe bbbe fa22 fe3d 9841 8ebe
00000280: 9928 82be 3cab 4fbe 2492 31be 3e5f 8dbe
00000290: 2eea 25be 3c13 37be 64c5 34be 08fa 903d
000002a0: 9674 e93d 2bb4 a7be 5a7d d4be a5e6 63bd
000002b0: fb34 7f3e a021 de3b 2e54 63bd 26d6 a7be
000002c0: ff68 4bbe 3458 133c 5686 7ebd cb45 3cbe
000002d0: 242a ab3d 6749 91bc b0a1 a2be 40eb 97be
000002e0: 8b5e 14be 9d6f 533e dab9 e1bd 942a c6be
000002f0: 7e11 f7bd 6af5 a0be 0544 c6be c93f 97be
00000300: 3a32 3c3d fd69 a8be 7825 b6bd cb5d 85bd
00000310: 562a 613e 6937 b23d ea05 823e 2a1f 1ebd
00000320: d05e dfbd 42bb 89bd 48d4 283e 3297 33be
00000330: 3d7b 0fbe 3440 e73d 67cf 73be f01b d3bd
00000340: 03ba 6ebe d0dd cc3d d0ad c6be 8c45 fc3d
00000350: 8544 053c 2e45 103d 1f4a f23d 4798 1ebe
00000360: 1025 7ebe c77a b4bd c378 c43c 6cd1 d03e
00000370: fd4b 21be ac72 e9bd 5bac 44bd 2fb4 153d
00000380: 2eb6 243d f2b1 a9bd ea3a bfbb 1f46 a5bd
00000390: 72f0 fe3b ba8c 98bc 05f9 27be 42fa 293d
000003a0: a999 87be 0385 bebd 5d9c afbe c121 903d
000003b0: 8ef0 e63c 6f44 673e 5df3 3a3d 69b6 0dbe
000003c0: 8a27 82bd 121b f6bd d7f5 a7be 2fb9 6fbe
000003d0: f441 b53b 677e 38be 09c1 60be cfc4 583e
000003e0: df0b b63e 2300 923e 9725 1b3e 9720 30be
000003f0: 1091 5e3e c6b2 30be 55bc f9bd 7867 3bbe
0.21688803 -0.08898656 -0.25234824 0.05077972 -0.025779333 0.0621458 0.19578327 0.24328604
-0.19122024 -0.066291735 -0.077484794 0.28763944 -0.010319326 -0.20030868 0.008829938 -0.08514318
0.08590506 0.0226071 -0.054439932 -0.030661803 0.22769675 -0.22401954 -0.020443032 -0.13888985
-0.24219896 -0.26292732 -0.11603053 0.0090007875 -0.016814921 -0.11006536 -0.28715783 0.055098783
0.0044110217 -0.16821724 0.23403262 -0.21932578 -0.20576225 0.0057564327 -0.42515418 -0.33468476
-0.22707118 0.0911367 -0.25973284 -0.26949707 0.10489858 -0.1980641 -0.123495236 0.3053947
0.13439804 -0.118575305 -0.17797884 0.14536867 -0.032722794 -0.2521524 0.146108 -0.004112727
-0.4145814 -0.04544493 0.077516705 -0.31655288 0.04586147 0.0056798044 -0.11097055 -0.26019827
-0.18675648 0.040505588 -0.23860155 -0.2936894 -0.15749097 0.022649873 0.2536067 0.22986057
-0.15153266 -0.11768055 0.19338301 0.105635166 -0.29590786 -0.24299777 -0.26513684 -0.22730385
-0.0954309 -0.15269957 0.0028912972 0.17093344 0.029797394 -0.21740654 -0.24432191 -0.21222594
0.10058525 -0.2071167 -0.047610395 -0.24324279 -0.30324993 0.027163098 -0.10530245 -0.30838618
-0.1844329 -0.016040029 -0.042918693 -0.0041120243 0.17568387 -0.06099313 -0.28024736 0.03428698
-0.10934953 0.120990396 -0.16883117 0.16429402 0.24231604 0.10009108 -0.13789731 -0.055681195
0.18995492 -0.024785021 -0.15722738 -0.28299326 -0.05976533 0.17550503 -0.12275703 -0.03392258
-0.21619554 -0.0036100368 0.023548627 -0.09842755 0.22965226 0.057707027 0.0422061 -0.052370753
-0.24886458 -0.4625126 -0.23198551 0.05804265 -0.16413215 -0.55501896 -0.29861465 0.26471546
0.3495552 0.23480898 -0.12736234 -0.29197392 -0.19951802 0.01972968 0.019973377 -0.1600881
-0.43186513 0.16133246 0.16598453 0.329107 -0.38973072 -0.34646374 -0.11692457 -0.15151109
-0.30049032 -0.37678492 -0.12608708 -0.011367285 -0.08701654 -0.36668903 0.12409015 -0.2778442
-0.254216 -0.20280164 -0.17340904 -0.27611727 -0.16202614 -0.17878431 -0.17653424 0.0707894
0.1139919 -0.32754645 -0.41501886 -0.05563988 0.24922554 0.0067789108 -0.055500202 -0.3278057
-0.19864272 0.008993197 -0.06213983 -0.18385999 0.08357647 -0.017735196 -0.31763983 -0.2967167
-0.1448919 0.20648046 -0.110217765 -0.3870436 -0.12063883 -0.31437236 -0.3872377 -0.29540852
0.045946337 -0.32893363 -0.08893865 -0.0651203 0.21988806 0.08701975 0.25395137 -0.03860394
-0.10906756 -0.0672517 0.16487229 -0.17538145 -0.14011855 0.11291543 -0.23809586 -0.10308063
-0.23313145 0.10003245 -0.38804483 0.123179525 0.008134012 0.035222225 0.11830544 -0.15487777
-0.24818826 -0.088124804 0.023983365 0.40784776 -0.15751643 -0.11398825 -0.048015933 0.03654879
0.040212803 -0.082858935 -0.0058358805 -0.08070015 0.007780128 -0.018621791 -0.16403587 0.04149843
-0.2648442 -0.09302714 -0.34298983 0.07037688 0.028190877 0.22584699 0.045642246 -0.13839115
-0.06355198 -0.12016882 -0.32804748 -0.23410486 0.005531544 -0.18016969 -0.21948637 0.21168827
0.35555932 0.2851573 0.15151058 -0.17199932 0.21735024 -0.17255697 -0.121941246 -0.18301189

fc_layers.6.bias f4 [32]
00000000: 7197 84bd 928c adbe fae0 9e3d 9a4b 4dbd
00000010: eb1d 903e 1daa ccbe 10ba 1bbe c12c adbd
00000020: 60b9 6dbe e57b a2bd 5734 b23c 126a 91be
00000030: 06db 213e f74b 123e 027e acbd b632 8e3d
00000040: 9a3b 983e 4d1b 29bd 412b 8dbd 4999 2d3e
00000050: fc70 103f 1db0 8bbe d3b9 1e3e 01b0 643e
00000060: c9f9 fa3d 5b6e cdbe db7b f6bc d9f9 e7bc
00000070: b637 aabd f362 e23e 397b 193f d75b 593e
-0.06474198 -0.3389631 0.077577546 -0.050120927 0.28147826 -0.39973536 -0.15207696 -0.08455802
-0.23215246 -0.07933787 0.021753473 -0.28401238 0.15806207 0.14286791 -0.084224716 0.06943266
0.29732972 -0.0412858 -0.06893016 0.16953005 0.564224 -0.272828 0.15500574 0.22332765
0.12254674 -0.40123257 -0.030088356 -0.028317379 -0.08311407 0.44216117 0.5995365 0.2122644

fc_layers.8.weight f4 [4, 32]
00000000: fafd 13be 0a15 efbd a8bc d4be ab93 8a3e
00000010: 9d2b 273c a490 9cbd 9684 92be d2d6 82bc
00000020: 4632 3fbe 51dd 99be cf29 8d3e d05e bfbd
00000030: 1550 7dbe a36d 01bd 2c83 eabd 4a9c 81bd
00000040: 91c3 da3d 4091 a33c b7eb ab3d b2f5 5d3e
00000050: a629 9e3e 0896 9a3e 1d8b 8dbd b756 063e
00000060: c213 9d3d e273 13be ab57 25bd 2874 f33d
00000070: ad59 c6bc aa21 eb3d 48e3 853e 9116 20bf
00000080: be63 19bf 60eb 21be 62f4 7dbe 1db1 13be
00000090: d770 38bf 8256 97be 2b19 90bd 9895 053d
000000a0: 7836 983a c98d 833d 777a 5c3e 06c4 013d
000000b0: e179 0d3d 4f84 1e3e d8ea 27be 99b1 82be
000000c0: 98f1 4d3e f2f8 bc3c 680f a43d 3ed8 023e
000000d0: b081 963e 4464 cdbc a6f0 2e3e 0300 313e
000000e0: ca5a 4cbe d425 93be bb23 b9bd 49bb 103e
000000f0: b7d0 ccbc ff1f 813e ba6f 7a3e c6d8 6fbe
00000100: 62e9 423d 973b 6bbd ccd6 c3bd 7d2f ff3a
00000110: fef2 b8bd dc14 913e d498 8cbe d309 84be
00000120: b437 f8bd 9541 833c b587 9fbc 40f0 62bd
00000130: aab0 563d 9795 c0bd d123 8dbe f4b0 ac3c
00000140: 3393 18be 7148 14bd 73b5 173e 50ca 6ebc
00000150: 765d 883e 7d10 313e bb19 b23e 3fd7 88be
00000160: cb01 3b3e 7095 46be 3133 6f3d 81c8 1c3d
00000170: e15f 17be 7144 583e cdfc da3e b629 32bf
00000180: 1f51 61be 9837 393d 1135 36bd 7af1 66be
00000190: e78f cbbe 857b 5bbe 6380 17be 4199 4f3d
000001a0: b375 973d bac2 e13c 9153 7e3e 05ae 283e
000001b0: 519b f93d a75a 843c 7f61 8d3e efdd 33be
000001c0: 7711 163e ce66 1d3e 263f 623e f7da 013d
000001d0: bce7 3a3e e967 c93d ca3f 94be 0168 973d
000001e0: 78de e7bc 9db9 b2be 0c60 09be 5316 6a3d
000001f0: 28e8 733e 8d4d 3a3e 96be 343c a8ea 06be
-0.14452353 -0.11673935 -0.41550183 0.27065787 0.010203269 -0.076447755 -0.2861678 -0.015971575
-0.18671522 -0.30051664 0.2757096 -0.09344256 -0.2473758 -0.0315987 -0.114508 -0.06328638
0.106818326 0.019966722 0.083945684 0.21675757 0.3089115 0.3019259 -0.069112994 0.13119017
0.07669784 -0.14399675 -0.04036681 0.118873894 -0.024212683 0.1148103 0.26149964 -0.62534434
-0.5991782 -0.15812445 -0.24800256 -0.14423032 -0.7204718 -0.29558188 -0.070360504 0.032613367
0.0011612913 0.06423528 0.21531092 0.031681083 0.03454006 0.15480159 -0.1639818 -0.2552612
0.20111692 0.023067925 0.08010751 0.12777802 0.2939582 -0.025072224 0.17083988 0.1728516
-0.19956508 -0.28739798 -0.09040018 0.14133944 -0.025001867 0.25219724 0.24456683 -0.23422536
0.047585852 -0.057429876 -0.09562454 0.0019469109 -0.09030722 0.28336227 -0.2746035 -0.25788745
-0.121199995 0.016022483 -0.01947389 -0.0554049 0.052414574 -0.09403532 -0.27566388 0.021080472
-0.14899902 -0.036201898 0.14815311 -0.014574602 0.26633805 0.17291446 0.34785256 -0.2672672
0.18262403 -0.19392943 0.05839843 0.038277153 -0.14782669 0.21119858 0.42770997 -0.69594896
-0.22003601 0.045219034 -0.0444842 -0.22553053 -0.39758226 -0.21433838 -0.1479507 0.050683264
0.07395496 0.027558673 0.24836566 0.16472633 0.121878274 0.016156508 0.27613446 -0.1756513
0.146551 0.15371248 0.22094402 0.03170296 0.18252462 0.098342724 -0.28954917 0.07392884
-0.028304324 -0.34907237 -0.13415545 0.057150196 0.2381903 0.18193646 0.011031767 -0.13175452

fc_layers.8.bias f4 [4]
00000000: d476 5e3e f57e 873e 058d 783e a2a2 ea3e
0.21725017 0.26464048 0.24272545 0.45827204
