output/dqn/model/4x4/10500.pth (torch, 53480 bytes, 8 tensors)

fc_layers.0.weight f4 [128, 16]
0	0x3e0a3456	0.13496527
1	0x3e5652cd	0.20930023
2	0x3ca58c00	0.020208359
3	0x3e644dfd	0.22295375
4	0x3f016125	0.50538856
5	0xbdf07980	-0.11741924
6	0x3f089c55	0.53363544
7	0x3ef109a6	0.47077674
8	0x3e41510e	0.18878576
9	0x3ee5156e	0.44742912
10	0xbee7b8e7	-0.45258257
11	0xbee8d780	-0.45476913
12	0x3f103651	0.5633288
13	0x3f04df50	0.5190325
14	0x3dbf47b8	0.09339851
15	0x3e9a4158	0.30127978
16	0xbe7510b8	-0.23932159
17	0xbce36f37	-0.027762992
18	0x3dacad38	0.08431476
19	0xbefb98ea	-0.49140102
20	0x3e5cfc1a	0.21580544
21	0x3ef85736	0.48504037
22	0xbec8db20	-0.3922968
23	0xbf0b5f2a	-0.54442084
24	0x3ecb483d	0.3970355
25	0xbe092f40	-0.1339693
26	0xbea79746	-0.327326
27	0xbd1d9620	-0.03847325
28	0x3f16e9ab	0.589503
29	0x3ec1582e	0.37762588
30	0xbd7398f1	-0.05947203
31	0xbe07886e	-0.13235638
32	0xbe07e1db	-0.13269751
33	0xbee1b152	-0.44080597
34	0xbda5b04c	-0.080902666
35	0x3e0215c2	0.12703612
36	0xbeb70885	-0.35748687
37	0x3ecead9e	0.40366834
38	0x3eb8084f	0.3594384
39	0xbe28e5fa	-0.16493979
40	0xbd5cab23	-0.053874146
41	0x3e49d31e	0.19709441
42	0x3e8b27cc	0.271788
43	0xbdd153c0	-0.10221052
44	0x3eafd6fe	0.34343714
45	0xbf123231	-0.57107836
46	0x3e94c060	0.2905302
47	0x3da08100	0.07837105
48	0xbee45afd	-0.4460067
49	0x3e4b4702	0.19851306
50	0xbf089e09	-0.5336614
51	0xbe144514	-0.14479476
52	0xbe5d7392	-0.21626118
53	0x3e9f954a	0.31168586
54	0xbf0d88de	-0.5528697
55	0xbea20bd8	-0.3164966
56	0x3f01a2b3	0.50638884
57	0x3e37589a	0.17904893
58	0x3e303bcc	0.1721031
59	0x3e988e48	0.29796052
60	0xbe91bf28	-0.28466153
61	0x3e9e4226	0.30909842
62	0x3e44a497	0.19203411
63	0xbde35018	-0.11099261
64	0x3c9c0107	0.019043459
65	0x3ead7c25	0.33883777
66	0x3e24bfd5	0.16088803
67	0xbf078361	-0.52934843
68	0xbf1a1d5c	-0.6020105
69	0x3ef79c96	0.48361653
70	0xbee33ba4	-0.4438144
71	0xbe6a62e0	-0.2288928
72	0x3eb87f2c	0.36034524
73	0xbe171bc2	-0.14756683
74	0x3ea519a0	0.32246113
75	0xbe3c67bc	-0.18398947
76	0xbda66158	-0.081240356
77	0xbe9ca947	-0.30597898
78	0x3e61fddb	0.22069494
79	0x3f059da5	0.5219367
80	0xbedf83da	-0.43655282
81	0xbe55a9a0	-0.20865488
82	0xbe2284cc	-0.1587097
83	0x3e89049f	0.26761338
84	0xbf0516dc	-0.51988006
85	0x3ea5679a	0.32305604
86	0x3dcfa258	0.101383865
87	0xbc8fbea0	-0.017546952
88	0x3eb2882e	0.34869522
89	0x3e700b72	0.23441866
90	0xbe6d684e	-0.2318432
91	0xbe1f82b2	-0.155772
92	0x3d5ab460	0.053394675
93	0x3e7166bd	0.23574348
94	0x3d8b5698	0.06803626
95	0xbf0ba1ac	-0.54543567
96	0xbe3b025f	-0.18262623
97	0xbe52ce63	-0.20586543
98	0xbe886a59	-0.26643637
99	0xbf0ca288	-0.54935503
100	0x3c697723	0.014249596
101	0x3e7ffdb0	0.24999118
102	0xbf0fcf35	-0.5617555
103	0xbe141dae	-0.14464447
104	0xbe591a92	-0.21201542
105	0xbe86e552	-0.26346833
106	0x3e64bdc4	0.22338015
107	0x3edb110a	0.42786437
108	0xbdab2068	-0.083557904
109	0xbd95c9ce	-0.07313882
110	0x3e05c103	0.1306191
111	0x3e5d9498	0.21638715
112	0xbcabd2c0	-0.020974517
113	0xbea4d8aa	-0.32196552
114	0xbef8321f	-0.4847574
115	0xbef78672	-0.4834476
116	0x3b334c00	0.0027358532
117	0xbe697ff0	-0.2280271
118	0x3ef19ffa	0.47192365
119	0xbd49de70	-0.0492844
120	0x3e4f7a1e	0.20261428
121	0xbedbd94c	-0.42939222
122	0x3e238c17	0.15971409
123	0x3ebe4044	0.37158406
124	0xbe6c22c4	-0.23060137
125	0x3f02428b	0.50882787
126	0x3dcc1ee0	0.099668264
127	0xbf19cdf8	-0.6007991
128	0x3d9040d0	0.07043612
129	0x3ef2c70e	0.47417492
130	0xbdc2d098	-0.09512442
131	0xbecc5fa8	-0.3991673
132	0xbe0caef6	-0.13738617
133	0xbefb897b	-0.49128327
134	0xbe338e12	-0.17534664
135	0xbedc1578	-0.4298513
136	0xbf076e18	-0.52902365
137	0x3f013d11	0.50483805
138	0xbe4dd2ce	-0.20099947
139	0x3e68f25c	0.22748703
140	0xbef9e538	-0.48807693
141	0xbeb4cebf	-0.35313985
142	0x3e844be4	0.2583915
143	0xbdf60128	-0.12011939
144	0x3e13907b	0.14410584
145	0xbf1688cc	-0.58802485
146	0xbf14d18e	-0.58132255
147	0xbf00095f	-0.500143
148	0xbe046e7a	-0.12932768
149	0x3eda4c66	0.42636412
150	0xbedde2c8	-0.43337083
151	0xbef59d58	-0.47971606
152	0xbd33a26c	-0.04385607
153	0x3db33466	0.087502286
154	0x3e694ba8	0.22782767
155	0xbe1c2b98	-0.15251005
156	0xbdfcd440	-0.12345171
157	0x3e92111d	0.2852868
158	0xbd9dba64	-0.07701567
159	0xbf0ad8df	-0.5423717
160	0xbcc1399c	-0.02358704
161	0xbda8fe40	-0.08251619
162	0xbf1036da	-0.56333697
163	0xbe271686	-0.16317186
164	0xbefc5164	-0.49280846
165	0x3e96c776	0.29449052
166	0x3d0ee972	0.0348906
167	0x3ec8bd2e	0.39206833
168	0x3d2301a7	0.039796498
169	0x3e8e8f42	0.27843672
170	0x3eb6aaa0	0.35677052
171	0x3d9074f0	0.07053554
172	0x3e9972a6	0.29970282
173	0xbf0692c5	-0.525677
174	0x3e882dd5	0.26597467
175	0x3e86bb4a	0.26314765
176	0x3dd03e5f	0.10168146
177	0x3d2f7bf7	0.04284283
178	0xbe53e460	-0.20692587
179	0xbea35793	-0.3190275
180	0x3eab0f43	0.3341008
181	0xbe81925a	-0.2530697
182	0x3ec5fc43	0.38669023
183	0x3e20a998	0.15689695
184	0x3e633884	0.22189528
185	0x3e9cbdd4	0.30613577
186	0xbdfc8b38	-0.12331241
187	0xbe18cd04	-0.14921957
188	0x3ef418f6	0.47675294
189	0xbae3d770	-0.0017382931
190	0xbe2f252a	-0.1710402
191	0xbcba9540	-0.022776246
192	0xbf108908	-0.56459093
193	0x3e5f1c2f	0.21788095
194	0x3e526b13	0.20548658
195	0xbf0cf97e	-0.55068195
196	0x3edc8f24	0.43077958
197	0x3d4df530	0.050282657
198	0xbe2262e8	-0.15858042
199	0xbeafb92d	-0.34320965
200	0xbf1bb0bc	-0.6081655
201	0x3e68ca4c	0.2273342
202	0x3ee2c0d1	0.44287732
203	0xbe1c0810	-0.1523745
204	0xbec6a1a8	-0.3879521
205	0xbeda4e96	-0.4263808
206	0x3eca707d	0.39538947
207	0xbced9e60	-0.029006183
208	0x3ea47ed7	0.3212802
209	0x3ed43845	0.4144918
210	0xbec7a9d0	-0.38996744
211	0x3e3cbc2d	0.18431158
212	0x3ed73af8	0.42037177
213	0x3ece24ca	0.40262443
214	0x3ea34e1c	0.3189553
215	0x3ea84ae6	0.32869643
216	0x3f090dc0	0.53536606
217	0x3e040db2	0.1289585
218	0xbe9d825a	-0.30763513
219	0xbd13c520	-0.036076665
220	0x3f100adf	0.5626659
221	0x3e0c59be	0.13706109
222	0xbe136794	-0.1439498
223	0xbdd4a830	-0.10383642
224	0xbf06b072	-0.52612984
225	0x3e6c0751	0.23049666
226	0xbebcf8fc	-0.3690871
227	0x3d9afca2	0.07567717
228	0xbe8a48ed	-0.27008763
229	0x3ed7492e	0.4204802
230	0xbea18416	-0.31546086
231	0x3f0b38a1	0.54383284
232	0x3f070c10	0.5275278
233	0x3ec68c95	0.3877913
234	0xbf12a4d2	-0.57282746
235	0x3e9e1382	0.30874258
236	0xbe5b01e0	-0.21387434
237	0xbe4a06ae	-0.1972911
238	0xbe9bd031	-0.30432275
239	0x3ecce392	0.40017372
240	0xbc8093fe	-0.015695568
241	0x3d9af952	0.07567085
242	0x3dc7a1b3	0.097476386
243	0xbebcad4c	-0.36850965
244	0x3d873f08	0.06603819
245	0x3e4d6668	0.20058596
246	0x3ea01c08	0.31271386
247	0x3e74dc00	0.23912048
248	0xbf16e0f6	-0.58937013
249	0x3d9510d9	0.07278604
250	0x3d9fd7c1	0.07804824
251	0x3ebd2ca2	0.36948115
252	0x3e3b952c	0.18318623
253	0x3ee96593	0.45585307
254	0xbde4e57d	-0.11176584
255	0xbd113830	-0.035453975

fc_layers.0.bias f4 [128]
0	0xbe7f59f6	-0.24936661
1	0xbde0397f	-0.109484665
2	0xbe6f31ff	-0.23358916
3	0xbd23e0c6	-0.040009283
4	0xbe37d675	-0.17952903
5	0xbeb3dee5	-0.35130993
6	0xbcd1012f	-0.02551326
7	0xbe8c7f1d	-0.2744073
8	0xbe16075f	-0.1465125
9	0xbdd1e695	-0.10249058
10	0xbe5466e1	-0.2074237
11	0xbe630a17	-0.22171818
12	0xbe953090	-0.29138613
13	0xbe2a8db4	-0.16655618
14	0x3c5dce66	0.013537979
15	0xbdde52c8	-0.10855633
16	0xbdef2db5	-0.1167864
17	0xbe266b70	-0.16251922
18	0xbe296427	-0.16542111
19	0xbe98c54a	-0.2983802
20	0xbe9d6290	-0.3073926
21	0xbe2a8dc9	-0.16655649
22	0xbe620ede	-0.22075984
23	0xbdaca6de	-0.08430265
24	0xbe5cbe0b	-0.2155687
25	0xbcd7fe6d	-0.026366437
26	0xbea05c39	-0.3132036
27	0x3c50f210	0.012753025
28	0xbe2e5af6	-0.17026886
29	0x3df9a9dd	0.12190602
30	0xbe8fd528	-0.28092313
31	0xbe072610	-0.13198113
32	0xbeec4821	-0.4614878
33	0xbd661e21	-0.056181077
34	0xbe6fd35f	-0.23420475
35	0xbe2be727	-0.16787396
36	0xbeb740d8	-0.3579166
37	0xbe02e53d	-0.1278276
38	0xbd592ce4	-0.053021327
39	0xbeb5e6cc	-0.35527647
40	0xbd06a6d2	-0.032873936
41	0xbe87e031	-0.26538232
42	0xbe72b1b8	-0.23700607
43	0xbe1a2f7a	-0.15057173
44	0xbdb08b52	-0.08620323
45	0xbddf3661	-0.10899044
46	0xbe3b5ff9	-0.1829833
47	0xbeb7f185	-0.35926452
48	0xbd221664	-0.039572135
49	0xbda3ae6b	-0.07992252
50	0xbe33815c	-0.17529815
51	0xbdf0c400	-0.11756134
52	0xbe897541	-0.2684727
53	0xbe6e0fd3	-0.23248224
54	0x3ce01712	0.02735475
55	0xbe11bd31	-0.14232327
56	0xbe832998	-0.2561767
57	0xbead87e5	-0.33892742
58	0xbdd81850	-0.10551512
59	0xbe1e412f	-0.15454553
60	0x3c1d2a8f	0.009592666
61	0xbe307959	-0.1723379
62	0xbeab265e	-0.3342771
63	0xbe52ea5c	-0.20597214
64	0xbe08e3bb	-0.13368122
65	0xbeb642ac	-0.35597742
66	0xbce4814a	-0.027893681
67	0xbe722a75	-0.23649009
68	0x3e12344a	0.14277759
69	0xbdf7ed88	-0.12105852
70	0xbdf81f09	-0.121152945
71	0xbea97f97	-0.33105156
72	0xbe5cb22f	-0.21552347
73	0xbdae7345	-0.0851808
74	0xbda0915d	-0.07840226
75	0xbd8c9a4b	-0.068653665
76	0xbe6b0159	-0.22949733
77	0xbdf85c90	-0.1212703
78	0xbe282b09	-0.16422667
79	0xbe9d182c	-0.30682504
80	0xbe4abc36	-0.1979836
81	0xbe90aa2c	-0.2825483
82	0xbe86b148	-0.2630713
83	0xbe8af202	-0.27137762
84	0xbe60e47d	-0.21962161
85	0xbe055e95	-0.13024361
86	0xbe770440	-0.24122715
87	0xbdb5f9e7	-0.08885556
88	0xbe9cda49	-0.30635288
89	0xbe36339b	-0.17793123
90	0xbd51951b	-0.05116759
91	0xbee8cbcb	-0.45467982
92	0xbe2a07f5	-0.16604598
93	0xbddb30fb	-0.10702702
94	0xbdad4baa	-0.084616974
95	0xbebec97a	-0.3726309
96	0xbde35979	-0.1110105
97	0xbd87cd64	-0.06630972
98	0xbe663438	-0.22480857
99	0xbd8b5b46	-0.068045184
100	0xbe4bf600	-0.1991806
101	0xbda16ecc	-0.07882461
102	0xbe30dfec	-0.1727292
103	0xbec61309	-0.38686398
104	0xbe81b09d	-0.25330058
105	0xbe4fe21c	-0.20301098
106	0xbdefeb17	-0.11714762
107	0xbcc1ede4	-0.023673005
108	0xbe193101	-0.149601
109	0x3dd7e20a	0.105411604
110	0xbc78e343	-0.015190902
111	0xbea30f2b	-0.3184751
112	0xbe9c7067	-0.30554506
113	0xbe6350cf	-0.22198795
114	0xbea10fce	-0.3145737
115	0xbea047ba	-0.31304723
116	0xbe2a25da	-0.16616002
117	0xbe390f49	-0.18072237
118	0xbe8092d0	-0.2511201
119	0xbe00afa7	-0.12567006
120	0xbeaf81b9	-0.34278658
121	0xbec5a0f3	-0.38599357
122	0xbe995d53	-0.29954013
123	0xbe60490f	-0.2190287
124	0xbe8765b0	-0.2644477
125	0xbe08a7fb	-0.1334533
126	0xbe38e8c3	-0.18057542
127	0xbe94d8da	-0.29071695

fc_layers.3.weight f4 [64, 128]
0	0x3dcdfe1e	0.10058235
1	0xbe3354e7	-0.17512856
2	0xbe0fe1d4	-0.1405099
3	0xbe44e6ab	-0.19228618
4	0xbdd59f92	-0.10430826
5	0x3d880e27	0.06643324
6	0x3c75ab09	0.014994391
7	0xbcb9bcb9	-0.022672998
8	0x3d3aa2c4	0.04556538
9	0xbac35898	-0.0014903722
10	0xbd844c42	-0.064598575
11	0xbdabcb15	-0.08388344
12	0xbe893d22	-0.26804453
13	0xbc4a3aad	-0.012343091
14	0xbda347aa	-0.07972653
15	0xbe28dad7	-0.16489731
16	0x3d7da241	0.061922316
17	0xbd7574c8	-0.059925824
18	0x3d9b6b5b	0.07588836
19	0xba19ac8b	-0.0005862198
20	0xbe655f84	-0.22399718
21	0x3cbca691	0.023028644
22	0x3bc94a5a	0.0061428966
23	0xbdf02bbc	-0.11727092
24	0xbd856012	-0.065124646
25	0xbe2a540e	-0.16633627
26	0xbdd5f560	-0.10447192
27	0xbddbe1c5	-0.107364215
28	0xbe18fcbf	-0.14940165
29	0xbdbd3644	-0.09238866
30	0x3dd8e0d0	0.105897546
31	0xbd32834b	-0.043582242
32	0x3dcbb6c9	0.09946973
33	0xbd30fdd8	-0.043210834
34	0xbdf5cc03	-0.12001803
35	0x3db05752	0.08610405
36	0xbdeef0d4	-0.11667028
37	0xbe4ff0a8	-0.20306647
38	0x3d8d10ac	0.068879455
39	0xbe6e0563	-0.23244242
40	0xbdae8629	-0.08521683
41	0xbe594799	-0.21218719
42	0xbe5d16da	-0.21590748
43	0xbd93e8bf	-0.07222127
44	0xbe02cb66	-0.12772903
45	0x3c898098	0.016784951
46	0x3d01bb88	0.031672984
47	0xbda5930c	-0.080846876
48	0xbd0aa380	-0.033847332
49	0xbe2c9b44	-0.16856104
50	0x3e030fb9	0.12798966
51	0xbd8b8ce1	-0.0681398
52	0x3db04246	0.08606391
53	0xbe4e4c47	-0.20146285
54	0xbe4f7090	-0.20257783
55	0x3dbb7401	0.09152985
56	0xbe663e8c	-0.22484797
57	0xbe2d8a28	-0.16947234
58	0xbe3d6594	-0.1849578
59	0x3e22fc2d	0.1591651
60	0x3dc4a8a7	0.096024804
61	0xbe20f6cc	-0.15719146
62	0xbe007896	-0.12546
63	0x3d56cb55	0.052440006
64	0xbe4a60d3	-0.19763498
65	0x3d186785	0.0372081
66	0xbd78cc25	-0.060741562
67	0xbdbd20c0	-0.09234762
68	0xbe581660	-0.21102285
69	0xbde1f03d	-0.1103215
70	0x3d6ba88a	0.05753378
71	0x3e4f83b6	0.20265087
72	0xbdad12c0	-0.08450842
73	0xbd06a127	-0.03286853
74	0xbe46fa4f	-0.19431423
75	0xbe61bbff	-0.22044371
76	0xbc94bca4	-0.018156357
77	0x3de18791	0.11012185
78	0xbd942d68	-0.07235223
79	0x3dbd44f8	0.0924167
80	0xbe53b203	-0.20673375
81	0x3d31bcb0	0.043392837
82	0x3e091c33	0.13389663
83	0xbe20ce24	-0.15703636
84	0x3e073b3a	0.13206187
85	0xbe24d018	-0.16095006
86	0xbda606a9	-0.08106739
87	0x3d288367	0.04114094
88	0xbd85b6e4	-0.06529024
89	0xbe4734d7	-0.1945375
90	0x3da31b48	0.07964188
91	0xbd7d64b0	-0.0618636
92	0xbd515db8	-0.051114768
93	0xbdc654a2	-0.09684111
94	0xbae12ac3	-0.0017178882
95	0xbdc77803	-0.09739687
96	0x3b55bd04	0.0032613883
97	0xbe147813	-0.1449893
98	0xbe593698	-0.21212232
99	0x3d8d80b2	0.06909312
100	0x3e0e07f0	0.13870215
101	0x3d396841	0.04526544
102	0xbd8f60d4	-0.070008904
103	0x3e2bf22b	0.16791598
104	0xbe87b62e	-0.2650618
105	0xbe41f3ac	-0.1894061
106	0xbc38c9a3	-0.011278543
107	0x3d5ee1f5	0.05441471
108	0xbdb96cef	-0.090539806
109	0xbde6e24d	-0.11273632
110	0xbc8403a3	-0.016115015
111	0x3dcd603a	0.100281194
112	0xbe3fa200	-0.18714142
113	0xbd305e13	-0.043058466
114	0xbd20e4de	-0.039280765
115	0xbe722399	-0.23646392
116	0xbe30afd9	-0.1725458
117	0xbd22fc80	-0.039791584
118	0xbe2f9f3b	-0.17150585
119	0xbe6b531a	-0.2298092
120	0x3e14023f	0.14453982
121	0x3dee91f1	0.1164893
122	0xbd96e32c	-0.07367548
123	0xbdd2529f	-0.10269665
124	0xbe5c67a6	-0.21523914
125	0xbe54fdef	-0.20799993
126	0xbdf56f32	-0.119840994
127	0xbe375f14	-0.17907363
128	0xbd82ff26	-0.06396322
129	0x3e890e3d	0.26768675
130	0xbd9c1934	-0.076219946
131	0x3de2548e	0.11051284
132	0x3e92d02b	0.28674445
133	0xbd419365	-0.047259707
134	0xbcb1e4aa	-0.02171548
135	0x3d266d0d	0.040631343
136	0xbe8df496	-0.27725667
137	0xbd68b709	-0.05681518
138	0xbe366a0f	-0.17813896
139	0xbd93f1bc	-0.072238415
140	0xbdf2b6c0	-0.11851263
141	0x3e2025d7	0.15639435
142	0x3dcb6ab0	0.099324584
143	0xbe34c97a	-0.17654982
144	0xbe147cfe	-0.14500806
145	0x3e1f00f0	0.15527701
146	0xbe3a6ebd	-0.18206306
147	0xbdca9e4e	-0.098934755
148	0xbee61b8b	-0.4494289
149	0x3e63c128	0.22241652
150	0xbdc88e7d	-0.097928025
151	0xbc3a2676	-0.011361709
152	0xbe5df64d	-0.21675988
153	0x3b9f68db	0.0048647947
154	0x3de9a1db	0.114078246
155	0xbe6a6230	-0.22889018
156	0x3e123c80	0.14280891
157	0x3e240a9b	0.1601967
158	0xbe27d335	-0.16389163
159	0xbe4f7ecb	-0.20263211
160	0x3d5156f4	0.051108316
161	0xbe1f47e3	-0.15554766
162	0xbdfa62dc	-0.12225887
163	0xbe74472d	-0.23855276
164	0xbea47ebd	-0.32127944
165	0xbe331066	-0.17486724
166	0xbeb04741	-0.34429362
167	0xbe3f6063	-0.18689112
168	0xbd7b043c	-0.061283335
169	0xbedd757b	-0.43253693
170	0xbd090925	-0.033455987
171	0x3e33c0d3	0.17554025
172	0xbe43f951	-0.19138075
173	0xbe927a2b	-0.28608832
174	0xbd77b827	-0.060478356
175	0xbe7677ea	-0.24069181
176	0xbdd4047e	-0.10352419
177	0x3e4d6e09	0.20061506
178	0x3dcd1407	0.100135855
179	0xbe9d25ae	-0.3069281
180	0x3e0cc105	0.13745506
181	0x3da6cbd3	0.08144345
182	0xbd7739b4	-0.060357764
183	0xbdebe07b	-0.115174256
184	0x3e5e7ee4	0.21728092
185	0xbe64d58f	-0.22347091
186	0xbe5a36a9	-0.21309914
187	0x3e66d46e	0.22541973
188	0x3e3e4e7e	0.1858463
189	0xbeab206b	-0.3342317
190	0xbe28ce9e	-0.16485068
191	0xbc412f9a	-0.011791134
192	0xbdd1f475	-0.102517046
193	0x3c862c50	0.016378552
194	0xbe0d684f	-0.13809322
195	0xbda9199f	-0.0825684
196	0xbeabba4c	-0.3354057
197	0xbdc72a29	-0.09724838
198	0xbea174dd	-0.31534472
199	0x3df690d1	0.1203934
200	0xbdb6e64c	-0.089306444
201	0xbd951822	-0.072799936
202	0xbd38c4f7	-0.045109715
203	0xbe4357ca	-0.19076458
204	0xbed9f187	-0.42567083
205	0xbe6e8a46	-0.23294935
206	0xbdd2319f	-0.10263371
207	0xbd3f89e9	-0.04676238
208	0xbe3cfacd	-0.18455048
209	0x3d35b4b3	0.04436178
210	0xbe6a403d	-0.22876067
211	0xbe626211	-0.22107722
212	0xbec439f1	-0.38325456
213	0x3c726ba4	0.014796171
214	0xbe5ce6de	-0.21572444
215	0xbe8df708	-0.27727532
216	0xbda457f8	-0.08024591
217	0xbe6e9e52	-0.23302582
218	0x3e2abd74	0.16673833
219	0xbdd7c670	-0.10535896
220	0xbd02dbec	-0.031948015
221	0x3e9489bf	0.29011342
222	0xbe559b66	-0.20860061
223	0x3d1714ab	0.036884945
224	0x3e027011	0.12738062
225	0xbe620f4e	-0.22076151
226	0x3e15c6ff	0.14626692
227	0x3dfc3a8d	0.12315855
228	0xbda36390	-0.079779744
229	0xbba860eb	-0.0051385066
230	0x3e1d81db	0.15381567
231	0x3da57916	0.08079736
232	0xbe7a9da7	-0.24474202
233	0x3cb86ae6	0.02251191
234	0xbd5f28a3	-0.054482114
235	0xbea923e1	-0.33035186
236	0xbe029c53	-0.12754945
237	0xbe2c8311	-0.16846873
238	0x3e4ccd83	0.20000271
239	0xbe3b8573	-0.18312626
240	0xbe31c827	-0.17361508
241	0x3d90ed68	0.07076532
242	0xbe866c7d	-0.26254645
243	0xbe5f52f4	-0.21808988
244	0xbdd53bb7	-0.1041178
245	0xbdfa00f0	-0.1220721
246	0x3cf216b6	0.029551845
247	0xbd8370ae	-0.06417976
248	0x3e0753ad	0.13215514
249	0x3d9c7cf8	0.076410234
250	0xbe63c27d	-0.2224216
251	0xbe39131d	-0.18073697
252	0x3c39f779	0.011350506
253	0x3e443e46	0.1916438
254	0xbc91d1be	-0.017800208
255	0xbea579e0	-0.32319546

fc_layers.3.bias f4 [64]
0	0xbda0f20b	-0.07858666
1	0xbd546d8b	-0.05186228
2	0x3dc26d2d	0.0949348
3	0x3c08b85b	0.008344735
4	0xbe020135	-0.12695773
5	0x3e0a2f47	0.13494597
6	0xbcf8510c	-0.030312084
7	0xbe1bf545	-0.15230282
8	0x3cb99a42	0.022656564
9	0x3e96413d	0.29346648
10	0x3c4095de	0.011754481
11	0x3da50eb6	0.080594465
12	0xbccfd257	-0.025368853
13	0xbdec4455	-0.11536471
14	0xbe13e1aa	-0.14441553
15	0x3e074df2	0.13213328
16	0x3e2b0bd2	0.16703728
17	0xbe41c361	-0.18922187
18	0x3c43c55c	0.01194891
19	0x3d001d4c	0.03127794
20	0x3d7e6a7e	0.062113278
21	0x3e0a61e1	0.135139
22	0xbda6911d	-0.08133147
23	0xbd5effde	-0.054443233
24	0xbe463a0b	-0.19358079
25	0x3c0bbb31	0.008528517
26	0x3d9cfef7	0.07665818
27	0x3d6389f5	0.055551488
28	0xbdf3e7ba	-0.11909433
29	0x3d8fea7e	0.07027148
30	0xbe01c120	-0.12671328
31	0x3e3d88cf	0.1850922
32	0x3d98703c	0.07443282
33	0x3db9e6e2	0.090772405
34	0xbdac4e54	-0.084133774
35	0xbe45e0dd	-0.1932406
36	0xbd974aa5	-0.07387284
37	0x3df7c83a	0.12098737
38	0x3d94d6d3	0.07267537
39	0x3d9b281f	0.07576012
40	0xbe55e397	-0.208876
41	0xbc3c6a5e	-0.011499969
42	0x3e4ddd54	0.20103961
43	0xbe3e63dd	-0.18592782
44	0xbe353961	-0.1769767
45	0xbd6400a7	-0.055664685
46	0xbba8b7d8	-0.005148869
47	0x3e399d6b	0.18126456
48	0xbd9a8098	-0.075440586
49	0x3d874ccd	0.066064455
50	0x3ce909a1	0.028446974
51	0x3d069738	0.032859057
52	0xbe31e008	-0.17370617
53	0xbc010b2c	-0.007876199
54	0xbd1e1154	-0.038590744
55	0x3d7b1283	0.06129695
56	0x3e127401	0.14302064
57	0xbd878f9f	-0.066191904
58	0xbd772fbb	-0.060348254
59	0x3d956717	0.072950535
60	0xbe520c7e	-0.20512578
61	0x3d13739f	0.035998937
62	0x3cbff5fb	0.023432722
63	0x3decbbce	0.115592584

fc_layers.6.weight f4 [32, 64]
0	0x3e5e17e5	0.21688803
1	0xbdb63e96	-0.08898656
2	0xbe72d838	-0.23715293
3	0x3d70490c	0.058663413
4	0xbcd32f2e	-0.025779333
5	0x3d62851d	0.055302728
6	0x3e366ebb	0.17815678
7	0x3e791ffa	0.24328604
8	0xbe4946d0	-0.19655919
9	0xbdacdc57	-0.08440464
10	0xbd9eb059	-0.077484794
11	0x3e98a905	0.29816452
12	0xbc8a6f7d	-0.016898865
13	0xbe4d1db8	-0.20030868
14	0x3c10ab72	0.008829938
15	0xbdd50f68	-0.10403329
16	0x3d982320	0.074285746
17	0x3cb93286	0.0226071
18	0xbd5efc68	-0.054439932
19	0xbd1822f6	-0.037142716
20	0x3e689901	0.22714616
21	0xbe612e37	-0.21990286
22	0xbca77825	-0.020443032
23	0xbe0e3924	-0.13888985
24	0xbe780301	-0.24219896
25	0xbe8b0982	-0.2715569
26	0xbe0273ff	-0.12739561
27	0x3c512d9e	0.012767224
28	0xbc89bf72	-0.016814921
29	0xbdc8d86d	-0.09806905
30	0xbe93065a	-0.28715783
31	0x3d83e00b	0.06439217
32	0x3b595614	0.0033162879
33	0xbe2c4124	-0.16821724
34	0x3e6fa63f	0.23403262
35	0xbe6096f0	-0.21932578
36	0xbe52b357	-0.20576225
37	0x3c3c6034	0.011497546
38	0xbedea10a	-0.43482238
39	0xbea51527	-0.322427
40	0xbe688559	-0.22707118
41	0x3dbf49fe	0.09340285
42	0xbe85ea9e	-0.2615556
43	0xbe89fb85	-0.26949707
44	0x3dd6d511	0.10489858
45	0xbe4ad151	-0.1980641
46	0xbdd438b0	-0.10362375
47	0x3e9d0c9d	0.30673686
48	0x3e099fa4	0.13439804
49	0xbdf778d4	-0.12083593
50	0xbe364016	-0.17797884
51	0x3e021db4	0.12706643
52	0xbd060856	-0.032722794
53	0xbe879989	-0.26484326
54	0x3e299f89	0.16564764
55	0x3bbd67d7	0.005780201
56	0xbed64ac7	-0.41853926
57	0xbd3a2477	-0.04544493
58	0x3d9ec114	0.077516705
59	0xbea16665	-0.31523433
60	0x3d3bd93d	0.04586147
61	0x3c929142	0.01789153
62	0xbdea5fe5	-0.11444072
63	0xbe8aa7f1	-0.27081254
64	0xbe3f3d17	-0.18675648
65	0x3d25e930	0.040505588
66	0xbe7453f7	-0.23860155
67	0xbe965e75	-0.2936894
68	0xbe214550	-0.15749097
69	0x3cb98c3a	0.022649873
70	0x3e81d8bd	0.2536067
71	0x3e6b6092	0.22986057
72	0xbe1b2b61	-0.15153266
73	0xbdf10280	-0.11768055
74	0x3e460632	0.19338301
75	0x3dd85740	0.105635166
76	0xbe97813c	-0.29590786
77	0xbe78d468	-0.24299777
78	0xbe87c004	-0.26513684
79	0xbe68c257	-0.22730385
80	0xbdc37147	-0.0954309
81	0xbe1c5d47	-0.15269957
82	0x3b3d7beb	0.0028912972
83	0x3e2f092d	0.17093344
84	0x3cf419aa	0.029797394
85	0xbe5e9fd2	-0.21740654
86	0xbe7a2f86	-0.24432191
87	0xbe5951c2	-0.21222594
88	0x3dcdffa4	0.10058525
89	0xbe541666	-0.2071167
90	0xbd43031e	-0.047610395
91	0xbe7914a3	-0.24324279
92	0xbe9b4393	-0.30324993
93	0x3cde8525	0.027163098
94	0xbdd7a8d0	-0.10530245
95	0xbe9de4cb	-0.30838618
96	0xbe3cdbfa	-0.1844329
97	0xbc836661	-0.016040029
98	0xbd2fcb83	-0.042918693
99	0xbb86be29	-0.0041120243
100	0x3e33e679	0.17568387
101	0xbd79d3ef	-0.06099313
102	0xbe8f7c95	-0.28024736
103	0x3d0c7081	0.03428698
104	0xbddff2a5	-0.10934953
105	0x3df7c9d0	0.120990396
106	0xbe2ce214	-0.16883117
107	0x3e283cb1	0.16429402
108	0x3e7821b2	0.24231604
109	0x3dccfc8d	0.10009108
110	0xbe0d34f4	-0.13789731
111	0xbd6411f7	-0.055681195
112	0x3e42838b	0.18995492
113	0xbccb09f5	-0.024785021
114	0xbe210037	-0.15722738
115	0xbe90e47e	-0.28299326
116	0xbd74cc7e	-0.05976533
117	0x3e33b797	0.17550503
118	0xbdfb680a	-0.12275703
119	0xbd0af267	-0.03392258
120	0xbe5d625d	-0.21619554
121	0xbb6c965e	-0.0036100368
122	0x3cc0e90d	0.023548627
123	0xbdc99462	-0.09842755
124	0x3e6b29f6	0.22965226
125	0x3d6c5e34	0.057707027
126	0x3d2ce04e	0.0422061
127	0xbd5682b7	-0.052370753
128	0xbe7ed65b	-0.24886458
129	0xbeecce74	-0.4625126
130	0xbe82aa9e	-0.25520796
131	0x3d704958	0.058663696
132	0xbe281242	-0.16413215
133	0xbf10f894	-0.566293
134	0xbe98e405	-0.29861465
135	0x3e8788c9	0.26471546
136	0x3eaf432c	0.34230936
137	0x3e74195f	0.23837803
138	0xbe026b46	-0.12736234
139	0xbe98e779	-0.298641
140	0xbe4c4e74	-0.19951802
141	0x3ca1a023	0.01972968
142	0x3ca39f35	0.019973377
143	0xbe2c9cab	-0.16856639
144	0xbedf5f01	-0.4362717
145	0x3e184d56	0.14873251
146	0x3e23fbd7	0.16014038
147	0x3ea883cc	0.32913053
148	0xbed10bb5	-0.40829244
149	0xbeb1b8b6	-0.34711236
150	0xbdef7626	-0.11692457
151	0xbe015038	-0.12628257
152	0xbe99d9de	-0.30049032
153	0xbecde767	-0.40215608
154	0xbe18f5c5	-0.14937504
155	0xbd067d9f	-0.032834645
156	0xbdb235ba	-0.08701654
157	0xbec77826	-0.38958853
158	0x3dfe22fa	0.12409015
159	0xbeaac2b3	-0.3335167
160	0xbe7a591d	-0.24448057
161	0xbe5390ad	-0.20660658
162	0xbe319224	-0.17340904
163	0xbe8d5f3e	-0.27611727
164	0xbe25ea2e	-0.16202614
165	0xbe4fbcb1	-0.20286824
166	0xbe43cf89	-0.19122137
167	0x3d76bc31	0.060238067
168	0x3de97496	0.1139919
169	0xbeaf9ea9	-0.34300736
170	0xbecabd5a	-0.3959759
171	0xbd63e6a5	-0.05563988
172	0x3e7f34fb	0.24922554
173	0x3a295081	0.00064588344
174	0xbdcc7a52	-0.09984268
175	0xbeb0ea20	-0.34553623
176	0xbe4f05c7	-0.20217048
177	0x3d05740e	0.03258138
178	0xbd86d5d1	-0.06583751
179	0xbe35da7b	-0.17759125
180	0x3dab2a24	0.08357647
181	0xbd32eefe	-0.043684952
182	0xbe9cbb86	-0.3061182
183	0xbea2f4e0	-0.3182745
184	0xbe35f318	-0.17768514
185	0x3e536f9d	0.20648046
186	0xbde1b9da	-0.110217765
187	0xbec3e91b	-0.38263783
188	0xbdf7117e	-0.12063883
189	0xbea3e85f	-0.32013223
190	0xbec8c5dc	-0.39213455
191	0xbe8f7206	-0.2801668
192	0x3d3c323a	0.045946337
193	0xbea86a12	-0.32893425
194	0xbdcd78ee	-0.10032831
195	0xbd40f8d7	-0.047112312
196	0x3e612a56	0.21988806
197	0x3ddc194b	0.10747012
198	0x3e866817	0.2625129
199	0xbd1e1f2a	-0.03860394
200	0xbe12cc00	-0.14335632
201	0xbda0df14	-0.07855049
202	0x3e28d448	0.16487229
203	0xbe3203a1	-0.17384197
204	0xbe0f7b3d	-0.14011855
205	0x3de74034	0.11291543
206	0xbe73cf67	-0.23809586
207	0xbde102fc	-0.10986897
208	0xbe6eba03	-0.23313145
209	0x3dccddd0	0.10003245
210	0xbed30ca3	-0.4122058
211	0x3dff21cc	0.12457618
212	0x3c4ca3d8	0.012490235
213	0x3d4348c2	0.04767681
214	0x3df24a1f	0.11830544
215	0xbe1fa0f5	-0.15588744
216	0xbe7e2510	-0.24818826
217	0xbda0c834	-0.07850686
218	0x3d1441c6	0.03619554
219	0x3ed3691e	0.41291136
220	0xbe214bfd	-0.15751643
221	0xbde972ac	-0.11398825
222	0xbd44ac5b	-0.048015933
223	0x3cdfa580	0.027300596
224	0x3d21ade6	0.039472483
225	0xbde290b8	-0.11062759
226	0xbbbf3aea	-0.0058358805
227	0xbda5461f	-0.08070015
228	0x3bfef072	0.007780128
229	0xbc4acc21	-0.01237777
230	0xbe280f2c	-0.16412038
231	0x3d2cf7bb	0.04222844
232	0xbe8799a9	-0.2648442
233	0xbdd594f5	-0.10428802
234	0xbeafbd54	-0.34324133
235	0x3d9021c1	0.07037688
236	0x3ce6f08e	0.028190877
237	0x3e5f33af	0.2179706
238	0x3d3683a9	0.044559155
239	0xbe11b290	-0.14228272
240	0xbd21d048	-0.039505273
241	0xbdc97c26	-0.098381326
242	0xbea9462a	-0.33061343
243	0xbe6fb92f	-0.23410486
244	0x3bb541f4	0.005531544
245	0xbe21e65a	-0.15810528
246	0xbe5d7148	-0.21625245
247	0x3e57ebee	0.21086094
248	0x3ebba198	0.36646724
249	0x3e920023	0.2851573
250	0x3e1b2597	0.15151058
251	0xbe29c42f	-0.16578744
252	0x3e5e9110	0.21735024
253	0xbe258e3c	-0.1616754
254	0xbdcf49a5	-0.101214685
255	0xbe394146	-0.18091306

fc_layers.6.bias f4 [32]
0	0xbd890487	-0.06690317
1	0xbead8c92	-0.3389631
2	0x3d9a8c43	0.07546284
3	0xbd087eaa	-0.03332392
4	0x3e8d0fd3	0.27551135
5	0xbecbe1c8	-0.39820695
6	0xbe13c9b9	-0.1443242
7	0xbdb55707	-0.0885449
8	0xbe6a2d6f	-0.22868894
9	0xbda5a58c	-0.08088216
10	0x3ca55e92	0.020186696
11	0xbe9586f3	-0.2920452
12	0x3e13bd25	0.14427622
13	0x3e16de5f	0.14733265
14	0xbd87a786	-0.066237494
15	0x3da23ed1	0.079221375
16	0x3e967880	0.2938881
17	0xbcce61c6	-0.025193106
18	0xbd8d36e3	-0.068952344
19	0x3e313698	0.17305982
20	0x3f11a6c8	0.56895113
21	0xbe880af7	-0.26570866
22	0x3e2048c8	0.15652764
23	0x3e671d90	0.22569871
24	0x3e056462	0.13026574
25	0xbecac55a	-0.39603692
26	0xbd2bd7cd	-0.04195385
27	0xbcb0794e	-0.021542218
28	0xbda97a08	-0.08275229
29	0x3ee29537	0.44254467
30	0x3f1a90c7	0.6037716
31	0x3e507392	0.20356587

fc_layers.8.weight f4 [4, 32]
0	0xbe0fe27f	-0.14051245
1	0xbdef150a	-0.11673935
2	0xbed6378d	-0.41839257
3	0x3e814bdd	0.25253192
4	0x3c2d1050	0.010562971
5	0xbd9c90a4	-0.076447755
6	0xbe88b60a	-0.26701385
7	0xbc82ee79	-0.015982853
8	0xbe33c9f2	-0.17557505
9	0xbe99dd51	-0.30051664
10	0x3e8a4598	0.2700622
11	0xbdbf5ed0	-0.09344256
12	0xbe745f9d	-0.23864599
13	0xbcf0b8a2	-0.029384915
14	0xbe01f723	-0.12691931
15	0xbd34a103	-0.044098865
16	0x3de3252c	0.11091074
17	0x3ceca7d4	0.02888862
18	0x3d923fdb	0.07141086
19	0x3e5b5d18	0.21422231
20	0x3ea0ce0e	0.31407207
21	0x3e9a9608	0.3019259
22	0xbd64945d	-0.055805553
23	0x3e0aa8b2	0.13540915
24	0x3d999cbd	0.075005986
25	0xbdd478d1	-0.103746064
26	0xbd2557ab	-0.04036681
27	0x3db26ae5	0.08711795
28	0xbd0ad7ca	-0.0338972
29	0x3df4261d	0.11921332
30	0x3e87b75b	0.26507077
31	0xbf1e1d64	-0.61763597
32	0xbf184f40	-0.59495926
33	0xbe21eb60	-0.15812445
34	0xbe806e41	-0.25084117
35	0xbe2212cd	-0.15827484
36	0xbf368686	-0.71299016
37	0xbe975682	-0.29558188
38	0xbda7bfac	-0.081908554
39	0x3ce02b52	0.027364407
40	0xbbef6496	-0.007305692
41	0x3d777ce4	0.06042184
42	0x3e564f53	0.20928697
43	0x3c9fc8c1	0.019504907
44	0x3d028bb6	0.03187152
45	0x3e1bc814	0.15213042
46	0xbe40ca00	-0.18827057
47	0xbe8a41dd	-0.27003375
48	0x3e4adffc	0.19812006
49	0x3cba39ab	0.022732576
50	0x3dbd0ded	0.09231172
51	0x3e07a0cd	0.13244934
52	0x3e9759c4	0.29560673
53	0xbd283453	-0.041065525
54	0x3e42d182	0.19025233
55	0x3e315e2a	0.17321077
56	0xbe4deb8f	-0.2010939
57	0xbe9284a7	-0.2861683
58	0xbe1f1cf0	-0.15538383
59	0x3e16aef1	0.14715172
60	0xbcb260a6	-0.021774601
61	0x3e82a92a	0.25519687
62	0x3e7ae385	0.24500854
63	0xbe7c53df	-0.2464137
64	0x3d791431	0.06081027
65	0xbd6b3b97	-0.057429876
66	0xbd93a13a	-0.07208486
67	0x3bf9db72	0.007625037
68	0xbdbefc9a	-0.09325524
69	0x3e8906df	0.26763055
70	0xbe8e14db	-0.27750286
71	0xbe7bf362	-0.24604562
72	0xbe0d30be	-0.13788125
73	0x3c808e27	0.015692784
74	0xbc8d0371	-0.017213555
75	0xbd168c81	-0.03675509
76	0x3d3b2fd5	0.045699913
77	0xbdbfc9b4	-0.09364644
78	0xbe96ab6a	-0.29427654
79	0x3ce04fc0	0.027381778
80	0xbe0a360c	-0.1349718
81	0xbcf7debd	-0.030257577
82	0x3e22caaf	0.1589763
83	0xbb5b0ed6	-0.003342559
84	0x3e865d14	0.26242888
85	0x3e31107d	0.17291446
86	0x3ea45454	0.32095587
87	0xbe84ec96	-0.2596175
88	0x3e3cd536	0.18440709
89	0xbe45cf83	-0.1931744
90	0x3d696c0f	0.05698782
91	0x3cbe4035	0.023223976
92	0xbe12b614	-0.1432727
93	0x3e43a86d	0.19107218
94	0x3eda37f2	0.42620808
95	0xbf3099e0	-0.68984795
96	0xbe7418a7	-0.23837529
97	0x3d393798	0.045219034
98	0xbd0b4f46	-0.034011148
99	0xbe652130	-0.22375941
100	0xbecba277	-0.39772388
101	0xbe5b7d2c	-0.21434468
102	0xbe1a9076	-0.1509417
103	0x3d4fe1e4	0.050752535
104	0x3d9775b3	0.07395496
105	0x3d1a5040	0.03767419
106	0x3e814d13	0.25254115
107	0x3e1bbb7d	0.1520824
108	0x3dfa2612	0.122142926
109	0x3d15deef	0.03658956
110	0x3e90d237	0.2828538
111	0xbe2ca9a4	-0.16861588
112	0x3e1f8953	0.15579729
113	0x3e26f5cc	0.16304702
114	0x3e59545e	0.2122359
115	0x3d040357	0.032229748
116	0x3e3989d6	0.18118986
117	0x3ddac14f	0.10681402
118	0xbe982fa0	-0.29723835
119	0x3d9b401c	0.07580587
120	0xbcd21176	-0.025643092
121	0xbeb6d2c7	-0.35707685
122	0xbdc595be	-0.09647702
123	0x3da4fff9	0.080566354
124	0x3e7cf04d	0.24701042
125	0x3e3346ab	0.17507426
126	0x3c442a2e	0.011972947
127	0xbdfe10a2	-0.12405516

fc_layers.8.bias f4 [4]
0	0x3e619496	0.22029337
1	0x3e85846b	0.2607759
2	0x3e79f9c3	0.24411683
3	0x3eecbf83	0.46239862
