output/dqn/model/4x4/11000.pth (torch, 53480 bytes, 8 tensors)

fc_layers.0.weight f4 [128, 16]
000000 56 34 0a 3e cd 52 56 3e 00 8c a5 3c fd 4d 64 3e
       0.13496527 0.20930023 0.020208359 0.22295375
000010 92 a6 03 3f 80 79 f0 bd 44 bc 02 3f a6 09 f1 3e
       0.5142604 -0.11741924 0.5106852 0.47077674
000020 0e 51 41 3e 44 ff e0 3e e7 b8 e7 be 80 d7 e8 be
       0.18878576 0.43944752 -0.45258257 -0.45476913
000030 51 36 10 3f 03 7a 04 3f b8 47 bf 3d 58 41 9a 3e
       0.5633288 0.51748675 0.09339851 0.30127978
000040 b8 10 75 be 37 6f e3 bc 38 ad ac 3d ea 98 fb be
       -0.23932159 -0.027762992 0.08431476 -0.49140102
000050 2d dc 65 3e 36 57 f8 3e 20 db c8 be 2a 5f 0b bf
       0.22447272 0.48504037 -0.3922968 -0.54442084
000060 80 c2 ca 3e 40 2f 09 be 46 97 a7 be 20 96 1d bd
       0.39601517 -0.1339693 -0.327326 -0.03847325
000070 ab e9 16 3f ce 72 bf 3e f1 98 73 bd 6e 88 07 be
       0.589503 0.37392277 -0.05947203 -0.13235638
000080 db e1 07 be 52 b1 e1 be 4c b0 a5 bd c2 15 02 3e
       -0.13269751 -0.44080597 -0.080902666 0.12703612
000090 85 08 b7 be 9e ad ce 3e 93 5b a4 3e fa e5 28 be
       -0.35748687 0.40366834 0.32101116 -0.16493979
0000a0 23 ab 5c bd 1e d3 49 3e c6 08 82 3e c0 53 d1 bd
       -0.053874146 0.19709441 0.2539732 -0.10221052
0000b0 fe d6 af 3e 31 32 12 bf c1 0a 96 3e 00 81 a0 3d
       0.34343714 -0.57107836 0.2930508 0.07837105
0000c0 fd 5a e4 be ba e8 44 3e 09 9e 08 bf 14 45 14 be
       -0.4460067 0.19229403 -0.5336614 -0.14479476
0000d0 92 73 5d be 4a 95 9f 3e de 88 0d bf d8 0b a2 be
       -0.21626118 0.31168586 -0.5528697 -0.3164966
0000e0 12 80 03 3f a8 9e 45 3e dd 93 35 3e 48 8e 98 3e
       0.51367295 0.19298804 0.17732187 0.29796052
0000f0 28 bf 91 be 77 4c a6 3e ba 68 3f 3e 18 50 e3 bd
       -0.28466153 0.32480213 0.18692294 -0.11099261
000100 07 01 9c 3c 1a dd a1 3e d5 bf 24 3e 61 83 07 bf
       0.019043459 0.31614 0.16088803 -0.52934843
000110 5c 1d 1a bf 96 9c f7 3e a4 3b e3 be e0 62 6a be
       -0.6020105 0.48361653 -0.4438144 -0.2288928
000120 ed 95 bf 3e c2 1b 17 be 3d 97 af 3e bc 67 3c be
       0.37419072 -0.14756683 0.34295073 -0.18398947
000130 58 61 a6 bd 47 a9 9c be c6 ff 52 3e a5 9d 05 3f
       -0.081240356 -0.30597898 0.20605382 0.5219367
000140 da 83 df be a0 a9 55 be cc 84 22 be 9f 04 89 3e
       -0.43655282 -0.20865488 -0.1587097 0.26761338
000150 dc 16 05 bf 9a 67 a5 3e 58 a2 cf 3d a0 be 8f bc
       -0.51988006 0.32305604 0.101383865 -0.017546952
000160 2e 88 b2 3e 72 0b 70 3e 4e 68 6d be b2 82 1f be
       0.34869522 0.23441866 -0.2318432 -0.155772
000170 60 b4 5a 3d bd 66 71 3e 98 56 8b 3d ac a1 0b bf
       0.053394675 0.23574348 0.06803626 -0.54543567
000180 5f 02 3b be 63 ce 52 be 59 6a 88 be 88 a2 0c bf
       -0.18262623 -0.20586543 -0.26643637 -0.54935503
000190 23 77 69 3c b0 fd 7f 3e 35 cf 0f bf ae 1d 14 be
       0.014249596 0.24999118 -0.5617555 -0.14464447
0001a0 92 1a 59 be 52 e5 86 be 7a b2 62 3e 0a 11 db 3e
       -0.21201542 -0.26346833 0.22138396 0.42786437
0001b0 68 20 ab bd ce c9 95 bd 86 35 c3 3d 98 94 5d 3e
       -0.083557904 -0.07313882 0.09531693 0.21638715
0001c0 c0 d2 ab bc aa d8 a4 be 1f 32 f8 be 72 86 f7 be
       -0.020974517 -0.32196552 -0.4847574 -0.4834476
0001d0 00 4c 33 3b f0 7f 69 be 09 ae d4 3e 70 de 49 bd
       0.0027358532 -0.2280271 0.41539028 -0.0492844
0001e0 1e 7a 4f 3e 4c d9 db be 17 8c 23 3e 44 40 be 3e
       0.20261428 -0.42939222 0.15971409 0.37158406
0001f0 c4 22 6c be 37 87 fd 3e e0 1e cc 3d f8 cd 19 bf
       -0.23060137 0.49517223 0.099668264 -0.6007991
000200 d0 40 90 3d ea fe d5 3e 98 d0 c2 bd a8 5f cc be
       0.07043612 0.41796046 -0.09512442 -0.3991673
000210 f6 ae 0c be 7b 89 fb be 12 8e 33 be 78 15 dc be
       -0.13738617 -0.49128327 -0.17534664 -0.4298513
000220 18 6e 07 bf b3 7b 08 3f ce d2 4d be 5c f2 68 3e
       -0.52902365 0.5331375 -0.20099947 0.22748703
000230 38 e5 f9 be bf ce b4 be 32 86 84 3e 28 01 f6 bd
       -0.48807693 -0.35313985 0.25883633 -0.12011939
000240 4e 68 22 3e cc 88 16 bf 8e d1 14 bf 5f 09 00 bf
       0.15860102 -0.58802485 -0.58132255 -0.500143
000250 7a 6e 04 be 66 4c da 3e c8 e2 dd be 58 9d f5 be
       -0.12932768 0.42636412 -0.43337083 -0.47971606
000260 6c a2 33 bd 66 34 b3 3d 98 1e 86 3e 98 2b 1c be
       -0.04385607 0.087502286 0.26195216 -0.15251005
000270 40 d4 fc bd 3f c0 89 3e 64 ba 9d bd df d8 0a bf
       -0.12345171 0.26904485 -0.07701567 -0.5423717
000280 9c 39 c1 bc 40 fe a8 bd da 36 10 bf 86 16 27 be
       -0.02358704 -0.08251619 -0.56333697 -0.16317186
000290 64 51 fc be 76 c7 96 3e 72 e9 0e 3d 2e bd c8 3e
       -0.49280846 0.29449052 0.0348906 0.39206833
0002a0 a7 01 23 3d 2d a5 8b 3e 4f 74 bd 3e f0 74 90 3d
       0.039796498 0.27274457 0.370028 0.07053554
0002b0 a6 72 99 3e c5 92 06 bf dc 6c 81 3e 4a bb 86 3e
       0.29970282 -0.525677 0.25278366 0.26314765
0002c0 5f 3e d0 3d f7 7b 2f 3d 60 e4 53 be 93 57 a3 be
       0.10168146 0.04284283 -0.20692587 -0.3190275
0002d0 36 99 a9 3e 5a 92 81 be aa 29 c0 3e 98 a9 20 3e
       0.33124703 -0.2530697 0.37531787 0.15689695
0002e0 84 38 63 3e b9 51 93 3e 38 8b fc bd 04 cd 18 be
       0.22189528 0.28773287 -0.12331241 -0.14921957
0002f0 f6 18 f4 3e 70 d7 e3 ba 2a 25 2f be 40 95 ba bc
       0.47675294 -0.0017382931 -0.1710402 -0.022776246
000300 08 89 10 bf 2f 1c 5f 3e 13 6b 52 3e 7e f9 0c bf
       -0.56459093 0.21788095 0.20548658 -0.55068195
000310 4e 5b d9 3e 30 f5 4d 3d e8 62 22 be 2d b9 af be
       0.42452472 0.050282657 -0.15858042 -0.34320965
000320 bc b0 1b bf 4c ca 68 3e 9a 25 e2 3e 10 08 1c be
       -0.6081655 0.2273342 0.44169313 -0.1523745
000330 a8 a1 c6 be 96 4e da be 63 fa c1 3e 60 9e ed bc
       -0.3879521 -0.4263808 0.37886342 -0.029006183
000340 e1 87 a8 3e 69 28 cc 3e d0 a9 c7 be e2 f1 39 3e
       0.32916167 0.3987458 -0.38996744 0.18158677
000350 b1 2f d8 3e ca 24 ce 3e 02 b5 98 3e e6 4a a8 3e
       0.42223886 0.40262443 0.29825598 0.32869643
000360 fe a1 0a 3f b2 0d 04 3e 5a 82 9d be 20 c5 13 bd
       0.5415343 0.1289585 -0.30763513 -0.036076665
000370 df 0a 10 3f be 59 0c 3e 94 67 13 be 30 a8 d4 bd
       0.5626659 0.13706109 -0.1439498 -0.10383642
000380 72 b0 06 bf 0b 76 3c 3e fc f8 bc be 6a 00 c4 3d
       -0.52612984 0.18404405 -0.3690871 0.095703915
000390 ed 48 8a be 2e 49 d7 3e 16 84 a1 be a1 38 0b 3f
       -0.27008763 0.4204802 -0.31546086 0.54383284
0003a0 42 f4 0d 3f 87 f5 bc 3e d2 a4 12 bf 82 13 9e 3e
       0.5545083 0.36906072 -0.57282746 0.30874258
0003b0 e0 01 5b be ae 06 4a be 31 d0 9b be 92 e3 cc 3e
       -0.21387434 -0.1972911 -0.30432275 0.40017372
0003c0 fe 93 80 bc 52 f9 9a 3d 8d a1 c7 3d 4c ad bc be
       -0.015695568 0.07567085 0.0974761 -0.36850965
0003d0 08 3f 87 3d 68 66 4d 3e 8b fd 93 3e 00 dc 74 3e
       0.06603819 0.20058596 0.28904375 0.23912048
0003e0 f6 e0 16 bf d9 10 95 3d c1 d7 9f 3d a2 2c bd 3e
       -0.58937013 0.07278604 0.07804824 0.36948115
0003f0 2c 95 3b 3e ac 9c e6 3e 7d e5 e4 bd 30 38 11 bd
       0.18318623 0.45041406 -0.11176584 -0.035453975

fc_layers.0.bias f4 [128]
000000 3f 7a 86 be f4 3b e5 bd 1f 8b 85 be d0 f8 de bc
       -0.2626514 -0.11193076 -0.26082703 -0.027218252
000010 f6 56 3b be e5 de b3 be 27 90 78 bd d4 a6 9e be
       -0.18294892 -0.35130993 -0.06068435 -0.30986655
000020 7f 13 07 be f3 f2 e1 bd 16 b9 5c be 7c 34 78 be
       -0.13191031 -0.11032667 -0.2155498 -0.24238771
000030 c0 67 9d be a1 26 3b be 79 b0 1a 3b 0f 6f fc bd
       -0.30743217 -0.18276455 0.002360372 -0.1232587
000040 57 d6 bd bd f4 5a 08 be a2 3d 2f be 89 c1 99 be
       -0.09269398 -0.13315946 -0.17113355 -0.30030468
000050 23 82 a1 be 9e 92 2d be 47 e8 65 be 25 95 eb bd
       -0.315446 -0.16950461 -0.22451888 -0.115030564
000060 3f 0d 6f be 69 d0 80 3a 37 ae a4 be f5 b0 06 bd
       -0.23344897 0.0009827736 -0.32164165 -0.032883603
000070 6d 08 48 be d5 40 e4 3d e6 31 82 be c7 b6 08 be
       -0.19534464 0.11145178 -0.25428694 -0.13350974
000080 21 48 ec be a0 ba 17 bd e8 a4 63 be 70 18 24 be
       -0.4614878 -0.037043214 -0.22230875 -0.16024947
000090 b0 01 bc be 68 34 01 be e4 ef 87 bd e4 d0 b1 be
       -0.36720037 -0.12617648 -0.066375524 -0.34729683
0000a0 4b f3 42 bd 18 4f 8c be 29 75 7e be 50 c8 27 be
       -0.047595304 -0.27404094 -0.2484938 -0.16385007
0000b0 4f fb 03 be 96 46 b9 bd 8d d7 30 be ed 7e c0 be
       -0.12888835 -0.09046666 -0.17269726 -0.37596837
0000c0 87 14 51 bd b3 bf 22 bd 84 de 31 be ab 2b 11 be
       -0.051044967 -0.0397336 -0.17370039 -0.14176814
0000d0 af 96 8a be c3 cb 7f be 4f 0a a2 3b d9 96 2f be
       -0.27068087 -0.24980073 0.0049450765 -0.17147388
0000e0 e8 4b 79 be 52 1e a8 be b4 37 ec bd 9f da 14 be
       -0.24345362 -0.32835633 -0.11534062 -0.14536522
0000f0 2b 75 93 bc 9f 37 50 be cb 4f a7 be a1 60 45 be
       -0.018000206 -0.20333718 -0.32678065 -0.19275142
000100 c5 a8 13 be ca 35 b5 be ff 9a 98 bd 75 49 81 be
       -0.14419849 -0.353926 -0.07451438 -0.25251356
000110 0d 5b 14 3e 88 ed f7 bd 3f bd f2 bd 8b 77 a7 be
       0.14487858 -0.12105852 -0.11852502 -0.32708392
000120 55 0b 56 be 3a 26 e5 bd b8 8d 9c bd b0 94 bc bd
       -0.2090276 -0.11188932 -0.07644218 -0.092080474
000130 9a c3 54 be 01 40 13 be 00 74 16 be cc 65 8c be
       -0.20777741 -0.14379884 -0.14692688 -0.27421415
000140 d7 7a 38 be b1 8e 83 be ba 58 79 be 4c 9d 87 be
       -0.1801561 -0.25694802 -0.24350253 -0.26487195
000150 03 06 6a be e5 01 14 be bc 59 88 be 42 6c e6 bd
       -0.22853856 -0.14453848 -0.26630962 -0.11251117
000160 eb dc 9d be 4d a5 38 be 6c 0d ab bd d9 4e ed be
       -0.3083261 -0.18031807 -0.083521694 -0.46349218
000170 80 ba 2a be 8f 2e ea bd 9a 5a e0 bd d8 fa bc be
       -0.16672707 -0.114346616 -0.10954781 -0.3691013
000180 9f a8 f2 bd 13 38 78 bd 30 52 6a be be 9e 90 bd
       -0.11848568 -0.06060035 -0.22882915 -0.07061528
000190 bb e5 48 be 3b a3 ae bd 0c 55 27 be 72 d0 d5 be
       -0.19618885 -0.085272275 -0.16341037 -0.41760594
0001a0 1c 1b 89 be 6c ac 43 be a0 44 f1 bd 94 aa e5 bc
       -0.26778495 -0.19108742 -0.11780667 -0.02803544
0001b0 3d 69 32 be 59 7f dd 3d 17 92 03 bd d3 14 9a be
       -0.17422958 0.10815305 -0.032121744 -0.30094013
0001c0 c0 30 9c be f5 db 68 be 06 be a9 be af 72 96 be
       -0.30505943 -0.22740157 -0.3315279 -0.29384372
0001d0 01 69 41 be f4 9b 30 be 63 9d 86 be be fb ff bd
       -0.18887712 -0.17246991 -0.26291952 -0.12499188
0001e0 dd 65 a9 be 9d 1c c5 be 53 5d 99 be 5c 57 58 be
       -0.33085528 -0.38498393 -0.29954013 -0.21127075
0001f0 e0 f1 97 be 23 40 22 be 8b b4 41 be 71 8f 9b be
       -0.29676723 -0.15844779 -0.18916528 -0.30382875

fc_layers.3.weight f4 [64, 128]
000000 1e fe cd 3d e7 54 33 be d4 e1 0f be ab e6 44 be
       0.10058235 -0.17512856 -0.1405099 -0.19228618
000010 92 9f d5 bd 27 0e 88 3d 09 ab 75 3c b9 bc b9 bc
       -0.10430826 0.06643324 0.014994391 -0.022672998
000020 c4 a2 3a 3d 98 58 c3 ba 42 4c 84 bd 15 cb ab bd
       0.04556538 -0.0014903722 -0.064598575 -0.08388344
000030 22 3d 89 be ad 3a 4a bc aa 47 a3 bd d7 da 28 be
       -0.26804453 -0.012343091 -0.07972653 -0.16489731
000040 41 a2 7d 3d c8 74 75 bd 5b 6b 9b 3d 8b ac 19 ba
       0.061922316 -0.059925824 0.07588836 -0.0005862198
000050 84 5f 65 be 91 a6 bc 3c 5a 4a c9 3b bc 2b f0 bd
       -0.22399718 0.023028644 0.0061428966 -0.11727092
000060 12 60 85 bd 0e 54 2a be 60 f5 d5 bd c5 e1 db bd
       -0.065124646 -0.16633627 -0.10447192 -0.107364215
000070 bf fc 18 be 44 36 bd bd d0 e0 d8 3d 4b 83 32 bd
       -0.14940165 -0.09238866 0.105897546 -0.043582242
000080 c9 b6 cb 3d d8 fd 30 bd 03 cc f5 bd 52 57 b0 3d
       0.09946973 -0.043210834 -0.12001803 0.08610405
000090 d4 f0 ee bd a8 f0 4f be ac 10 8d 3d 63 05 6e be
       -0.11667028 -0.20306647 0.068879455 -0.23244242
0000a0 29 86 ae bd 99 47 59 be da 16 5d be bf e8 93 bd
       -0.08521683 -0.21218719 -0.21590748 -0.07222127
0000b0 66 cb 02 be 98 80 89 3c 88 bb 01 3d 0c 93 a5 bd
       -0.12772903 0.016784951 0.031672984 -0.080846876
0000c0 80 a3 0a bd 44 9b 2c be b9 0f 03 3e e1 8c 8b bd
       -0.033847332 -0.16856104 0.12798966 -0.0681398
0000d0 46 42 b0 3d 47 4c 4e be 90 70 4f be 01 74 bb 3d
       0.08606391 -0.20146285 -0.20257783 0.09152985
0000e0 8c 3e 66 be 28 8a 2d be 94 65 3d be 2d fc 22 3e
       -0.22484797 -0.16947234 -0.1849578 0.1591651
0000f0 a7 a8 c4 3d cc f6 20 be 96 78 00 be 55 cb 56 3d
       0.096024804 -0.15719146 -0.12546 0.052440006
000100 d3 60 4a be 85 67 18 3d 25 cc 78 bd c0 20 bd bd
       -0.19763498 0.0372081 -0.060741562 -0.09234762
000110 60 16 58 be 3d f0 e1 bd 8a a8 6b 3d b6 83 4f 3e
       -0.21102285 -0.1103215 0.05753378 0.20265087
000120 c0 12 ad bd 27 a1 06 bd 4f fa 46 be ff bb 61 be
       -0.08450842 -0.03286853 -0.19431423 -0.22044371
000130 a4 bc 94 bc 91 87 e1 3d 68 2d 94 bd f8 44 bd 3d
       -0.018156357 0.11012185 -0.07235223 0.0924167
000140 03 b2 53 be b0 bc 31 3d 33 1c 09 3e 24 ce 20 be
       -0.20673375 0.043392837 0.13389663 -0.15703636
000150 3a 3b 07 3e 18 d0 24 be a9 06 a6 bd 67 83 28 3d
       0.13206187 -0.16095006 -0.08106739 0.04114094
000160 e4 b6 85 bd d7 34 47 be 48 1b a3 3d b0 64 7d bd
       -0.06529024 -0.1945375 0.07964188 -0.0618636
000170 b8 5d 51 bd a2 54 c6 bd c3 2a e1 ba 03 78 c7 bd
       -0.051114768 -0.09684111 -0.0017178882 -0.09739687
000180 04 bd 55 3b 13 78 14 be 98 36 59 be b2 80 8d 3d
       0.0032613883 -0.1449893 -0.21212232 0.06909312
000190 f0 07 0e 3e 41 68 39 3d d4 60 8f bd 2b f2 2b 3e
       0.13870215 0.04526544 -0.070008904 0.16791598
0001a0 2e b6 87 be ac f3 41 be a3 c9 38 bc f5 e1 5e 3d
       -0.2650618 -0.1894061 -0.011278543 0.05441471
0001b0 ef 6c b9 bd 4d e2 e6 bd a3 03 84 bc 3a 60 cd 3d
       -0.090539806 -0.11273632 -0.016115015 0.100281194
0001c0 00 a2 3f be 13 5e 30 bd de e4 20 bd 99 23 72 be
       -0.18714142 -0.043058466 -0.039280765 -0.23646392
0001d0 d9 af 30 be 80 fc 22 bd 3b 9f 2f be 1a 53 6b be
       -0.1725458 -0.039791584 -0.17150585 -0.2298092
0001e0 3f 02 14 3e f1 91 ee 3d 2c e3 96 bd 9f 52 d2 bd
       0.14453982 0.1164893 -0.07367548 -0.10269665
0001f0 a6 67 5c be ef fd 54 be 32 6f f5 bd 14 5f 37 be
       -0.21523914 -0.20799993 -0.119840994 -0.17907363
000200 26 ff 82 bd 31 27 98 3e 34 19 9c bd 7f 2d 06 3e
       -0.06396322 0.297174 -0.076219946 0.13103293
000210 8c e6 97 3e 65 93 41 bd aa e4 b1 bc 5c 6f 5a 3d
       0.2966808 -0.047259707 -0.02171548 0.053328857
000220 96 f4 8d be 1d a7 36 bd 0f 6a 36 be bc f1 93 bd
       -0.27725667 -0.044592965 -0.17813896 -0.072238415
000230 c0 b6 f2 bd ce 99 28 3e bb 9c 00 3e 7a c9 34 be
       -0.11851263 0.16464922 0.12559788 -0.17654982
000240 aa 7b 21 be 24 83 2c 3e bd 6e 3a be 4e 9e ca bd
       -0.1576983 0.16846901 -0.18206306 -0.098934755
000250 8b 1b e6 be 2d 64 76 3e 7d 8e c8 bd 76 26 3a bc
       -0.4494289 0.24061652 -0.097928025 -0.011361709
000260 4d f6 5d be bf 84 f3 bb a5 d0 01 3e dd 60 5d be
       -0.21675988 -0.007431596 0.12677248 -0.21618982
000270 85 0e 14 3e 73 ee 1e 3e 35 d3 27 be cb 7e 4f be
       0.14458664 0.15520649 -0.16389163 -0.20263211
000280 f4 56 51 3d df 43 2c be dc 62 fa bd 2d 47 74 be
       0.051108316 -0.16822766 -0.12225887 -0.23855276
000290 bd 7e a4 be 66 10 33 be 41 47 b0 be 5c 08 40 be
       -0.32127944 -0.17486724 -0.34429362 -0.18753189
0002a0 5b 0f 4e bd 7b 75 dd be 50 04 cf bc 3d 6c 30 3e
       -0.050307613 -0.43253693 -0.025270611 0.1722879
0002b0 51 f9 43 be 2b 7a 92 be fd 29 95 bd ea 77 76 be
       -0.19138075 -0.28608832 -0.07283399 -0.24069181
0002c0 b1 15 ec bd f9 50 54 3e 87 13 e7 3d ae 25 9d be
       -0.11527575 0.20734014 0.112830214 -0.3069281
0002d0 f2 a7 20 3e d3 cb a6 3d 04 94 33 bd ed 35 f5 bd
       0.15689066 0.08144345 -0.04384233 -0.11973176
0002e0 72 9e 77 3e 8f d5 64 be a9 36 5a be 0d 30 73 3e
       0.24181536 -0.22347091 -0.21309914 0.23748799
0002f0 a7 94 47 3e 6b 20 ab be 9e ce 28 be 20 0d 5a bc
       0.194903 -0.3342317 -0.16485068 -0.013308793
000300 75 00 d1 bd 50 2c 86 3c 4f 68 0d be 90 d5 c1 bd
       -0.10205165 0.016378552 -0.13809322 -0.09464562
000310 4c ba ab be 29 2a c7 bd 68 f3 a7 be d1 90 f6 3d
       -0.3354057 -0.09724838 -0.32802892 0.1203934
000320 f3 8a ca bd 22 18 95 bd f7 c4 38 bd ca 57 43 be
       -0.09889784 -0.072799936 -0.045109715 -0.19076458
000330 87 f1 d9 be c3 88 7b be 8c 73 b8 bd e9 89 3f bd
       -0.42567083 -0.24563889 -0.09006414 -0.04676238
000340 cd fa 3c be b3 b4 35 3d 0c 3e 77 be 11 62 62 be
       -0.18455048 0.04436178 -0.24144763 -0.22107722
000350 f1 39 c4 be a5 07 5e 3b b4 e7 4f be 08 f7 8d be
       -0.38325456 0.0033879068 -0.20303231 -0.27727532
000360 f8 57 a4 bd 46 97 79 be 5d 80 38 3e bf a9 f1 bd
       -0.08024591 -0.24374112 0.18017717 -0.117999546
000370 ec db 02 bd 30 72 94 3e 18 02 62 be ab 14 17 3d
       -0.031948015 0.28993368 -0.22071111 0.036884945
000380 ac 04 0c 3e 4e 0f 62 be ff c6 15 3e ef fc 11 3e
       0.13673657 -0.22076151 0.14626692 0.14256643
000390 c4 38 bd bd 13 96 8d 3b a2 24 15 3e 2e 8f 8b 3d
       -0.09239343 0.0043208688 0.14564756 0.06814419
0003a0 a7 9d 7a be e6 6a b8 3c 2f 27 2b bd e1 23 a9 be
       -0.24474202 0.02251191 -0.041785415 -0.33035186
0003b0 53 9c 02 be 11 83 2c be fd 25 5c 3e 73 85 3b be
       -0.12754945 -0.16846873 0.21498866 -0.18312626
0003c0 27 c8 31 be 68 ed 90 3d 7d 6c 86 be f4 52 5f be
       -0.17361508 0.07076532 -0.26254645 -0.21808988
0003d0 f7 34 ef bd f0 00 fa bd b6 16 f2 3c ae 70 83 bd
       -0.11680024 -0.1220721 0.029551845 -0.06417976
0003e0 ad 53 07 3e f8 7c 9c 3d 7d c2 63 be c9 46 2d be
       0.13215514 0.076410234 -0.2224216 -0.16921534
0003f0 79 f7 39 3c 55 33 4c 3e 9b a9 95 3a e0 79 a5 be
       0.011350506 0.19941457 0.0011418344 -0.32319546

fc_layers.3.bias f4 [64]
000000 0b f2 a0 bd 5f 66 18 bd cc a1 e1 3d f9 86 96 bc
       -0.07858666 -0.037207004 0.110171884 -0.018374907
000010 35 01 02 be c7 db 07 3e c3 86 1a bd 45 f5 1b be
       -0.12695773 0.13267432 -0.037726175 -0.15230282
000020 04 41 ea 3c 4e d2 96 3e 23 25 90 bb 5d 8d 84 3d
       0.028595455 0.29457325 -0.0043989583 0.064722754
000030 d6 16 ad bc 55 44 ec bd aa e1 13 be 07 cf 09 3e
       -0.021129053 -0.11536471 -0.14441553 0.13457881
000040 13 88 2e 3e 61 c3 41 be fe a8 c2 3c 6e 1d 20 3d
       0.17044096 -0.18922187 0.023762222 0.039090566
000050 3e 87 8b 3d cd 66 14 3e 1d 91 a6 bd 55 4d 2a bd
       0.06812905 0.1449234 -0.08133147 -0.041577656
000060 0b 3a 46 be 4b d6 b3 bc 2e 8e ba 3d 2f 0e 50 3d
       -0.19358079 -0.021952769 0.0910915 0.050794777
000070 b3 00 05 be 9a cb d2 3d 20 c1 01 be f7 14 41 3e
       -0.12988548 0.1029274 -0.12671328 0.18855654
000080 97 f8 c5 3d fd 47 c4 3d 54 4e ac bd dd e0 45 be
       0.096665554 0.09584043 -0.084133774 -0.1932406
000090 a5 4a 97 bd 76 e4 e1 3d f4 20 be 3d b0 91 8e 3d
       -0.07387284 0.110299036 0.09283629 0.069613814
0000a0 97 e3 55 be b8 30 79 bc 2b 50 3b 3e dd 63 3e be
       -0.208876 -0.015209369 0.182923 -0.18592782
0000b0 61 39 35 be ff 03 8a bd 74 6e 86 bb 02 b2 35 3e
       -0.1769767 -0.067390434 -0.0041025225 0.17743686
0000c0 da ec c8 bd 86 0f 70 3d c8 98 b8 3c 72 92 e4 3c
       -0.09810801 0.058608554 0.02253379 0.027901862
0000d0 08 e0 31 be 13 e2 b0 3b 39 7a 38 bd e1 07 a2 3d
       -0.17370617 0.005398044 -0.045038436 0.07911659
0000e0 b2 a3 e6 3d 9f 8f 87 bd bb 2f 77 bd 6c b3 ae 3d
       0.11261691 -0.066191904 -0.060348254 0.08530316
0000f0 7e 0c 52 be 5a 90 e0 3c b2 82 f2 3c c0 40 0b 3e
       -0.20512578 0.027412582 0.029603336 0.13598919

fc_layers.6.weight f4 [32, 64]
000000 e5 17 5e 3e 96 3e b6 bd 9b 1f 51 be 73 9e 62 3d
       0.21688803 -0.08898656 -0.20422213 0.05532689
000010 2e 2f d3 bc 8e 6f 67 3d 2e 81 49 3e fa 1f 79 3e
       -0.025779333 0.05650287 0.19678184 0.24328604
000020 1c c8 49 be 82 fd bc bd 59 b0 9e bd bb df 97 3e
       -0.19705242 -0.0922804 -0.077484794 0.2966288
000030 6a 66 e9 bb b8 1d 4d be 72 ab 10 3c ab 9f d2 bd
       -0.0071228044 -0.20030868 0.008829938 -0.102843605
000040 13 e8 98 3d 86 32 b9 3c 68 fc 5e bd df ea 1b bd
       0.0746614 0.0226071 -0.054439932 -0.038065787
000050 9b ce 6d 3e 5f c5 65 be 25 78 a7 bc 24 39 0e be
       0.23223345 -0.22438572 -0.020443032 -0.13888985
000060 01 03 78 be 71 15 8c be 63 4c 01 be f0 0e 37 3c
       -0.24219896 -0.27360108 -0.12626795 0.011172995
000070 72 bf 89 bc 89 43 de bd 5a 06 93 be ae e7 87 3d
       -0.016814921 -0.10852725 -0.28715783 0.06635986
000080 f2 8a 7e bc 30 e6 2a be 3f a6 6f 3e f0 96 60 be
       -0.015536057 -0.16689372 0.23403262 -0.21932578
000090 57 b3 52 be 22 4d 0e 3c 1f 46 d4 be 2c ac a2 be
       -0.20576225 0.008685382 -0.41459748 -0.31771982
0000a0 59 85 68 be 06 10 c8 3d f0 8b 80 be 85 fb 89 be
       -0.22707118 0.09768681 -0.25106764 -0.26949707
0000b0 11 d5 d6 3d 51 d1 4a be ad ba ed bd a3 a0 9d 3e
       0.10489858 -0.1980641 -0.11607871 0.3078662
0000c0 a4 9f 09 3e c2 35 f1 bd 16 40 36 be 03 37 f0 3d
       0.13439804 -0.117778316 -0.17797884 0.11729243
0000d0 56 08 06 bd 0f 99 93 be 5f 5a 27 3e b9 8c 87 3c
       -0.032722794 -0.28827712 0.16343068 0.016546594
0000e0 54 33 d5 be 77 24 3a bd 14 c1 9e 3d 3a f9 9f be
       -0.41640723 -0.04544493 0.077516705 -0.31244832
0000f0 3d d9 3b 3d c1 9e d9 3c 59 46 ed bd ac 4b 8b be
       0.04586147 0.026564958 -0.115856834 -0.2720617
000100 17 3d 3f be 30 e9 25 3d f7 53 74 be 75 5e 96 be
       -0.18675648 0.040505588 -0.23860155 -0.2936894
000110 50 45 21 be 3a 8c b9 3c bd d8 81 3e 92 60 6b 3e
       -0.15749097 0.022649873 0.2536067 0.22986057
000120 61 2b 1b be 80 02 f1 bd 32 06 46 3e 40 57 d8 3d
       -0.15153266 -0.11768055 0.19338301 0.105635166
000130 3c 81 97 be 68 d4 78 be 04 c0 87 be 57 c2 68 be
       -0.29590786 -0.24299777 -0.26513684 -0.22730385
000140 47 71 c3 bd 47 5d 1c be eb 7b 3d 3b 2d 09 2f 3e
       -0.0954309 -0.15269957 0.0028912972 0.17093344
000150 aa 19 f4 3c d2 9f 5e be 86 2f 7a be c2 51 59 be
       0.029797394 -0.21740654 -0.24432191 -0.21222594
000160 a4 ff cd 3d 66 16 54 be 1e 03 43 bd a3 14 79 be
       0.10058525 -0.2071167 -0.047610395 -0.24324279
000170 93 43 9b be 25 85 de 3c d0 a8 d7 bd cb e4 9d be
       -0.30324993 0.027163098 -0.10530245 -0.30838618
000180 fa db 3c be 61 66 83 bc 83 cb 2f bd 29 be 86 bb
       -0.1844329 -0.016040029 -0.042918693 -0.0041120243
000190 79 e6 33 3e ef d3 79 bd 95 7c 8f be 81 70 0c 3d
       0.17568387 -0.06099313 -0.28024736 0.03428698
0001a0 a5 f2 df bd d0 c9 f7 3d 14 e2 2c be b1 3c 28 3e
       -0.10934953 0.120990396 -0.16883117 0.16429402
0001b0 b2 21 78 3e 8d fc cc 3d f4 34 0d be f7 11 64 bd
       0.24231604 0.10009108 -0.13789731 -0.055681195
0001c0 8b 83 42 3e f5 09 cb bc 37 00 21 be 7e e4 90 be
       0.18995492 -0.024785021 -0.15722738 -0.28299326
0001d0 7e cc 74 bd 97 b7 33 3e 0a 68 fb bd 67 f2 0a bd
       -0.05976533 0.17550503 -0.12275703 -0.03392258
0001e0 5d 62 5d be 5e 96 6c bb 0d e9 c0 3c 62 94 c9 bd
       -0.21619554 -0.0036100368 0.023548627 -0.09842755
0001f0 f6 29 6b 3e 34 5e 6c 3d 4e e0 2c 3d b7 82 56 bd
       0.22965226 0.057707027 0.0422061 -0.052370753
000200 5b d6 7e be b0 f8 f1 be d0 bc 82 be ae 7d 71 3d
       -0.24886458 -0.47260046 -0.25534678 0.058957748
000210 42 12 28 be 4b 9e 16 bf 05 e4 98 be c9 88 87 3e
       -0.16413215 -0.58835286 -0.29861465 0.26471546
000220 47 b6 a4 3e c6 d6 6a 3e 46 6b 02 be 27 53 9f be
       0.32170317 0.22933492 -0.12736234 -0.31118128
000230 74 4e 4c be 23 a0 a1 3c 35 9f a3 3c 54 8b 39 be
       -0.19951802 0.01972968 0.019973377 -0.18119556
000240 01 5f df be 56 4d 18 3e 23 da 19 3e 85 51 9b 3e
       -0.4362717 0.14873251 0.15024619 0.30335632
000250 37 fd cd be b6 b8 b1 be 26 76 ef bd 95 f6 15 be
       -0.4023225 -0.34711236 -0.11692457 -0.14644845
000260 de d9 99 be 18 14 d4 be 6c 52 24 be 53 79 77 bd
       -0.30049032 -0.4142158 -0.16047066 -0.06041844
000270 ba 35 b2 bd 8f 98 da be fa 22 fe 3d 62 79 b5 be
       -0.08701654 -0.42694518 0.12409015 -0.3544417
000280 43 51 8d be 0a f0 58 be 24 92 31 be 3e 5f 8d be
       -0.2760106 -0.21185318 -0.17340904 -0.27611727
000290 2e ea 25 be 5b 10 52 be 46 a1 50 be 77 cf cd 3c
       -0.16202614 -0.20514052 -0.20374021 0.025123341
0002a0 96 74 e9 3d a9 9e af be 0b 1b c9 be a5 e6 63 bd
       0.1139919 -0.34300736 -0.39278445 -0.05563988
0002b0 fb 34 7f 3e 81 50 29 3a 3b f7 f7 bd e8 91 b0 be
       0.24922554 0.00064588344 -0.12107702 -0.34486318
0002c0 ab ee 4b be 0b e1 92 bc 7d 4b 63 bd 25 84 29 be
       -0.19915263 -0.017929574 -0.055491913 -0.16554315
0002d0 24 2a ab 3d 00 51 77 bd d2 f0 a2 be 76 1d a4 be
       0.08357647 -0.060379982 -0.31824356 -0.32053727
0002e0 b5 cb 3a be 9d 6f 53 3e da b9 e1 bd cb cf ca be
       -0.1824177 0.20648046 -0.110217765 -0.39611658
0002f0 7e 11 f7 bd 3d 9c a3 be 31 bd c6 be af 66 93 be
       -0.12063883 -0.31955138 -0.38816217 -0.2878928
000300 3a 32 3c 3d 20 d2 ae be 5c b7 c3 bd a6 8a 66 bd
       0.045946337 -0.34144688 -0.095564574 -0.05628457
000310 56 2a 61 3e 74 43 c7 3d b9 c0 85 3e 2a 1f 1e bd
       0.21988806 0.097296625 0.26123598 -0.03860394
000320 ce fa 1e be 33 0e ce bd 48 d4 28 3e 75 22 32 be
       -0.15525362 -0.10061302 0.16487229 -0.17395957
000330 3d 7b 0f be 34 40 e7 3d 67 cf 73 be 84 d8 ce bd
       -0.14011855 0.11291543 -0.23809586 -0.10099891
000340 78 1b 68 be d0 dd cc 3d 0b c3 e3 be 2f fc 06 3e
       -0.22666728 0.10003245 -0.44484743 0.13182138
000350 9f ed 8c 3b 6b 65 42 3d 1f 4a f2 3d d9 67 30 be
       0.0043007876 0.04746 0.11830544 -0.17227115
000360 10 25 7e be 62 37 9f bd 0c b0 11 3d db 27 ce 3e
       -0.24818826 -0.07774235 0.035568282 0.40264782
000370 fd 4b 21 be b8 52 2b be 5b ac 44 bd 9c 89 18 bd
       -0.15751643 -0.16730773 -0.048015933 -0.03724061
000380 9f ec 53 3d 58 68 da bd ea 3a bf bb 1f 46 a5 bd
       0.05173933 -0.10664433 -0.0058358805 -0.08070015
000390 72 f0 fe 3b bc 3e a4 bc 4c 1e 26 be b8 80 32 3d
       0.007780128 -0.020049445 -0.16222495 0.043579787
0003a0 a9 99 87 be e2 d3 d0 bd ff 06 af be c1 21 90 3d
       -0.2648442 -0.101966634 -0.34185025 0.07037688
0003b0 8e f0 e6 3c 78 dd 5b 3e 49 8d 21 3d 4d 64 23 be
       0.028190877 0.21471202 0.03944138 -0.1595623
0003c0 74 ed 54 bd 3a c6 01 be af a8 b2 be 58 b4 6f be
       -0.051984265 -0.12673274 -0.3489432 -0.2340864
0003d0 f4 41 b5 3b 51 45 29 be 6e ec 7e be 70 b8 2d 3e
       0.005531544 -0.16530348 -0.24894878 0.16964889
0003e0 8d 35 af 3e 23 00 92 3e 97 25 1b 3e 6c 95 17 be
       0.34220544 0.2851573 0.15151058 -0.14803094
0003f0 10 91 5e 3e 90 9e 25 be 9b 69 cf bd 36 fa 3b be
       0.21735024 -0.16173768 -0.101275645 -0.18357167

fc_layers.6.bias f4 [32]
000000 bd 03 85 bd 92 8c ad be 51 d1 87 3d ad 1d 9c bc
       -0.06494854 -0.3389631 0.06631721 -0.01905712
000010 88 2e 8c 3e c8 e1 cb be 44 13 0e be 60 84 b5 bd
       0.2737925 -0.39820695 -0.13874537 -0.08863139
000020 cb 48 65 be ad c7 8f bd af 9e 5d 3c b5 49 95 be
       -0.2239105 -0.07020507 0.013526603 -0.29157797
000030 81 26 02 3e 38 48 16 3e 40 98 66 bd 7f be a1 3d
       0.1271 0.14675987 -0.05629754 0.07897662
000040 a3 86 95 3e 21 c4 e1 bc ad 60 57 bd 38 43 35 3e
       0.29204282 -0.027559342 -0.05258243 0.17701423
000050 ee e8 11 3f 61 72 8c be bc 19 12 3e 54 35 63 3e
       0.5699605 -0.27431014 0.1426763 0.22188312
000060 de 40 f1 3d cc dc c8 be d5 eb 73 bd 5c b0 1d bc
       0.117799506 -0.39230955 -0.05955108 -0.009624567
000070 0b fc 93 bd e3 27 e1 3e 33 bf 1a 3f c2 7e 6b 3e
       -0.07225808 0.43975744 0.60447997 0.22997573

fc_layers.8.weight f4 [4, 32]
000000 8d b3 06 be 0a 15 ef bd 28 02 c7 be cf 31 48 3e
       -0.1315443 -0.11673935 -0.38868833 0.1955025
000010 f3 20 38 3c a4 90 9c bd 21 b3 88 be 61 e7 58 bc
       0.011238324 -0.076447755 -0.26699165 -0.013238759
000020 a8 7e 2a be 51 dd 99 be 3f 1f 89 3e d0 5e bf bd
       -0.16649878 -0.30051664 0.2678165 -0.09344256
000030 29 24 61 be ea 5d 0b bd 76 e1 e7 bd 42 1e 4d bd
       -0.2198645 -0.03402511 -0.113223 -0.050077684
000040 c5 57 e4 3d 83 19 3a 3d 22 a8 9c 3d 53 e7 53 3e
       0.11149553 0.045434486 0.07649256 0.20693712
000050 23 1b a1 3e 08 96 9a 3e 6b dc 49 bd a4 b7 03 3e
       0.31466016 0.3019259 -0.049282473 0.12863022
000060 c2 19 95 3d 3a e9 cf bd ab 57 25 bd 95 6d c9 3d
       0.072803035 -0.10151906 -0.04036681 0.09835354
000070 a9 48 ee bb 92 5b fc 3d 5d 6d 86 3e 1a c6 1c bf
       -0.0072718454 0.12322153 0.26255313 -0.6123978
000080 4f bc 17 bf 60 eb 21 be 4d bc 80 be f8 71 16 be
       -0.5927171 -0.15812445 -0.25143662 -0.14691913
000090 08 7f 39 bf 82 56 97 be 0d 6a 93 bd b3 80 f7 3c
       -0.7245946 -0.29558188 -0.07197962 0.030212736
0000a0 e0 16 cc bc eb e2 91 3d e1 87 55 3e 27 7f bc 3c
       -0.024913251 0.07123359 0.20852615 0.02300985
0000b0 01 01 e3 3c d7 b7 1b 3e 77 56 45 be 25 12 8b be
       0.02771044 0.15206848 -0.19271265 -0.2716228
0000c0 e7 13 4a 3e 26 bd 66 3c fd d9 b8 3d 35 66 09 3e
       0.19734155 0.014083182 0.09025953 0.13417895
0000d0 c0 61 99 3e b9 1c fa bc 59 c9 40 3e 9a 8d 30 3e
       0.2995739 -0.030531274 0.18826808 0.17241517
0000e0 ef de 45 be 97 de 94 be 3e 48 1f be 97 0b 0b 3e
       -0.19323324 -0.29076073 -0.15554902 0.1357864
0000f0 2f 97 92 bc 7a 35 83 3e 54 14 7e 3e 82 0e 85 be
       -0.017894356 0.25626737 0.24812442 -0.2598763
000100 2f 99 6e 3d 97 3b 6b bd 63 e6 d6 bd 69 ea bd 3b
       0.058251556 -0.057429876 -0.104931615 0.005795766
000110 3a 92 c4 bd df 06 89 3e f2 a1 8c be bf da 5d be
       -0.09598203 0.26763055 -0.27467304 -0.21665476
000120 f1 a0 2c be c9 58 a0 3c 1a 7f 7d 3c b0 39 d0 bc
       -0.1685827 0.019573586 0.015472198 -0.025418133
000130 5b d1 19 3d c2 0e 9f bd ab a8 9b be 8d fd bf 3c
       0.037553173 -0.07766487 -0.3040212 0.023436332
000140 8a a0 c8 bd bd f8 5a bc 39 ac 2e 3e 75 8b 68 3b
       -0.097962454 -0.013364968 0.17057885 0.0035483513
000150 b7 3c 86 3e 7d 10 31 3e c7 bb 8e 3e 9b ab 7d be
       0.26218197 0.17291446 0.27877638 -0.24772494
000160 01 90 35 3e 6e 35 e3 bd 14 bd 4f 3d 39 55 fe 3c
       0.17730714 -0.11094175 0.05071743 0.031046497
000170 70 52 25 be e2 14 46 3e 15 7b da 3e ac 34 43 bf
       -0.16144729 0.19343904 0.4267203 -0.76252246
000180 a7 18 74 be 98 37 39 3d 6f 52 17 bd be c6 72 be
       -0.23837529 0.045219034 -0.03694385 -0.23708627
000190 ec 2e bf be 2c 7d 5b be 4a 67 f9 bd 22 95 67 3d
       -0.37340486 -0.21434468 -0.12177904 0.05653871
0001a0 b3 75 97 3d 6d f8 54 3d ab c1 92 3e 7d bb 1b 3e
       0.07395496 0.05199473 0.28663382 0.1520824
0001b0 4c ab e4 3d a3 e9 b3 3c 20 1b 8e 3e 3f 99 1b be
       0.11165485 0.021961993 0.2775507 -0.15195177
0001c0 27 f5 18 3e a0 62 4f 3e 36 58 68 3e 74 8d b4 3c
       0.14937268 0.20252466 0.226899 0.022040106
0001d0 76 76 30 3e a1 10 e2 3d d1 f7 98 be 7c c6 91 3d
       0.1723269 0.11038328 -0.2987657 0.07117936
0001e0 9b 8f c9 bc 1f 2a a3 be e6 a5 70 bd 6b 73 af 3d
       -0.02460461 -0.31868073 -0.058751963 0.08566936
0001f0 d9 e4 73 3e 32 6a 25 3e e1 f4 18 3c 59 c3 f6 bd
       0.23817767 0.16153792 0.009335727 -0.12048978

fc_layers.8.bias f4 [4]
000000 b1 b4 60 3e 2e 37 89 3e 5b 6d 79 3e 81 75 ee 3e
       0.21943928 0.2679991 0.24358122 0.46574023
