output/dqn/model/4x4/12000.pth (torch, 53480 bytes, 8 tensors)

fc_layers.0.weight f4 [128, 16]
000000 56 34 0a 3e cd 52 56 3e 00 8c a5 3c fd 4d 64 3e
       0.13496527 0.20930023 0.020208359 0.22295375
000010 d9 2c 06 3f 80 79 f0 bd 72 ed 04 3f a6 09 f1 3e
       0.5241218 -0.11741924 0.5192481 0.47077674
000020 0e 51 41 3e 68 10 f2 3e e7 b8 e7 be 80 d7 e8 be
       0.18878576 0.47278142 -0.45258257 -0.45476913
000030 51 36 10 3f 3b 9d 0b 3f b8 47 bf 3d 58 41 9a 3e
       0.5633288 0.5453679 0.09339851 0.30127978
000040 b8 10 75 be 37 6f e3 bc 38 ad ac 3d ea 98 fb be
       -0.23932159 -0.027762992 0.08431476 -0.49140102
000050 fe 5b 48 3e 36 57 f8 3e 20 db c8 be 2a 5f 0b bf
       0.19566342 0.48504037 -0.3922968 -0.54442084
000060 4f 69 d3 3e 40 2f 09 be 46 97 a7 be 20 96 1d bd
       0.41291282 -0.1339693 -0.327326 -0.03847325
000070 ab e9 16 3f d5 f3 ac 3e f1 98 73 bd 6e 88 07 be
       0.589503 0.3377978 -0.05947203 -0.13235638
000080 db e1 07 be 52 b1 e1 be 4c b0 a5 bd c2 15 02 3e
       -0.13269751 -0.44080597 -0.080902666 0.12703612
000090 85 08 b7 be 9e ad ce 3e d2 47 b2 3e fa e5 28 be
       -0.35748687 0.40366834 0.3482042 -0.16493979
0000a0 23 ab 5c bd 1e d3 49 3e 53 9f 6c 3e c0 53 d1 bd
       -0.053874146 0.19709441 0.23107652 -0.10221052
0000b0 fe d6 af 3e 31 32 12 bf 32 8b a0 3e 00 81 a0 3d
       0.34343714 -0.57107836 0.31356198 0.07837105
0000c0 fd 5a e4 be 7c f0 19 3e 09 9e 08 bf 14 45 14 be
       -0.4460067 0.15033144 -0.5336614 -0.14479476
0000d0 92 73 5d be 4a 95 9f 3e de 88 0d bf d8 0b a2 be
       -0.21626118 0.31168586 -0.5528697 -0.3164966
0000e0 ec 02 0c 3f f4 f0 2a 3e cf 8b 37 3e 48 8e 98 3e
       0.5469196 0.16693479 0.17924426 0.29796052
0000f0 28 bf 91 be b3 15 a5 3e 57 ca 1c 3e 18 50 e3 bd
       -0.28466153 0.32243118 0.15311562 -0.11099261
000100 07 01 9c 3c 52 d1 9c 3e d5 bf 24 3e 61 83 07 bf
       0.019043459 0.3062845 0.16088803 -0.52934843
000110 5c 1d 1a bf 96 9c f7 3e a4 3b e3 be e0 62 6a be
       -0.6020105 0.48361653 -0.4438144 -0.2288928
000120 f7 ed c6 3e c2 1b 17 be 38 37 9e 3e bc 67 3c be
       0.38853428 -0.14756683 0.30901504 -0.18398947
000130 58 61 a6 bd 47 a9 9c be ea 67 40 3e a5 9d 05 3f
       -0.081240356 -0.30597898 0.1878964 0.5219367
000140 da 83 df be a0 a9 55 be cc 84 22 be 9f 04 89 3e
       -0.43655282 -0.20865488 -0.1587097 0.26761338
000150 dc 16 05 bf 9a 67 a5 3e 58 a2 cf 3d a0 be 8f bc
       -0.51988006 0.32305604 0.101383865 -0.017546952
000160 2e 88 b2 3e 72 0b 70 3e 4e 68 6d be b2 82 1f be
       0.34869522 0.23441866 -0.2318432 -0.155772
000170 60 b4 5a 3d bd 66 71 3e 98 56 8b 3d ac a1 0b bf
       0.053394675 0.23574348 0.06803626 -0.54543567
000180 5f 02 3b be 63 ce 52 be 59 6a 88 be 88 a2 0c bf
       -0.18262623 -0.20586543 -0.26643637 -0.54935503
000190 23 77 69 3c b0 fd 7f 3e 35 cf 0f bf ae 1d 14 be
       0.014249596 0.24999118 -0.5617555 -0.14464447
0001a0 92 1a 59 be 52 e5 86 be 90 51 76 3e 0a 11 db 3e
       -0.21201542 -0.26346833 0.24054551 0.42786437
0001b0 68 20 ab bd ce c9 95 bd 1c 8b f0 3d 98 94 5d 3e
       -0.083557904 -0.07313882 0.11745283 0.21638715
0001c0 c0 d2 ab bc aa d8 a4 be 1f 32 f8 be 72 86 f7 be
       -0.020974517 -0.32196552 -0.4847574 -0.4834476
0001d0 00 4c 33 3b f0 7f 69 be a1 87 e1 3e 70 de 49 bd
       0.0027358532 -0.2280271 0.4404879 -0.0492844
0001e0 1e 7a 4f 3e 4c d9 db be 17 8c 23 3e 44 40 be 3e
       0.20261428 -0.42939222 0.15971409 0.37158406
0001f0 c4 22 6c be 1a 08 f2 3e e0 1e cc 3d f8 cd 19 bf
       -0.23060137 0.47271806 0.099668264 -0.6007991
000200 d0 40 90 3d 93 3f a5 3e 98 d0 c2 bd a8 5f cc be
       0.07043612 0.32275066 -0.09512442 -0.3991673
000210 f6 ae 0c be 7b 89 fb be 12 8e 33 be 78 15 dc be
       -0.13738617 -0.49128327 -0.17534664 -0.4298513
000220 18 6e 07 bf d2 09 03 3f ce d2 4d be 5c f2 68 3e
       -0.52902365 0.5118686 -0.20099947 0.22748703
000230 38 e5 f9 be bf ce b4 be 43 10 63 3e 28 01 f6 bd
       -0.48807693 -0.35313985 0.22174172 -0.12011939
000240 d6 a8 25 3e cc 88 16 bf 8e d1 14 bf 5f 09 00 bf
       0.16177687 -0.58802485 -0.58132255 -0.500143
000250 7a 6e 04 be 66 4c da 3e c8 e2 dd be 58 9d f5 be
       -0.12932768 0.42636412 -0.43337083 -0.47971606
000260 6c a2 33 bd 66 34 b3 3d 01 80 8d 3e 98 2b 1c be
       -0.04385607 0.087502286 0.27636722 -0.15251005
000270 40 d4 fc bd d3 90 81 3e 64 ba 9d bd df d8 0a bf
       -0.12345171 0.25305805 -0.07701567 -0.5423717
000280 9c 39 c1 bc 40 fe a8 bd da 36 10 bf 86 16 27 be
       -0.02358704 -0.08251619 -0.56333697 -0.16317186
000290 64 51 fc be 76 c7 96 3e 72 e9 0e 3d 2e bd c8 3e
       -0.49280846 0.29449052 0.0348906 0.39206833
0002a0 a7 01 23 3d e7 67 7e 3e 65 67 bb 3e f0 74 90 3d
       0.039796498 0.24844323 0.3660232 0.07053554
0002b0 a6 72 99 3e c5 92 06 bf d1 2b 69 3e 4a bb 86 3e
       0.29970282 -0.525677 0.22770621 0.26314765
0002c0 5f 3e d0 3d f7 7b 2f 3d 60 e4 53 be 93 57 a3 be
       0.10168146 0.04284283 -0.20692587 -0.3190275
0002d0 ab 99 aa 3e 5a 92 81 be 82 ae b4 3e 98 a9 20 3e
       0.33320364 -0.2530697 0.3528939 0.15689695
0002e0 84 38 63 3e 5d 4f 9d 3e 38 8b fc bd 04 cd 18 be
       0.22189528 0.30724612 -0.12331241 -0.14921957
0002f0 f6 18 f4 3e 70 d7 e3 ba 2a 25 2f be 40 95 ba bc
       0.47675294 -0.0017382931 -0.1710402 -0.022776246
000300 08 89 10 bf 2f 1c 5f 3e 13 6b 52 3e 7e f9 0c bf
       -0.56459093 0.21788095 0.20548658 -0.55068195
000310 22 89 db 3e 30 f5 4d 3d e8 62 22 be 2d b9 af be
       0.42878062 0.050282657 -0.15858042 -0.34320965
000320 bc b0 1b bf 4c ca 68 3e c1 d0 da 3e 10 08 1c be
       -0.6081655 0.2273342 0.42737392 -0.1523745
000330 a8 a1 c6 be 96 4e da be 74 1c c1 3e 60 9e ed bc
       -0.3879521 -0.4263808 0.3771702 -0.029006183
000340 c6 6e b0 3e fd fe c4 3e d0 a9 c7 be a9 96 60 3e
       0.34459513 0.3847579 -0.38996744 0.21932472
000350 13 91 e0 3e ca 24 ce 3e 89 0c a6 3e e6 4a a8 3e
       0.43860683 0.40262443 0.3243144 0.32869643
000360 14 bb 0f 3f b2 0d 04 3e 5a 82 9d be 20 c5 13 bd
       0.56144834 0.1289585 -0.30763513 -0.036076665
000370 df 0a 10 3f be 59 0c 3e 94 67 13 be 30 a8 d4 bd
       0.5626659 0.13706109 -0.1439498 -0.10383642
000380 72 b0 06 bf 93 77 f7 3d fc f8 bc be c9 8a fc 3d
       -0.52612984 0.12083354 -0.3690871 0.12331159
000390 ed 48 8a be 2e 49 d7 3e 16 84 a1 be a1 38 0b 3f
       -0.27008763 0.4204802 -0.31546086 0.54383284
0003a0 7d 4c 0e 3f d5 e3 bf 3e d2 a4 12 bf 82 13 9e 3e
       0.5558546 0.3747851 -0.57282746 0.30874258
0003b0 e0 01 5b be ae 06 4a be 31 d0 9b be 92 e3 cc 3e
       -0.21387434 -0.1972911 -0.30432275 0.40017372
0003c0 fe 93 80 bc 52 f9 9a 3d 3f 8e ac 3d 4c ad bc be
       -0.015695568 0.07567085 0.08425569 -0.36850965
0003d0 08 3f 87 3d 68 66 4d 3e 9c 34 a0 3e 00 dc 74 3e
       0.06603819 0.20058596 0.31290138 0.23912048
0003e0 f6 e0 16 bf d9 10 95 3d c1 d7 9f 3d a2 2c bd 3e
       -0.58937013 0.07278604 0.07804824 0.36948115
0003f0 2c 95 3b 3e 71 7f f4 3e 7d e5 e4 bd 30 38 11 bd
       0.18318623 0.4775348 -0.11176584 -0.035453975

fc_layers.0.bias f4 [128]
000000 4b ff 6b be 7f c4 0c be 0c aa 72 be 8a 98 2d bd
       -0.23046605 -0.13746832 -0.2369768 -0.0423818
000010 24 06 4b be e5 de b3 be 3f 06 0a bd d2 c2 9d be
       -0.19826561 -0.35130993 -0.033697363 -0.308127
000020 a9 99 3d be f3 97 ec bd 15 cf 7f be 8f 17 6f be
       -0.18515648 -0.115524195 -0.2498134 -0.2334883
000030 2e 5e 9e be be 85 18 be b9 23 af 3c b6 f5 ae bd
       -0.30931228 -0.14894769 0.021379339 -0.085429594
000040 bc ae 93 bd 6c 84 d9 bd 56 de 50 be 89 71 80 be
       -0.07211062 -0.106209606 -0.20397314 -0.2508662
000050 e0 d9 b2 be a5 18 3a be 1a ef 6e be 74 af a6 bd
       -0.3493185 -0.18173464 -0.23333398 -0.08138934
000060 d6 06 62 be 18 55 f4 bc 74 32 b4 be 09 69 a5 bc
       -0.2207292 -0.029825732 -0.35194743 -0.020191686
000070 07 62 2e be ce c7 cd 3d 57 00 8a be 29 4f 17 be
       -0.17029582 0.10047875 -0.26953384 -0.14776291
000080 21 48 ec be f6 3c 74 bd a1 e7 71 be 4b 61 3c be
       -0.4614878 -0.05962845 -0.23623516 -0.1839649
000090 43 5f bc be 7f 24 11 be f9 8d d8 bd ab a6 a9 be
       -0.3679143 -0.14174078 -0.10573954 -0.3313497
0000a0 f2 ae 8f bd 71 a7 8d be a6 c0 7d be c1 47 1e be
       -0.0701579 -0.2766681 -0.24780521 -0.1545706
0000b0 7b 7d b5 bd 09 74 2f bd 55 f2 41 be 1b b7 c6 be
       -0.08861824 -0.04283527 -0.18940099 -0.38811573
0000c0 1d 75 c9 bc 80 a0 a9 bd 5a 4e 4a be f5 8d 16 be
       -0.024591977 -0.08282566 -0.19756451 -0.1470259
0000d0 e2 1e 98 be 0d d0 83 be 7b fc 07 3d 5f af 3a be
       -0.29711062 -0.25744668 0.03319977 -0.18230961
0000e0 ef 03 7d be 65 02 ab be b6 96 19 be cd 0d 25 be
       -0.24708532 -0.33400264 -0.14998898 -0.16118546
0000f0 7a ee b6 bc 5e 15 2f be fc 2d b9 be 49 71 4d be
       -0.022330511 -0.17097995 -0.36167896 -0.20062746
000100 29 1e a7 bd ec 0d be be 75 b2 56 bd 66 35 6f be
       -0.081600495 -0.37119997 -0.052416284 -0.23360214
000110 b7 7c 0e 3e 88 ed f7 bd f7 16 01 be 9a f0 b0 be
       0.13914762 -0.12105852 -0.12606417 -0.34558564
000120 e5 aa 6f be 51 e8 cc bd be 0d a7 bd 58 34 9c bd
       -0.23405035 -0.10005248 -0.08156918 -0.07627171
000130 77 85 80 be e9 ca 25 be 11 60 0d be cf 42 9b be
       -0.25101826 -0.16190685 -0.13806178 -0.30324408
000140 d6 db 46 be 7e 33 8a be 75 f8 80 be 2c 93 94 be
       -0.19419798 -0.2699241 -0.25189558 -0.29018533
000150 6f a6 57 be 7c bb dc bd da e2 77 be d3 66 05 be
       -0.21059583 -0.10777947 -0.24207631 -0.13027506
000160 68 88 97 be 4a f4 3c be 06 7e 8b bd 0d 34 ff be
       -0.29596257 -0.18452564 -0.068111464 -0.498444
000170 79 86 3b be 94 62 ea bd 7d 00 03 be 0e 83 c9 be
       -0.18313016 -0.114445835 -0.12793155 -0.393578
000180 d3 4a d3 bd b9 e2 ba bd b2 73 72 be 1c 69 05 bd
       -0.10317006 -0.09125275 -0.23676947 -0.032570943
000190 30 4a 48 be 8c 76 bf bd 8f 27 1a be 73 70 c3 be
       -0.1955955 -0.09348783 -0.15054153 -0.3817173
0001a0 04 de 90 be 2b 1b 50 be 83 41 c6 bd 99 a3 46 bd
       -0.28294384 -0.20322864 -0.09680464 -0.048495863
0001b0 40 ff 27 be 0a 02 ca 3d 6f 0b 97 bb 40 6d 93 be
       -0.16405964 0.0986367 -0.0046095173 -0.2879429
0001c0 5f b7 9d be 89 35 5e be c8 2a af be d4 29 ae be
       -0.30803964 -0.2170011 -0.34212327 -0.34016287
0001d0 9c 67 5c be 62 c9 23 be b3 93 94 be 7d 48 06 be
       -0.21523899 -0.1599479 -0.29018936 -0.1311359
0001e0 e6 c5 af be b1 a8 c2 be 53 5d 99 be d0 b0 7a be
       -0.34330672 -0.38019326 -0.29954013 -0.24481511
0001f0 3b 6f 90 be b2 f4 db bd 2e 95 4c be 2a 41 94 be
       -0.28209862 -0.10740031 -0.19978783 -0.28955966

fc_layers.3.weight f4 [64, 128]
000000 1e fe cd 3d e7 54 33 be d4 e1 0f be ab e6 44 be
       0.10058235 -0.17512856 -0.1405099 -0.19228618
000010 92 9f d5 bd 27 0e 88 3d 09 ab 75 3c b9 bc b9 bc
       -0.10430826 0.06643324 0.014994391 -0.022672998
000020 c4 a2 3a 3d 98 58 c3 ba 42 4c 84 bd 15 cb ab bd
       0.04556538 -0.0014903722 -0.064598575 -0.08388344
000030 22 3d 89 be ad 3a 4a bc aa 47 a3 bd d7 da 28 be
       -0.26804453 -0.012343091 -0.07972653 -0.16489731
000040 41 a2 7d 3d c8 74 75 bd 5b 6b 9b 3d 8b ac 19 ba
       0.061922316 -0.059925824 0.07588836 -0.0005862198
000050 84 5f 65 be 91 a6 bc 3c 5a 4a c9 3b bc 2b f0 bd
       -0.22399718 0.023028644 0.0061428966 -0.11727092
000060 12 60 85 bd 0e 54 2a be 60 f5 d5 bd c5 e1 db bd
       -0.065124646 -0.16633627 -0.10447192 -0.107364215
000070 bf fc 18 be 44 36 bd bd d0 e0 d8 3d 4b 83 32 bd
       -0.14940165 -0.09238866 0.105897546 -0.043582242
000080 c9 b6 cb 3d d8 fd 30 bd 03 cc f5 bd 52 57 b0 3d
       0.09946973 -0.043210834 -0.12001803 0.08610405
000090 d4 f0 ee bd a8 f0 4f be ac 10 8d 3d 63 05 6e be
       -0.11667028 -0.20306647 0.068879455 -0.23244242
0000a0 29 86 ae bd 99 47 59 be da 16 5d be bf e8 93 bd
       -0.08521683 -0.21218719 -0.21590748 -0.07222127
0000b0 66 cb 02 be 98 80 89 3c 88 bb 01 3d 0c 93 a5 bd
       -0.12772903 0.016784951 0.031672984 -0.080846876
0000c0 80 a3 0a bd 44 9b 2c be b9 0f 03 3e e1 8c 8b bd
       -0.033847332 -0.16856104 0.12798966 -0.0681398
0000d0 46 42 b0 3d 47 4c 4e be 90 70 4f be 01 74 bb 3d
       0.08606391 -0.20146285 -0.20257783 0.09152985
0000e0 8c 3e 66 be 28 8a 2d be 94 65 3d be 2d fc 22 3e
       -0.22484797 -0.16947234 -0.1849578 0.1591651
0000f0 a7 a8 c4 3d cc f6 20 be 96 78 00 be 55 cb 56 3d
       0.096024804 -0.15719146 -0.12546 0.052440006
000100 d3 60 4a be 85 67 18 3d 25 cc 78 bd c0 20 bd bd
       -0.19763498 0.0372081 -0.060741562 -0.09234762
000110 60 16 58 be 3d f0 e1 bd 8a a8 6b 3d b6 83 4f 3e
       -0.21102285 -0.1103215 0.05753378 0.20265087
000120 c0 12 ad bd 27 a1 06 bd 4f fa 46 be ff bb 61 be
       -0.08450842 -0.03286853 -0.19431423 -0.22044371
000130 a4 bc 94 bc 91 87 e1 3d 68 2d 94 bd f8 44 bd 3d
       -0.018156357 0.11012185 -0.07235223 0.0924167
000140 03 b2 53 be b0 bc 31 3d 33 1c 09 3e 24 ce 20 be
       -0.20673375 0.043392837 0.13389663 -0.15703636
000150 3a 3b 07 3e 18 d0 24 be a9 06 a6 bd 67 83 28 3d
       0.13206187 -0.16095006 -0.08106739 0.04114094
000160 e4 b6 85 bd d7 34 47 be 48 1b a3 3d b0 64 7d bd
       -0.06529024 -0.1945375 0.07964188 -0.0618636
000170 b8 5d 51 bd a2 54 c6 bd c3 2a e1 ba 03 78 c7 bd
       -0.051114768 -0.09684111 -0.0017178882 -0.09739687
000180 04 bd 55 3b 13 78 14 be 98 36 59 be b2 80 8d 3d
       0.0032613883 -0.1449893 -0.21212232 0.06909312
000190 f0 07 0e 3e 41 68 39 3d d4 60 8f bd 2b f2 2b 3e
       0.13870215 0.04526544 -0.070008904 0.16791598
0001a0 2e b6 87 be ac f3 41 be a3 c9 38 bc f5 e1 5e 3d
       -0.2650618 -0.1894061 -0.011278543 0.05441471
0001b0 ef 6c b9 bd 4d e2 e6 bd a3 03 84 bc 3a 60 cd 3d
       -0.090539806 -0.11273632 -0.016115015 0.100281194
0001c0 00 a2 3f be 13 5e 30 bd de e4 20 bd 99 23 72 be
       -0.18714142 -0.043058466 -0.039280765 -0.23646392
0001d0 d9 af 30 be 80 fc 22 bd 3b 9f 2f be 1a 53 6b be
       -0.1725458 -0.039791584 -0.17150585 -0.2298092
0001e0 3f 02 14 3e f1 91 ee 3d 2c e3 96 bd 9f 52 d2 bd
       0.14453982 0.1164893 -0.07367548 -0.10269665
0001f0 a6 67 5c be ef fd 54 be 32 6f f5 bd 14 5f 37 be
       -0.21523914 -0.20799993 -0.119840994 -0.17907363
000200 42 a4 b2 bd fa a2 9a 3e d3 8e b4 bd 4a ed 0f 3e
       -0.08722736 0.30202466 -0.08816304 0.14055362
000210 80 8a 8f 3e 65 93 41 bd aa e4 b1 bc f5 58 4e 3d
       0.28035355 -0.047259707 -0.02171548 0.050377805
000220 96 f4 8d be 95 3b 3b bd 96 c6 55 be c4 c9 c7 bd
       -0.27725667 -0.04571112 -0.20876536 -0.097552806
000230 c0 b6 f2 bd a3 05 35 3e 33 e9 b4 3d 38 c8 27 be
       -0.11851263 0.17677931 0.08833542 -0.16384971
000240 aa 7b 21 be ed 75 1a 3e e0 70 47 be 75 8d e4 bd
       -0.1576983 0.15084048 -0.19476652 -0.11159793
000250 8b 1b e6 be 81 ae 7c 3e 86 fe 04 be d2 ba 05 bd
       -0.4494289 0.24675943 -0.12987718 -0.03264887
000260 e1 85 6a be f6 80 95 bc 1f 72 00 3e 09 58 53 be
       -0.22902633 -0.01824997 0.12543534 -0.20639051
000270 12 5b 0e 3e ee 72 33 3e 35 d3 27 be cb 7e 4f be
       0.13901928 0.17524311 -0.16389163 -0.20263211
000280 f4 56 51 3d df 43 2c be 63 6a 00 be 2d 47 74 be
       0.051108316 -0.16822766 -0.12540583 -0.23855276
000290 bd 7e a4 be 66 10 33 be 63 1e c0 be 5c 08 40 be
       -0.32127944 -0.17486724 -0.37523183 -0.18753189
0002a0 c6 00 4d bd 7b 75 dd be 91 e3 f6 bb 6a 2a 50 3e
       -0.050049566 -0.43253693 -0.0075344522 0.2032868
0002b0 9c b5 50 be 2b 7a 92 be 61 61 a6 bd ea 77 76 be
       -0.20381778 -0.28608832 -0.08124042 -0.24069181
0002c0 ab c9 18 be 11 fe 2a 3e 5b b1 cf 3d 0f a2 9c be
       -0.1492068 0.16698481 0.1014125 -0.3059239
0002d0 56 ee 42 3e 59 f2 8c 3d da c3 9f bc cb 7b 09 be
       0.1903623 0.06882162 -0.019502569 -0.1342613
0002e0 0d 3f 81 3e 8f d5 64 be a9 36 5a be 2a 0e 6f 3e
       0.25243416 -0.22347091 -0.21309914 0.23345247
0002f0 11 7f 1f 3e 1d e9 b7 be 9e ce 28 be 5f 85 7c bc
       0.15575816 -0.3592004 -0.16485068 -0.0154126575
000300 d0 82 af bd 50 2c 86 3c de 11 2c be 7a 36 ec bd
       -0.085698724 0.016378552 -0.16803691 -0.11533828
000310 4c ba ab be 29 2a c7 bd 92 67 ad be d1 90 f6 3d
       -0.3354057 -0.09724838 -0.3386808 0.1203934
000320 05 6e e3 bd 16 f8 bb bd f7 c4 38 bd ca 57 43 be
       -0.11104969 -0.09178178 -0.045109715 -0.19076458
000330 87 f1 d9 be e6 9e 7d be 41 13 cf bd 16 5e 73 bd
       -0.42567083 -0.24767646 -0.10111094 -0.0594159
000340 43 c9 55 be 77 ec 6b 3c 36 0c 79 be a0 5f 6f be
       -0.20877557 0.014399639 -0.24321064 -0.23376322
000350 f1 39 c4 be 07 af 42 bc a8 c9 50 be c2 4d 92 be
       -0.38325456 -0.01188255 -0.20389426 -0.2857495
000360 14 5b ba bd 7e 82 83 be 39 36 38 3e 98 21 05 be
       -0.09099403 -0.25685495 0.17989434 -0.13001096
000370 ec db 02 bd 12 45 86 3e 6f 25 6e be ab 14 17 3d
       -0.031948015 0.2622457 -0.23256467 0.036884945
000380 2e 9b 1f 3e 46 10 6f be ff c6 15 3e e4 c7 0d 3e
       0.1558654 -0.23346052 0.14626692 0.13845783
000390 69 ab e6 bd 36 5e d9 3b f1 d7 2b 3e a9 99 66 3d
       -0.11263163 0.0066335453 0.16781594 0.056298885
0003a0 27 bd 83 be e6 6a b8 3c c7 1f fc bc e1 23 a9 be
       -0.2573025 0.02251191 -0.030776871 -0.33035186
0003b0 53 9c 02 be 11 83 2c be e6 41 5a 3e 73 85 3b be
       -0.12754945 -0.16846873 0.21314201 -0.18312626
0003c0 27 c8 31 be 68 ed 90 3d db ff 7f be 71 cb 75 be
       -0.17361508 0.07076532 -0.24999945 -0.24003388
0003d0 34 b2 f2 bd 66 65 f7 bd b6 16 f2 3c 75 72 87 bd
       -0.11850396 -0.12079887 0.029551845 -0.06613628
0003e0 d6 4d e3 3d f8 7c 9c 3d 7d c2 63 be 3b c8 2d be
       0.110988304 0.076410234 -0.2224216 -0.16970913
0003f0 cb db 92 39 5e c2 5c 3e 27 02 30 3d f5 f2 ab be
       0.0002801105 0.2155852 0.042970803 -0.335838

fc_layers.3.bias f4 [64]
000000 0b f2 a0 bd a7 68 6c bd 32 62 de 3d f7 d0 ce bc
       -0.07858666 -0.05771699 0.10858573 -0.025246127
000010 35 01 02 be 35 cd 10 3e 75 3c 17 bd 45 f5 1b be
       -0.12695773 0.1414078 -0.03692289 -0.15230282
000020 6a fa cd 3c 67 bf 92 3e c8 21 96 bc 08 c2 ad 3d
       0.02514382 0.28661653 -0.018326655 0.08484274
000030 e0 2d 0a bd 55 44 ec bd aa e1 13 be 7a 87 ec 3d
       -0.033735156 -0.11536471 -0.14441553 0.115492776
000040 f9 ca 0c 3e 61 c3 41 be ec 81 d5 3c 56 25 10 3d
       0.13749303 -0.18922187 0.026062928 0.035191856
000050 1d a9 93 3d fa a4 03 3e 1d 91 a6 bd 56 e4 88 bd
       0.0720999 0.12855902 -0.08133147 -0.066841766
000060 2f 3f 39 be 04 07 a1 bc d0 11 da 3d 2a 56 a1 3d
       -0.18090509 -0.019656666 0.10647929 0.078777626
000070 b3 00 05 be bd 0d 8f 3d 20 c1 01 be 47 13 2e 3e
       -0.12988548 0.06985042 -0.12671328 0.16999541
000080 39 2e eb 3d 43 4f b0 3d 11 4d c6 bd dd e0 45 be
       0.11483426 0.08608868 -0.09682668 -0.1932406
000090 a5 4a 97 bd 93 9a f2 3d 9f 7a d1 3d e1 e9 b3 3d
       -0.07387284 0.11845889 0.10228466 0.08784843
0000a0 97 e3 55 be 67 40 7f bc 57 ad 49 3e dd 63 3e be
       -0.208876 -0.01557932 0.1969503 -0.18592782
0000b0 61 39 35 be 6f 70 8f bd fe 16 2a 3a 6a 6a 51 3e
       -0.1769767 -0.07003867 0.00064884115 0.2045075
0000c0 93 10 be bd 69 1d 9e 3d 2c 35 04 3c ef 82 fd 3c
       -0.09280505 0.07720453 0.008069318 0.030946223
0000d0 08 e0 31 be 92 54 39 3d 7a 6c 16 bd 43 41 8d 3d
       -0.17370617 0.04524667 -0.036724545 0.06897213
0000e0 54 b0 ca 3d a5 86 a1 bd bb 2f 77 bd 9a 7c c2 3d
       0.09896913 -0.078870095 -0.060348254 0.09496422
0000f0 7e 0c 52 be 2b f6 b9 3c 04 7a 0d 3d d2 61 04 3e
       -0.20512578 0.02270039 0.03454019 0.1292794

fc_layers.6.weight f4 [32, 64]
000000 e5 17 5e 3e 96 3e b6 bd 17 33 5f be 30 ff a3 3d
       0.21688803 -0.08898656 -0.21796833 0.080076575
000010 2e 2f d3 bc de b9 34 3d 35 25 7e 3e fa 1f 79 3e
       -0.025779333 0.04412257 0.24818881 0.24328604
000020 27 08 6e be 74 61 56 bd 59 b0 9e bd 2b 83 90 3e
       -0.23245297 -0.052339032 -0.077484794 0.28225073
000030 6a 66 e9 bb b8 1d 4d be 72 ab 10 3c bf f8 9d bd
       -0.0071228044 -0.20030868 0.008829938 -0.0771346
000040 82 7c 4a 3d 86 32 b9 3c 8f 61 48 bd b4 fb 01 bd
       0.049435146 0.0226071 -0.048921164 -0.031734183
000050 91 92 82 3e af 02 54 be 25 78 a7 bc 24 39 0e be
       0.25502446 -0.20704149 -0.020443032 -0.13888985
000060 01 03 78 be b4 34 8b be a3 1d 18 be 9c 25 62 3c
       -0.24219896 -0.27188647 -0.14855056 0.013802912
000070 72 bf 89 bc 1b b4 09 be 5a 06 93 be e7 8b 86 3d
       -0.016814921 -0.13447611 -0.28715783 0.06569653
000080 9c 48 48 3d 9b bf 0b be 3f a6 6f 3e f0 96 60 be
       0.04889737 -0.1364731 0.23403262 -0.21932578
000090 57 b3 52 be ab 54 10 3d 40 a0 b9 be ff 32 85 be
       -0.20576225 0.035236996 -0.36255074 -0.2601547
0000a0 59 85 68 be 1d 8a 9a 3d d0 39 a1 be 85 fb 89 be
       -0.22707118 0.07545874 -0.3148942 -0.26949707
0000b0 11 d5 d6 3d 51 d1 4a be 0e 6d ab bd 0c 9c a8 3e
       0.10489858 -0.1980641 -0.0837041 0.32931554
0000c0 a4 9f 09 3e d6 ac ce bd 12 fe 20 be 5d 72 e1 3d
       0.13439804 -0.100915596 -0.1572192 0.11008141
0000d0 56 08 06 bd 5c 10 8c be bd 33 25 3e 30 0d b1 3c
       -0.032722794 -0.2735623 0.16133018 0.021612734
0000e0 10 d3 ca be 77 24 3a bd 14 c1 9e 3d c7 4a c0 be
       -0.39614153 -0.04544493 0.077516705 -0.3755705
0000f0 3d d9 3b 3d e6 86 0c 3c 8e 0b 1c be b1 32 8b be
       0.04586147 0.008577084 -0.15238783 -0.27187112
000100 17 3d 3f be 30 e9 25 3d f7 53 74 be 75 5e 96 be
       -0.18675648 0.040505588 -0.23860155 -0.2936894
000110 50 45 21 be 3a 8c b9 3c bd d8 81 3e 92 60 6b 3e
       -0.15749097 0.022649873 0.2536067 0.22986057
000120 61 2b 1b be 80 02 f1 bd 32 06 46 3e 40 57 d8 3d
       -0.15153266 -0.11768055 0.19338301 0.105635166
000130 3c 81 97 be 68 d4 78 be 04 c0 87 be 57 c2 68 be
       -0.29590786 -0.24299777 -0.26513684 -0.22730385
000140 47 71 c3 bd 47 5d 1c be eb 7b 3d 3b 2d 09 2f 3e
       -0.0954309 -0.15269957 0.0028912972 0.17093344
000150 aa 19 f4 3c d2 9f 5e be 86 2f 7a be c2 51 59 be
       0.029797394 -0.21740654 -0.24432191 -0.21222594
000160 a4 ff cd 3d 66 16 54 be 1e 03 43 bd a3 14 79 be
       0.10058525 -0.2071167 -0.047610395 -0.24324279
000170 93 43 9b be 25 85 de 3c d0 a8 d7 bd cb e4 9d be
       -0.30324993 0.027163098 -0.10530245 -0.30838618
000180 fa db 3c be 61 66 83 bc 83 cb 2f bd 29 be 86 bb
       -0.1844329 -0.016040029 -0.042918693 -0.0041120243
000190 79 e6 33 3e ef d3 79 bd 95 7c 8f be 81 70 0c 3d
       0.17568387 -0.06099313 -0.28024736 0.03428698
0001a0 a5 f2 df bd d0 c9 f7 3d 14 e2 2c be b1 3c 28 3e
       -0.10934953 0.120990396 -0.16883117 0.16429402
0001b0 b2 21 78 3e 8d fc cc 3d f4 34 0d be f7 11 64 bd
       0.24231604 0.10009108 -0.13789731 -0.055681195
0001c0 8b 83 42 3e f5 09 cb bc 37 00 21 be 7e e4 90 be
       0.18995492 -0.024785021 -0.15722738 -0.28299326
0001d0 7e cc 74 bd 97 b7 33 3e 0a 68 fb bd 67 f2 0a bd
       -0.05976533 0.17550503 -0.12275703 -0.03392258
0001e0 5d 62 5d be 5e 96 6c bb 0d e9 c0 3c 62 94 c9 bd
       -0.21619554 -0.0036100368 0.023548627 -0.09842755
0001f0 f6 29 6b 3e 34 5e 6c 3d 4e e0 2c 3d b7 82 56 bd
       0.22965226 0.057707027 0.0422061 -0.052370753
000200 5b d6 7e be 3b cb fb be 11 24 9b be da 9d 7a 3d
       -0.24886458 -0.4917849 -0.30300954 0.061185695
000210 42 12 28 be 11 49 1d bf 79 63 9f be c9 88 87 3e
       -0.16413215 -0.61439615 -0.3113058 0.26471546
000220 d4 c0 ad 3e 63 d2 76 3e 46 6b 02 be 05 4f a3 be
       0.3393618 0.24103694 -0.12736234 -0.31896225
000230 74 4e 4c be 23 a0 a1 3c 35 9f a3 3c 56 67 4d be
       -0.19951802 0.01972968 0.019973377 -0.20058951
000240 2d 15 e0 be 56 4d 18 3e c4 62 48 3e a5 ef a6 3e
       -0.43766156 0.14873251 0.19568926 0.3260471
000250 d7 71 da be b6 b8 b1 be 26 76 ef bd cb a9 1d be
       -0.42664978 -0.34711236 -0.11692457 -0.15396802
000260 de d9 99 be 77 ca d3 be cc d2 36 be cb 9d b8 bd
       -0.30049032 -0.41365406 -0.1785385 -0.090144716
000270 ba 35 b2 bd 2f 85 c2 be fa 22 fe 3d 63 19 bb be
       -0.08701654 -0.37992236 0.12409015 -0.36542806
000280 2c 71 8f be 02 96 61 be 24 92 31 be 3e 5f 8d be
       -0.2801603 -0.2202988 -0.17340904 -0.27611727
000290 2e ea 25 be af 6c 72 be 5f 79 67 be 59 db dd 3c
       -0.16202614 -0.23674272 -0.22604893 0.027082132
0002a0 96 74 e9 3d 13 5c b5 be 92 32 de be a5 e6 63 bd
       0.1139919 -0.3542181 -0.43397957 -0.05563988
0002b0 fb 34 7f 3e 81 50 29 3a ae 84 11 be 5a 76 c1 be
       0.24922554 0.00064588344 -0.1421077 -0.37785608
0002c0 ab ee 4b be db 70 3d bd 26 3c 31 bd 90 25 2b be
       -0.19915263 -0.046250205 -0.043270253 -0.16713548
0002d0 24 2a ab 3d 0a 31 cf bd d2 f0 a2 be 85 f9 ae be
       0.08357647 -0.10116775 -0.31824356 -0.34174743
0002e0 b5 cb 3a be 9d 6f 53 3e da b9 e1 bd 74 ec c3 be
       -0.1824177 0.20648046 -0.110217765 -0.38266337
0002f0 7e 11 f7 bd 43 0d b1 be e9 df c6 be fb bd 9e be
       -0.12063883 -0.3458043 -0.38842705 -0.3100432
000300 3a 32 3c 3d fc 0b b5 be 4c 3e f3 bd 7a 40 91 bd
       0.045946337 -0.35360706 -0.118771166 -0.07092376
000310 56 2a 61 3e 64 08 9b 3d d2 48 87 3e 2a 1f 1e bd
       0.21988806 0.0756996 0.26422745 -0.03860394
000320 61 a1 44 be 7e 0a 1a be 48 d4 28 3e 03 42 4e be
       -0.19202186 -0.15043065 0.16487229 -0.20142369
000330 3d 7b 0f be 34 40 e7 3d 67 cf 73 be 8d 45 08 be
       -0.14011855 0.11291543 -0.23809586 -0.13307782
000340 67 ff 6f be d0 dd cc 3d d5 f0 e1 be 84 c8 cd 3d
       -0.23437272 0.10003245 -0.44129053 0.10048011
000350 5d 16 56 3d a2 e8 0e 3d 1f 4a f2 3d bf a6 3b be
       0.05226742 0.034889825 0.11830544 -0.18325327
000360 10 25 7e be 5c 94 33 bc 1e 4c 1e 3d e1 22 d6 3e
       -0.24818826 -0.010960665 0.03864681 0.41823485
000370 fd 4b 21 be eb 09 67 be 5b ac 44 bd a9 ba 1f bd
       -0.15751643 -0.22562377 -0.048015933 -0.038996372
000380 4f 85 30 3d 10 5a 0a be ea 3a bf bb 1f 46 a5 bd
       0.043095883 -0.13510919 -0.0058358805 -0.08070015
000390 72 f0 fe 3b 26 f7 7c 3c 9f af 3a be 3f bb b1 3c
       0.007780128 0.015439784 -0.18231057 0.021695731
0003a0 a9 99 87 be ac 23 ce bd 28 64 b5 be c1 21 90 3d
       -0.2648442 -0.100653976 -0.35427976 0.07037688
0003b0 8e f0 e6 3c 74 36 62 3e 13 81 01 3d 89 8b 26 be
       0.028190877 0.22091085 0.031617235 -0.16264166
0003c0 f4 d5 42 bd d3 7c b8 bd e6 ac a6 be 58 b4 6f be
       -0.047567323 -0.09008183 -0.32553786 -0.2340864
0003d0 f4 41 b5 3b f4 b5 4e be 8e 78 50 be 1f c3 4a 3e
       0.005531544 -0.20186597 -0.20358488 0.19800995
0003e0 87 bf be 3e 7a ad 8b 3e 97 25 1b 3e 72 93 11 be
       0.372555 0.2728079 0.15151058 -0.14216402
0003f0 10 91 5e 3e 9b eb 18 be bf 42 d3 bd 29 44 19 be
       0.21735024 -0.14933626 -0.10315465 -0.14967407

fc_layers.6.bias f4 [32]
000000 88 2a 34 bd 92 8c ad be 5e 03 94 3d fa 16 e7 bc
       -0.043985873 -0.3389631 0.07227205 -0.028209198
000010 51 1b 86 3e c8 e1 cb be 41 76 08 be cf 90 c2 bd
       0.26192716 -0.39820695 -0.1332636 -0.09500276
000020 c2 6e 61 be da a2 c8 bd 70 25 18 3c 4a c5 92 be
       -0.22014907 -0.097966865 0.00928627 -0.28666145
000030 c1 cb 11 3e d5 60 15 3e 9f b0 33 bd aa 33 ab 3d
       0.14237882 0.1458772 -0.04386961 0.083594635
000040 6b eb 94 3e a8 bd f2 bc 6e 4f 7c bd 4a f2 36 3e
       0.2908586 -0.02963145 -0.061599188 0.17865863
000050 38 51 15 3f 6e d0 7e be e7 a4 0e 3e 20 76 74 3e
       0.58327055 -0.24884197 0.13930093 0.23873186
000060 a7 a0 fa 3d f3 3e c2 be 78 a4 4c bd 77 8f 5e bc
       0.12237673 -0.3793865 -0.049961537 -0.013584009
000070 e1 48 ac bd ae 65 e5 3e 98 8b 1d 3f 31 09 6a 3e
       -0.08412338 0.44804138 0.6154113 0.22855069

fc_layers.8.weight f4 [4, 32]
000000 a4 ec eb bd 0a 15 ef bd 36 81 cf be 93 a1 75 3e
       -0.11519745 -0.11673935 -0.40528268 0.23987417
000010 f4 78 91 3c a4 90 9c bd cf c0 6e be f1 ed dd bc
       0.01775787 -0.076447755 -0.23315738 -0.027090998
000020 3e d1 26 be 51 dd 99 be 29 56 72 3e d0 5e bf bd
       -0.16290757 -0.30051664 0.2366568 -0.09344256
000030 77 1b 67 be 1a d7 1e bd 23 2a cd bd e5 6e f1 bc
       -0.22569071 -0.038779356 -0.100178026 -0.029471824
000040 28 a9 d0 3d e9 94 b1 3d 5e 7a bb 3d 5a db 50 3e
       0.10188514 0.086709805 0.09154199 0.20396176
000050 05 b0 a1 3e 08 96 9a 3e 31 89 15 bd ea a3 fc 3d
       0.31579605 0.3019259 -0.03650779 0.123359516
000060 9e 35 d2 3d c5 ca ce bd f1 d1 80 bc 83 c4 d4 3d
       0.10264133 -0.10097269 -0.015725108 0.10389044
000070 b7 89 d7 3c 2c c1 f6 3d 52 5e 88 3e a8 af 18 bf
       0.026310785 0.12048563 0.2663446 -0.5964303
000080 99 94 19 bf 60 eb 21 be f1 49 8f be 29 8b 43 be
       -0.5999237 -0.15812445 -0.279861 -0.19096054
000090 19 17 37 bf 82 56 97 be 71 7f 98 bd 6d 52 94 38
       -0.7151962 -0.29558188 -0.074461825 7.072543e-05
0000a0 b8 7e c8 3b 9f 4c c5 ba 2a e1 4d 3e f3 21 dd 3c
       0.0061186217 -0.0015052742 0.20105425 0.026993727
0000b0 9a 65 8d 3b aa 77 19 3e ae 9f 3f be 37 e2 9a be
       0.0043150904 0.14987054 -0.18713257 -0.30250713
0000c0 28 0d 47 3e 49 cb 84 3b b7 3a c9 3d 98 af 0e 3e
       0.19438612 0.004052554 0.09825652 0.13934171
0000d0 36 55 9b 3e 71 c6 f7 bd 66 b2 47 3e c8 8b 32 3e
       0.30338448 -0.120983966 0.19501647 0.17436135
0000e0 a3 8e 67 be 99 7c 90 be 7a 66 8c be 59 b0 3b 3e
       -0.22613005 -0.2822006 -0.27421933 0.1832899
0000f0 21 50 06 bd 4b 6a 88 3e 4f 77 81 3e 86 be 71 be
       -0.03279126 0.26643595 0.25286338 -0.23607835
000100 bc 90 66 3d 97 3b 6b bd f9 3c ee bd 1f fe 11 3c
       0.056290373 -0.057429876 -0.11632723 0.008910685
000110 59 e4 b6 bd df 06 89 3e 18 80 8b be 51 be 8c be
       -0.089302726 0.26763055 -0.27246165 -0.2748895
000120 65 b9 40 be fa c7 b8 3c b1 5e 8b bc b0 39 d0 bc
       -0.18820722 0.022556294 -0.017012926 -0.025418133
000130 b9 2f 10 3d 83 b7 99 bd fb 93 a8 be 40 f1 f7 3c
       0.035201762 -0.07505705 -0.329254 0.030266404
000140 99 ff 41 bd 5a 3d 8f 3c 5e f3 14 3e 77 a6 43 3b
       -0.047362898 0.01748531 0.14545962 0.002985386
000150 ff 12 8b 3e 59 6d 08 3e f9 d8 84 3e e8 fd 8e be
       0.2716293 0.13322963 0.25946787 -0.2792809
000160 c2 e2 37 3e 95 08 47 bd 5f 92 f3 3c 8f de ee 3c
       0.17957595 -0.04859217 0.029732881 0.029158859
000170 10 42 17 be d2 8c 56 3e ef fa dd 3e 1a 04 4f bf
       -0.14771295 0.20952156 0.4335551 -0.80865633
000180 b9 3a 86 be 98 37 39 3d 7a 91 64 bd ae e9 52 be
       -0.26216677 0.045219034 -0.0558028 -0.20596954
000190 ab b2 b5 be 2c 7d 5b be 0a 35 d0 bd b5 be 1a 3d
       -0.35487875 -0.21434468 -0.101663664 0.03777953
0001a0 61 c1 99 3b 8d 22 3f 3d 21 46 9c 3e 7d bb 1b 3e
       0.004692242 0.04666381 0.30522254 0.1520824
0001b0 00 07 f8 3d 70 55 81 3c 94 49 81 3e 92 12 fc bd
       0.1211071 0.01578781 0.25251448 -0.123082295
0001c0 99 d2 22 3e 8a 0b 42 3e 51 a0 72 3e 63 11 0a 3d
       0.15900649 0.18949714 0.23693968 0.033707988
0001d0 9d ca 3d 3e e2 2c f1 3d 86 b1 a6 be 10 2e bd 3d
       0.18534322 0.11776139 -0.32557315 0.09237301
0001e0 cd fc 00 bc 40 56 9a be 60 5e 3a bd bf 51 f7 3d
       -0.007872772 -0.3014393 -0.04550016 0.12076139
0001f0 08 90 57 3e 69 db 2b 3e 20 00 85 3b f0 7c 16 be
       0.21051037 0.16782917 0.004058853 -0.14696097

fc_layers.8.bias f4 [4]
000000 c1 17 67 3e bf df 87 3e 8e a4 75 3e d1 10 ef 3e
       0.22567655 0.26537892 0.23988554 0.46692517
