output/dqn/model/4x4/12500.pth (torch, 53480 bytes, 8 tensors)

fc_layers.0.weight f4 [128, 16]
0.13496527 0.20930023 0.020208359 0.22295375 0.5242822 -0.11741924 0.4999041 0.47077674
0.18878576 0.48703748 -0.45258257 -0.45476913 0.5633288 0.5012564 0.09339851 0.30127978
-0.23932159 -0.027762992 0.08431476 -0.49140102 0.21713156 0.48504037 -0.3922968 -0.54442084
0.41818485 -0.1339693 -0.327326 -0.03847325 0.589503 0.27517715 -0.05947203 -0.13235638
-0.13269751 -0.44080597 -0.080902666 0.12703612 -0.35748687 0.40366834 0.36767623 -0.16493979
-0.053874146 0.19709441 0.21863148 -0.10221052 0.34343714 -0.57107836 0.30793422 0.07837105
-0.4460067 0.14421473 -0.5336614 -0.14479476 -0.21626118 0.31168586 -0.5528697 -0.3164966
0.5540794 0.17328027 0.18069868 0.29796052 -0.28466153 0.32977495 0.13319394 -0.11099261
0.019043459 0.30153248 0.16088803 -0.52934843 -0.6020105 0.48361653 -0.4438144 -0.2288928
0.39992133 -0.14756683 0.29569435 -0.18398947 -0.081240356 -0.30597898 0.1878964 0.5219367
-0.43655282 -0.20865488 -0.1587097 0.26761338 -0.51988006 0.32305604 0.101383865 -0.017546952
0.34869522 0.23441866 -0.2318432 -0.155772 0.053394675 0.23574348 0.06803626 -0.54543567
-0.18262623 -0.20586543 -0.26643637 -0.54935503 0.014249596 0.24999118 -0.5617555 -0.14464447
-0.21201542 -0.26346833 0.22695549 0.42786437 -0.083557904 -0.07313882 0.10270909 0.21638715
-0.020974517 -0.32196552 -0.4847574 -0.4834476 0.0027358532 -0.2280271 0.4644487 -0.0492844
0.20261428 -0.42939222 0.15971409 0.37158406 -0.23060137 0.41718972 0.099668264 -0.6007991
0.07043612 0.3208692 -0.09512442 -0.3991673 -0.13738617 -0.49128327 -0.17534664 -0.4298513
-0.52902365 0.50539744 -0.20099947 0.22748703 -0.48807693 -0.35313985 0.24576855 -0.12011939
0.13161685 -0.58802485 -0.58132255 -0.500143 -0.12932768 0.42636412 -0.43337083 -0.47971606
-0.04385607 0.087502286 0.29451 -0.15251005 -0.12345171 0.26619494 -0.07701567 -0.5423717
-0.02358704 -0.08251619 -0.56333697 -0.16317186 -0.49280846 0.29449052 0.0348906 0.39206833
0.039796498 0.26084226 0.36922845 0.07053554 0.29970282 -0.525677 0.22770621 0.26314765
0.10168146 0.04284283 -0.20692587 -0.3190275 0.32031488 -0.2530697 0.35439563 0.15689695
0.21944427 0.3137035 -0.12331241 -0.14921957 0.47675294 -0.0017382931 -0.1710402 -0.022776246
-0.56459093 0.21788095 0.20548658 -0.55068195 0.42274877 0.050282657 -0.15858042 -0.34320965
-0.6081655 0.2273342 0.43902242 -0.1523745 -0.3879521 -0.4263808 0.38472784 -0.029006183
0.34207767 0.36060616 -0.38996744 0.22300385 0.44572872 0.40262443 0.32459435 0.32869643
0.56492066 0.1289585 -0.30763513 -0.036076665 0.5626659 0.13706109 -0.1439498 -0.10383642
-0.52612984 0.11386867 -0.3690871 0.11769162 -0.27008763 0.4204802 -0.31546086 0.54383284
0.54949814 0.38837537 -0.57282746 0.30874258 -0.21387434 -0.1972911 -0.30432275 0.40017372
-0.015695568 0.07567085 0.08425569 -0.36850965 0.06603819 0.20058596 0.29628485 0.23912048
-0.58937013 0.07278604 0.07804824 0.36948115 0.18318623 0.46544948 -0.11176584 -0.035453975
00000000: 5634 0a3e cd52 563e 008c a53c fd4d 643e
00000010: 5c37 063f 8079 f0bd 6ef3 ff3e a609 f13e
00000020: 0e51 413e fa5c f93e e7b8 e7be 80d7 e8be
00000030: 5136 103f 5752 003f b847 bf3d 5841 9a3e
00000040: b810 75be 376f e3bc 38ad ac3d ea98 fbbe
00000050: bc57 5e3e 3657 f83e 20db c8be 2a5f 0bbf
00000060: 531c d63e 402f 09be 4697 a7be 2096 1dbd
00000070: abe9 163f 05e4 8c3e f198 73bd 6e88 07be
00000080: dbe1 07be 52b1 e1be 4cb0 a5bd c215 023e
00000090: 8508 b7be 9ead ce3e 0f40 bc3e fae5 28be
000000a0: 23ab 5cbd 1ed3 493e eee0 5f3e c053 d1bd
000000b0: fed6 af3e 3132 12bf 8ea9 9d3e 0081 a03d
000000c0: fd5a e4be 07ad 133e 099e 08bf 1445 14be
000000d0: 9273 5dbe 4a95 9f3e de88 0dbf d80b a2be
000000e0: 26d8 0d3f 6270 313e 1309 393e 488e 983e
000000f0: 28bf 91be 43d8 a83e fe63 083e 1850 e3bd
00000100: 0701 9c3c 7762 9a3e d5bf 243e 6183 07bf
00000110: 5c1d 1abf 969c f73e a43b e3be e062 6abe
00000120: 7dc2 cc3e c21b 17be 4065 973e bc67 3cbe
00000130: 5861 a6bd 47a9 9cbe ea67 403e a59d 053f
00000140: da83 dfbe a0a9 55be cc84 22be 9f04 893e
00000150: dc16 05bf 9a67 a53e 58a2 cf3d a0be 8fbc
00000160: 2e88 b23e 720b 703e 4e68 6dbe b282 1fbe
00000170: 60b4 5a3d bd66 713e 9856 8b3d aca1 0bbf
00000180: 5f02 3bbe 63ce 52be 596a 88be 88a2 0cbf
00000190: 2377 693c b0fd 7f3e 35cf 0fbf ae1d 14be
000001a0: 921a 59be 52e5 86be 0567 683e 0a11 db3e
000001b0: 6820 abbd cec9 95bd 2559 d23d 9894 5d3e
000001c0: c0d2 abbc aad8 a4be 1f32 f8be 7286 f7be
000001d0: 004c 333b f07f 69be 38cc ed3e 70de 49bd
000001e0: 1e7a 4f3e 4cd9 dbbe 178c 233e 4440 be3e
000001f0: c422 6cbe e499 d53e e01e cc3d f8cd 19bf
00000200: d040 903d f848 a43e 98d0 c2bd a85f ccbe
00000210: f6ae 0cbe 7b89 fbbe 128e 33be 7815 dcbe
00000220: 186e 07bf ba61 013f ced2 4dbe 5cf2 683e
00000230: 38e5 f9be bfce b4be c0aa 7b3e 2801 f6bd
00000240: 91c6 063e cc88 16bf 8ed1 14bf 5f09 00bf
00000250: 7a6e 04be 664c da3e c8e2 ddbe 589d f5be
00000260: 6ca2 33bd 6634 b33d 04ca 963e 982b 1cbe
00000270: 40d4 fcbd b44a 883e 64ba 9dbd dfd8 0abf
00000280: 9c39 c1bc 40fe a8bd da36 10bf 8616 27be
00000290: 6451 fcbe 76c7 963e 72e9 0e3d 2ebd c83e
000002a0: a701 233d 1e8d 853e 830b bd3e f074 903d
000002b0: a672 993e c592 06bf d12b 693e 4abb 863e
000002c0: 5f3e d03d f77b 2f3d 60e4 53be 9357 a3be
000002d0: 5000 a43e 5a92 81be 5873 b53e 98a9 203e
000002e0: 00b6 603e bf9d a03e 388b fcbd 04cd 18be
000002f0: f618 f43e 70d7 e3ba 2a25 2fbe 4095 babc
00000300: 0889 10bf 2f1c 5f3e 136b 523e 7ef9 0cbf
00000310: 8772 d83e 30f5 4d3d e862 22be 2db9 afbe
00000320: bcb0 1bbf 4cca 683e 8cc7 e03e 1008 1cbe
00000330: a8a1 c6be 964e dabe 0cfb c43e 609e edbc
00000340: ce24 af3e 5fa1 b83e d0a9 c7be 1f5b 643e
00000350: 8e36 e43e ca24 ce3e 3b31 a63e e64a a83e
00000360: a49e 103f b20d 043e 5a82 9dbe 20c5 13bd
00000370: df0a 103f be59 0c3e 9467 13be 30a8 d4bd
00000380: 72b0 06bf fa33 e93d fcf8 bcbe 4e08 f13d
00000390: ed48 8abe 2e49 d73e 1684 a1be a138 0b3f
000003a0: e9ab 0c3f 23d9 c63e d2a4 12bf 8213 9e3e
000003b0: e001 5bbe ae06 4abe 31d0 9bbe 92e3 cc3e
000003c0: fe93 80bc 52f9 9a3d 3f8e ac3d 4cad bcbe
000003d0: 083f 873d 6866 4d3e a6b2 973e 00dc 743e
000003e0: f6e0 16bf d910 953d c1d7 9f3d a22c bd3e
000003f0: 2c95 3b3e 654f ee3e 7de5 e4bd 3038 11bd

fc_layers.0.bias f4 [128]
-0.26637477 -0.19219589 -0.22442408 -0.04890383 -0.2030498 -0.35130993 -0.05148672 -0.30054456
-0.17305693 -0.101543546 -0.24069385 -0.23034605 -0.29910886 -0.15011436 0.02694853 -0.10321636
-0.087688774 -0.11313508 -0.17915457 -0.2420309 -0.33514705 -0.18578136 -0.23568402 -0.09451705
-0.2189696 -0.019470586 -0.36077356 -0.021318978 -0.15120862 0.12324092 -0.2737859 -0.14733642
-0.4614878 -0.048622303 -0.24300587 -0.17532185 -0.3678917 -0.14712577 -0.08943346 -0.33677575
-0.068884306 -0.29629716 -0.2599048 -0.16147818 -0.08930765 -0.049182426 -0.18823928 -0.38811573
-0.024658922 -0.08136791 -0.2641238 -0.1575594 -0.30026528 -0.26575738 0.022388756 -0.1806598
-0.2478393 -0.33194336 -0.1380677 -0.1516984 -0.030350905 -0.19200571 -0.36167896 -0.19113791
-0.082934014 -0.3845272 -0.06744976 -0.24320522 0.1425673 -0.12105852 -0.1260545 -0.33941463
-0.21755035 -0.121991105 -0.084282786 -0.07281127 -0.22654018 -0.16783918 -0.12781057 -0.29305628
-0.18977126 -0.2649592 -0.24621318 -0.29922667 -0.20915586 -0.09788491 -0.28814906 -0.115843
-0.30372393 -0.19482714 -0.07451436 -0.47679442 -0.1908144 -0.10608591 -0.12461532 -0.393578
-0.10154691 -0.089882255 -0.24416089 -0.02988901 -0.18600397 -0.09855809 -0.17125031 -0.38158506
-0.2775131 -0.20366015 -0.08596004 -0.033606216 -0.16256101 0.08508569 0.027180063 -0.28294706
-0.30133957 -0.24221687 -0.34212327 -0.3331806 -0.221128 -0.15549108 -0.28749475 -0.13249986
-0.32976937 -0.38525578 -0.29954013 -0.23356251 -0.27947176 -0.096434444 -0.21643353 -0.28906664
00000000: 4662 88be 00cf 44be 6dcf 65be 624f 48bd
00000010: 49ec 4fbe e5de b3be bde3 52bd fae0 99be
00000020: d635 31be 10f6 cfbd 7378 76be d6df 6bbe
00000030: cc24 99be 94b7 19be 2ac3 dc3c 1963 d3bd
00000040: 2c96 b3bd 5db3 e7bd 4c74 37be f3d6 77be
00000050: 6598 abbe 783d 3ebe 2757 71be 2892 c1bd
00000060: 9139 60be c780 9fbc 50b7 b8be 23a5 aebc
00000070: 6fd6 1abe bc65 fc3d aa2d 8cbe 5cdf 16be
00000080: 2148 ecbe 2e28 47bd 88d6 78be 9287 33be
00000090: 4d5c bcbe 23a8 16be e428 b7bd df6d acbe
000000a0: 3713 8dbd 43b4 97be 3e12 85be 895a 25be
000000b0: eee6 b6bd 8373 49bd ccc1 40be 1bb7 c6be
000000c0: 8201 cabc 38a4 a6bd 3c3b 87be 4057 21be
000000d0: 5fbc 99be 5a11 88be a068 b73c e2fe 38be
000000e0: 96c9 7dbe 7bf4 a9be 9f61 0dbe d356 1bbe
000000f0: 76a2 f8bc 259d 44be fc2d b9be a8b9 43be
00000100: 4fd9 a9bd c0e0 c4be 1a23 8abd ca0a 79be
00000110: 2afd 113e 88ed f7bd 6e14 01be c1c7 adbe
00000120: 85c5 5ebe 79d6 f9bd 749c acbd 131e 95bd
00000130: 26fa 67be 09de 2bbe c6e0 02be 790b 96be
00000140: 6653 42be bba8 87be 4f1f 7cbe 3d34 99be
00000150: f42c 56be e277 c8bd 4688 93be 183f edbd
00000160: b481 9bbe c480 47be fc9a 98bd 661e f4be
00000170: da64 43be 9243 d9bd 5136 ffbd 0e83 c9be
00000180: d4f7 cfbd 3014 b8bd 5005 7abe ccd9 f4bc
00000190: d377 3ebe d3d8 c9bd 3e5c 2fbe 1e5f c3be
000001a0: 3216 8ebe 498c 50be d10b b0bd aca6 09bd
000001b0: 6576 26be 6841 ae3d b9a8 de3c 70de 90be
000001c0: 2e49 9abe b307 78be c82a afbe a696 aabe
000001d0: 616f 62be 0e39 1fbe 8332 93be 0bae 07be
000001e0: 88d7 a8be 3f40 c5be 535d 99be 032b 6fbe
000001f0: ec16 8fbe 6c7f c5bd c0a0 5dbe 8b00 94be

fc_layers.3.weight f4 [64, 128]
0.10058235 -0.17512856 -0.1405099 -0.19228618 -0.10430826 0.06643324 0.014994391 -0.022672998
0.04556538 -0.0014903722 -0.064598575 -0.08388344 -0.26804453 -0.012343091 -0.07972653 -0.16489731
0.061922316 -0.059925824 0.07588836 -0.0005862198 -0.22399718 0.023028644 0.0061428966 -0.11727092
-0.065124646 -0.16633627 -0.10447192 -0.107364215 -0.14940165 -0.09238866 0.105897546 -0.043582242
0.09946973 -0.043210834 -0.12001803 0.08610405 -0.11667028 -0.20306647 0.068879455 -0.23244242
-0.08521683 -0.21218719 -0.21590748 -0.07222127 -0.12772903 0.016784951 0.031672984 -0.080846876
-0.033847332 -0.16856104 0.12798966 -0.0681398 0.08606391 -0.20146285 -0.20257783 0.09152985
-0.22484797 -0.16947234 -0.1849578 0.1591651 0.096024804 -0.15719146 -0.12546 0.052440006
-0.19763498 0.0372081 -0.060741562 -0.09234762 -0.21102285 -0.1103215 0.05753378 0.20265087
-0.08450842 -0.03286853 -0.19431423 -0.22044371 -0.018156357 0.11012185 -0.07235223 0.0924167
-0.20673375 0.043392837 0.13389663 -0.15703636 0.13206187 -0.16095006 -0.08106739 0.04114094
-0.06529024 -0.1945375 0.07964188 -0.0618636 -0.051114768 -0.09684111 -0.0017178882 -0.09739687
0.0032613883 -0.1449893 -0.21212232 0.06909312 0.13870215 0.04526544 -0.070008904 0.16791598
-0.2650618 -0.1894061 -0.011278543 0.05441471 -0.090539806 -0.11273632 -0.016115015 0.100281194
-0.18714142 -0.043058466 -0.039280765 -0.23646392 -0.1725458 -0.039791584 -0.17150585 -0.2298092
0.14453982 0.1164893 -0.07367548 -0.10269665 -0.21523914 -0.20799993 -0.119840994 -0.17907363
-0.08722736 0.30131873 -0.10082901 0.12067049 0.27004248 -0.047259707 -0.02171548 0.044295758
-0.28951147 -0.04576164 -0.20876536 -0.11012613 -0.11851263 0.17475973 0.06596544 -0.17627972
-0.1576983 0.15359628 -0.19476652 -0.11159793 -0.46143627 0.23401245 -0.12987718 -0.04387678
-0.24166353 -0.01824997 0.12543534 -0.20639051 0.12657726 0.16321065 -0.16389163 -0.20263211
0.051108316 -0.16822766 -0.12540583 -0.23855276 -0.3332845 -0.17486724 -0.37523183 -0.19487411
-0.060889926 -0.43253693 -0.018506942 0.18283924 -0.20381778 -0.28608832 -0.091089144 -0.24069181
-0.14958155 0.15063733 0.1014125 -0.3059239 0.1751268 0.056218285 -0.017070482 -0.14056586
0.25240257 -0.22347091 -0.21309914 0.21493572 0.15094982 -0.36556062 -0.16485068 -0.023765633
-0.080660686 0.016378552 -0.16803691 -0.11533828 -0.3354057 -0.09724838 -0.3386808 0.1203934
-0.11106577 -0.0987368 -0.05776448 -0.19076458 -0.42567083 -0.24767646 -0.10111094 -0.0594159
-0.21058723 0.013879394 -0.24321064 -0.23376322 -0.3953885 -0.0043187193 -0.20389426 -0.2857495
-0.09099403 -0.2624885 0.17248994 -0.13001096 -0.031948015 0.23059045 -0.23824199 0.036884945
0.14979474 -0.23346052 0.14626692 0.138255 -0.11263163 -0.009216968 0.16115911 0.056298885
-0.2573025 0.02251191 -0.031461008 -0.34088737 -0.12754945 -0.16846873 0.19924793 -0.18312626
-0.17361508 0.07076532 -0.24999945 -0.24003388 -0.1300866 -0.12079887 0.017665535 -0.06613628
0.10482947 0.076410234 -0.2224216 -0.16970913 -0.012390407 0.18780191 0.037758604 -0.335838
00000000: 1efe cd3d e754 33be d4e1 0fbe abe6 44be
00000010: 929f d5bd 270e 883d 09ab 753c b9bc b9bc
00000020: c4a2 3a3d 9858 c3ba 424c 84bd 15cb abbd
00000030: 223d 89be ad3a 4abc aa47 a3bd d7da 28be
00000040: 41a2 7d3d c874 75bd 5b6b 9b3d 8bac 19ba
00000050: 845f 65be 91a6 bc3c 5a4a c93b bc2b f0bd
00000060: 1260 85bd 0e54 2abe 60f5 d5bd c5e1 dbbd
00000070: bffc 18be 4436 bdbd d0e0 d83d 4b83 32bd
00000080: c9b6 cb3d d8fd 30bd 03cc f5bd 5257 b03d
00000090: d4f0 eebd a8f0 4fbe ac10 8d3d 6305 6ebe
000000a0: 2986 aebd 9947 59be da16 5dbe bfe8 93bd
000000b0: 66cb 02be 9880 893c 88bb 013d 0c93 a5bd
000000c0: 80a3 0abd 449b 2cbe b90f 033e e18c 8bbd
000000d0: 4642 b03d 474c 4ebe 9070 4fbe 0174 bb3d
000000e0: 8c3e 66be 288a 2dbe 9465 3dbe 2dfc 223e
000000f0: a7a8 c43d ccf6 20be 9678 00be 55cb 563d
00000100: d360 4abe 8567 183d 25cc 78bd c020 bdbd
00000110: 6016 58be 3df0 e1bd 8aa8 6b3d b683 4f3e
00000120: c012 adbd 27a1 06bd 4ffa 46be ffbb 61be
00000130: a4bc 94bc 9187 e13d 682d 94bd f844 bd3d
00000140: 03b2 53be b0bc 313d 331c 093e 24ce 20be
00000150: 3a3b 073e 18d0 24be a906 a6bd 6783 283d
00000160: e4b6 85bd d734 47be 481b a33d b064 7dbd
00000170: b85d 51bd a254 c6bd c32a e1ba 0378 c7bd
00000180: 04bd 553b 1378 14be 9836 59be b280 8d3d
00000190: f007 0e3e 4168 393d d460 8fbd 2bf2 2b3e
000001a0: 2eb6 87be acf3 41be a3c9 38bc f5e1 5e3d
000001b0: ef6c b9bd 4de2 e6bd a303 84bc 3a60 cd3d
000001c0: 00a2 3fbe 135e 30bd dee4 20bd 9923 72be
000001d0: d9af 30be 80fc 22bd 3b9f 2fbe 1a53 6bbe
000001e0: 3f02 143e f191 ee3d 2ce3 96bd 9f52 d2bd
000001f0: a667 5cbe effd 54be 326f f5bd 145f 37be
00000200: 42a4 b2bd 7346 9a3e 717f cebd 1722 f73d
00000210: 0243 8a3e 6593 41bd aae4 b1bc 786f 353d
00000220: d93a 94be 8f70 3bbd 96c6 55be cf89 e1bd
00000230: c0b6 f2bd 37f4 323e e318 873d ac82 34be
00000240: aa7b 21be 5848 1d3e e070 47be 758d e4bd
00000250: 6041 ecbe f6a0 6f3e 86fe 04be 23b8 33bd
00000260: a576 77be f680 95bc 1f72 003e 0958 53be
00000270: 789d 013e b120 273e 35d3 27be cb7e 4fbe
00000280: f456 513d df43 2cbe 636a 00be 2d47 74be
00000290: 44a4 aabe 6610 33be 631e c0be 148d 47be
000002a0: b767 79bd 7b75 ddbe df9b 97bc 363a 3b3e
000002b0: 9cb5 50be 2b7a 92be f28c babd ea77 76be
000002c0: e82b 19be ac40 1a3e 5bb1 cf3d 0fa2 9cbe
000002d0: 7154 333e 2545 663d 65d7 8bbc 7ff0 0fbe
000002e0: e93a 813e 8fd5 64be a936 5abe 1c18 5c3e
000002f0: 9792 1a3e c32a bbbe 9ece 28be 25b0 c2bc
00000300: 6e31 a5bd 502c 863c de11 2cbe 7a36 ecbd
00000310: 4cba abbe 292a c7bd 9267 adbe d190 f63d
00000320: 7376 e3bd 8536 cabd 739a 6cbd ca57 43be
00000330: 87f1 d9be e69e 7dbe 4113 cfbd 165e 73bd
00000340: 2ea4 57be 6666 633c 360c 79be a05f 6fbe
00000350: 5d70 cabe 0b84 8dbb a8c9 50be c24d 92be
00000360: 145b babd e564 86be 34a1 303e 9821 05be
00000370: ecdb 02bd e71f 6c3e b5f5 73be ab14 173d
00000380: cb63 193e 4610 6fbe ffc6 153e b892 0d3e
00000390: 69ab e6bd c402 17bc e506 253e a999 663d
000003a0: 27bd 83be e66a b83c 42dd 00bd ca88 aebe
000003b0: 539c 02be 1183 2cbe a607 4c3e 7385 3bbe
000003c0: 27c8 31be 68ed 903d dbff 7fbe 71cb 75be
000003d0: 6c35 05be 6665 f7bd 50b7 903c 7572 87bd
000003e0: d5b0 d63d f87c 9c3d 7dc2 63be 3bc8 2dbe
000003f0: 2201 4bbc 254f 403e c4a8 1a3d f5f2 abbe

fc_layers.3.bias f4 [64]
-0.07858666 -0.06902212 0.09529995 -0.039981466 -0.12695773 0.13109702 -0.028395949 -0.15230282
0.03112124 0.2839833 -0.019500501 0.09000512 -0.033735156 -0.11536471 -0.1564751 0.12941857
0.14122635 -0.18922187 0.047386847 0.04189911 0.06463856 0.122004144 -0.08133147 -0.056394674
-0.18090509 -0.016868813 0.12022554 0.07372326 -0.14253283 0.052462995 -0.12671328 0.18099315
0.11510204 0.0753364 -0.09682668 -0.1932406 -0.07387284 0.10412973 0.12376755 0.078897126
-0.208876 -0.017493103 0.20434314 -0.18592782 -0.1769767 -0.06122485 0.0012635181 0.19961302
-0.09399548 0.08322696 -0.009237407 0.040887523 -0.16118243 0.039281424 -0.028087778 0.058899906
0.11227477 -0.078870095 -0.07298514 0.09925829 -0.20512578 0.028604168 0.053538546 0.13336872
00000000: 0bf2 a0bd 785b 8dbd 9f2c c33d 9bc3 23bd
00000010: 3501 02be 4c3e 063e 9f9e e8bc 45f5 1bbe
00000020: f9f1 fe3c 4266 913e 84bf 9fbc 9b54 b83d
00000030: e02d 0abd 5544 ecbd 023b 20be 4d86 043e
00000040: a49d 103e 61c3 41be b618 423d 679e 2b3d
00000050: 3961 843d 4fdd f93d 1d91 a6bd 1afe 66bd
00000060: 2f3f 39be 7730 8abc cf38 f63d 38fc 963d
00000070: 20f4 11be 70e3 563d 20c1 01be 4556 393e
00000080: 9eba eb3d f849 9a3d 114d c6bd dde0 45be
00000090: a54a 97bd f841 d53d d779 fd3d d194 a13d
000000a0: 97e3 55be b24d 8fbc 543f 513e dd63 3ebe
000000b0: 6139 35be e9c6 7abd a29c a53a 5b67 4c3e
000000c0: b480 c0bd e572 aa3d 7e58 17bc ad79 273d
000000d0: 020d 25be 8fe5 203d 5718 e6bc 0741 713d
000000e0: 51f0 e53d a586 a1bd 3c79 95bd ee47 cb3d
000000f0: 7e0c 52be 4a53 ea3c 3c4b 5b3d cf91 083e

fc_layers.6.weight f4 [32, 64]
0.21688803 -0.07892564 -0.21205333 0.091533326 -0.025779333 0.014979756 0.23765995 0.24328604
-0.24060455 -0.059634626 -0.077484794 0.26968098 -0.0071228044 -0.20030868 0.008829938 -0.08890536
0.025779333 0.0226071 -0.0683622 -0.061289303 0.2334162 -0.20704149 -0.020443032 -0.13888985
-0.24219896 -0.27970132 -0.12796316 0.0037086317 -0.016814921 -0.13447611 -0.28715783 0.07129743
0.03191075 -0.12276536 0.23403262 -0.21932578 -0.20576225 0.03913965 -0.35110518 -0.24645256
-0.22707118 0.06621492 -0.3309529 -0.26949707 0.10489858 -0.1980641 -0.058104623 0.32021552
0.13439804 -0.124253854 -0.1572192 0.11327445 -0.032722794 -0.29437822 0.1357986 0.02584709
-0.42687172 -0.04544493 0.077516705 -0.3732018 0.04586147 -0.0041372357 -0.13389307 -0.27210197
-0.18675648 0.040505588 -0.23860155 -0.2936894 -0.15749097 0.022649873 0.2536067 0.22986057
-0.15153266 -0.11768055 0.19338301 0.105635166 -0.29590786 -0.24299777 -0.26513684 -0.22730385
-0.0954309 -0.15269957 0.0028912972 0.17093344 0.029797394 -0.21740654 -0.24432191 -0.21222594
0.10058525 -0.2071167 -0.047610395 -0.24324279 -0.30324993 0.027163098 -0.10530245 -0.30838618
-0.1844329 -0.016040029 -0.042918693 -0.0041120243 0.17568387 -0.06099313 -0.28024736 0.03428698
-0.10934953 0.120990396 -0.16883117 0.16429402 0.24231604 0.10009108 -0.13789731 -0.055681195
0.18995492 -0.024785021 -0.15722738 -0.28299326 -0.05976533 0.17550503 -0.12275703 -0.03392258
-0.21619554 -0.0036100368 0.023548627 -0.09842755 0.22965226 0.057707027 0.0422061 -0.052370753
-0.24886458 -0.49414855 -0.3165882 0.061185695 -0.16413215 -0.6117579 -0.3113058 0.26471546
0.33586937 0.23044299 -0.12736234 -0.32784575 -0.19951802 0.01972968 0.019973377 -0.21248202
-0.42752466 0.14873251 0.18771079 0.30643398 -0.4022882 -0.34711236 -0.11692457 -0.20120195
-0.30049032 -0.41365406 -0.18922536 -0.08264473 -0.08701654 -0.38647 0.12409015 -0.40781567
-0.28713998 -0.22219194 -0.17340904 -0.27611727 -0.16202614 -0.23694378 -0.22604893 -0.0045207855
0.1139919 -0.3542181 -0.43397957 -0.05563988 0.24922554 0.00064588344 -0.13970512 -0.3963153
-0.19453433 -0.062141005 -0.043270253 -0.17959082 0.08357647 -0.08244237 -0.30560866 -0.36566612
-0.1824177 0.20648046 -0.114491366 -0.3952869 -0.12063883 -0.36643475 -0.40085933 -0.32485822
0.045946337 -0.36493635 -0.105160356 -0.056846585 0.21988806 0.049440783 0.2641358 -0.03860394
-0.18594404 -0.16340606 0.16487229 -0.21060829 -0.14011855 0.11291543 -0.23809586 -0.13591945
-0.22260116 0.10003245 -0.47922686 0.117036425 0.070924625 0.034889825 0.11830544 -0.18411772
-0.24818826 -0.00094334094 0.020668484 0.3991068 -0.15751643 -0.21582676 -0.048015933 -0.05107296
0.06405751 -0.10679148 -0.0058358805 -0.08070015 0.007780128 0.03881939 -0.20235963 0.024437035
-0.2648442 -0.09937019 -0.3761339 0.07037688 0.028190877 0.2220852 0.029241418 -0.19615515
-0.039234754 -0.08970966 -0.33044347 -0.23031095 0.005531544 -0.2280084 -0.20981908 0.19072405
0.37676355 0.2728079 0.15151058 -0.12826432 0.21735024 -0.14933626 -0.12777412 -0.18300493
00000000: e517 5e3e c4a3 a1bd 8224 59be d375 bb3d
00000010: 2e2f d3bc a76d 753c 215d 733e fa1f 793e
00000020: 0a61 76be 7043 74bd 59b0 9ebd a013 8a3e
00000030: 6a66 e9bb b81d 4dbe 72ab 103c 0314 b6bd
00000040: 2e2f d33c 8632 b93c 7b01 8cbd 7e0a 7bbd
00000050: a804 6f3e af02 54be 2578 a7bc 2439 0ebe
00000060: 0103 78be 0335 8fbe c608 03be 840c 733b
00000070: 72bf 89bc 1bb4 09be 5a06 93be 6304 923d
00000080: d9b4 023d 686c fbbd 3fa6 6f3e f096 60be
00000090: 57b3 52be e650 203d 0fc4 b3be 0f5e 7cbe
000000a0: 5985 68be b09b 873d a972 a9be 85fb 89be
000000b0: 11d5 d63d 51d1 4abe 1dff 6dbd 4af3 a33e
000000c0: a49f 093e ce78 febd 12fe 20be 6ffc e73d
000000d0: 5608 06bd beb8 96be ca0e 0b3e 47bd d33c
000000e0: ee8e dabe 7724 3abd 14c1 9e3d 4e14 bfbe
000000f0: 3dd9 3b3d a691 87bb 441b 09be f350 8bbe
00000100: 173d 3fbe 30e9 253d f753 74be 755e 96be
00000110: 5045 21be 3a8c b93c bdd8 813e 9260 6b3e
00000120: 612b 1bbe 8002 f1bd 3206 463e 4057 d83d
00000130: 3c81 97be 68d4 78be 04c0 87be 57c2 68be
00000140: 4771 c3bd 475d 1cbe eb7b 3d3b 2d09 2f3e
00000150: aa19 f43c d29f 5ebe 862f 7abe c251 59be
00000160: a4ff cd3d 6616 54be 1e03 43bd a314 79be
00000170: 9343 9bbe 2585 de3c d0a8 d7bd cbe4 9dbe
00000180: fadb 3cbe 6166 83bc 83cb 2fbd 29be 86bb
00000190: 79e6 333e efd3 79bd 957c 8fbe 8170 0c3d
000001a0: a5f2 dfbd d0c9 f73d 14e2 2cbe b13c 283e
000001b0: b221 783e 8dfc cc3d f434 0dbe f711 64bd
000001c0: 8b83 423e f509 cbbc 3700 21be 7ee4 90be
000001d0: 7ecc 74bd 97b7 333e 0a68 fbbd 67f2 0abd
000001e0: 5d62 5dbe 5e96 6cbb 0de9 c03c 6294 c9bd
000001f0: f629 6b3e 345e 6c3d 4ee0 2c3d b782 56bd
00000200: 5bd6 7ebe 0a01 fdbe d917 a2be da9d 7a3d
00000210: 4212 28be 2a9c 1cbf 7963 9fbe c988 873e
00000220: 12f7 ab3e 3ff9 6b3e 466b 02be 66db a7be
00000230: 744e 4cbe 23a0 a13c 359f a33c e394 59be
00000240: 83e4 dabe 564d 183e 4237 403e eae4 9c3e
00000250: b8f8 cdbe b6b8 b1be 2676 efbd e207 4ebe
00000260: ded9 99be 77ca d3be 4bc4 41be a441 a9bd
00000270: ba35 b2bd 65df c5be fa22 fe3d 37cd d0be
00000280: 0304 93be 4986 63be 2492 31be 3e5f 8dbe
00000290: 2eea 25be 64a1 72be 5f79 67be 1923 94bb
000002a0: 9674 e93d 135c b5be 9232 debe a5e6 63bd
000002b0: fb34 7f3e 8150 293a dc0e 0fbe d7e9 cabe
000002c0: 0234 47be 9187 7ebd 263c 31bd a8e6 37be
000002d0: 242a ab3d 8cd7 a8bd bd78 9cbe 9738 bbbe
000002e0: b5cb 3abe 9d6f 533e 737a eabd 0b63 cabe
000002f0: 7e11 f7bd 569d bbbe 6f3d cdbe d153 a6be
00000300: 3a32 3c3d f0d8 babe 505e d7bd f7d7 68bd
00000310: 562a 613e 6b82 4a3d cf3c 873e 2a1f 1ebd
00000320: 1d68 3ebe eb53 27be 48d4 283e b3a9 57be
00000330: 3d7b 0fbe 3440 e73d 67cf 73be 782e 0bbe
00000340: 8ff1 63be d0dd cc3d 395d f5be cbb0 ef3d
00000350: ee40 913d a2e8 0e3d 1f4a f23d 5b89 3cbe
00000360: 1025 7ebe 8a4a 77ba f450 a93c ba57 cc3e
00000370: fd4b 21be b101 5dbe 5bac 44bd e131 51bd
00000380: 9530 833d 7eb5 dabd ea3a bfbb 1f46 a5bd
00000390: 72f0 fe3b 1501 1f3d 5d37 4fbe 2d30 c83c
000003a0: a999 87be 9982 cbbd 9f94 c0be c121 903d
000003b0: 8ef0 e63c 4d6a 633e b38b ef3c e5dc 48be
000003c0: 9fb4 20bd b3b9 b7bd e32f a9be a2d6 6bbe
000003d0: f441 b53b 097b 69be d0da 56be 2a4d 433e
000003e0: 27e7 c03e 7aad 8b3e 9725 1b3e b957 03be
000003f0: 1091 5e3e 9beb 18be 38d7 02be a565 3bbe

fc_layers.6.bias f4 [32]
-0.06255519 -0.3389631 0.08333719 -0.015857546 0.26383787 -0.39803147 -0.12150225 -0.102467544
-0.21803868 -0.09244561 -0.009379182 -0.29439384 0.14712912 0.14747532 -0.048163433 0.08594245
0.2964119 -0.015575926 -0.05644313 0.17779285 0.5879961 -0.25449672 0.14004318 0.23345968
0.11343886 -0.36913013 -0.040210865 -0.02593632 -0.07534621 0.4426378 0.61717284 0.2232119
00000000: ef1c 80bd 928c adbe b0ac aa3d afe7 81bc
00000010: c215 873e c8ca cbbe 2cd6 f8bd 81da d1bd
00000020: 8845 5fbe 2054 bdbd 24ab 19bc caba 96be
00000030: 04a9 163e c503 173e 0547 45bd 9802 b03d
00000040: 4dc3 973e 2b32 7fbc e930 67bd 540f 363e
00000050: ea86 163f 654d 82be 7b67 0f3e 0e10 6f3e
00000060: a252 e83d a0fe bcbe 26b4 24bd 6878 d4bc
00000070: 1d4f 9abd 6ca1 e23e 0aff 1d3f a991 643e

fc_layers.8.weight f4 [4, 32]
-0.112339914 -0.11673935 -0.44180155 0.22195724 0.018301988 -0.076447755 -0.23122706 -0.009258514
-0.16071735 -0.30051664 0.23055775 -0.09344256 -0.24856517 -0.042003043 -0.0979927 -0.024685444
0.09815598 0.07116407 0.09412173 0.19730349 0.31387338 0.3019259 -0.045417517 0.11988347
0.0915376 -0.1045798 -0.026454778 0.10472809 0.024139417 0.114421524 0.26526815 -0.6137939
-0.60772115 -0.15812445 -0.27987006 -0.19405532 -0.7210265 -0.29558188 -0.06871514 0.028446998
-0.003108156 -0.0011045042 0.19724311 0.022236196 0.009097112 0.14785127 -0.19391356 -0.30622026
0.19688499 0.013953472 0.09889831 0.14269759 0.30572346 -0.11881747 0.19136174 0.17458212
-0.23172137 -0.28032014 -0.30469954 0.18514363 -0.02783777 0.26503623 0.25274888 -0.23734774
0.04200433 -0.057429876 -0.08544137 0.0056450386 -0.09164731 0.26763055 -0.2647172 -0.24567248
-0.19298099 0.008757855 -0.04093139 -0.025418133 0.004202598 -0.07616656 -0.30545166 0.030954499
-0.011511189 0.028187554 0.16323689 -0.012784789 0.27391288 0.13322963 0.25312707 -0.2638325
0.17153169 -0.04859217 0.014062543 0.012374713 -0.14151736 0.207735 0.43665978 -0.79070204
-0.2689605 0.045219034 -0.046993725 -0.21108094 -0.35103682 -0.21434084 -0.120934196 0.033925485
0.004692242 0.049605772 0.3084704 0.1520824 0.11615668 0.021962829 0.25251448 -0.10369498
0.16280593 0.18451706 0.23011036 0.028979165 0.19116335 0.08984324 -0.35125872 0.0924005
-0.0059085204 -0.3014393 -0.07283523 0.12933719 0.2081792 0.15774888 0.004896981 -0.16425909
00000000: 7812 e6bd 0a15 efbd d033 e2be c248 633e
00000010: 0dee 953c a490 9cbd c9c6 6cbe 06b1 17bc
00000020: 1793 24be 51dd 99be 5517 6c3e d05e bfbd
00000030: de87 7ebe 620b 2cbd 66b0 c8bd 2139 cabc
00000040: 0106 c93d 78be 913d e5c2 c03d ed09 4a3e
00000050: 03b4 a03e 0896 9a3e b807 3abd 7785 f53d
00000060: 1178 bb3d ef2d d6bd b1b7 d8bc ae7b d63d
00000070: 07c0 c53c d555 ea3d 3ad1 873e 9921 1dbf
00000080: 9d93 1bbf 60eb 21be 214b 8fbe 70b6 46be
00000090: 3195 38bf 8256 97be 86ba 8cbd ae09 e93c
000000a0: 34b2 4bbb 03c5 90ba 19fa 493e af28 b63c
000000b0: 0e0c 153c 5366 173e 4791 46be e7c8 9cbe
000000c0: 389c 493e 1a9d 643c 328b ca3d 511f 123e
000000d0: c987 9c3e 9356 f3bd 55f4 433e a8c5 323e
000000e0: 5e48 6dbe 1f86 8fbe 9401 9cbe 4b96 3d3e
000000f0: 090c e4bc d4b2 873e 4d68 813e 490b 73be
00000100: bb0c 2c3d 973b 6bbd e3fb aebd 04fa b83b
00000110: 96b1 bbbd df06 893e 0389 87be 9191 7bbe
00000120: cf9c 45be 1b7d 0f3c aca7 27bd b039 d0bc
00000130: f2b5 893b 37fd 9bbd 2964 9cbe 4a94 fd3c
00000140: 6d99 3cbc 96e9 e63c 9227 273e 4b77 51bc
00000150: 4f3e 8c3e 596d 083e df99 813e 0e15 87be
00000160: 01a6 2f3e 9508 47bd 9566 663c 4fbf 4a3c
00000170: ede9 10be 7cb8 543e df91 df3e 736b 4abf
00000180: 31b5 89be 9837 393d 7e7c 40bd 9a25 58be
00000190: 19bb b3be 2a7c 5bbe 59ac f7bd 73f5 0a3d
000001a0: 61c1 993b 6c2f 4b3d d5ef 9d3e 7dbb 1b3e
000001b0: 8ee3 ed3d 64eb b33c 9449 813e 095e d4bd
000001c0: 99b6 263e 0af2 3c3e 0da2 6b3e b765 ed3c
000001d0: 53c0 433e bcff b73d 2fd8 b3be 793c bd3d
000001e0: 439c c1bb 4056 9abe a32a 95bd f870 043e
000001f0: ee2c 553e ec88 213e db76 a03b 8933 28be

fc_layers.8.bias f4 [4]
0.2253452 0.27042958 0.24322733 0.4718364
00000000: e4c0 663e bf75 8a3e 9610 793e 8a94 f13e
