output/dqn/model/4x4/13000.pth (torch, 53480 bytes, 8 tensors)

fc_layers.0.weight f4 [128, 16]
00000000: 5634 0a3e cd52 563e 008c a53c fd4d 643e
00000010: c025 0a3f 8079 f0bd 2e9f f23e a609 f13e
00000020: 0e51 413e de7d ea3e e7b8 e7be 80d7 e8be
00000030: 5136 103f d3f1 053f b847 bf3d 5841 9a3e
00000040: b810 75be 376f e3bc 38ad ac3d ea98 fbbe
00000050: 2a23 553e 3657 f83e 20db c8be 2a5f 0bbf
00000060: 08c6 df3e 402f 09be 4697 a7be 2096 1dbd
00000070: abe9 163f 6970 993e f198 73bd 6e88 07be
00000080: dbe1 07be 52b1 e1be 4cb0 a5bd c215 023e
00000090: 8508 b7be 9ead ce3e d5ec b03e fae5 28be
000000a0: 23ab 5cbd 1ed3 493e eee0 5f3e c053 d1bd
000000b0: fed6 af3e 3132 12bf 6b5b 953e 0081 a03d
000000c0: fd5a e4be bf54 3f3e 099e 08bf 1445 14be
000000d0: 9273 5dbe 4a95 9f3e de88 0dbf d80b a2be
000000e0: fa99 0b3f 7112 523e 4612 2a3e 488e 983e
000000f0: 28bf 91be b393 973e 3afc 113e 1850 e3bd
00000100: 0701 9c3c 281e a63e d5bf 243e 6183 07bf
00000110: 5c1d 1abf 969c f73e a43b e3be e062 6abe
00000120: eb7e c93e c21b 17be 9aa6 9b3e bc67 3cbe
00000130: 5861 a6bd 47a9 9cbe 64f8 403e a59d 053f
00000140: da83 dfbe a0a9 55be cc84 22be 9f04 893e
00000150: dc16 05bf 9a67 a53e 58a2 cf3d a0be 8fbc
00000160: 2e88 b23e 720b 703e 4e68 6dbe b282 1fbe
00000170: 60b4 5a3d bd66 713e 9856 8b3d aca1 0bbf
00000180: 5f02 3bbe 63ce 52be 596a 88be 88a2 0cbf
00000190: 2377 693c b0fd 7f3e 35cf 0fbf ae1d 14be
000001a0: 921a 59be 52e5 86be 6e8b 753e 0a11 db3e
000001b0: 6820 abbd cec9 95bd 27a6 e93d 9894 5d3e
000001c0: c0d2 abbc aad8 a4be 1f32 f8be 7286 f7be
000001d0: 004c 333b f07f 69be a087 de3e 70de 49bd
000001e0: 1e7a 4f3e 4cd9 dbbe 178c 233e 4440 be3e
000001f0: c422 6cbe d87e df3e e01e cc3d f8cd 19bf
00000200: d040 903d 680e b83e 98d0 c2bd a85f ccbe
00000210: f6ae 0cbe 7b89 fbbe 128e 33be 7815 dcbe
00000220: 186e 07bf dd4e 003f ced2 4dbe 5cf2 683e
00000230: 38e5 f9be bfce b4be 3646 7f3e 2801 f6bd
00000240: 5085 123e cc88 16bf 8ed1 14bf 5f09 00bf
00000250: 7a6e 04be 664c da3e c8e2 ddbe 589d f5be
00000260: 6ca2 33bd 6634 b33d c074 9a3e 982b 1cbe
00000270: 40d4 fcbd 6b40 833e 64ba 9dbd dfd8 0abf
00000280: 9c39 c1bc 40fe a8bd da36 10bf 8616 27be
00000290: 6451 fcbe 76c7 963e 72e9 0e3d 2ebd c83e
000002a0: a701 233d 357b 723e b361 c93e f074 903d
000002b0: a672 993e c592 06bf d12b 693e 4abb 863e
000002c0: 5f3e d03d f77b 2f3d 60e4 53be 9357 a3be
000002d0: ee2f 9d3e 5a92 81be 4de0 b23e 98a9 203e
000002e0: 00b6 603e cff1 853e 388b fcbd 04cd 18be
000002f0: f618 f43e 70d7 e3ba 2a25 2fbe 4095 babc
00000300: 0889 10bf 2f1c 5f3e 136b 523e 7ef9 0cbf
00000310: 14d9 dd3e 30f5 4d3d e862 22be 2db9 afbe
00000320: bcb0 1bbf 4cca 683e edb5 e43e 1008 1cbe
00000330: a8a1 c6be 964e dabe fb60 be3e 609e edbc
00000340: 0fc6 ac3e 6248 cc3e d0a9 c7be 35a5 453e
00000350: 5375 d03e ca24 ce3e e3c0 a53e e64a a83e
00000360: 72c4 103f f7d7 0f3e 5a82 9dbe 20c5 13bd
00000370: df0a 103f af91 2d3e 9467 13be 30a8 d4bd
00000380: 72b0 06bf 188c 123e fcf8 bcbe c970 8f3d
00000390: ed48 8abe 2e49 d73e 1684 a1be a138 0b3f
000003a0: 3c08 083f 3eca ba3e d2a4 12bf 8213 9e3e
000003b0: e001 5bbe ae06 4abe 31d0 9bbe 92e3 cc3e
000003c0: fe93 80bc 52f9 9a3d 3f8e ac3d 4cad bcbe
000003d0: 083f 873d 6866 4d3e 9e74 8c3e 00dc 743e
000003e0: f6e0 16bf d910 953d c1d7 9f3d a22c bd3e
000003f0: 2c95 3b3e 766f eb3e 7de5 e4bd 3038 11bd
0.13496527 0.20930023 0.020208359 0.22295375 0.5396385 -0.11741924 0.4738707 0.47077674
0.18878576 0.45799154 -0.45258257 -0.45476913 0.5633288 0.5232212 0.09339851 0.30127978
-0.23932159 -0.027762992 0.08431476 -0.49140102 0.20814195 0.48504037 -0.3922968 -0.54442084
0.43705773 -0.1339693 -0.327326 -0.03847325 0.589503 0.29968575 -0.05947203 -0.13235638
-0.13269751 -0.44080597 -0.080902666 0.12703612 -0.35748687 0.40366834 0.34555689 -0.16493979
-0.053874146 0.19709441 0.21863148 -0.10221052 0.34343714 -0.57107836 0.2917131 0.07837105
-0.4460067 0.18684672 -0.5336614 -0.14479476 -0.21626118 0.31168586 -0.5528697 -0.3164966
0.54531825 0.20514847 0.16608533 0.29796052 -0.28466153 0.29604873 0.14256373 -0.11099261
0.019043459 0.32444882 0.16088803 -0.52934843 -0.6020105 0.48361653 -0.4438144 -0.2288928
0.39354643 -0.14756683 0.30400544 -0.18398947 -0.081240356 -0.30597898 0.18844754 0.5219367
-0.43655282 -0.20865488 -0.1587097 0.26761338 -0.51988006 0.32305604 0.101383865 -0.017546952
0.34869522 0.23441866 -0.2318432 -0.155772 0.053394675 0.23574348 0.06803626 -0.54543567
-0.18262623 -0.20586543 -0.26643637 -0.54935503 0.014249596 0.24999118 -0.5617555 -0.14464447
-0.21201542 -0.26346833 0.2397897 0.42786437 -0.083557904 -0.07313882 0.11408644 0.21638715
-0.020974517 -0.32196552 -0.4847574 -0.4834476 0.0027358532 -0.2280271 0.4346285 -0.0492844
0.20261428 -0.42939222 0.15971409 0.37158406 -0.23060137 0.43651462 0.099668264 -0.6007991
0.07043612 0.3594849 -0.09512442 -0.3991673 -0.13738617 -0.49128327 -0.17534664 -0.4298513
-0.52902365 0.50120336 -0.20099947 0.22748703 -0.48807693 -0.35313985 0.24929127 -0.12011939
0.14308667 -0.58802485 -0.58132255 -0.500143 -0.12932768 0.42636412 -0.43337083 -0.47971606
-0.04385607 0.087502286 0.30167198 -0.15251005 -0.12345171 0.25635085 -0.07701567 -0.5423717
-0.02358704 -0.08251619 -0.56333697 -0.16317186 -0.49280846 0.29449052 0.0348906 0.39206833
0.039796498 0.23679812 0.3933235 0.07053554 0.29970282 -0.525677 0.22770621 0.26314765
0.10168146 0.04284283 -0.20692587 -0.3190275 0.3070063 -0.2530697 0.34936753 0.15689695
0.21944427 0.26161048 -0.12331241 -0.14921957 0.47675294 -0.0017382931 -0.1710402 -0.022776246
-0.56459093 0.21788095 0.20548658 -0.55068195 0.4332968 0.050282657 -0.15858042 -0.34320965
-0.6081655 0.2273342 0.44670048 -0.1523745 -0.3879521 -0.4263808 0.37183365 -0.029006183
0.33744857 0.39898974 -0.38996744 0.19301303 0.4071451 0.40262443 0.32373723 0.32869643
0.5654975 0.14047228 -0.30763513 -0.036076665 0.5626659 0.16950105 -0.1439498 -0.10383642
-0.52612984 0.14311254 -0.3690871 0.07003934 -0.27008763 0.4204802 -0.31546086 0.54383284
0.53137565 0.36482424 -0.57282746 0.30874258 -0.21387434 -0.1972911 -0.30432275 0.40017372
-0.015695568 0.07567085 0.08425569 -0.36850965 0.06603819 0.20058596 0.27432722 0.23912048
-0.58937013 0.07278604 0.07804824 0.36948115 0.18318623 0.45983475 -0.11176584 -0.035453975

fc_layers.0.bias f4 [128]
00000000: 8588 92be 3de5 27be 5d49 83be 23eb 0abd
00000010: 4be1 30be e5de b3be 1c1b 12bd c261 a4be
00000020: 653f 25be 42b5 d4bd 0d66 7bbe 755c 8bbe
00000030: 4311 9bbe e838 fdbd 61ca b43c b36d febd
00000040: 3935 46bd 4a6f 02be d7fd 42be fabd 6fbe
00000050: 1dc5 abbe e640 4bbe 0998 77be 7c59 cdbd
00000060: 67c6 64be fc3f 1abc e0ad c6be 9c47 14bd
00000070: 3a3a 3dbe ab3c 0a3e 4e2d 7abe ec86 17be
00000080: 2148 ecbe eda7 11bd fdd6 78be ffa4 1ebe
00000090: 25b6 b4be e5f1 06be 66d4 ddbd c83a aabe
000000a0: 5f1f b6bd a53f a2be 2422 7dbe 9a28 13be
000000b0: 8907 f2bd 541e 6fbd d652 28be 1bb7 c6be
000000c0: fe08 d5bb 1c29 b7bd 18f6 83be f907 2ebe
000000d0: e765 a1be bdfb 87be fc1f 183d 4bb3 36be
000000e0: 8faf 6dbe eb4d a5be 4805 01be 7b7e 27be
000000f0: 1eba 3cbd 3b81 54be fc2d b9be d3f3 65be
00000100: 3e26 89bd 61a9 c0be a010 88bd 8fac 6ebe
00000110: c858 f63d 88ed f7bd f42f 0fbe 3a23 aabe
00000120: 85f4 60be 971c d8bd 7fdf afbd f4f3 a8bd
00000130: 0eee 6ebe ea18 3abe 8b86 f8bd 352e 9abe
00000140: 9ed7 4abe 9447 8fbe e0bf 84be 3d34 99be
00000150: 66c2 4ebe 6685 e3bd 9692 97be 6225 e3bd
00000160: f967 9bbe 89e4 33be b623 46bd 3676 fbbe
00000170: eebb 31be e89f cbbd 2fb9 02be 0e83 c9be
00000180: 6c2d b3bd be27 dfbd 15df 65be b266 3fbd
00000190: 5873 35be d4ff eabd 5492 27be 5380 bfbe
000001a0: 4cd4 97be 59f0 55be c4bf dcbd d5bb 80bd
000001b0: 1d3a 29be 9882 613d 8641 943c 895a 9cbe
000001c0: bdd1 a2be bf41 67be c82a afbe d5b5 9cbe
000001d0: ef69 77be 5468 2dbe e5c4 8cbe 8c80 0fbe
000001e0: d359 a7be 7459 c2be 535d 99be 5182 83be
000001f0: 29bd 94be 7d90 efbd e0ce 48be 67e0 90be
-0.2861978 -0.16396041 -0.2564191 -0.03391565 -0.17273442 -0.35130993 -0.035670385 -0.32105833
-0.16137464 -0.10386135 -0.24550648 -0.27218977 -0.30286607 -0.1236437 0.022069158 -0.12423267
-0.0483906 -0.12737766 -0.19042145 -0.23412314 -0.33548823 -0.19848976 -0.2417909 -0.100268334
-0.2234131 -0.009414669 -0.3880453 -0.036201105 -0.18479243 0.13499705 -0.24431345 -0.14797562
-0.4614878 -0.035560537 -0.24300762 -0.15492629 -0.35295215 -0.13178213 -0.108315274 -0.33247972
-0.08892702 -0.31689182 -0.24720055 -0.14370957 -0.118178435 -0.058378533 -0.1643785 -0.38811573
-0.006501316 -0.08943388 -0.25773692 -0.16995229 -0.31523058 -0.2655925 0.037139878 -0.17841832
-0.23211502 -0.3228601 -0.12599671 -0.16356842 -0.046075933 -0.20752423 -0.36167896 -0.22456293
-0.06696747 -0.37629226 -0.06643796 -0.23308013 0.120286524 -0.12105852 -0.13983136 -0.3323
-0.21968277 -0.10552328 -0.0858755 -0.08249655 -0.23332998 -0.18173566 -0.12135037 -0.30113378
-0.19808814 -0.27984297 -0.2592764 -0.29922667 -0.20191345 -0.11109428 -0.29604024 -0.110911146
-0.30352762 -0.17567648 -0.0483739 -0.49113625 -0.17356846 -0.09942609 -0.12765954 -0.393578
-0.08748898 -0.10896252 -0.2244838 -0.046728797 -0.17719781 -0.114745766 -0.16364413 -0.3740259
-0.29654157 -0.20892467 -0.10778764 -0.06285826 -0.16526075 0.055056185 0.01809765 -0.30537823
-0.31800643 -0.22583674 -0.34212327 -0.30607477 -0.24161504 -0.1693433 -0.2749397 -0.1401388
-0.32685718 -0.37958872 -0.29954013 -0.2568536 -0.29050568 -0.11697481 -0.19610167 -0.28296205

fc_layers.3.weight f4 [64, 128]
00000000: 1efe cd3d e754 33be d4e1 0fbe abe6 44be
00000010: 929f d5bd 270e 883d 09ab 753c b9bc b9bc
00000020: c4a2 3a3d 9858 c3ba 424c 84bd 15cb abbd
00000030: 223d 89be ad3a 4abc aa47 a3bd d7da 28be
00000040: 41a2 7d3d c874 75bd 5b6b 9b3d 8bac 19ba
00000050: 845f 65be 91a6 bc3c 5a4a c93b bc2b f0bd
00000060: 1260 85bd 0e54 2abe 60f5 d5bd c5e1 dbbd
00000070: bffc 18be 4436 bdbd d0e0 d83d 4b83 32bd
00000080: c9b6 cb3d d8fd 30bd 03cc f5bd 5257 b03d
00000090: d4f0 eebd a8f0 4fbe ac10 8d3d 6305 6ebe
000000a0: 2986 aebd 9947 59be da16 5dbe bfe8 93bd
000000b0: 66cb 02be 9880 893c 88bb 013d 0c93 a5bd
000000c0: 80a3 0abd 449b 2cbe b90f 033e e18c 8bbd
000000d0: 4642 b03d 474c 4ebe 9070 4fbe 0174 bb3d
000000e0: 8c3e 66be 288a 2dbe 9465 3dbe 2dfc 223e
000000f0: a7a8 c43d ccf6 20be 9678 00be 55cb 563d
00000100: d360 4abe 8567 183d 25cc 78bd c020 bdbd
00000110: 6016 58be 3df0 e1bd 8aa8 6b3d b683 4f3e
00000120: c012 adbd 27a1 06bd 4ffa 46be ffbb 61be
00000130: a4bc 94bc 9187 e13d 682d 94bd f844 bd3d
00000140: 03b2 53be b0bc 313d 331c 093e 24ce 20be
00000150: 3a3b 073e 18d0 24be a906 a6bd 6783 283d
00000160: e4b6 85bd d734 47be 481b a33d b064 7dbd
00000170: b85d 51bd a254 c6bd c32a e1ba 0378 c7bd
00000180: 04bd 553b 1378 14be 9836 59be b280 8d3d
00000190: f007 0e3e 4168 393d d460 8fbd 2bf2 2b3e
000001a0: 2eb6 87be acf3 41be a3c9 38bc f5e1 5e3d
000001b0: ef6c b9bd 4de2 e6bd a303 84bc 3a60 cd3d
000001c0: 00a2 3fbe 135e 30bd dee4 20bd 9923 72be
000001d0: d9af 30be 80fc 22bd 3b9f 2fbe 1a53 6bbe
000001e0: 3f02 143e f191 ee3d 2ce3 96bd 9f52 d2bd
000001f0: a667 5cbe effd 54be 326f f5bd 145f 37be
00000200: e97c aebd 0bc1 9e3e fd3d fcbd dfcb 073e
00000210: a59c 883e 6593 41bd aae4 b1bc 591f 963c
00000220: d93a 94be 8f70 3bbd 96c6 55be cf89 e1bd
00000230: c0b6 f2bd 2843 2f3e 552a 443d b18e 3ebe
00000240: aa7b 21be 2e38 1c3e e070 47be 758d e4bd
00000250: 6041 ecbe d3be 6a3e 86fe 04be c8ca 9fbd
00000260: 18b6 85be f680 95bc 5961 0d3e fddb 46be
00000270: ae7c 063e edf0 2b3e 35d3 27be cb7e 4fbe
00000280: f456 513d df43 2cbe 52d9 e6bd 2d47 74be
00000290: 44a4 aabe 6610 33be 631e c0be 148d 47be
000002a0: 3dea a1bd 74eb e7be 4d10 67bc a703 453e
000002b0: 9cb5 50be 2b7a 92be f28c babd ea77 76be
000002c0: 7e24 26be d698 083e f69b e93d 0fa2 9cbe
000002d0: 5eb1 353e 8e38 103d f7d2 b3bc 7ff0 0fbe
000002e0: 9e21 853e 8fd5 64be a936 5abe 3fd4 463e
000002f0: eac5 113e 48b9 c4be 9ece 28be 25b0 c2bc
00000300: 85b3 95bd 502c 863c de11 2cbe 7a36 ecbd
00000310: 6d1c b2be 292a c7bd 9267 adbe d190 f63d
00000320: 7376 e3bd 8536 cabd bf7e a3bd ca57 43be
00000330: 87f1 d9be e69e 7dbe 8717 b5bd 165e 73bd
00000340: 2ea4 57be bbd6 9e3a 360c 79be a05f 6fbe
00000350: 5d70 cabe b8fe 7ebc a8c9 50be c24d 92be
00000360: 145b babd e564 86be 122b 2d3e 9821 05be
00000370: ecdb 02bd 458d 433e b5f5 73be ab14 173d
00000380: b777 213e d6ed 77be ffc6 153e b1a0 173e
00000390: 69ab e6bd e6c0 81bc fe0e 273e a999 663d
000003a0: 7705 8abe e66a b83c 42dd 00bd ca88 aebe
000003b0: f4ed 22be 1183 2cbe 3346 3e3e 7385 3bbe
000003c0: 27c8 31be 68ed 903d dbff 7fbe 8a61 81be
000003d0: 6c35 05be 6665 f7bd 50b7 903c 7572 87bd
000003e0: d5b0 d63d f87c 9c3d 7dc2 63be 1fcb 20be
000003f0: 7b52 ffbc 473e 3a3e 7fcd 403d f5f2 abbe
0.10058235 -0.17512856 -0.1405099 -0.19228618 -0.10430826 0.06643324 0.014994391 -0.022672998
0.04556538 -0.0014903722 -0.064598575 -0.08388344 -0.26804453 -0.012343091 -0.07972653 -0.16489731
0.061922316 -0.059925824 0.07588836 -0.0005862198 -0.22399718 0.023028644 0.0061428966 -0.11727092
-0.065124646 -0.16633627 -0.10447192 -0.107364215 -0.14940165 -0.09238866 0.105897546 -0.043582242
0.09946973 -0.043210834 -0.12001803 0.08610405 -0.11667028 -0.20306647 0.068879455 -0.23244242
-0.08521683 -0.21218719 -0.21590748 -0.07222127 -0.12772903 0.016784951 0.031672984 -0.080846876
-0.033847332 -0.16856104 0.12798966 -0.0681398 0.08606391 -0.20146285 -0.20257783 0.09152985
-0.22484797 -0.16947234 -0.1849578 0.1591651 0.096024804 -0.15719146 -0.12546 0.052440006
-0.19763498 0.0372081 -0.060741562 -0.09234762 -0.21102285 -0.1103215 0.05753378 0.20265087
-0.08450842 -0.03286853 -0.19431423 -0.22044371 -0.018156357 0.11012185 -0.07235223 0.0924167
-0.20673375 0.043392837 0.13389663 -0.15703636 0.13206187 -0.16095006 -0.08106739 0.04114094
-0.06529024 -0.1945375 0.07964188 -0.0618636 -0.051114768 -0.09684111 -0.0017178882 -0.09739687
0.0032613883 -0.1449893 -0.21212232 0.06909312 0.13870215 0.04526544 -0.070008904 0.16791598
-0.2650618 -0.1894061 -0.011278543 0.05441471 -0.090539806 -0.11273632 -0.016115015 0.100281194
-0.18714142 -0.043058466 -0.039280765 -0.23646392 -0.1725458 -0.039791584 -0.17150585 -0.2298092
0.14453982 0.1164893 -0.07367548 -0.10269665 -0.21523914 -0.20799993 -0.119840994 -0.17907363
-0.085199185 0.31006655 -0.12316511 0.13261364 0.2668201 -0.047259707 -0.02171548 0.018325495
-0.28951147 -0.04576164 -0.20876536 -0.11012613 -0.11851263 0.17115462 0.047891933 -0.1860912
-0.1576983 0.15255806 -0.19476652 -0.11159793 -0.46143627 0.22924356 -0.12987718 -0.07802349
-0.2611549 -0.01824997 0.13806666 -0.19419856 0.13133499 0.16791125 -0.16389163 -0.20263211
0.051108316 -0.16822766 -0.11271919 -0.23855276 -0.3332845 -0.17486724 -0.37523183 -0.19487411
-0.079060055 -0.45296824 -0.0141030075 0.19239675 -0.20381778 -0.28608832 -0.091089144 -0.24069181
-0.16224858 0.13339552 0.114067 -0.3059239 0.17743441 0.035210185 -0.021951182 -0.14056586
0.2600221 -0.22347091 -0.21309914 0.19416903 0.14235654 -0.38422608 -0.16485068 -0.023765633
-0.07309631 0.016378552 -0.16803691 -0.11533828 -0.34787312 -0.09724838 -0.3386808 0.1203934
-0.11106577 -0.0987368 -0.07983159 -0.19076458 -0.42567083 -0.24767646 -0.08842378 -0.0594159
-0.21058723 0.0012118438 -0.24321064 -0.23376322 -0.3953885 -0.015563659 -0.20389426 -0.2857495
-0.09099403 -0.2624885 0.16910961 -0.13001096 -0.031948015 0.19096859 -0.23824199 0.036884945
0.15768324 -0.24211821 0.14626692 0.14807393 -0.11263163 -0.015839051 0.16314313 0.056298885
-0.26957294 0.02251191 -0.031461008 -0.34088737 -0.15911084 -0.16846873 0.18581466 -0.18312626
-0.17361508 0.07076532 -0.24999945 -0.2526973 -0.1300866 -0.12079887 0.017665535 -0.06613628
0.10482947 0.076410234 -0.2224216 -0.15702485 -0.03116726 0.1818782 0.047070976 -0.335838

fc_layers.3.bias f4 [64]
00000000: 0bf2 a0bd 01f6 8abd 07ea e93d 35a1 15bd
00000010: 3501 02be c804 0c3e f2a4 8fbc 45f5 1bbe
00000020: d14b e73c 4062 8f3e 7df9 083d 0ddf d13d
00000030: e02d 0abd 5544 ecbd 023b 20be 5543 ed3d
00000040: 9fbb 123e 61c3 41be 95a4 133c 7adf 123d
00000050: 0b45 883d 401b fa3d 0c5b c0bd d023 5fbd
00000060: 2f3f 39be 046a 71bc 7dea e03d 94b5 753d
00000070: 20f4 11be 3f1b 5c3d 20c1 01be 4b9b 313e
00000080: e1eb f63d ac45 b63d 114d c6bd dde0 45be
00000090: a54a 97bd 7dc6 f23d 83b9 cf3d eb3b a33d
000000a0: 97e3 55be b834 d7bb 98ab 523e dd63 3ebe
000000b0: 6139 35be 7656 96bd 8133 823c 0676 413e
000000c0: 990b 89bd bca4 613d aafc 85bc 84e6 6b3d
000000d0: a76d 23be 116e 933c f36c b6bc b562 6c3d
000000e0: b2b7 c33d a586 a1bd 3c79 95bd 7370 c03d
000000f0: 7e0c 52be 3954 233d 3283 443d e85c f83d
-0.07858666 -0.06785203 0.1142159 -0.036530692 -0.12695773 0.13673699 -0.017534707 -0.15230282
0.028234394 0.28004646 0.033441056 0.10247622 -0.033735156 -0.11536471 -0.1564751 0.11585108
0.14329384 -0.18922187 0.009011407 0.035857655 0.06653794 0.12212229 -0.09392366 -0.054477513
-0.18090509 -0.014734749 0.10982225 0.05998762 -0.14253283 0.05373692 -0.12671328 0.17344396
0.12056709 0.089000076 -0.09682668 -0.1932406 -0.07387284 0.11854265 0.101428054 0.07970413
-0.208876 -0.006567564 0.2057327 -0.18592782 -0.1769767 -0.0734071 0.0158937 0.18892679
-0.06691665 0.055088744 -0.016355831 0.057592884 -0.15959798 0.01799682 -0.022268748 0.05771132
0.095565215 -0.078870095 -0.07298514 0.09396448 -0.20512578 0.039875243 0.04797668 0.121270955

fc_layers.6.weight f4 [32, 64]
00000000: e517 5e3e 77d1 6cbd 5aeb 4dbe 1e17 c93d
00000010: 2e2f d3bc 416d ab3b be70 4a3e fa1f 793e
00000020: ae58 83be 4c46 8dbd 59b0 9ebd d165 863e
00000030: 6a66 e9bb b81d 4dbe 72ab 103c 73d8 b6bd
00000040: 2e2f d33c 8632 b93c afc8 96bd a134 a8bd
00000050: 30c8 5e3e af02 54be 2578 a7bc 936e 0ebe
00000060: 0103 78be 0335 8fbe 7412 0bbe 1bbe df3b
00000070: 72bf 89bc a6b2 16be 5a06 93be a130 ac3d
00000080: 13d0 a23c 4928 03be 3fa6 6f3e f096 60be
00000090: 57b3 52be a1e4 333d 777a b5be ae8b 71be
000000a0: 5985 68be c154 503d 8804 aabe 85fb 89be
000000b0: 11d5 d63d 51d1 4abe 2c62 76bd ca0d ac3e
000000c0: a49f 093e a8c6 04be 12fe 20be a254 e33d
000000d0: 5608 06bd 27b5 96be 7887 0c3e 6659 f13c
000000e0: e74f d7be 7724 3abd 14c1 9e3d 09ca abbe
000000f0: 3dd9 3b3d 81cd 0d3a 77ac f6bd e32e 80be
00000100: 173d 3fbe 30e9 253d f753 74be 755e 96be
00000110: 5045 21be 3a8c b93c bdd8 813e 9260 6b3e
00000120: 612b 1bbe 8002 f1bd 3206 463e 4057 d83d
00000130: 3c81 97be 68d4 78be 04c0 87be 57c2 68be
00000140: 4771 c3bd 475d 1cbe eb7b 3d3b 2d09 2f3e
00000150: aa19 f43c d29f 5ebe 862f 7abe c251 59be
00000160: a4ff cd3d 6616 54be 1e03 43bd a314 79be
00000170: 9343 9bbe 2585 de3c d0a8 d7bd cbe4 9dbe
00000180: fadb 3cbe 6166 83bc 83cb 2fbd 29be 86bb
00000190: 79e6 333e efd3 79bd 957c 8fbe 8170 0c3d
000001a0: a5f2 dfbd d0c9 f73d 14e2 2cbe b13c 283e
000001b0: b221 783e 8dfc cc3d f434 0dbe f711 64bd
000001c0: 8b83 423e f509 cbbc 3700 21be 7ee4 90be
000001d0: 7ecc 74bd 97b7 333e 0a68 fbbd 67f2 0abd
000001e0: 5d62 5dbe 5e96 6cbb 0de9 c03c 6294 c9bd
000001f0: f629 6b3e 345e 6c3d 4ee0 2c3d b782 56bd
00000200: 5bd6 7ebe 0a01 fdbe 6d8f b5be b34b 6d3d
00000210: 4212 28be 1519 1ebf 1dee 8dbe c988 873e
00000220: c3bb ab3e 8224 843e cb36 0fbe 3567 b1be
00000230: 744e 4cbe 23a0 a13c 359f a33c 6a84 7abe
00000240: af19 d5be 564d 183e 8baa 583e 6183 a53e
00000250: 25a6 cebe b89b b0be 2676 efbd 78d8 4ebe
00000260: ded9 99be 77ca d3be 9e33 48be 48e1 cabd
00000270: ba35 b2bd d012 b3be fa22 fe3d 913d dbbe
00000280: 84de 98be da00 7cbe 2492 31be 3e5f 8dbe
00000290: 2eea 25be 2297 76be 5acf 86be 652e fb3a
000002a0: 9674 e93d 135c b5be 7f8a dfbe a5e6 63bd
000002b0: fb34 7f3e 8150 293a 2139 1cbe c018 d5be
000002c0: cd99 4ebe 6c74 5abd 263c 31bd c41f 37be
000002d0: 242a ab3d 6396 eebd f00e a8be dc8e ccbe
000002e0: b5cb 3abe 9d6f 533e 737a eabd 5403 c4be
000002f0: 7e11 f7bd 64e8 babe 094e bebe 9657 b1be
00000300: 3a32 3c3d 8a6b babe eefb a8bd fcf7 c3bd
00000310: 562a 613e 40f6 013d 42f2 653e 2a1f 1ebd
00000320: 7471 48be 24b2 5ebe 48d4 283e 2834 6ebe
00000330: 3d7b 0fbe 3440 e73d 67cf 73be 9227 12be
00000340: 54dd 69be d0dd cc3d 5e39 f5be 92ef b93d
00000350: 5325 7c3d a2e8 0e3d 1f4a f23d 82f6 47be
00000360: 1025 7ebe d588 5abc 84cf e43b 5715 c33e
00000370: fd4b 21be b21b 77be 5bac 44bd ab85 16bd
00000380: 01e1 583d bc00 1bbe ea3a bfbb 1f46 a5bd
00000390: 72f0 fe3b 9b31 233d e6db 43be beb1 a43c
000003a0: a999 87be 9982 cbbd 7fb1 cabe c121 903d
000003b0: 8ef0 e63c d461 5b3e d81c d63c de34 57be
000003c0: 5a4f 56bd 84ae e9bd 0e57 acbe 4187 64be
000003d0: f441 b53b c583 83be be78 4fbe 5e83 443e
000003e0: f2ee ba3e 7aad 8b3e 9725 1b3e c12e 07be
000003f0: 1091 5e3e a335 0cbe eff5 02be 722a 33be
0.21688803 -0.05781695 -0.20109311 0.098188624 -0.025779333 0.00523153 0.1976957 0.24328604
-0.25653595 -0.06898174 -0.077484794 0.26249555 -0.0071228044 -0.20030868 0.008829938 -0.08928003
0.025779333 0.0226071 -0.07362496 -0.08213163 0.21756053 -0.20704149 -0.020443032 -0.13909368
-0.24219896 -0.27970132 -0.13581258 0.0068280823 -0.016814921 -0.14716586 -0.28715783 0.08407713
0.019874608 -0.12808336 0.23403262 -0.21932578 -0.20576225 0.04391921 -0.35444996 -0.2358844
-0.22707118 0.050862078 -0.33206582 -0.26949707 0.10489858 -0.1980641 -0.060152218 0.3360427
0.13439804 -0.12966406 -0.1572192 0.11100127 -0.032722794 -0.29435083 0.13723552 0.029461574
-0.42053148 -0.04544493 0.077516705 -0.33552578 0.04586147 0.00054093456 -0.12044614 -0.25035772
-0.18675648 0.040505588 -0.23860155 -0.2936894 -0.15749097 0.022649873 0.2536067 0.22986057
-0.15153266 -0.11768055 0.19338301 0.105635166 -0.29590786 -0.24299777 -0.26513684 -0.22730385
-0.0954309 -0.15269957 0.0028912972 0.17093344 0.029797394 -0.21740654 -0.24432191 -0.21222594
0.10058525 -0.2071167 -0.047610395 -0.24324279 -0.30324993 0.027163098 -0.10530245 -0.30838618
-0.1844329 -0.016040029 -0.042918693 -0.0041120243 0.17568387 -0.06099313 -0.28024736 0.03428698
-0.10934953 0.120990396 -0.16883117 0.16429402 0.24231604 0.10009108 -0.13789731 -0.055681195
0.18995492 -0.024785021 -0.15722738 -0.28299326 -0.05976533 0.17550503 -0.12275703 -0.03392258
-0.21619554 -0.0036100368 0.023548627 -0.09842755 0.22965226 0.057707027 0.0422061 -0.052370753
-0.24886458 -0.49414855 -0.35460988 0.05793352 -0.16413215 -0.6175702 -0.2772073 0.26471546
0.33541688 0.25809103 -0.13985746 -0.34649053 -0.19951802 0.01972968 0.019973377 -0.24464574
-0.41621158 0.14873251 0.21158807 0.32326797 -0.40361133 -0.34493804 -0.11692457 -0.20199764
-0.30049032 -0.41365406 -0.1955094 -0.0990625 -0.08701654 -0.3497529 0.12409015 -0.4282041
-0.29857266 -0.246097 -0.17340904 -0.27611727 -0.16202614 -0.2408109 -0.26330072 0.0019163607
0.1139919 -0.3542181 -0.43660352 -0.05563988 0.24922554 0.00064588344 -0.15256168 -0.41620445
-0.20175858 -0.053333685 -0.043270253 -0.17883211 0.08357647 -0.11649778 -0.32823896 -0.39952743
-0.1824177 0.20648046 -0.114491366 -0.3828379 -0.12063883 -0.36505425 -0.3716891 -0.34637135
0.045946337 -0.3641017 -0.08251177 -0.09568784 0.21988806 0.031728983 0.22455695 -0.03860394
-0.19574529 -0.21747643 0.16487229 -0.23262084 -0.14011855 0.11291543 -0.23809586 -0.14272907
-0.22838336 0.10003245 -0.4789533 0.090788975 0.061559033 0.034889825 0.11830544 -0.19527629
-0.24818826 -0.013338287 0.0069827456 0.38102219 -0.15751643 -0.24131659 -0.048015933 -0.03674857
0.052948955 -0.15136999 -0.0058358805 -0.08070015 0.007780128 0.03984223 -0.19126853 0.020104285
-0.2648442 -0.09937019 -0.39588544 0.07037688 0.028190877 0.21424037 0.0261368 -0.21016261
-0.05232177 -0.11410239 -0.33660167 -0.2231722 0.005531544 -0.2568647 -0.20260903 0.19190738
0.36510426 0.2728079 0.15151058 -0.13201429 0.21735024 -0.13692336 -0.12789129 -0.1749666

fc_layers.6.bias f4 [32]
00000000: 3c6e 69bd 928c adbe aba1 ac3d 1ad3 fbbc
00000010: 1234 853e d7cb cbbe 8373 ebbd 2bd3 c0bd
00000020: 54a7 5dbe 78a2 ddbd 4595 04bc b6f3 96be
00000030: 2bc4 173e 3988 183e fad0 69bd e526 ba3d
00000040: d8a9 973e 3550 44bd 801c 39bd e06a 333e
00000050: 8f21 163f ad05 72be a033 0a3e a53e 6f3e
00000060: 66df ec3d bf29 b8be ac88 93bd b1ae 96bc
00000070: 1a1c d4bd 093f e33e 171b 1e3f 8531 673e
-0.056989893 -0.3389631 0.08429273 -0.03074031 0.2601629 -0.39803955 -0.114966415 -0.09415277
-0.21645862 -0.10822004 -0.008092229 -0.29482812 0.14820926 0.14895715 -0.05708406 0.0908945
0.29621768 -0.047928054 -0.045193195 0.17521238 0.58644956 -0.23634978 0.13496256 0.2336374
0.11566047 -0.3596935 -0.072038025 -0.018393846 -0.103569224 0.4438403 0.61760086 0.22577484

fc_layers.8.weight f4 [4, 32]
00000000: 1f0d cebd 0a15 efbd e3ac e9be 1904 443e
00000010: 0d18 8f3c a490 9cbd 8a01 5ebe a906 93bb
00000020: 480e 21be 51dd 99be 6815 693e d05e bfbd
00000030: 118c 82be d0d3 2bbd 3da3 cfbd b477 90bc
00000040: 7765 ca3d 1b77 ab3d 4a23 963d 9b37 3d3e
00000050: af77 a23e 0896 9a3e 26bc 3fbd 1859 eb3d
00000060: 1037 b83d bfa1 d4bd c9d4 6abc 2e4f dc3d
00000070: d8b7 c53c f3df ea3d 0212 883e 214c 20bf
00000080: f78b 1ebf 60eb 21be 9133 90be 1096 45be
00000090: 51c4 3abf 8256 97be 56d4 8abd 393e c43c
000000a0: 1a5e f6bb 03c5 90ba d9b1 3f3e 484e ac3c
000000b0: 65e8 8c3c 939a 153e 20c0 3ebe 4bc2 a0be
000000c0: e1ef 483e 4350 e83b 903e 003e 65e5 123e
000000d0: eaf1 9b3e 1d06 f1bd fd7f 3d3e c519 303e
000000e0: 338d 73be 6a64 8bbe d4ed 9abe 6ee4 2f3e
000000f0: b866 9bbc 8491 873e 801e 813e 8cc4 81be
00000100: d0d3 383d 973b 6bbd b1c7 c3bd fa83 df3b
00000110: 27fa c3bd df06 893e e161 85be 5133 97be
00000120: 77a8 3fbe ff45 353b 453b 52bd b039 d0bc
00000130: 0c70 bfbb 63b3 9cbd c2b0 9abe c0b8 ee3c
00000140: 9b0f fabc 3aa8 a63c c9c4 3d3e 02cd 8abc
00000150: 3b2d 8a3e 596d 083e 8cc5 683e 2b7b 85be
00000160: b8c5 2a3e b9a8 32bc 5865 953c fe65 573d
00000170: cfba 10be ec5b 593e 0b2a e03e 5ac4 4abf
00000180: 434e 81be 9837 393d 4827 7dbd 5b85 50be
00000190: 9e98 abbe 067a 5bbe c055 e6bd 9d6a ef3c
000001a0: 61c1 993b f6d0 123d 98ba 933e 7dbb 1b3e
000001b0: fb5b d93d 229d c5bb 0746 703e 4f34 c0bd
000001c0: ccfd 163e f8fc 213e dded 6d3e 145a bc3c
000001d0: b773 423e 10ae 913d 09c9 b0be 074f cd3d
000001e0: d281 98bc 4056 9abe 771b 96bd ac4d 173e
000001f0: 31f9 3c3e 91ac 253e 5b6e 16bc 4152 21be
-0.100610964 -0.11673935 -0.45639715 0.19142188 0.017467523 -0.076447755 -0.21680275 -0.004486878
-0.15728104 -0.30051664 0.22762072 -0.09344256 -0.25497487 -0.041950047 -0.10138557 -0.017635204
0.09882634 0.08372327 0.073309496 0.18478243 0.31731936 0.3019259 -0.04681029 0.11491603
0.08994877 -0.10382413 -0.0143329585 0.1075729 0.024135515 0.11468496 0.2657624 -0.62616163
-0.6193232 -0.15812445 -0.28164342 -0.19295526 -0.72955805 -0.29558188 -0.06778781 0.023955451
-0.007518542 -0.0011045042 0.18720187 0.021033421 0.017200658 0.14609747 -0.18627977 -0.31398234
0.19622757 0.007089646 0.12523866 0.1434532 0.30458003 -0.11768744 0.18505855 0.1719733
-0.23784332 -0.27225047 -0.30259573 0.17176983 -0.018969879 0.26478207 0.25218582 -0.25345266
0.045123875 -0.057429876 -0.095595725 0.0068211528 -0.09569197 0.26763055 -0.26051238 -0.2953134
-0.18716608 0.002766013 -0.051326055 -0.025418133 -0.0058422145 -0.07651403 -0.3021298 0.02914083
-0.03052502 0.020343889 0.18532099 -0.016943458 0.26987633 0.13322963 0.22731608 -0.26070532
0.16676986 -0.010904484 0.018236801 0.0525875 -0.14133762 0.21226472 0.43782076 -0.7920586
-0.2525502 0.045219034 -0.06180504 -0.20363371 -0.33514875 -0.21433267 -0.11246824 0.029225642
0.004692242 0.035843812 0.28853297 0.1520824 0.10613247 -0.0060306946 0.23464213 -0.09384977
0.14745253 0.15819156 0.23235269 0.022992171 0.18989454 0.07113278 -0.34528378 0.10024839
-0.01861659 -0.3014393 -0.07329457 0.14775723 0.18454434 0.1617911 -0.009181584 -0.15754034

fc_layers.8.bias f4 [4]
00000000: cd58 693e ec85 8a3e a80f 743e 1f5b f23e
0.22787781 0.270553 0.23834097 0.47335145
