output/dqn/model/4x4/13500.pth (torch, 53480 bytes, 8 tensors)

fc_layers.0.weight f4 [128, 16]
0.13496527 0.20930023 0.020208359 0.22295375 0.5577543 -0.11741924 0.4596989 0.47077674
0.18878576 0.4925638 -0.45258257 -0.45476913 0.5633288 0.52652186 0.09339851 0.30127978
-0.23932159 -0.027762992 0.08431476 -0.49140102 0.2265791 0.48504037 -0.3922968 -0.54442084
0.4360073 -0.1339693 -0.327326 -0.03847325 0.589503 0.29975718 -0.05947203 -0.13235638
-0.13269751 -0.44080597 -0.080902666 0.12703612 -0.35748687 0.40366834 0.33098307 -0.16493979
-0.053874146 0.19709441 0.21863148 -0.10221052 0.34343714 -0.57107836 0.2957931 0.07837105
-0.4460067 0.21419579 -0.5336614 -0.14479476 -0.21626118 0.31168586 -0.5528697 -0.3164966
0.5244265 0.1611289 0.16501479 0.29796052 -0.28466153 0.29056966 0.1258143 -0.11099261
0.019043459 0.36367062 0.17158741 -0.52934843 -0.6020105 0.48361653 -0.4438144 -0.2288928
0.37229568 -0.14756683 0.3051658 -0.18398947 -0.081240356 -0.30597898 0.18483901 0.5219367
-0.43655282 -0.20865488 -0.1587097 0.26761338 -0.51988006 0.32305604 0.101383865 -0.017546952
0.34869522 0.23441866 -0.2318432 -0.155772 0.053394675 0.23574348 0.06803626 -0.54543567
-0.18262623 -0.20586543 -0.26643637 -0.54935503 0.014249596 0.24999118 -0.5617555 -0.14464447
-0.21201542 -0.26346833 0.2456729 0.42786437 -0.083557904 -0.07313882 0.11724816 0.21638715
-0.020974517 -0.32196552 -0.4847574 -0.4834476 0.0027358532 -0.2280271 0.43231577 -0.0492844
0.20261428 -0.42939222 0.15971409 0.37158406 -0.23060137 0.44513887 0.099668264 -0.6007991
0.07043612 0.3892215 -0.09512442 -0.3991673 -0.13738617 -0.49128327 -0.17534664 -0.4298513
-0.52902365 0.47465286 -0.20099947 0.22748703 -0.48807693 -0.35313985 0.23952024 -0.12011939
0.1589051 -0.58802485 -0.58132255 -0.500143 -0.12932768 0.42636412 -0.43337083 -0.47971606
-0.04385607 0.07672341 0.31201413 -0.15251005 -0.12345171 0.2644106 -0.07701567 -0.5423717
-0.02358704 -0.08251619 -0.56333697 -0.16317186 -0.49280846 0.29449052 0.0348906 0.39206833
0.039796498 0.23068158 0.40792096 0.07053554 0.29970282 -0.525677 0.22770621 0.26314765
0.10168146 0.04284283 -0.20692587 -0.3190275 0.31662112 -0.2530697 0.39686173 0.15689695
0.21944427 0.25843942 -0.12331241 -0.14921957 0.47675294 -0.0017382931 -0.1710402 -0.022776246
-0.56459093 0.21788095 0.20548658 -0.55068195 0.44143677 0.050282657 -0.15858042 -0.34320965
-0.6081655 0.2273342 0.44383687 -0.1523745 -0.3879521 -0.4263808 0.38709968 -0.029006183
0.33409727 0.4155033 -0.38996744 0.1639977 0.40610492 0.40262443 0.3164224 0.32869643
0.5338895 0.14153768 -0.30763513 -0.036076665 0.5626659 0.18724419 -0.1439498 -0.10383642
-0.52612984 0.17862041 -0.3690871 0.049547486 -0.27008763 0.4204802 -0.31546086 0.54383284
0.5225562 0.34533882 -0.57282746 0.30874258 -0.21387434 -0.1972911 -0.30432275 0.40017372
-0.015695568 0.07567085 0.08425569 -0.36850965 0.06603819 0.20058596 0.27725223 0.23912048
-0.58937013 0.07278604 0.07804824 0.36948115 0.18318623 0.4527579 -0.11176584 -0.035453975
00000000: 5634 0a3e cd52 563e 008c a53c fd4d 643e
00000010: fcc8 0e3f 8079 f0bd a75d eb3e a609 f13e
00000020: 0e51 413e 5331 fc3e e7b8 e7be 80d7 e8be
00000030: 5136 103f 23ca 063f b847 bf3d 5841 9a3e
00000040: b810 75be 376f e3bc 38ad ac3d ea98 fbbe
00000050: 5a04 683e 3657 f83e 20db c8be 2a5f 0bbf
00000060: 593c df3e 402f 09be 4697 a7be 2096 1dbd
00000070: abe9 163f c679 993e f198 73bd 6e88 07be
00000080: dbe1 07be 52b1 e1be 4cb0 a5bd c215 023e
00000090: 8508 b7be 9ead ce3e 9d76 a93e fae5 28be
000000a0: 23ab 5cbd 1ed3 493e eee0 5f3e c053 d1bd
000000b0: fed6 af3e 3132 12bf 3172 973e 0081 a03d
000000c0: fd5a e4be 2456 5b3e 099e 08bf 1445 14be
000000d0: 9273 5dbe 4a95 9f3e de88 0dbf d80b a2be
000000e0: d140 063f f9fe 243e a3f9 283e 488e 983e
000000f0: 28bf 91be 8cc5 943e 77d5 003e 1850 e3bd
00000100: 0701 9c3c 0933 ba3e 9cb4 2f3e 6183 07bf
00000110: 5c1d 1abf 969c f73e a43b e3be e062 6abe
00000120: 8a9d be3e c21b 17be b13e 9c3e bc67 3cbe
00000130: 5861 a6bd 47a9 9cbe 7046 3d3e a59d 053f
00000140: da83 dfbe a0a9 55be cc84 22be 9f04 893e
00000150: dc16 05bf 9a67 a53e 58a2 cf3d a0be 8fbc
00000160: 2e88 b23e 720b 703e 4e68 6dbe b282 1fbe
00000170: 60b4 5a3d bd66 713e 9856 8b3d aca1 0bbf
00000180: 5f02 3bbe 63ce 52be 596a 88be 88a2 0cbf
00000190: 2377 693c b0fd 7f3e 35cf 0fbf ae1d 14be
000001a0: 921a 59be 52e5 86be ad91 7b3e 0a11 db3e
000001b0: 6820 abbd cec9 95bd ce1f f03d 9894 5d3e
000001c0: c0d2 abbc aad8 a4be 1f32 f8be 7286 f7be
000001d0: 004c 333b f07f 69be 7e58 dd3e 70de 49bd
000001e0: 1e7a 4f3e 4cd9 dbbe 178c 233e 4440 be3e
000001f0: c422 6cbe 3ee9 e33e e01e cc3d f8cd 19bf
00000200: d040 903d 0a48 c73e 98d0 c2bd a85f ccbe
00000210: f6ae 0cbe 7b89 fbbe 128e 33be 7815 dcbe
00000220: 186e 07bf b305 f33e ced2 4dbe 5cf2 683e
00000230: 38e5 f9be bfce b4be cb44 753e 2801 f6bd
00000240: 05b8 223e cc88 16bf 8ed1 14bf 5f09 00bf
00000250: 7a6e 04be 664c da3e c8e2 ddbe 589d f5be
00000260: 6ca2 33bd 2a21 9d3d 51c0 9f3e 982b 1cbe
00000270: 40d4 fcbd d360 873e 64ba 9dbd dfd8 0abf
00000280: 9c39 c1bc 40fe a8bd da36 10bf 8616 27be
00000290: 6451 fcbe 76c7 963e 72e9 0e3d 2ebd c83e
000002a0: a701 233d cb37 6c3e 04db d03e f074 903d
000002b0: a672 993e c592 06bf d12b 693e 4abb 863e
000002c0: 5f3e d03d f77b 2f3d 60e4 53be 9357 a3be
000002d0: 2a1c a23e 5a92 81be 7631 cb3e 98a9 203e
000002e0: 00b6 603e 2c52 843e 388b fcbd 04cd 18be
000002f0: f618 f43e 70d7 e3ba 2a25 2fbe 4095 babc
00000300: 0889 10bf 2f1c 5f3e 136b 523e 7ef9 0cbf
00000310: 0004 e23e 30f5 4d3d e862 22be 2db9 afbe
00000320: bcb0 1bbf 4cca 683e 963e e33e 1008 1cbe
00000330: a8a1 c6be 964e dabe ee31 c63e 609e edbc
00000340: cc0e ab3e d9bc d43e d0a9 c7be 03ef 273e
00000350: fcec cf3e ca24 ce3e 1e02 a23e e64a a83e
00000360: fbac 083f 41ef 103e 5a82 9dbe 20c5 13bd
00000370: df0a 103f f1bc 3f3e 9467 13be 30a8 d4bd
00000380: 72b0 06bf 45e8 363e fcf8 bcbe 4ef2 4a3d
00000390: ed48 8abe 2e49 d73e 1684 a1be a138 0b3f
000003a0: 3ec6 053f 40d0 b03e d2a4 12bf 8213 9e3e
000003b0: e001 5bbe ae06 4abe 31d0 9bbe 92e3 cc3e
000003c0: fe93 80bc 52f9 9a3d 3f8e ac3d 4cad bcbe
000003d0: 083f 873d 6866 4d3e 01f4 8d3e 00dc 743e
000003e0: f6e0 16bf d910 953d c1d7 9f3d a22c bd3e
000003f0: 2c95 3b3e e2cf e73e 7de5 e4bd 3038 11bd

fc_layers.0.bias f4 [128]
-0.25721905 -0.16071363 -0.26618272 -0.060177736 -0.14845778 -0.35130993 -0.030082893 -0.30992275
-0.16864027 -0.09348897 -0.2342869 -0.22838008 -0.2872097 -0.10881323 0.029029671 -0.12613359
-0.025688088 -0.12743884 -0.19234762 -0.2412806 -0.286355 -0.19031651 -0.2312128 -0.06659385
-0.20903647 0.005497774 -0.35393503 -0.021613508 -0.19375977 0.13554454 -0.23982306 -0.13551211
-0.4614878 -0.00074944826 -0.24078608 -0.09510389 -0.33388796 -0.12859455 -0.09826287 -0.32621455
-0.069956794 -0.2661395 -0.24908067 -0.19269723 -0.11845395 -0.058318734 -0.16224961 -0.38811573
0.016421324 -0.1380649 -0.22085755 -0.18463436 -0.3296908 -0.28991944 0.026751062 -0.16953239
-0.17718302 -0.31924266 -0.12870377 -0.15839005 -0.047368098 -0.16371533 -0.36167896 -0.22032046
-0.06059037 -0.36220318 -0.057783645 -0.25053272 0.13501093 -0.12105852 -0.15211874 -0.3400773
-0.22451702 -0.1017546 -0.09264073 -0.105058774 -0.19505332 -0.16175549 -0.12140538 -0.29745525
-0.21227902 -0.27793053 -0.24341783 -0.29922667 -0.19349559 -0.10388531 -0.28347173 -0.10681544
-0.31404692 -0.18380517 -0.07468483 -0.48175773 -0.18160154 -0.101965696 -0.118594006 -0.393578
-0.08561425 -0.12242168 -0.23931989 -0.026937297 -0.18397638 -0.11914401 -0.16081834 -0.36173183
-0.28733736 -0.21355331 -0.12292594 -0.051982265 -0.16862081 0.039885152 0.0042128256 -0.29176444
-0.31702235 -0.23778813 -0.34212327 -0.330664 -0.21114814 -0.16339877 -0.2426253 -0.14549343
-0.31949767 -0.38297543 -0.29954013 -0.23957585 -0.29596016 -0.095559575 -0.18681549 -0.2724674
00000000: 37b2 83be 1d92 24be 1a49 88be ee7c 76bd
00000010: 5105 18be e5de b3be 6670 f6bc 32ae 9ebe
00000020: 09b0 2cbe 2577 bfbd e8e8 6fbe 78dc 69be
00000030: 260d 93be 79d9 debd a2cf ed3c 2a29 01be
00000040: d36f d2bc 547f 02be c6f6 44be 4312 77be
00000050: 1f9d 92be 55e2 42be 0cc3 6cbe 5b62 88bd
00000060: a80d 56be ac26 b43b f936 b5be d00e b1bc
00000070: f668 46be 30cc 0a3e 2d94 75be b0c3 0abe
00000080: 2148 ecbe 9f76 44ba a090 76be d4c5 c2bd
00000090: 5df3 aabe 4aae 03be 0b3e c9bd 9805 a7be
000000a0: 8245 8fbd 7043 88be 010f 7fbe 6c52 45be
000000b0: fc97 f2bd a0df 6ebd c324 26be 1bb7 c6be
000000c0: 0386 863c e360 0dbe 7b28 62be ca10 3dbe
000000d0: 3ccd a8be 5270 94be 0b25 db3c e699 2dbe
000000e0: 776f 35be c673 a3be ecca 03be 0031 22be
000000f0: 0d05 42bd fea4 27be fc2d b9be b09b 61be
00000100: 9c2d 78bd b272 b9be 8bae 6cbd d345 80be
00000110: 4e40 0a3e 88ed f7bd 04c5 1bbe 9d1e aebe
00000120: cae7 65be b764 d0bd 6cba bdbd 0e29 d7bd
00000130: 0fbc 47be 3ba3 25be 62a3 f8bd 0e4c 98be
00000140: ac5f 59be e94c 8ebe 8642 79be 3d34 99be
00000150: b523 46be d2c1 d4bd 3523 91be 0ec2 dabd
00000160: c2ca a0be 6c37 3cbe 5cf4 98bd f3a8 f6be
00000170: c1f5 39be 64d3 d0bd 6ae1 f2bd 0e83 c9be
00000180: 8656 afbd 38b8 fabd 4610 75be 9bab dcbc
00000190: 4e64 3cbe c601 f4bd 90ad 24be ea34 b9be
000001a0: e21d 93be b8ad 5abe 98c0 fbbd 5beb 54bd
000001b0: efaa 2cbe 9d5e 233d be0b 8a3b 2662 95be
000001c0: c150 a2be bb7e 73be c82a afbe cb4c a9be
000001d0: 3837 58be 0252 27be c472 78be 3bfc 14be
000001e0: 3395 a3be 5b15 c4be 535d 99be 5f53 75be
000001f0: 1788 97be bdb4 c3bd 8f4c 3fbe d980 8bbe

fc_layers.3.weight f4 [64, 128]
0.10058235 -0.17512856 -0.1405099 -0.19228618 -0.10430826 0.06643324 0.014994391 -0.022672998
0.04556538 -0.0014903722 -0.064598575 -0.08388344 -0.26804453 -0.012343091 -0.07972653 -0.16489731
0.061922316 -0.059925824 0.07588836 -0.0005862198 -0.22399718 0.023028644 0.0061428966 -0.11727092
-0.065124646 -0.16633627 -0.10447192 -0.107364215 -0.14940165 -0.09238866 0.105897546 -0.043582242
0.09946973 -0.043210834 -0.12001803 0.08610405 -0.11667028 -0.20306647 0.068879455 -0.23244242
-0.08521683 -0.21218719 -0.21590748 -0.07222127 -0.12772903 0.016784951 0.031672984 -0.080846876
-0.033847332 -0.16856104 0.12798966 -0.0681398 0.08606391 -0.20146285 -0.20257783 0.09152985
-0.22484797 -0.16947234 -0.1849578 0.1591651 0.096024804 -0.15719146 -0.12546 0.052440006
-0.19763498 0.0372081 -0.060741562 -0.09234762 -0.21102285 -0.1103215 0.05753378 0.20265087
-0.08450842 -0.03286853 -0.19431423 -0.22044371 -0.018156357 0.11012185 -0.07235223 0.0924167
-0.20673375 0.043392837 0.13389663 -0.15703636 0.13206187 -0.16095006 -0.08106739 0.04114094
-0.06529024 -0.1945375 0.07964188 -0.0618636 -0.051114768 -0.09684111 -0.0017178882 -0.09739687
0.0032613883 -0.1449893 -0.21212232 0.06909312 0.13870215 0.04526544 -0.070008904 0.16791598
-0.2650618 -0.1894061 -0.011278543 0.05441471 -0.090539806 -0.11273632 -0.016115015 0.100281194
-0.18714142 -0.043058466 -0.039280765 -0.23646392 -0.1725458 -0.039791584 -0.17150585 -0.2298092
0.14453982 0.1164893 -0.07367548 -0.10269665 -0.21523914 -0.20799993 -0.119840994 -0.17907363
-0.085199185 0.29695717 -0.12316511 0.11426878 0.24837494 -0.047259707 -0.02171548 0.018325495
-0.28951147 -0.04576164 -0.20876536 -0.11012613 -0.11851263 0.14639524 0.043990746 -0.1860912
-0.17019063 0.14614502 -0.19476652 -0.11159793 -0.46143627 0.2259033 -0.12987718 -0.078055665
-0.2611549 -0.027535563 0.13806666 -0.19419856 0.13510343 0.15713212 -0.16459054 -0.20263211
0.051108316 -0.16822766 -0.11271919 -0.23855276 -0.3457511 -0.17486724 -0.37523183 -0.19487411
-0.079060055 -0.45296824 -0.018482463 0.18832809 -0.20381778 -0.28608832 -0.091089144 -0.24069181
-0.1622807 0.13292237 0.114067 -0.3059239 0.17500176 0.035210185 -0.03562776 -0.14056586
0.24677399 -0.22347091 -0.21309914 0.1717008 0.13691127 -0.38425818 -0.16485068 -0.023765633
-0.07713348 0.016378552 -0.16803691 -0.11533828 -0.36029685 -0.09724838 -0.35110313 0.1203934
-0.11106577 -0.0987368 -0.07983159 -0.19076458 -0.42567083 -0.24767646 -0.08842378 -0.0594159
-0.21058723 0.0011796339 -0.24321064 -0.23376322 -0.3953885 -0.014140697 -0.21629703 -0.2857495
-0.09099403 -0.2624885 0.15800332 -0.13001096 -0.031948015 0.16516311 -0.23824199 0.036884945
0.15167126 -0.24211821 0.14626692 0.14689967 -0.11263163 -0.035152286 0.15640567 0.056298885
-0.26957294 0.02251191 -0.031461008 -0.34088737 -0.15911084 -0.16846873 0.17330101 -0.18312626
-0.17361508 0.07076532 -0.24999945 -0.25272948 -0.1300866 -0.12079887 0.0051976833 -0.06613628
0.10482947 0.076410234 -0.2224216 -0.15702485 -0.03116726 0.17095214 0.038867284 -0.335838
00000000: 1efe cd3d e754 33be d4e1 0fbe abe6 44be
00000010: 929f d5bd 270e 883d 09ab 753c b9bc b9bc
00000020: c4a2 3a3d 9858 c3ba 424c 84bd 15cb abbd
00000030: 223d 89be ad3a 4abc aa47 a3bd d7da 28be
00000040: 41a2 7d3d c874 75bd 5b6b 9b3d 8bac 19ba
00000050: 845f 65be 91a6 bc3c 5a4a c93b bc2b f0bd
00000060: 1260 85bd 0e54 2abe 60f5 d5bd c5e1 dbbd
00000070: bffc 18be 4436 bdbd d0e0 d83d 4b83 32bd
00000080: c9b6 cb3d d8fd 30bd 03cc f5bd 5257 b03d
00000090: d4f0 eebd a8f0 4fbe ac10 8d3d 6305 6ebe
000000a0: 2986 aebd 9947 59be da16 5dbe bfe8 93bd
000000b0: 66cb 02be 9880 893c 88bb 013d 0c93 a5bd
000000c0: 80a3 0abd 449b 2cbe b90f 033e e18c 8bbd
000000d0: 4642 b03d 474c 4ebe 9070 4fbe 0174 bb3d
000000e0: 8c3e 66be 288a 2dbe 9465 3dbe 2dfc 223e
000000f0: a7a8 c43d ccf6 20be 9678 00be 55cb 563d
00000100: d360 4abe 8567 183d 25cc 78bd c020 bdbd
00000110: 6016 58be 3df0 e1bd 8aa8 6b3d b683 4f3e
00000120: c012 adbd 27a1 06bd 4ffa 46be ffbb 61be
00000130: a4bc 94bc 9187 e13d 682d 94bd f844 bd3d
00000140: 03b2 53be b0bc 313d 331c 093e 24ce 20be
00000150: 3a3b 073e 18d0 24be a906 a6bd 6783 283d
00000160: e4b6 85bd d734 47be 481b a33d b064 7dbd
00000170: b85d 51bd a254 c6bd c32a e1ba 0378 c7bd
00000180: 04bd 553b 1378 14be 9836 59be b280 8d3d
00000190: f007 0e3e 4168 393d d460 8fbd 2bf2 2b3e
000001a0: 2eb6 87be acf3 41be a3c9 38bc f5e1 5e3d
000001b0: ef6c b9bd 4de2 e6bd a303 84bc 3a60 cd3d
000001c0: 00a2 3fbe 135e 30bd dee4 20bd 9923 72be
000001d0: d9af 30be 80fc 22bd 3b9f 2fbe 1a53 6bbe
000001e0: 3f02 143e f191 ee3d 2ce3 96bd 9f52 d2bd
000001f0: a667 5cbe effd 54be 326f f5bd 145f 37be
00000200: e97c aebd c50a 983e fd3d fcbd c005 ea3d
00000210: 0056 7e3e 6593 41bd aae4 b1bc 591f 963c
00000220: d93a 94be 8f70 3bbd 96c6 55be cf89 e1bd
00000230: c0b6 f2bd a2e8 153e a42f 343d b18e 3ebe
00000240: 7446 2ebe 0aa7 153e e070 47be 758d e4bd
00000250: 6041 ecbe 3253 673e 86fe 04be a6db 9fbd
00000260: 18b6 85be 4392 e1bc 5961 0d3e fddb 46be
00000270: 8e58 0a3e 3ee7 203e 6c8a 28be cb7e 4fbe
00000280: f456 513d df43 2cbe 52d9 e6bd 2d47 74be
00000290: 4a06 b1be 6610 33be 631e c0be 148d 47be
000002a0: 3dea a1bd 74eb e7be 8968 97bc 14d9 403e
000002b0: 9cb5 50be 2b7a 92be f28c babd ea77 76be
000002c0: e92c 26be cd1c 083e f69b e93d 0fa2 9cbe
000002d0: a933 333e 8e38 103d 6aee 11bd 7ff0 0fbe
000002e0: 52b2 7c3e 8fd5 64be a936 5abe 56d2 2f3e
000002f0: 7832 0c3e 7dbd c4be 9ece 28be 25b0 c2bc
00000300: 28f8 9dbd 502c 863c de11 2cbe 7a36 ecbd
00000310: d478 b8be 292a c7bd cac3 b3be d190 f63d
00000320: 7376 e3bd 8536 cabd bf7e a3bd ca57 43be
00000330: 87f1 d9be e69e 7dbe 8717 b5bd 165e 73bd
00000340: 2ea4 57be f29d 9a3a 360c 79be a05f 6fbe
00000350: 5d70 cabe 62ae 67bc f87c 5dbe c24d 92be
00000360: 145b babd e564 86be 9fcb 213e 9821 05be
00000370: ecdb 02bd 8520 293e b5f5 73be ab14 173d
00000380: b64f 1b3e d6ed 77be ffc6 153e de6c 163e
00000390: 69ab e6bd d8fb 0fbd cf28 203e a999 663d
000003a0: 7705 8abe e66a b83c 42dd 00bd ca88 aebe
000003b0: f4ed 22be 1183 2cbe d275 313e 7385 3bbe
000003c0: 27c8 31be 68ed 903d dbff 7fbe c265 81be
000003d0: 6c35 05be 6665 f7bd 5451 aa3b 7572 87bd
000003e0: d5b0 d63d f87c 9c3d 7dc2 63be 1fcb 20be
000003f0: 7b52 ffbc 140e 2f3e 4d33 1f3d f5f2 abbe

fc_layers.3.bias f4 [64]
-0.07858666 -0.07745023 0.13006288 -0.061928906 -0.12695773 0.14581399 -0.030153142 -0.15230282
0.065814175 0.27487954 0.028904859 0.10849363 -0.033735156 -0.11536471 -0.1564751 0.13090484
0.1702527 -0.18922187 0.04215785 0.07618992 0.053651895 0.12978533 -0.09392366 -0.060815964
-0.18090509 -0.006266362 0.10836703 0.09059124 -0.12163999 0.04637098 -0.12671328 0.17624575
0.1011011 0.07338743 -0.09682668 -0.1932406 -0.07387284 0.122652054 0.11618146 0.11168748
-0.208876 -7.876041e-05 0.19834864 -0.18592782 -0.1769767 -0.06747667 0.02185796 0.19206572
-0.086913496 0.07023105 -0.033483397 0.054543413 -0.15959798 0.040341076 -0.010025538 0.07705979
0.07840455 -0.078870095 -0.07298514 0.093819186 -0.19245814 0.035479203 0.056372613 0.13467453
00000000: 0bf2 a0bd 3a9e 9ebd 342f 053e 2aa9 7dbd
00000010: 3501 02be 4350 153e b903 f7bc 45f5 1bbe
00000020: 95c9 863d 03bd 8c3e e2c9 ec3c e931 de3d
00000030: e02d 0abd 5544 ecbd 023b 20be eb0b 063e
00000040: b956 2e3e 61c3 41be b6ad 2c3d 7609 9c3d
00000050: 17c2 5b3d 72e6 043e 0c5b c0bd 291a 79bd
00000060: 2f3f 39be 0e56 cdbb 89ef dd3d e687 b93d
00000070: 631e f9bd 7fef 3d3d 20c1 01be c479 343e
00000080: 180e cf3d 264c 963d 114d c6bd dde0 45be
00000090: a54a 97bd 0031 fb3d 8cf0 ed3d 68bc e43d
000000a0: 97e3 55be 2c2c a5b8 e81b 4b3e dd63 3ebe
000000b0: 6139 35be 3531 8abd 770f b33c e0ac 443e
000000c0: b4ff b1bd 4cd5 8f3d e325 09bd ea68 5f3d
000000d0: a76d 23be af3c 253d 2742 24bc 86d1 9d3d
000000e0: 9192 a03d a586 a1bd 3c79 95bd 4624 c03d
000000f0: bf13 45be a452 113d f8e6 663d 1fe8 093e

fc_layers.6.weight f4 [32, 64]
0.21688803 -0.04052024 -0.17973436 0.10245879 -0.025779333 -0.003934737 0.20628236 0.24328604
-0.2427296 -0.09486036 -0.10776499 0.279618 -0.0071228044 -0.20030868 0.008829938 -0.12474285
-0.0064457576 0.0226071 -0.06503077 -0.10483852 0.20382094 -0.20704149 -0.020443032 -0.13909368
-0.24219896 -0.27970132 -0.13601165 -0.0017423733 -0.016814921 -0.14711604 -0.28715783 0.118042976
0.0050503924 -0.12493232 0.23403262 -0.21932578 -0.20576225 0.0335896 -0.36598477 -0.21707746
-0.22707118 0.03763285 -0.356162 -0.26949707 0.10489858 -0.1980641 -0.07395607 0.33184412
0.13439804 -0.13883916 -0.15660474 0.12346037 -0.032722794 -0.29435083 0.11640641 0.045998596
-0.4352507 -0.04544493 0.077516705 -0.36608952 0.04586147 -0.020340392 -0.12736581 -0.26869214
-0.18675648 0.040505588 -0.23860155 -0.2936894 -0.15749097 0.022649873 0.2536067 0.22986057
-0.15153266 -0.11768055 0.19338301 0.105635166 -0.29590786 -0.24299777 -0.26513684 -0.22730385
-0.0954309 -0.15269957 0.0028912972 0.17093344 0.029797394 -0.21740654 -0.24432191 -0.21222594
0.10058525 -0.2071167 -0.047610395 -0.24324279 -0.30324993 0.027163098 -0.10530245 -0.30838618
-0.1844329 -0.016040029 -0.042918693 -0.0041120243 0.17568387 -0.06099313 -0.28024736 0.03428698
-0.10934953 0.120990396 -0.16883117 0.16429402 0.24231604 0.10009108 -0.13789731 -0.055681195
0.18995492 -0.024785021 -0.15722738 -0.28299326 -0.05976533 0.17550503 -0.12275703 -0.03392258
-0.21619554 -0.0036100368 0.023548627 -0.09842755 0.22965226 0.057707027 0.0422061 -0.052370753
-0.24886458 -0.49414855 -0.3526757 0.05793352 -0.16413215 -0.6289748 -0.29288334 0.26471546
0.37067172 0.29823104 -0.16288894 -0.36932635 -0.19951802 0.01972968 0.019973377 -0.24928556
-0.4288794 0.14873251 0.25219715 0.3448874 -0.39913723 -0.3576208 -0.11692457 -0.19784822
-0.30049032 -0.44601563 -0.21947642 -0.10114533 -0.08701654 -0.37929145 0.12409015 -0.44739237
-0.2456278 -0.24920456 -0.17340904 -0.27611727 -0.16202614 -0.22882517 -0.27058482 0.054010626
0.1139919 -0.3542181 -0.45220995 -0.05563988 0.24922554 0.011842967 -0.15818235 -0.4199523
-0.19979261 -0.04906767 -0.043270253 -0.20243703 0.08357647 -0.11182321 -0.34072182 -0.38196173
-0.21593744 0.20648046 -0.114491366 -0.3828379 -0.12063883 -0.37720466 -0.3779399 -0.37151876
0.045946337 -0.3641017 -0.059398834 -0.1046524 0.21988806 0.003244113 0.21574427 -0.03860394
-0.20633161 -0.20013765 0.16487229 -0.21783674 -0.14011855 0.11291543 -0.23809586 -0.12676966
-0.22838336 0.10003245 -0.5015742 0.06610822 0.050410084 0.034889825 0.11830544 -0.20055461
-0.24818826 0.03605231 0.00893904 0.36703068 -0.15751643 -0.23172823 -0.048015933 -0.06317469
0.040486522 -0.14301848 -0.0058358805 -0.08070015 0.007780128 0.04286456 -0.18463081 0.0024935524
-0.2648442 -0.09937019 -0.40465754 0.07037688 0.028190877 0.21996373 0.030210905 -0.23353846
-0.047564037 -0.10169588 -0.34847933 -0.21044764 0.005531544 -0.2587957 -0.21194871 0.1636175
0.347623 0.2728079 0.15151058 -0.13111483 0.21735024 -0.1253924 -0.1279877 -0.19822882
00000000: e517 5e3e 8df8 25bd 490c 38be ead5 d13d
00000010: 2e2f d3bc f7ee 80bb af3b 533e fa1f 793e
00000020: 1c8e 78be 2646 c2bd e4b3 dcbd 172a 8f3e
00000030: 6a66 e9bb b81d 4dbe 72ab 103c 2e79 ffbd
00000040: ef36 d3bb 8632 b93c da2e 85bd 94b5 d6bd
00000050: 70b6 503e af02 54be 2578 a7bc 936e 0ebe
00000060: 0103 78be 0335 8fbe a346 0bbe 5960 e4ba
00000070: 72bf 89bc 96a5 16be 5a06 93be 84c0 f13d
00000080: c37d a53b 84dc ffbd 3fa6 6f3e f096 60be
00000090: 57b3 52be 4095 093d 5b62 bbbe 8e49 5ebe
000000a0: 5985 68be e724 1a3d de5a b6be 85fb 89be
000000b0: 11d5 d63d 51d1 4abe 4876 97bd 79e7 a93e
000000c0: a49f 093e da2b 0ebe fe5c 20be cad8 fc3d
000000d0: 5608 06bd 27b5 96be 7c66 ee3d 0669 3c3d
000000e0: 2ed9 debe 7724 3abd 14c1 9e3d 1670 bbbe
000000f0: 3dd9 3b3d e5a0 a6bc 2f6c 02be 0492 89be
00000100: 173d 3fbe 30e9 253d f753 74be 755e 96be
00000110: 5045 21be 3a8c b93c bdd8 813e 9260 6b3e
00000120: 612b 1bbe 8002 f1bd 3206 463e 4057 d83d
00000130: 3c81 97be 68d4 78be 04c0 87be 57c2 68be
00000140: 4771 c3bd 475d 1cbe eb7b 3d3b 2d09 2f3e
00000150: aa19 f43c d29f 5ebe 862f 7abe c251 59be
00000160: a4ff cd3d 6616 54be 1e03 43bd a314 79be
00000170: 9343 9bbe 2585 de3c d0a8 d7bd cbe4 9dbe
00000180: fadb 3cbe 6166 83bc 83cb 2fbd 29be 86bb
00000190: 79e6 333e efd3 79bd 957c 8fbe 8170 0c3d
000001a0: a5f2 dfbd d0c9 f73d 14e2 2cbe b13c 283e
000001b0: b221 783e 8dfc cc3d f434 0dbe f711 64bd
000001c0: 8b83 423e f509 cbbc 3700 21be 7ee4 90be
000001d0: 7ecc 74bd 97b7 333e 0a68 fbbd 67f2 0abd
000001e0: 5d62 5dbe 5e96 6cbb 0de9 c03c 6294 c9bd
000001f0: f629 6b3e 345e 6c3d 4ee0 2c3d b782 56bd
00000200: 5bd6 7ebe 0a01 fdbe e991 b4be b34b 6d3d
00000210: 4212 28be 7e04 21bf cef4 95be c988 873e
00000220: afc8 bd3e bdb1 983e 5ccc 26be 5818 bdbe
00000230: 744e 4cbe 23a0 a13c 359f a33c b744 7fbe
00000240: 1596 dbbe 564d 183e fc1f 813e 1595 b03e
00000250: b75b ccbe 131a b7be 2676 efbd b998 4abe
00000260: ded9 99be 295c e4be 6dbe 60be 4825 cfbd
00000270: ba35 b2bd 7d32 c2be fa22 fe3d 9d10 e5be
00000280: db85 7bbe 7b2f 7fbe 2492 31be 3e5f 8dbe
00000290: 2eea 25be 2551 6abe 188a 8abe 3f3a 5d3d
000002a0: 9674 e93d 135c b5be 1088 e7be a5e6 63bd
000002b0: fb34 7f3e 0109 423c 8efa 21be fd03 d7be
000002c0: 6f96 4cbe 2efb 48bd 263c 31bd a74b 4fbe
000002d0: 242a ab3d 9103 e5bd 1773 aebe 7d90 c3be
000002e0: b41e 5dbe 9d6f 533e 737a eabd 5403 c4be
000002f0: 7e11 f7bd f820 c1be 5781 c1be b537 bebe
00000300: 3a32 3c3d 8a6b babe 314c 73bd ff53 d6bd
00000310: 562a 613e 2f9b 543b 11ec 5c3e 2a1f 1ebd
00000320: 9848 53be e2f0 4cbe 48d4 283e 9810 5fbe
00000330: 3d7b 0fbe 3440 e73d 67cf 73be e8cf 01be
00000340: 54dd 69be d0dd cc3d 2b67 00bf bf63 873d
00000350: ce7a 4e3d a2e8 0e3d 1f4a f23d 305e 4dbe
00000360: 1025 7ebe 96ab 133d 0d75 123c 72eb bb3e
00000370: fd4b 21be 2a4a 6dbe 5bac 44bd bb61 81bd
00000380: 32d5 253d 7073 12be ea3a bfbb 1f46 a5bd
00000390: 72f0 fe3b c092 2f3d dc0f 3dbe de6a 233b
000003a0: a999 87be 9982 cbbd 462f cfbe c121 903d
000003b0: 8ef0 e63c 2c3e 613e dc7c f73c b524 6fbe
000003c0: 82d2 42bd ee45 d0bd e26b b2be 967f 57be
000003d0: f441 b53b df80 84be 1509 59be 598b 273e
000003e0: a4fb b13e 7aad 8b3e 9725 1b3e f742 06be
000003f0: 1091 5e3e de66 00be 350f 03be 7ffc 4abe

fc_layers.6.bias f4 [32]
-0.0493226 -0.3389631 0.08942685 -0.05135068 0.25893542 -0.39315116 -0.107061826 -0.06000235
-0.21386598 -0.13568296 -0.010367964 -0.30694222 0.14561497 0.15124372 -0.05382098 0.097784385
0.29529694 -0.05495611 -0.063969515 0.17870398 0.5851646 -0.24583748 0.12518859 0.23421021
0.11478964 -0.35343406 -0.08600099 -0.037159212 -0.118870944 0.44147882 0.61873895 0.20530435
00000000: 7f06 4abd 928c adbe 6d25 b73d 1755 52bd
00000010: 2f93 843e 1c4b c9be 3b43 dbbd 06c5 75bd
00000020: afff 5abe 79f0 0abe 65de 29bc 8827 9dbe
00000030: 171c 153e a2df 1a3e 6373 5cbd 2e43 c83d
00000040: 2931 973e a819 61bd 7302 83bd 2dfe 363e
00000050: 59cd 153f d2bc 7bbe 7031 003e cdd4 6f3e
00000060: d516 eb3d 4ff5 b4be 4921 b0bd 4234 18bd
00000070: 9c72 f3bd 8309 e23e ad65 1e3f 4e3b 523e

fc_layers.8.weight f4 [4, 32]
-0.08629517 -0.11673935 -0.45372653 0.16893186 0.019958733 -0.076447755 -0.19455369 -0.024703907
-0.1446421 -0.30051664 0.22527245 -0.09344256 -0.2587667 -0.0408048 -0.07777193 -0.0147105185
0.09569132 0.079357505 0.08473334 0.18398982 0.3179191 0.3019259 -0.039102778 0.10981636
0.09360762 -0.09309388 -0.018061768 0.113371104 0.062652685 0.11422837 0.26528844 -0.62698025
-0.664238 -0.15812445 -0.27746335 -0.18895972 -0.7429621 -0.29558188 -0.0674392 0.033760108
-0.006115722 -0.0011045042 0.1843488 0.021033421 0.021444453 0.14782079 -0.22849335 -0.3177921
0.19691122 0.023123916 0.1406785 0.14716338 0.30605343 -0.08482812 0.17853716 0.17199492
-0.24291112 -0.26832923 -0.29977757 0.16725686 -0.0067098923 0.26563898 0.2537375 -0.26177508
0.048354637 -0.057429876 -0.13359244 0.01724048 -0.08861299 0.26763055 -0.25578293 -0.3528388
-0.1424281 -0.00050189585 -0.043569375 -0.025418133 -0.014406134 -0.08237354 -0.31690928 0.03571757
-0.04488148 0.029907806 0.19689682 -0.023486447 0.26978642 0.090869345 0.21760368 -0.28692877
0.16712718 -0.016417425 0.032911886 0.051219 -0.13399948 0.2132353 0.4395298 -0.75998366
-0.24741258 0.045219034 -0.077372275 -0.15520944 -0.31245854 -0.21459864 -0.12956929 0.016087785
0.004692242 -0.0055792476 0.27153406 0.13942249 0.10525035 -0.00347235 0.23443128 -0.11252826
0.13517457 0.14770608 0.2161333 0.050910484 0.18903352 0.06306977 -0.32337496 0.09557266
-0.015540215 -0.38152766 -0.08051675 0.13102652 0.15758069 0.15735418 -0.01567912 -0.13579622
00000000: 86bb b0bd 0a15 efbd d84e e8be 79fc 2c3e
00000010: 7f80 a33c a490 9cbd 1539 47be d95f cabc
00000020: 0f1d 14be 51dd 99be d2ad 663e d05e bfbd
00000030: 127d 84be ef22 27bd e446 9fbd 6304 71bc
00000040: d0f9 c33d 3086 a23d ac88 ad3d d467 3c3e
00000050: 4bc6 a23e 0896 9a3e 3c2a 20bd 66e7 e03d
00000060: 5ab5 bf3d 01a8 bebd 46f6 93bc 1c2f e83d
00000070: 0d50 803d 90f0 e93d e3d3 873e c781 20bf
00000080: 800b 2abf 60eb 21be ad0f 8ebe a87e 41be
00000090: c432 3ebf 8256 97be 901d 8abd 0a48 0a3d
000000a0: 6566 c8bb 03c5 90ba efc5 3c3e 484e ac3c
000000b0: 47ac af3c 555e 173e 29fa 69be a5b5 a2be
000000c0: 18a3 493e 5e6e bd3c 060e 103e ffb1 163e
000000d0: 09b3 9c3e 5eba adbd 72d2 363e 701f 303e
000000e0: b1bd 78be 7362 89be 727c 99be 6245 2b3e
000000f0: a8de dbbb d501 883e e2e9 813e 6207 86be
00000100: 830f 463d 973b 6bbd 75cc 08be e83b 8d3c
00000110: ba7a b5bd df06 893e fbf5 82be 4aa7 b4be
00000120: acd8 11be a991 03ba cd75 32bd b039 d0bc
00000130: b507 6cbc 75b3 a8bd ef41 a2be 964c 123d
00000140: a5d5 37bd 3701 f53c 529f 493e a666 c0bc
00000150: 7221 8a3e b519 ba3d 80d3 5e3e 54e8 92be
00000160: 6323 2b3e d67d 86bc 9dce 063d 04cb 513d
00000170: 2937 09be 5b5a 5a3e 0d0a e13e 4a8e 42bf
00000180: b959 7dbe 9837 393d 5b75 9ebd 39ef 1ebe
00000190: 91fa 9fbe bfbf 5bbe d0ad 04be 88ca 833c
000001a0: 61c1 993b 1fd2 b6bb 8306 8b3e c5c4 0e3e
000001b0: 7f8d d73d 5e90 63bb c10e 703e 3775 e6bd
000001c0: 346b 0a3e 4340 173e 0c52 5d3e 8387 503d
000001d0: 0192 413e b92a 813d 6791 a5be 99bb c33d
000001e0: 639c 7ebc 9857 c3be f7e5 a4bd d12b 063e
000001f0: d55c 213e 7421 213e 7f71 80bc 2a0e 0bbe

fc_layers.8.bias f4 [4]
0.22840145 0.2737662 0.23475975 0.47205
00000000: 12e2 693e 152b 8c3e dc64 703e 8ab0 f13e
