output/dqn/model/4x4/14000.pth (torch, 53480 bytes, 8 tensors)

fc_layers.0.weight f4 [128, 16]
00000000: 5634 0a3e cd52 563e 008c a53c fd4d 643e
00000010: 8b33 0a3f 8079 f0bd 35ff e03e a609 f13e
00000020: 0e51 413e 0ebf 003f e7b8 e7be 80d7 e8be
00000030: 5136 103f 80fb 053f b847 bf3d 5841 9a3e
00000040: b810 75be 376f e3bc 38ad ac3d ea98 fbbe
00000050: db46 603e 3657 f83e 20db c8be 2a5f 0bbf
00000060: 23b4 d83e 402f 09be 4697 a7be 2096 1dbd
00000070: abe9 163f e9cc 9c3e f198 73bd 6e88 07be
00000080: dbe1 07be 52b1 e1be 4cb0 a5bd c215 023e
00000090: 8508 b7be 9ead ce3e a3f8 a33e fae5 28be
000000a0: 23ab 5cbd 1ed3 493e eee0 5f3e c053 d1bd
000000b0: fed6 af3e 3132 12bf 43d8 9b3e 0081 a03d
000000c0: fd5a e4be be00 5a3e 099e 08bf 1445 14be
000000d0: 9273 5dbe 4a95 9f3e de88 0dbf d80b a2be
000000e0: ffd7 073f 5043 fd3d c145 293e 488e 983e
000000f0: 28bf 91be bf31 933e 1443 133e 1850 e3bd
00000100: 0701 9c3c 3a09 ac3e 852c 263e 6183 07bf
00000110: 5c1d 1abf 969c f73e a43b e3be e062 6abe
00000120: b9aa c03e c21b 17be f01d aa3e bc67 3cbe
00000130: 5861 a6bd 47a9 9cbe 5acc 393e a59d 053f
00000140: da83 dfbe a0a9 55be cc84 22be 9f04 893e
00000150: dc16 05bf 9a67 a53e 58a2 cf3d a0be 8fbc
00000160: 2e88 b23e 720b 703e 4e68 6dbe b282 1fbe
00000170: 60b4 5a3d bd66 713e 9856 8b3d aca1 0bbf
00000180: 5f02 3bbe 63ce 52be 596a 88be 88a2 0cbf
00000190: 2377 693c b0fd 7f3e 35cf 0fbf ae1d 14be
000001a0: 921a 59be 52e5 86be 0029 6f3e 0a11 db3e
000001b0: 6820 abbd cec9 95bd 6628 b73d 9894 5d3e
000001c0: c0d2 abbc aad8 a4be 1f32 f8be 7286 f7be
000001d0: 004c 333b f07f 69be d971 d03e 70de 49bd
000001e0: 1e7a 4f3e 4cd9 dbbe 178c 233e 4440 be3e
000001f0: c422 6cbe a068 e53e e01e cc3d f8cd 19bf
00000200: d040 903d bddb bb3e 98d0 c2bd a85f ccbe
00000210: f6ae 0cbe 7b89 fbbe 128e 33be 7815 dcbe
00000220: 186e 07bf ba31 dd3e ced2 4dbe 5cf2 683e
00000230: 38e5 f9be bfce b4be 355e 613e 2801 f6bd
00000240: dd66 3b3e cc88 16bf 8ed1 14bf 5f09 00bf
00000250: 7a6e 04be 664c da3e c8e2 ddbe 589d f5be
00000260: 6ca2 33bd 2a21 9d3d 2514 9d3e 982b 1cbe
00000270: 40d4 fcbd 1150 703e 64ba 9dbd dfd8 0abf
00000280: 9c39 c1bc 40fe a8bd da36 10bf 8616 27be
00000290: 6451 fcbe 76c7 963e 72e9 0e3d 2ebd c83e
000002a0: a701 233d c019 733e f1ff c83e f074 903d
000002b0: a672 993e c592 06bf 78d5 5f3e 4abb 863e
000002c0: 5f3e d03d f77b 2f3d 60e4 53be 9357 a3be
000002d0: 82f3 a43e 5a92 81be 73f9 c33e 98a9 203e
000002e0: bffd 533e c65e 973e 388b fcbd 04cd 18be
000002f0: f618 f43e 70d7 e3ba 2a25 2fbe 4095 babc
00000300: 0889 10bf 2f1c 5f3e 136b 523e 7ef9 0cbf
00000310: 5122 df3e 30f5 4d3d e862 22be 2db9 afbe
00000320: bcb0 1bbf 4cca 683e bdc2 e53e 1008 1cbe
00000330: a8a1 c6be 964e dabe e99f b03e 609e edbc
00000340: 4e39 9f3e fa95 c73e d0a9 c7be a80b 253e
00000350: d741 cf3e ca24 ce3e bcde 803e e64a a83e
00000360: c5df 023f f7e6 273e 5a82 9dbe 20c5 13bd
00000370: df0a 103f 61aa 4d3e 9467 13be 30a8 d4bd
00000380: 72b0 06bf dd4e 2f3e fcf8 bcbe 3f16 463d
00000390: ed48 8abe 2e49 d73e 1684 a1be a138 0b3f
000003a0: f228 033f 5cb7 a73e d2a4 12bf 8213 9e3e
000003b0: e001 5bbe ae06 4abe 31d0 9bbe 92e3 cc3e
000003c0: fe93 80bc 52f9 9a3d 3f8e ac3d 4cad bcbe
000003d0: 083f 873d 6866 4d3e dd20 7f3e 00dc 743e
000003e0: f6e0 16bf d910 953d c1d7 9f3d a22c bd3e
000003f0: 2c95 3b3e 4e18 e33e 7de5 e4bd 3038 11bd
0.13496527 0.20930023 0.020208359 0.22295375 0.539849 -0.11741924 0.43944708 0.47077674
0.18878576 0.50291526 -0.45258257 -0.45476913 0.5633288 0.52336884 0.09339851 0.30127978
-0.23932159 -0.027762992 0.08431476 -0.49140102 0.21902029 0.48504037 -0.3922968 -0.54442084
0.42324933 -0.1339693 -0.327326 -0.03847325 0.589503 0.30625084 -0.05947203 -0.13235638
-0.13269751 -0.44080597 -0.080902666 0.12703612 -0.35748687 0.40366834 0.32025632 -0.16493979
-0.053874146 0.19709441 0.21863148 -0.10221052 0.34343714 -0.57107836 0.30438432 0.07837105
-0.4460067 0.21289346 -0.5336614 -0.14479476 -0.21626118 0.31168586 -0.5528697 -0.3164966
0.5306396 0.123663545 0.16530515 0.29796052 -0.28466153 0.2874889 0.14381057 -0.11099261
0.019043459 0.3360079 0.1622792 -0.52934843 -0.6020105 0.48361653 -0.4438144 -0.2288928
0.3763025 -0.14756683 0.33225965 -0.18398947 -0.081240356 -0.30597898 0.1814436 0.5219367
-0.43655282 -0.20865488 -0.1587097 0.26761338 -0.51988006 0.32305604 0.101383865 -0.017546952
0.34869522 0.23441866 -0.2318432 -0.155772 0.053394675 0.23574348 0.06803626 -0.54543567
-0.18262623 -0.20586543 -0.26643637 -0.54935503 0.014249596 0.24999118 -0.5617555 -0.14464447
-0.21201542 -0.26346833 0.23355484 0.42786437 -0.083557904 -0.07313882 0.08943252 0.21638715
-0.020974517 -0.32196552 -0.4847574 -0.4834476 0.0027358532 -0.2280271 0.4071186 -0.0492844
0.20261428 -0.42939222 0.15971409 0.37158406 -0.23060137 0.44806385 0.099668264 -0.6007991
0.07043612 0.36691085 -0.09512442 -0.3991673 -0.13738617 -0.49128327 -0.17534664 -0.4298513
-0.52902365 0.43202 -0.20099947 0.22748703 -0.48807693 -0.35313985 0.22008593 -0.12011939
0.18300958 -0.58802485 -0.58132255 -0.500143 -0.12932768 0.42636412 -0.43337083 -0.47971606
-0.04385607 0.07672341 0.30679432 -0.15251005 -0.12345171 0.23468043 -0.07701567 -0.5423717
-0.02358704 -0.08251619 -0.56333697 -0.16317186 -0.49280846 0.29449052 0.0348906 0.39206833
0.039796498 0.23740292 0.39257768 0.07053554 0.29970282 -0.525677 0.21858776 0.26314765
0.10168146 0.04284283 -0.20692587 -0.3190275 0.32217032 -0.2530697 0.38276252 0.15689695
0.20702265 0.29564494 -0.12331241 -0.14921957 0.47675294 -0.0017382931 -0.1710402 -0.022776246
-0.56459093 0.21788095 0.20548658 -0.55068195 0.4358087 0.050282657 -0.15858042 -0.34320965
-0.6081655 0.2273342 0.44875136 -0.1523745 -0.3879521 -0.4263808 0.34497002 -0.029006183
0.31098408 0.3898161 -0.38996744 0.16117728 0.4047992 0.40262443 0.25169933 0.32869643
0.51122695 0.163967 -0.30763513 -0.036076665 0.5626659 0.20084526 -0.1439498 -0.10383642
-0.52612984 0.17119928 -0.3690871 0.04836106 -0.27008763 0.4204802 -0.31546086 0.54383284
0.5123435 0.3275708 -0.57282746 0.30874258 -0.21387434 -0.1972911 -0.30432275 0.40017372
-0.015695568 0.07567085 0.08425569 -0.36850965 0.06603819 0.20058596 0.2491488 0.23912048
-0.58937013 0.07278604 0.07804824 0.36948115 0.18318623 0.4435448 -0.11176584 -0.035453975

fc_layers.0.bias f4 [128]
00000000: aecd 82be a135 20be 1ced 8cbe 2db6 b0bd
00000010: 4fe5 29be e5de b3be 21b2 76bd d61d a2be
00000020: 67f6 62be 920d f9bd 5289 7fbe 10a3 5abe
00000030: 0ae5 a5be 382d dabd 9ee2 f63b 0e48 1cbe
00000040: e89a 09bd 5a74 1fbe 8682 51be 92ab 96be
00000050: 4832 9fbe b00b 55be 6ac0 67be 9667 d1bd
00000060: 7a5d 5dbe e4ad 01bc 09d6 bebe 7c52 83bd
00000070: 6ed8 31be 89f2 0e3e 74fa 80be d2d7 0abe
00000080: 2148 ecbe 1fe2 63bc 0ff6 6cbe 2c55 ddbd
00000090: 9de7 afbe ec41 f5bd 8111 c0bd ab66 adbe
000000a0: 4259 ecbd 5ae6 86be 2060 85be 4531 38be
000000b0: 1c6c f5bd 5a6e 0ebd aa92 35be 1bb7 c6be
000000c0: 5c52 0f3d d64e 2abe e91c 58be 9d83 3bbe
000000d0: 4906 95be 9ac4 8fbe 5242 223c 4b74 4dbe
000000e0: 1f3b 2ebe 8497 99be 1654 0ebe 2898 2abe
000000f0: e2f5 20bd df0d 34be fc2d b9be a36b 49be
00000100: 7c32 a9bd 98c2 cabe fc66 09bd a06f 82be
00000110: f98e 073e 88ed f7bd 94a7 0dbe e449 aebe
00000120: 5a97 6dbe 2843 d7bd 08d1 cebd 136d ccbd
00000130: efc0 4cbe 91ee 38be 6a3a 08be 4155 9ebe
00000140: ff04 44be fccc 8ebe 43ab 88be 3d34 99be
00000150: ca84 5abe 977f e9bd 599d 91be 3d5b 09be
00000160: 37c9 9abe f26a 30be 3b00 9cbd d372 fabe
00000170: 1042 45be 2c76 fdbd 93a9 f1bd 0e83 c9be
00000180: 7b7e 07be 9e08 0cbe 1f84 7ebe 7441 87bd
00000190: 6931 42be e3e3 05be a01e 39be 73fb b9be
000001a0: d323 96be 715d 51be fe0a b4bd d584 97bd
000001b0: e4dc 3dbe 96e7 043d 13ab 5fbc e85e 9bbe
000001c0: bb4b 8ebe f5ce 81be c82a afbe db23 b8be
000001d0: 8e58 48be c785 2abe 8555 71be 7600 13be
000001e0: 0c31 9fbe 7733 c3be 535d 99be c854 66be
000001f0: b1be a4be 485c d3bd b629 41be 0c43 89be
-0.25547546 -0.15645458 -0.2752465 -0.08628497 -0.1659138 -0.35130993 -0.06022847 -0.31663388
-0.22164308 -0.121607915 -0.24954727 -0.21351266 -0.32401305 -0.10653156 0.007534339 -0.15261862
-0.033594996 -0.15571728 -0.20459947 -0.29427773 -0.3109305 -0.2080524 -0.22631994 -0.102248356
-0.2161769 -0.007914994 -0.3727267 -0.06412217 -0.17367718 0.13959707 -0.2519108 -0.13558891
-0.4614878 -0.013908892 -0.23140739 -0.10807261 -0.34356394 -0.11975464 -0.093783386 -0.33867392
-0.11540462 -0.2634762 -0.260499 -0.17987545 -0.11983511 -0.03477321 -0.17731729 -0.38811573
0.034990653 -0.16631636 -0.21104778 -0.18311925 -0.29106358 -0.28079683 0.009903507 -0.20063893
-0.1701474 -0.2999841 -0.13899264 -0.16659606 -0.039296992 -0.17583416 -0.36167896 -0.19669966
-0.08261582 -0.39601588 -0.03354548 -0.25475788 0.13238133 -0.12105852 -0.13833457 -0.3404075
-0.23202267 -0.10510856 -0.10098463 -0.09981742 -0.19995473 -0.18059756 -0.13303533 -0.3092442
-0.19142531 -0.27890766 -0.26693162 -0.29922667 -0.21339718 -0.11401289 -0.2844036 -0.13413711
-0.3023164 -0.17228296 -0.076172315 -0.4891573 -0.19263482 -0.12376055 -0.11799922 -0.393578
-0.13231842 -0.13675162 -0.24855088 -0.06604281 -0.18964161 -0.13075213 -0.18078089 -0.36324653
-0.29324207 -0.20445801 -0.08791159 -0.073983826 -0.18541294 0.03244742 -0.013651627 -0.30345845
-0.27792153 -0.25353208 -0.34212327 -0.35964856 -0.19565031 -0.16652595 -0.2356778 -0.14355645
-0.31092107 -0.38125202 -0.29954013 -0.22493279 -0.32176736 -0.103203356 -0.18863568 -0.26808965

fc_layers.3.weight f4 [64, 128]
00000000: 1efe cd3d e754 33be d4e1 0fbe abe6 44be
00000010: 929f d5bd 270e 883d 09ab 753c b9bc b9bc
00000020: c4a2 3a3d 9858 c3ba 424c 84bd 15cb abbd
00000030: 223d 89be ad3a 4abc aa47 a3bd d7da 28be
00000040: 41a2 7d3d c874 75bd 5b6b 9b3d 8bac 19ba
00000050: 845f 65be 91a6 bc3c 5a4a c93b bc2b f0bd
00000060: 1260 85bd 0e54 2abe 60f5 d5bd c5e1 dbbd
00000070: bffc 18be 4436 bdbd d0e0 d83d 4b83 32bd
00000080: c9b6 cb3d d8fd 30bd 03cc f5bd 5257 b03d
00000090: d4f0 eebd a8f0 4fbe ac10 8d3d 6305 6ebe
000000a0: 2986 aebd 9947 59be da16 5dbe bfe8 93bd
000000b0: 66cb 02be 9880 893c 88bb 013d 0c93 a5bd
000000c0: 80a3 0abd 449b 2cbe b90f 033e e18c 8bbd
000000d0: 4642 b03d 474c 4ebe 9070 4fbe 0174 bb3d
000000e0: 8c3e 66be 288a 2dbe 9465 3dbe 2dfc 223e
000000f0: a7a8 c43d ccf6 20be 9678 00be 55cb 563d
00000100: d360 4abe 8567 183d 25cc 78bd c020 bdbd
00000110: 6016 58be 3df0 e1bd 8aa8 6b3d b683 4f3e
00000120: c012 adbd 27a1 06bd 4ffa 46be ffbb 61be
00000130: a4bc 94bc 9187 e13d 682d 94bd f844 bd3d
00000140: 03b2 53be b0bc 313d 331c 093e 24ce 20be
00000150: 3a3b 073e 18d0 24be a906 a6bd 6783 283d
00000160: e4b6 85bd d734 47be 481b a33d b064 7dbd
00000170: b85d 51bd a254 c6bd c32a e1ba 0378 c7bd
00000180: 04bd 553b 1378 14be 9836 59be b280 8d3d
00000190: f007 0e3e 4168 393d d460 8fbd 2bf2 2b3e
000001a0: 2eb6 87be acf3 41be a3c9 38bc f5e1 5e3d
000001b0: ef6c b9bd 4de2 e6bd a303 84bc 3a60 cd3d
000001c0: 00a2 3fbe 135e 30bd dee4 20bd 9923 72be
000001d0: d9af 30be 80fc 22bd 3b9f 2fbe 1a53 6bbe
000001e0: 3f02 143e f191 ee3d 2ce3 96bd 9f52 d2bd
000001f0: a667 5cbe effd 54be 326f f5bd 145f 37be
00000200: e97c aebd 5f8a a83e fd3d fcbd 6f57 113e
00000210: 2f38 7f3e 6593 41bd aae4 b1bc fdf5 313d
00000220: d93a 94be 5113 1bbd 96c6 55be cf89 e1bd
00000230: c0b6 f2bd 8da2 2f3e 8ac2 4d3d 418e 4bbe
00000240: 9278 2ebe 1a88 203e 67f4 29be 758d e4bd
00000250: 6041 ecbe a5ab 873e 86fe 04be a6db 9fbd
00000260: 18b6 85be 0b21 e3bc 3fa3 253e 71db 39be
00000270: e73f 223e 7f4d 333e 6c8a 28be cb7e 4fbe
00000280: f456 513d df43 2cbe caf9 e6bd 2d47 74be
00000290: 491f b1be 6610 33be a19e b9be 148d 47be
000002a0: 5de6 87bd 74eb e7be 2a44 3a3b fb94 4c3e
000002b0: 9cb5 50be 2b7a 92be f28c babd ea77 76be
000002c0: e92c 26be ffe1 103e 0db0 0e3e 7d24 96be
000002d0: 9bb9 513e 8e38 103d 6508 81bc 7ff0 0fbe
000002e0: ac96 873e 8fd5 64be a936 5abe feb6 323e
000002f0: fb5d 0f3e 7dbd c4be 9ece 28be 25b0 c2bc
00000300: 6599 51bd 502c 863c de11 2cbe 7a36 ecbd
00000310: c191 b8be 292a c7bd b6dc b3be d190 f63d
00000320: 7376 e3bd 8536 cabd bf7e a3bd ca57 43be
00000330: 87f1 d9be e69e 7dbe 8337 92bd 165e 73bd
00000340: 2ea4 57be f29d 9a3a 360c 79be a05f 6fbe
00000350: 5d70 cabe 6149 82bb b7ae 5dbe c24d 92be
00000360: 145b babd e564 86be 9f69 353e 9821 05be
00000370: ecdb 02bd 9166 383e b5f5 73be ab14 173d
00000380: 9b5a 223e d6ed 77be ffc6 153e db3b 303e
00000390: 69ab e6bd 69f2 e4bb 37fd 393e a999 663d
000003a0: 7705 8abe e66a b83c 89e3 61bc ca88 aebe
000003b0: f4ed 22be 1183 2cbe 5fe8 453e 7385 3bbe
000003c0: 27c8 31be 68ed 903d dbff 7fbe c265 81be
000003d0: 6c35 05be b6a7 f7bd 2f10 a43b 7572 87bd
000003e0: d5b0 d63d f87c 9c3d 7dc2 63be 8d3a 21be
000003f0: 7b52 ffbc 50a0 493e c967 8b3d f5f2 abbe
0.10058235 -0.17512856 -0.1405099 -0.19228618 -0.10430826 0.06643324 0.014994391 -0.022672998
0.04556538 -0.0014903722 -0.064598575 -0.08388344 -0.26804453 -0.012343091 -0.07972653 -0.16489731
0.061922316 -0.059925824 0.07588836 -0.0005862198 -0.22399718 0.023028644 0.0061428966 -0.11727092
-0.065124646 -0.16633627 -0.10447192 -0.107364215 -0.14940165 -0.09238866 0.105897546 -0.043582242
0.09946973 -0.043210834 -0.12001803 0.08610405 -0.11667028 -0.20306647 0.068879455 -0.23244242
-0.08521683 -0.21218719 -0.21590748 -0.07222127 -0.12772903 0.016784951 0.031672984 -0.080846876
-0.033847332 -0.16856104 0.12798966 -0.0681398 0.08606391 -0.20146285 -0.20257783 0.09152985
-0.22484797 -0.16947234 -0.1849578 0.1591651 0.096024804 -0.15719146 -0.12546 0.052440006
-0.19763498 0.0372081 -0.060741562 -0.09234762 -0.21102285 -0.1103215 0.05753378 0.20265087
-0.08450842 -0.03286853 -0.19431423 -0.22044371 -0.018156357 0.11012185 -0.07235223 0.0924167
-0.20673375 0.043392837 0.13389663 -0.15703636 0.13206187 -0.16095006 -0.08106739 0.04114094
-0.06529024 -0.1945375 0.07964188 -0.0618636 -0.051114768 -0.09684111 -0.0017178882 -0.09739687
0.0032613883 -0.1449893 -0.21212232 0.06909312 0.13870215 0.04526544 -0.070008904 0.16791598
-0.2650618 -0.1894061 -0.011278543 0.05441471 -0.090539806 -0.11273632 -0.016115015 0.100281194
-0.18714142 -0.043058466 -0.039280765 -0.23646392 -0.1725458 -0.039791584 -0.17150585 -0.2298092
0.14453982 0.1164893 -0.07367548 -0.10269665 -0.21523914 -0.20799993 -0.119840994 -0.17907363
-0.085199185 0.3291807 -0.12316511 0.1419351 0.24923776 -0.047259707 -0.02171548 0.043447483
-0.28951147 -0.03786022 -0.20876536 -0.11012613 -0.11851263 0.17151852 0.050234355 -0.19878484
-0.17038181 0.15676919 -0.16597138 -0.11159793 -0.46143627 0.26498142 -0.12987718 -0.078055665
-0.2611549 -0.027725717 0.16175555 -0.18150117 0.1584469 0.17510031 -0.16459054 -0.20263211
0.051108316 -0.16822766 -0.11278112 -0.23855276 -0.3459418 -0.17486724 -0.36253837 -0.19487411
-0.06635735 -0.45296824 0.0028421977 0.19978707 -0.20381778 -0.28608832 -0.091089144 -0.24069181
-0.1622807 0.1414871 0.13934346 -0.29324713 0.20480959 0.035210185 -0.015751073 -0.14056586
0.2648214 -0.22347091 -0.21309914 0.17452618 0.14000694 -0.38425818 -0.16485068 -0.023765633
-0.05117168 0.016378552 -0.16803691 -0.11533828 -0.360487 -0.09724838 -0.35129327 0.1203934
-0.11106577 -0.0987368 -0.07983159 -0.19076458 -0.42567083 -0.24767646 -0.07139494 -0.0594159
-0.21058723 0.0011796339 -0.24321064 -0.23376322 -0.3953885 -0.0039760326 -0.2164868 -0.2857495
-0.09099403 -0.2624885 0.17716072 -0.13001096 -0.031948015 0.18007876 -0.23824199 0.036884945
0.15854876 -0.24211821 0.14626692 0.17210333 -0.11263163 -0.0069869054 0.18163 0.056298885
-0.26957294 0.02251191 -0.013787159 -0.34088737 -0.15911084 -0.16846873 0.19326924 -0.18312626
-0.17361508 0.07076532 -0.24999945 -0.25272948 -0.1300866 -0.12092535 0.005006812 -0.06613628
0.10482947 0.076410234 -0.2224216 -0.15744992 -0.03116726 0.1969006 0.06806905 -0.335838

fc_layers.3.bias f4 [64]
00000000: 0bf2 a0bd 7b09 4fbd 6657 ed3d 82e7 48bd
00000010: 7dff 0ebe 011d 073e bb2c edba 45f5 1bbe
00000020: 735c 8b3d 7ca5 913e 5cf1 293d 5418 d83d
00000030: e02d 0abd 5544 ecbd 023b 20be 00d0 f73d
00000040: b72a 193e 61c3 41be 1923 2e3d 39be 643d
00000050: dcdd 533d cd5e f33d 0c5b c0bd bc7f 9dbd
00000060: 2f3f 39be 5593 c5bb 6508 a33d 6a3b 9a3d
00000070: 739b 08be 701e 503d 20c1 01be d801 263e
00000080: 1e4b d13d 2b1c 863d 114d c6bd dde0 45be
00000090: e5bc 92bd f9e1 ec3d 4ff2 e53d 4aca b93d
000000a0: 97e3 55be 8314 b2bc 5f18 4d3e dd63 3ebe
000000b0: 6139 35be 86d5 93bd 2202 76bb dc63 343e
000000c0: cc4a b2bd 4338 9f3d 39eb 25bd be23 383d
000000d0: a76d 23be 02e7 193d 5404 30bc d1df 833d
000000e0: b1b7 893d a586 a1bd 3c79 95bd 4364 c13d
000000f0: e634 37be ec7d bc3c 9bf5 423d ffb0 1b3e
-0.07858666 -0.05054615 0.115889356 -0.049048908 -0.13964649 0.13194658 -0.0018094996 -0.15230282
0.06804743 0.28446567 0.041489944 0.10551515 -0.033735156 -0.11536471 -0.1564751 0.1210022
0.149577 -0.18922187 0.04251394 0.055845473 0.051725253 0.11883316 -0.09392366 -0.07690379
-0.18090509 -0.0060295262 0.079605855 0.075308636 -0.13340549 0.050810277 -0.12671328 0.16211641
0.102194056 0.06548341 -0.09682668 -0.1932406 -0.07164935 0.11566538 0.11227857 0.09071787
-0.208876 -0.021738296 0.20028828 -0.18592782 -0.1769767 -0.07218461 -0.0037537892 0.17616218
-0.087056726 0.07774403 -0.04050753 0.04495596 -0.15959798 0.03757382 -0.010743219 0.06439174
0.067244895 -0.078870095 -0.07298514 0.094429515 -0.17891273 0.023009263 0.04759751 0.15204237

fc_layers.6.weight f4 [32, 64]
00000000: e517 5e3e b61c 41bd df83 19be d9a0 ae3d
00000010: 2e2f d3bc 4ba6 093b b055 613e fa1f 793e
00000020: 5190 84be b192 eabd e4b3 dcbd bbeb 903e
00000030: 6a66 e9bb b81d 4dbe 72ab 103c ccf3 06be
00000040: ea6f d5bb 8632 b93c 4811 98bd f070 dabd
00000050: d742 543e 0c05 50be 2578 a7bc 936e 0ebe
00000060: 0103 78be 17eb 94be 8962 01be e43e 193b
00000070: 72bf 89bc 96a5 16be 5a06 93be 5a41 083e
00000080: 0218 5d3c 5df5 fabd 3fa6 6f3e f096 60be
00000090: 57b3 52be 24bd e73c 6f5a b4be 11be 6ebe
000000a0: 5985 68be 4d50 1a3d 9de5 babe 85fb 89be
000000b0: 11d5 d63d 51d1 4abe 2117 8fbd 9fa5 aa3e
000000c0: a49f 093e 4ad0 12be b61d 2bbe 9746 dd3d
000000d0: 5608 06bd 2b20 94be a02c ed3d 4aef 7f3d
000000e0: 37bb ddbe 7724 3abd 14c1 9e3d 6b72 c8be
000000f0: 3dd9 3b3d 5729 a4bc be78 04be bea8 82be
00000100: 173d 3fbe 30e9 253d f753 74be 755e 96be
00000110: 5045 21be 3a8c b93c bdd8 813e 9260 6b3e
00000120: 612b 1bbe 8002 f1bd 3206 463e 4057 d83d
00000130: 3c81 97be 68d4 78be 04c0 87be 57c2 68be
00000140: 4771 c3bd 475d 1cbe eb7b 3d3b 2d09 2f3e
00000150: aa19 f43c d29f 5ebe 862f 7abe c251 59be
00000160: a4ff cd3d 6616 54be 1e03 43bd a314 79be
00000170: 9343 9bbe 2585 de3c d0a8 d7bd cbe4 9dbe
00000180: fadb 3cbe 6166 83bc 83cb 2fbd 29be 86bb
00000190: 79e6 333e efd3 79bd 957c 8fbe 8170 0c3d
000001a0: a5f2 dfbd d0c9 f73d 14e2 2cbe b13c 283e
000001b0: b221 783e 8dfc cc3d f434 0dbe f711 64bd
000001c0: 8b83 423e f509 cbbc 3700 21be 7ee4 90be
000001d0: 7ecc 74bd 97b7 333e 0a68 fbbd 67f2 0abd
000001e0: 5d62 5dbe 5e96 6cbb 0de9 c03c 6294 c9bd
000001f0: f629 6b3e 345e 6c3d 4ee0 2c3d b782 56bd
00000200: 5bd6 7ebe 0a01 fdbe 4e14 b2be b34b 6d3d
00000210: 8bec 1bbe ecf2 1ebf d1ab 9abe c988 873e
00000220: 3302 b63e 0054 a53e 5ccc 26be 22ab bcbe
00000230: 744e 4cbe 23a0 a13c 359f a33c 8f97 85be
00000240: 1596 dbbe 564d 183e d35b 853e c037 ab3e
00000250: 495d d2be 131a b7be 2676 efbd 5fba 3cbe
00000260: ded9 99be 1538 e5be d221 4cbe e4ed efbd
00000270: ba35 b2bd 4e26 c2be fa22 fe3d d4f3 f0be
00000280: d7b1 75be a25f 78be 2492 31be 3e5f 8dbe
00000290: 2eea 25be cf2b 4dbe ae22 87be fdb5 793d
000002a0: 9674 e93d 135c b5be 0964 f9be a5e6 63bd
000002b0: fb34 7f3e 9ded f4ba fe1f 22be a1b4 e2be
000002c0: a186 4cbe fd64 1dbd 263c 31bd f0ef 72be
000002d0: 242a ab3d 411a 04be 6cde afbe 129a cfbe
000002e0: b41e 5dbe 9d6f 533e 737a eabd 2a8a c0be
000002f0: 7e11 f7bd f820 c1be 84cf b4be f785 c4be
00000300: 3a32 3c3d 8a6b babe d123 8abd 3b13 cebd
00000310: 562a 613e 98ef 643c 3ab5 813e 2a1f 1ebd
00000320: 1a68 5cbe 91d0 4dbe 48d4 283e 101d eebd
00000330: 3d7b 0fbe 3440 e73d 67cf 73be 0862 a0bc
00000340: d74c 6cbe d0dd cc3d 00ef f8be 1b39 723d
00000350: 4b05 723d a2e8 0e3d 1f4a f23d 305e 4dbe
00000360: 1025 7ebe fc94 1b3b 0d75 123c ee8c ba3e
00000370: fd4b 21be 2a4a 6dbe 5bac 44bd 4758 86bd
00000380: 0a1f 433d 5c7c e7bd ea3a bfbb 1f46 a5bd
00000390: 72f0 fe3b db6c 203d e9d4 2abe 0ad0 bd3b
000003a0: a999 87be 9982 cbbd 7268 c0be c121 903d
000003b0: 8ef0 e63c 39ee 713e 5af2 303d 0bb4 6bbe
000003c0: 82d2 42bd 6ae4 fdbd e26b b2be 068b 4abe
000003d0: f441 b53b 1d77 8abe d2f6 3bbe 9835 213e
000003e0: 91bc b43e 7aad 8b3e 9725 1b3e 3ec9 eabd
000003f0: 1091 5e3e de66 00be b470 05be 183e 4abe
0.21688803 -0.04714652 -0.14991711 0.08526773 -0.025779333 0.002100366 0.22005343 0.24328604
-0.25891355 -0.114537604 -0.10776499 0.28304848 -0.0071228044 -0.20030868 0.008829938 -0.13178939
-0.0065135853 0.0226071 -0.07425171 -0.10666072 0.20728622 -0.20314425 -0.020443032 -0.13909368
-0.24219896 -0.2908561 -0.12635244 0.0023383433 -0.016814921 -0.14711604 -0.28715783 0.1330618
0.013494493 -0.122538306 0.23403262 -0.21932578 -0.20576225 0.028288431 -0.35225245 -0.23314692
-0.22707118 0.037674237 -0.36503306 -0.26949707 0.10489858 -0.1980641 -0.06986833 0.33329484
0.13439804 -0.14337268 -0.16710553 0.108044796 -0.032722794 -0.28930792 0.11580777 0.062484063
-0.43306896 -0.04544493 0.077516705 -0.39149794 0.04586147 -0.020039244 -0.12936684 -0.25519365
-0.18675648 0.040505588 -0.23860155 -0.2936894 -0.15749097 0.022649873 0.2536067 0.22986057
-0.15153266 -0.11768055 0.19338301 0.105635166 -0.29590786 -0.24299777 -0.26513684 -0.22730385
-0.0954309 -0.15269957 0.0028912972 0.17093344 0.029797394 -0.21740654 -0.24432191 -0.21222594
0.10058525 -0.2071167 -0.047610395 -0.24324279 -0.30324993 0.027163098 -0.10530245 -0.30838618
-0.1844329 -0.016040029 -0.042918693 -0.0041120243 0.17568387 -0.06099313 -0.28024736 0.03428698
-0.10934953 0.120990396 -0.16883117 0.16429402 0.24231604 0.10009108 -0.13789731 -0.055681195
0.18995492 -0.024785021 -0.15722738 -0.28299326 -0.05976533 0.17550503 -0.12275703 -0.03392258
-0.21619554 -0.0036100368 0.023548627 -0.09842755 0.22965226 0.057707027 0.0422061 -0.052370753
-0.24886458 -0.49414855 -0.34781116 0.05793352 -0.15226953 -0.6208942 -0.3020921 0.26471546
0.35548553 0.3229065 -0.16288894 -0.36849314 -0.19951802 0.01972968 0.019973377 -0.26092193
-0.4288794 0.14873251 0.2604662 0.3344097 -0.41086796 -0.3576208 -0.11692457 -0.1843047
-0.30049032 -0.4476935 -0.19934776 -0.11715296 -0.08701654 -0.3791985 0.12409015 -0.47061026
-0.23993622 -0.24255231 -0.17340904 -0.27611727 -0.16202614 -0.20036243 -0.26393646 0.060964573
0.1139919 -0.3542181 -0.48709133 -0.05563988 0.24922554 -0.0018686537 -0.15832517 -0.44278434
-0.19973232 -0.038426388 -0.043270253 -0.23724341 0.08357647 -0.1290064 -0.34349382 -0.40547234
-0.21593744 0.20648046 -0.114491366 -0.3760541 -0.12063883 -0.37720466 -0.35314572 -0.38383457
0.045946337 -0.3641017 -0.06745113 -0.10062262 0.21988806 0.013973139 0.25333577 -0.03860394
-0.21524087 -0.20099093 0.16487229 -0.11626637 -0.14011855 0.11291543 -0.23809586 -0.019577995
-0.23076187 0.10003245 -0.48619843 0.05913649 0.05908708 0.034889825 0.11830544 -0.20055461
-0.24818826 0.0023739925 0.00893904 0.36435646 -0.15751643 -0.23172823 -0.048015933 -0.06559806
0.047637023 -0.113030165 -0.0058358805 -0.08070015 0.007780128 0.039166313 -0.16682781 0.0057926225
-0.2648442 -0.09937019 -0.37579685 0.07037688 0.028190877 0.23626031 0.043199874 -0.230179
-0.047564037 -0.12397082 -0.34847933 -0.19779596 0.005531544 -0.27044 -0.18355873 0.157431
0.35300115 0.2728079 0.15151058 -0.11464165 0.21735024 -0.1253924 -0.13031274 -0.1975025

fc_layers.6.bias f4 [32]
00000000: 9234 4ebd 928c adbe f93f b43d 0ec1 6bbd
00000010: 5513 843e 1c4b c9be 1965 cbbd 8349 1ebd
00000020: c8b8 51be 4386 15be 95cd 78bb 8827 9dbe
00000030: 507d 0b3e 237e 183e 54a7 45bd 07ee c83d
00000040: 6bac 973e 5322 79bd 840c 93bd 5180 353e
00000050: 4cb0 163f bc0f 72be 9cdb 003e c6f0 6d3e
00000060: e88e ea3d d32f b1be 8ad2 eabd fef2 4bbd
00000070: 0a83 07be b5a0 e33e 807c 1f3f 1f93 513e
-0.050343104 -0.3389631 0.08801264 -0.05755716 0.25796 -0.39315116 -0.09931392 -0.038644325
-0.20480645 -0.14601998 -0.0037964333 -0.30694222 0.13622022 0.14891867 -0.04825528 0.09811025
0.29623732 -0.06082375 -0.071801215 0.1772473 0.5886276 -0.23638815 0.12583774 0.23236379
0.114530385 -0.346068 -0.114659384 -0.049792282 -0.13233581 0.44458547 0.62299347 0.20466278

fc_layers.8.weight f4 [4, 32]
00000000: dfd9 b4bd 0a15 efbd 26a8 debe 7e36 2c3e
00000010: 059e c93c a490 9cbd 4000 83be 8a39 1abd
00000020: 4891 0dbe 51dd 99be 0027 4f3e d05e bfbd
00000030: 3b68 7abe c141 34bd 423c 97bd a118 d5bc
00000040: e9e0 c33d eaa4 ee3d 3290 b73d a4f9 3a3e
00000050: bfc4 a23e 0896 9a3e ef0e e8bc 7dfa d93d
00000060: 5025 c03d 3c97 10be 46f6 93bc 98cc 013e
00000070: 5817 293d b342 ee3d 99a2 863e bafc 21bf
00000080: 560a 2cbf 60eb 21be 22fb 84be 8a38 4cbe
00000090: 3169 3fbf 8256 97be 8076 44bd 4fc2 0d3d
000000a0: bdc4 b73c bb21 0c3d 9028 3d3e 484e ac3c
000000b0: 7d3b 8e3c 5a2c 163e 660a 7dbe 37f9 a0be
000000c0: c121 4b3e fb61 033d b059 003e bb3b 1c3e
000000d0: e3b4 9d3e 63c9 4abd 5fba 293e f33f 2e3e
000000e0: f5ef 74be 9afd 88be 0800 9dbe e7e2 2b3e
000000f0: ef0d 1d3d b2f4 873e 3a06 833e 7676 89be
00000100: 6201 503d 973b 6bbd f83b 22be 95b5 a83c
00000110: b8f7 a6bd df06 893e ce62 86be 8118 b3be
00000120: bf2d 18be aa4a 0b3c 013d 8abb b039 d0bc
00000130: a98a aabc 6546 8abd bdbb a3be 8018 1a3d
00000140: 6991 96bc eede 983c 6084 633e 1042 36bc
00000150: e470 8a3e 6bfb 4d3d cc54 6c3e cf4f 96be
00000160: 88b9 2a3e d67d 86bc b5ca 0c3d 20f7 213d
00000170: 2e20 02be 1138 613e 8347 e13e aa3b 3abf
00000180: 9005 7bbe 9837 393d 8e48 a6bd 09f0 fdbd
00000190: 0b79 96be bfbf 5bbe 9f88 edbd b181 913c
000001a0: 9e48 293d 0777 a0bb 7558 913e c5c4 0e3e
000001b0: 112e e23d 48e3 55bc ff93 6a3e 43d3 f4bd
000001c0: 6bc8 013e 2688 093e be92 623e 683e 8a3d
000001d0: aeee 443e b05a 753d bda3 a5be 093e e23d
000001e0: 8c12 55bc 7ba7 bdbe fc3f 97bd 2347 033e
000001f0: 0692 123e 469e 1b3e c2a3 f4bc bee9 0ebe
-0.08830618 -0.11673935 -0.43487662 0.16817662 0.024611482 -0.076447755 -0.25586128 -0.03765253
-0.13824952 -0.30051664 0.20229721 -0.09344256 -0.24453823 -0.04400802 -0.0738454 -0.02601272
0.095643826 0.116525486 0.0896305 0.18259293 0.3179073 0.3019259 -0.028327433 0.1064348
0.09382117 -0.14120191 -0.018061768 0.12675703 0.041282028 0.116338156 0.26295927 -0.63276255
-0.6720327 -0.15812445 -0.2597285 -0.19943443 -0.74769884 -0.29558188 -0.047964573 0.034609135
0.02243268 0.034211855 0.18472505 0.021033421 0.01736235 0.14665356 -0.24710998 -0.31440136
0.19837095 0.032075863 0.12534213 0.1525716 0.30802068 -0.049508464 0.16575001 0.17016582
-0.23919661 -0.26755983 -0.30664086 0.16785775 0.038343366 0.26553875 0.25590688 -0.2684819
0.05078257 -0.057429876 -0.15843189 0.020594398 -0.08152717 0.26763055 -0.26247257 -0.34979632
-0.14861201 0.008501688 -0.004218698 -0.025418133 -0.020818071 -0.06751708 -0.3197917 0.03762102
-0.018379884 0.018660989 0.22218466 -0.011124149 0.27039254 0.0502886 0.23079222 -0.29357764
0.16672337 -0.016417425 0.034373004 0.039542317 -0.12707588 0.21994044 0.43999872 -0.7274729
-0.2451384 0.045219034 -0.081193075 -0.12399299 -0.29389223 -0.21459864 -0.11598324 0.017762037
0.04132902 -0.0048970017 0.283878 0.13942249 0.11043943 -0.013054676 0.22908019 -0.119543575
0.1267411 0.13430843 0.2212629 0.06750184 0.19231674 0.05990094 -0.32351485 0.110469885
-0.01300491 -0.3704184 -0.07385251 0.12820105 0.14313516 0.15197095 -0.029863242 -0.13956353

fc_layers.8.bias f4 [4]
00000000: a64f 6b3e d242 8e3e f99e 723e a1c0 f43e
0.22979602 0.27785355 0.23693456 0.47803214
