output/dqn/model/4x4/14500.pth (torch, 53480 bytes, 8 tensors)

fc_layers.0.weight f4 [128, 16]
0.13496527 0.20930023 0.020208359 0.22295375 0.5590342 -0.11741924 0.4409225 0.47077674
0.18878576 0.5157306 -0.45258257 -0.45476913 0.5633288 0.5436042 0.09339851 0.30127978
-0.23932159 -0.027762992 0.08431476 -0.49140102 0.22483602 0.48504037 -0.3922968 -0.54442084
0.47413716 -0.1339693 -0.327326 -0.03847325 0.589503 0.32734832 -0.05947203 -0.13235638
-0.13269751 -0.44080597 -0.080902666 0.12703612 -0.35748687 0.40366834 0.31848598 -0.16493979
-0.053874146 0.19709441 0.21863148 -0.10221052 0.34343714 -0.57107836 0.31959948 0.07837105
-0.4460067 0.21622287 -0.5336614 -0.14479476 -0.21626118 0.31168586 -0.5528697 -0.3164966
0.5633765 0.12579687 0.20435864 0.29796052 -0.28466153 0.29664505 0.15617098 -0.11099261
0.019043459 0.34392497 0.15176052 -0.52934843 -0.6020105 0.48361653 -0.4438144 -0.2288928
0.39286578 -0.14756683 0.3326415 -0.18398947 -0.081240356 -0.30597898 0.16452305 0.5219367
-0.43655282 -0.20865488 -0.1587097 0.26761338 -0.51988006 0.32305604 0.101383865 -0.017546952
0.34869522 0.23441866 -0.2318432 -0.155772 0.053394675 0.23574348 0.06803626 -0.54543567
-0.18262623 -0.20586543 -0.26643637 -0.54935503 0.014249596 0.24999118 -0.5617555 -0.14464447
-0.21201542 -0.26346833 0.22340992 0.42786437 -0.083557904 -0.07313882 0.10497712 0.21638715
-0.020974517 -0.32196552 -0.4847574 -0.4834476 0.0027358532 -0.2280271 0.41860354 -0.0492844
0.20261428 -0.42939222 0.15971409 0.37158406 -0.23060137 0.45208877 0.099668264 -0.6007991
0.07043612 0.36824125 -0.09512442 -0.3991673 -0.13738617 -0.49128327 -0.17534664 -0.4298513
-0.52902365 0.4713016 -0.20099947 0.22748703 -0.48807693 -0.35313985 0.20501973 -0.12011939
0.17195013 -0.58802485 -0.58132255 -0.500143 -0.12932768 0.42636412 -0.43337083 -0.47971606
-0.04385607 0.07672341 0.32748714 -0.15251005 -0.12345171 0.25612974 -0.07701567 -0.5423717
-0.02358704 -0.08251619 -0.56333697 -0.16317186 -0.49280846 0.29449052 0.0348906 0.39206833
0.039796498 0.22470245 0.41590822 0.07053554 0.29970282 -0.525677 0.21858776 0.26314765
0.10168146 0.04284283 -0.20692587 -0.3190275 0.3178473 -0.2530697 0.35959977 0.15689695
0.2105803 0.30778858 -0.12331241 -0.14921957 0.47675294 -0.0017382931 -0.1710402 -0.022776246
-0.56459093 0.21788095 0.20548658 -0.55068195 0.4116737 0.050282657 -0.15858042 -0.34320965
-0.6081655 0.2273342 0.4346916 -0.1523745 -0.3879521 -0.4263808 0.36065328 -0.029006183
0.31378946 0.3657654 -0.38996744 0.18005049 0.3988439 0.40262443 0.28667372 0.32869643
0.54834956 0.14296417 -0.30763513 -0.036076665 0.5626659 0.1949212 -0.1439498 -0.10383642
-0.52612984 0.17696641 -0.3690871 0.03556582 -0.27008763 0.4204802 -0.31546086 0.54383284
0.5171332 0.35914445 -0.57282746 0.30874258 -0.21387434 -0.1972911 -0.30432275 0.40017372
-0.015695568 0.07567085 0.08425569 -0.36850965 0.06603819 0.20058596 0.2582892 0.23912048
-0.58937013 0.07278604 0.07804824 0.36948115 0.18318623 0.4220735 -0.11176584 -0.035453975
00000000: 5634 0a3e cd52 563e 008c a53c fd4d 643e
00000010: de1c 0f3f 8079 f0bd 98c0 e13e a609 f13e
00000020: 0e51 413e ec06 043f e7b8 e7be 80d7 e8be
00000030: 5136 103f a529 0b3f b847 bf3d 5841 9a3e
00000040: b810 75be 376f e3bc 38ad ac3d ea98 fbbe
00000050: 6a3b 663e 3657 f83e 20db c8be 2a5f 0bbf
00000060: 1bc2 f23e 402f 09be 4697 a7be 2096 1dbd
00000070: abe9 163f 339a a73e f198 73bd 6e88 07be
00000080: dbe1 07be 52b1 e1be 4cb0 a5bd c215 023e
00000090: 8508 b7be 9ead ce3e 9810 a33e fae5 28be
000000a0: 23ab 5cbd 1ed3 493e eee0 5f3e c053 d1bd
000000b0: fed6 af3e 3132 12bf 8ba2 a33e 0081 a03d
000000c0: fd5a e4be 8769 5d3e 099e 08bf 1445 14be
000000d0: 9273 5dbe 4a95 9f3e de88 0dbf d80b a2be
000000e0: 7139 103f e5d0 003e 6443 513e 488e 983e
000000f0: 28bf 91be dce1 973e 49eb 1f3e 1850 e3bd
00000100: 0701 9c3c ef16 b03e 1c67 1b3e 6183 07bf
00000110: 5c1d 1abf 969c f73e a43b e3be e062 6abe
00000120: b425 c93e c21b 17be fd4f aa3e bc67 3cbe
00000130: 5861 a6bd 47a9 9cbe bb78 283e a59d 053f
00000140: da83 dfbe a0a9 55be cc84 22be 9f04 893e
00000150: dc16 05bf 9a67 a53e 58a2 cf3d a0be 8fbc
00000160: 2e88 b23e 720b 703e 4e68 6dbe b282 1fbe
00000170: 60b4 5a3d bd66 713e 9856 8b3d aca1 0bbf
00000180: 5f02 3bbe 63ce 52be 596a 88be 88a2 0cbf
00000190: 2377 693c b0fd 7f3e 35cf 0fbf ae1d 14be
000001a0: 921a 59be 52e5 86be 92c5 643e 0a11 db3e
000001b0: 6820 abbd cec9 95bd 3ffe d63d 9894 5d3e
000001c0: c0d2 abbc aad8 a4be 1f32 f8be 7286 f7be
000001d0: 004c 333b f07f 69be 3453 d63e 70de 49bd
000001e0: 1e7a 4f3e 4cd9 dbbe 178c 233e 4440 be3e
000001f0: c422 6cbe 2e78 e73e e01e cc3d f8cd 19bf
00000200: d040 903d 1e8a bc3e 98d0 c2bd a85f ccbe
00000210: f6ae 0cbe 7b89 fbbe 128e 33be 7815 dcbe
00000220: 186e 07bf 714e f13e ced2 4dbe 5cf2 683e
00000230: 38e5 f9be bfce b4be b1f0 513e 2801 f6bd
00000240: b213 303e cc88 16bf 8ed1 14bf 5f09 00bf
00000250: 7a6e 04be 664c da3e c8e2 ddbe 589d f5be
00000260: 6ca2 33bd 2a21 9d3d 65ac a73e 982b 1cbe
00000270: 40d4 fcbd 7023 833e 64ba 9dbd dfd8 0abf
00000280: 9c39 c1bc 40fe a8bd da36 10bf 8616 27be
00000290: 6451 fcbe 76c7 963e 72e9 0e3d 2ebd c83e
000002a0: a701 233d 6618 663e ecf1 d43e f074 903d
000002b0: a672 993e c592 06bf 78d5 5f3e 4abb 863e
000002c0: 5f3e d03d f77b 2f3d 60e4 53be 9357 a3be
000002d0: e2bc a23e 5a92 81be 761d b83e 98a9 203e
000002e0: 5da2 573e 7796 9d3e 388b fcbd 04cd 18be
000002f0: f618 f43e 70d7 e3ba 2a25 2fbe 4095 babc
00000300: 0889 10bf 2f1c 5f3e 136b 523e 7ef9 0cbf
00000310: e5c6 d23e 30f5 4d3d e862 22be 2db9 afbe
00000320: bcb0 1bbf 4cca 683e e68f de3e 1008 1cbe
00000330: a8a1 c6be 964e dabe 8ca7 b83e 609e edbc
00000340: 03a9 a03e 9a45 bb3e d0a9 c7be 285f 383e
00000350: 4535 cc3e ca24 ce3e e6c6 923e e64a a83e
00000360: a360 0c3f 3365 123e 5a82 9dbe 20c5 13bd
00000370: df0a 103f 6c99 473e 9467 13be 30a8 d4bd
00000380: 72b0 06bf af36 353e fcf8 bcbe 77ad 113d
00000390: ed48 8abe 2e49 d73e 1684 a1be a138 0b3f
000003a0: d762 043f c8e1 b73e d2a4 12bf 8213 9e3e
000003b0: e001 5bbe ae06 4abe 31d0 9bbe 92e3 cc3e
000003c0: fe93 80bc 52f9 9a3d 3f8e ac3d 4cad bcbe
000003d0: 083f 873d 6866 4d3e 7b3e 843e 00dc 743e
000003e0: f6e0 16bf d910 953d c1d7 9f3d a22c bd3e
000003f0: 2c95 3b3e 051a d83e 7de5 e4bd 3038 11bd

fc_layers.0.bias f4 [128]
-0.23154896 -0.13105768 -0.2677136 -0.07728448 -0.17391442 -0.35130993 -0.045447897 -0.29244715
-0.19428179 -0.09574765 -0.24689631 -0.20877598 -0.31087852 -0.09877514 0.03476944 -0.15671962
-0.0022370103 -0.15701136 -0.18782859 -0.29210263 -0.31607896 -0.18682227 -0.22991906 -0.096279785
-0.19101216 -0.013823834 -0.36384675 -0.06692412 -0.13901585 0.1527905 -0.23765106 -0.10699997
-0.4614878 -0.019367473 -0.22557133 -0.105909064 -0.36816397 -0.11074406 -0.09179242 -0.3407428
-0.07075347 -0.25470573 -0.22799042 -0.19919115 -0.12537347 -0.007615215 -0.21188135 -0.38811573
0.018644799 -0.16892351 -0.1505121 -0.197247 -0.27555227 -0.2678357 0.027393183 -0.17678772
-0.14470184 -0.3134958 -0.14908431 -0.13222519 -0.023293097 -0.15015873 -0.36167896 -0.1895969
-0.06553105 -0.3919544 -0.06191658 -0.2509843 0.16522154 -0.12105852 -0.121721685 -0.33960518
-0.21213005 -0.10114979 -0.08833806 -0.07146664 -0.18632753 -0.16300772 -0.15028676 -0.29832786
-0.14686581 -0.2745682 -0.23584834 -0.29922667 -0.2030368 -0.14148666 -0.2544647 -0.11073616
-0.31586358 -0.14088671 -0.080655016 -0.48731235 -0.2023869 -0.0784593 -0.11541173 -0.393578
-0.12858303 -0.11200711 -0.22430377 -0.02746375 -0.19968979 -0.11760116 -0.11474643 -0.37816906
-0.28290096 -0.18208674 -0.06021518 -0.04671492 -0.16059558 0.03495855 -0.03156167 -0.32148907
-0.2648823 -0.22095251 -0.34212327 -0.32653284 -0.16779883 -0.15735771 -0.23344946 -0.14334345
-0.33248073 -0.42668837 -0.29954013 -0.17784809 -0.28146878 -0.09228463 -0.17084427 -0.27151984
00000000: 2c1b 6dbe fc33 06be c211 89be 5347 9ebd
00000010: 9f16 32be e5de b3be 9327 3abd a2bb 95be
00000020: cef1 46be 5817 c4bd 63d2 7cbe 5fc9 55be
00000030: 782b 9fbe 9f4a cabd 666a 0e3d 1c7b 20be
00000040: ce9a 12bb 96c7 20be 2356 40be 7a8e 95be
00000050: 1ad5 a1be 564e 3fbe e76f 6bbe 562e c5bd
00000060: b198 43be 5d7d 62bc 1f4a babe 830f 89bd
00000070: 2c5a 0ebe 1d75 1c3e cd5a 73be cd22 dbbd
00000080: 2148 ecbe 89a8 9ebc 2cfc 66be dae6 d8bd
00000090: fd7f bcbe c8cd e2bd aafd bbbd d775 aebe
000000a0: 32e7 90bd ca68 82be 5276 69be c4f8 4bbe
000000b0: e761 00be 0e89 f9bb 6df7 58be 1bb7 c6be
000000c0: fabc 983c 49fa 2cbe d81f 1abe 1efb 49be
000000d0: 3015 8dbe c321 89be ab67 e03c d707 35be
000000e0: b82c 14be 8682 a0be 8fa9 18be 0a66 07be
000000f0: 2ad1 bebc 36c3 19be fc2d b9be b125 42be
00000100: 2535 86bd 3fae c8be 3d9c 7dbd 0481 80be
00000110: d62f 293e 88ed f7bd 3849 f9bd bbe0 adbe
00000120: 9f38 59be 9f27 cfbd 96ea b4bd 1a5d 92bd
00000130: a5cc 3ebe 7feb 26be c6e4 19be 6ebe 98be
00000140: fe63 16be 3494 8cbe 3a82 71be 3d34 99be
00000150: e1e8 4fbe e1e1 10be 3249 82be a4c9 e2bd
00000160: dfb8 a1be 9b44 10be 752e a5bd 0181 f9be
00000170: 833e 4fbe 45af a0bd fc5c ecbd 0e83 c9be
00000180: 45ab 03be fc63 e5bd e3af 65be a9fb e0bc
00000190: 7b7b 4cbe e1d8 f0bd 2d00 ebbd 609f c1be
000001a0: 65d8 90be f274 3abe 31a4 76bd 2558 3fbd
000001b0: 2b73 24be b230 0f3d cf46 01bd 379a a4be
000001c0: a79e 87be 6041 62be c82a afbe 502f a7be
000001d0: 75d3 2bbe 6122 21be 600d 6fbe a0c8 12be
000001e0: ea3a aabe e676 dabe 535d 99be cf1d 36be
000001f0: ad1c 90be b9ff bcbd cdf1 2ebe a604 8bbe

fc_layers.3.weight f4 [64, 128]
0.10058235 -0.17512856 -0.1405099 -0.19228618 -0.10430826 0.06643324 0.014994391 -0.022672998
0.04556538 -0.0014903722 -0.064598575 -0.08388344 -0.26804453 -0.012343091 -0.07972653 -0.16489731
0.061922316 -0.059925824 0.07588836 -0.0005862198 -0.22399718 0.023028644 0.0061428966 -0.11727092
-0.065124646 -0.16633627 -0.10447192 -0.107364215 -0.14940165 -0.09238866 0.105897546 -0.043582242
0.09946973 -0.043210834 -0.12001803 0.08610405 -0.11667028 -0.20306647 0.068879455 -0.23244242
-0.08521683 -0.21218719 -0.21590748 -0.07222127 -0.12772903 0.016784951 0.031672984 -0.080846876
-0.033847332 -0.16856104 0.12798966 -0.0681398 0.08606391 -0.20146285 -0.20257783 0.09152985
-0.22484797 -0.16947234 -0.1849578 0.1591651 0.096024804 -0.15719146 -0.12546 0.052440006
-0.19763498 0.0372081 -0.060741562 -0.09234762 -0.21102285 -0.1103215 0.05753378 0.20265087
-0.08450842 -0.03286853 -0.19431423 -0.22044371 -0.018156357 0.11012185 -0.07235223 0.0924167
-0.20673375 0.043392837 0.13389663 -0.15703636 0.13206187 -0.16095006 -0.08106739 0.04114094
-0.06529024 -0.1945375 0.07964188 -0.0618636 -0.051114768 -0.09684111 -0.0017178882 -0.09739687
0.0032613883 -0.1449893 -0.21212232 0.06909312 0.13870215 0.04526544 -0.070008904 0.16791598
-0.2650618 -0.1894061 -0.011278543 0.05441471 -0.090539806 -0.11273632 -0.016115015 0.100281194
-0.18714142 -0.043058466 -0.039280765 -0.23646392 -0.1725458 -0.039791584 -0.17150585 -0.2298092
0.14453982 0.1164893 -0.07367548 -0.10269665 -0.21523914 -0.20799993 -0.119840994 -0.17907363
-0.07874289 0.32208636 -0.12316511 0.14112575 0.29492798 -0.047259707 -0.02171548 0.01618905
-0.28951147 -0.011872667 -0.20876536 -0.037829496 -0.10687223 0.18471836 0.11978837 -0.20727184
-0.17038181 0.1478472 -0.17045929 -0.11159793 -0.47389457 0.30372646 -0.12987718 -0.06640292
-0.2611549 -0.044210162 0.14212473 -0.17122653 0.22188409 0.23482953 -0.16459054 -0.20263211
0.051108316 -0.16822766 -0.12283236 -0.24776389 -0.36168805 -0.17486724 -0.36301905 -0.19487411
-0.06916082 -0.45296824 0.05259462 0.27590784 -0.20381778 -0.28608832 -0.091089144 -0.24069181
-0.1506112 0.15930662 0.14226623 -0.2922681 0.20620467 0.035210185 0.026366724 -0.14056586
0.31298986 -0.22347091 -0.21309914 0.23348773 0.13277882 -0.3726002 -0.16485068 -0.012095374
-0.06486075 0.016378552 -0.16803691 -0.11533828 -0.360487 -0.09724838 -0.36364883 0.1203934
-0.09940633 -0.08706869 -0.07983159 -0.19076458 -0.4381678 -0.24767646 -0.065362394 -0.0594159
-0.22784035 0.0011796339 -0.24321064 -0.23376322 -0.4043348 0.05141066 -0.22503723 -0.2857495
-0.09099403 -0.26345816 0.20833862 -0.13001096 -0.031948015 0.20772222 -0.22658071 0.036884945
0.19703692 -0.24211821 0.14626692 0.16485885 -0.11263163 0.030040074 0.27005383 0.056298885
-0.26957294 0.02251191 -0.014194193 -0.32926837 -0.15911084 -0.1568032 0.23207162 -0.18312626
-0.17361508 0.082429275 -0.24999945 -0.26162538 -0.13920042 -0.15766057 -0.011560313 -0.06613628
0.10482947 0.076410234 -0.2224216 -0.12355372 -0.03116726 0.24317257 0.05862201 -0.3379264
00000000: 1efe cd3d e754 33be d4e1 0fbe abe6 44be
00000010: 929f d5bd 270e 883d 09ab 753c b9bc b9bc
00000020: c4a2 3a3d 9858 c3ba 424c 84bd 15cb abbd
00000030: 223d 89be ad3a 4abc aa47 a3bd d7da 28be
00000040: 41a2 7d3d c874 75bd 5b6b 9b3d 8bac 19ba
00000050: 845f 65be 91a6 bc3c 5a4a c93b bc2b f0bd
00000060: 1260 85bd 0e54 2abe 60f5 d5bd c5e1 dbbd
00000070: bffc 18be 4436 bdbd d0e0 d83d 4b83 32bd
00000080: c9b6 cb3d d8fd 30bd 03cc f5bd 5257 b03d
00000090: d4f0 eebd a8f0 4fbe ac10 8d3d 6305 6ebe
000000a0: 2986 aebd 9947 59be da16 5dbe bfe8 93bd
000000b0: 66cb 02be 9880 893c 88bb 013d 0c93 a5bd
000000c0: 80a3 0abd 449b 2cbe b90f 033e e18c 8bbd
000000d0: 4642 b03d 474c 4ebe 9070 4fbe 0174 bb3d
000000e0: 8c3e 66be 288a 2dbe 9465 3dbe 2dfc 223e
000000f0: a7a8 c43d ccf6 20be 9678 00be 55cb 563d
00000100: d360 4abe 8567 183d 25cc 78bd c020 bdbd
00000110: 6016 58be 3df0 e1bd 8aa8 6b3d b683 4f3e
00000120: c012 adbd 27a1 06bd 4ffa 46be ffbb 61be
00000130: a4bc 94bc 9187 e13d 682d 94bd f844 bd3d
00000140: 03b2 53be b0bc 313d 331c 093e 24ce 20be
00000150: 3a3b 073e 18d0 24be a906 a6bd 6783 283d
00000160: e4b6 85bd d734 47be 481b a33d b064 7dbd
00000170: b85d 51bd a254 c6bd c32a e1ba 0378 c7bd
00000180: 04bd 553b 1378 14be 9836 59be b280 8d3d
00000190: f007 0e3e 4168 393d d460 8fbd 2bf2 2b3e
000001a0: 2eb6 87be acf3 41be a3c9 38bc f5e1 5e3d
000001b0: ef6c b9bd 4de2 e6bd a303 84bc 3a60 cd3d
000001c0: 00a2 3fbe 135e 30bd dee4 20bd 9923 72be
000001d0: d9af 30be 80fc 22bd 3b9f 2fbe 1a53 6bbe
000001e0: 3f02 143e f191 ee3d 2ce3 96bd 9f52 d2bd
000001f0: a667 5cbe effd 54be 326f f5bd 145f 37be
00000200: f443 a1bd 81e8 a43e fd3d fcbd 4583 103e
00000210: cd00 973e 6593 41bd aae4 b1bc e69e 843c
00000220: d93a 94be 9385 42bc 96c6 55be 1af3 1abd
00000230: d4df dabd cf26 3d3e 9b53 f53d 123f 54be
00000240: 9278 2ebe 4265 173e e18c 2ebe 758d e4bd
00000250: 4fa2 f2be 0982 9b3e 86fe 04be 41fe 87bd
00000260: 18b6 85be b715 35bd 2589 113e 0256 2fbe
00000270: 9535 633e 2777 703e 6c8a 28be cb7e 4fbe
00000280: f456 513d df43 2cbe 888f fbbd d1b5 7dbe
00000290: 2d2f b9be 6610 33be a2dd b9be 148d 47be
000002a0: 30a4 8dbd 74eb e7be 756d 573d cb43 8d3e
000002b0: 9cb5 50be 2b7a 92be f28c babd ea77 76be
000002c0: d339 1abe 4621 233e 3dae 113e 2aa4 95be
000002d0: 5127 533e 8e38 103d 07ff d73c 7ff0 0fbe
000002e0: 3540 a03e 8fd5 64be a936 5abe 6817 6f3e
000002f0: 2cf7 073e 74c5 bebe 9ece 28be ad2b 46bc
00000300: b7d5 84bd 502c 863c de11 2cbe 7a36 ecbd
00000310: c191 b8be 292a c7bd 2e30 babe d190 f63d
00000320: 8c95 cbbd 1251 b2bd bf7e a3bd ca57 43be
00000330: 8857 e0be e69e 7dbe b8dc 85bd 165e 73bd
00000340: fb4e 69be f29d 9a3a 360c 79be a05f 6fbe
00000350: f904 cfbe fc93 523d 2970 66be c24d 92be
00000360: 145b babd fde3 86be b856 553e 9821 05be
00000370: ecdb 02bd 22b5 543e c604 68be ab14 173d
00000380: 0cc4 493e d6ed 77be ffc6 153e c2d0 283e
00000390: 69ab e6bd 9a16 f63c 7f44 8a3e a999 663d
000003a0: 7705 8abe e66a b83c c38e 68bc dd95 a8be
000003b0: f4ed 22be 0591 20be 2fa4 6d3e 7385 3bbe
000003c0: 27c8 31be aed0 a83d dbff 7fbe c3f3 85be
000003d0: 8e8a 0ebe c671 21be 7867 3dbc 7572 87bd
000003e0: d5b0 d63d f87c 9c3d 7dc2 63be bc09 fdbd
000003f0: 7b52 ffbc 3b02 793e a21d 703d b004 adbe

fc_layers.3.bias f4 [64]
-0.07858666 -0.056036886 0.110233404 -0.047195613 -0.13964649 0.13906525 0.0026291597 -0.15230282
0.106701344 0.31170213 0.040036865 0.104173675 -0.033735156 -0.11536471 -0.1564751 0.13210112
0.15801069 -0.18922187 0.06554555 0.079008006 0.09443934 0.115127765 -0.09392366 -0.044652972
-0.18090509 0.017437665 0.099940926 0.066757284 -0.14566287 0.026435247 -0.12671328 0.16997355
0.08476877 0.07882237 -0.09682668 -0.1932406 -0.07150571 0.10947451 0.123463586 0.11832461
-0.208876 0.022820346 0.18609086 -0.18592782 -0.1769767 -0.058282416 -0.014399763 0.20213218
-0.08334813 0.09563318 -0.045062207 0.030527206 -0.15959798 0.04937058 0.008508578 0.07043082
0.094260424 -0.09866313 -0.07298514 0.112102255 -0.18645208 0.034213677 0.059241567 0.120819174
00000000: 0bf2 a0bd ef86 65bd 0dc2 e13d 3050 41bd
00000010: 7dff 0ebe 1f67 0e3e fb4d 2c3b 45f5 1bbe
00000020: 3c86 da3d 6c97 9f3e b2fd 233d 0259 d53d
00000030: e02d 0abd 5544 ecbd 023b 20be 8445 073e
00000040: 8ecd 213e 61c3 41be bf3c 863d f3ce a13d
00000050: 6a69 c13d 1bc8 eb3d 0c5b c0bd 09e6 36bd
00000060: 2f3f 39be 6fd9 8e3c d4ad cc3d 0bb8 883d
00000070: a628 15be bb8e d83c 20c1 01be 8c0d 2e3e
00000080: 409b ad3d 9f6d a13d 114d c6bd dde0 45be
00000090: 9671 92bd 2c34 e03d 7ada fc3d 2c54 f23d
000000a0: 97e3 55be bcf1 ba3c 9a8e 3e3e dd63 3ebe
000000b0: 6139 35be 8bb9 6ebd fcec 6bbc bdfb 4e3e
000000c0: 6db2 aabd 54db c33d 2693 38bd 3114 fa3c
000000d0: a76d 23be ce38 4a3d 9067 0b3c 093e 903d
000000e0: 9c0b c13d e50f cabd 3c79 95bd de95 e53d
000000f0: 4bed 3ebe a423 0c3d 49a7 723d 0b70 f73d

fc_layers.6.weight f4 [32, 64]
0.21688803 -0.06007767 -0.128477 0.0455903 -0.025779333 0.022829337 0.2170413 0.24328604
-0.23898105 -0.12146831 -0.11663041 0.28614452 -0.0071228044 -0.20030868 0.008829938 -0.11695085
-0.023700997 0.0226071 -0.047956917 -0.07120029 0.255207 -0.22730489 -0.020443032 -0.13909368
-0.24219896 -0.28265443 -0.12855476 0.029721024 -0.016814921 -0.15252613 -0.28715783 0.15324545
0.0014410708 -0.10744355 0.23403262 -0.21932578 -0.20576225 0.062612854 -0.33944 -0.24487932
-0.22707118 0.034721646 -0.30800337 -0.26949707 0.10489858 -0.1980641 -0.08054909 0.36868894
0.13439804 -0.11443512 -0.1919867 0.11718613 -0.032722794 -0.27315837 0.12678666 0.084123746
-0.4070085 -0.04544493 0.077516705 -0.44276866 0.04586147 -0.025564224 -0.15462689 -0.2505421
-0.18675648 0.040505588 -0.23860155 -0.2936894 -0.15749097 0.022649873 0.2536067 0.22986057
-0.15153266 -0.11768055 0.19338301 0.105635166 -0.29590786 -0.24299777 -0.26513684 -0.22730385
-0.0954309 -0.15269957 0.0028912972 0.17093344 0.029797394 -0.21740654 -0.24432191 -0.21222594
0.10058525 -0.2071167 -0.047610395 -0.24324279 -0.30324993 0.027163098 -0.10530245 -0.30838618
-0.1844329 -0.016040029 -0.042918693 -0.0041120243 0.17568387 -0.06099313 -0.28024736 0.03428698
-0.10934953 0.120990396 -0.16883117 0.16429402 0.24231604 0.10009108 -0.13789731 -0.055681195
0.18995492 -0.024785021 -0.15722738 -0.28299326 -0.05976533 0.17550503 -0.12275703 -0.03392258
-0.21619554 -0.0036100368 0.023548627 -0.09842755 0.22965226 0.057707027 0.0422061 -0.052370753
-0.24886458 -0.49431705 -0.3476668 0.07062438 -0.15226953 -0.64654005 -0.35571498 0.26471546
0.3744949 0.36962 -0.14240631 -0.42817426 -0.19951802 0.01972968 0.019973377 -0.27129704
-0.4288794 0.14873251 0.29252663 0.3502655 -0.40198895 -0.3576208 -0.11692457 -0.20937283
-0.30049032 -0.45174178 -0.21573918 -0.13667054 -0.08701654 -0.34882474 0.12409015 -0.50718
-0.20920768 -0.23667333 -0.17340904 -0.27611727 -0.16202614 -0.1983676 -0.2664669 0.055031344
0.1139919 -0.34304988 -0.49957642 -0.05563988 0.24922554 0.017925167 -0.16623871 -0.40129545
-0.19973232 -0.0025817961 -0.030638384 -0.24747333 0.08357647 -0.1433029 -0.33071128 -0.4139501
-0.24698812 0.20648046 -0.114491366 -0.3760541 -0.12063883 -0.37720466 -0.35457018 -0.38177377
0.045946337 -0.3641017 -0.08030008 -0.09410908 0.21988806 0.019349506 0.28643 -0.03860394
-0.19695826 -0.19838946 0.16487229 -0.09904779 -0.14011855 0.11291543 -0.23809586 0.015978334
-0.23466024 0.10003245 -0.49252388 0.042445756 0.08727333 0.034889825 0.11830544 -0.20055461
-0.24818826 -0.0067790365 0.018625153 0.37572291 -0.15751643 -0.23172823 -0.048015933 -0.13413891
0.039736263 -0.095744185 -0.0058358805 -0.08070015 0.007780128 0.061341304 -0.1484815 0.004515031
-0.2648442 -0.09937019 -0.35708416 0.07037688 0.028190877 0.25010183 0.04779517 -0.2594724
-0.048677195 -0.122588836 -0.34847933 -0.19779596 0.005531544 -0.2710551 -0.16738582 0.13159803
0.34976566 0.26539817 0.15151058 -0.112281464 0.21624216 -0.1253924 -0.13179922 -0.20117077
00000000: e517 5e3e 0114 76bd 7a8f 03be e5bc 3a3d
00000010: 2e2f d3bc 9704 bb3c 1340 5e3e fa1f 793e
00000020: 73b7 74be 61c4 f8bd eddb eebd 8981 923e
00000030: 6a66 e9bb b81d 4dbe 72ab 103c ed83 efbd
00000040: 9828 c2bc 8632 b93c 796e 44bd 75d1 91bd
00000050: 7eaa 823e 9dc2 68be 2578 a7bc 936e 0ebe
00000060: 0103 78be 15b8 90be dca3 03be 8179 f33c
00000070: 72bf 89bc cf2f 1cbe 5a06 93be 60ec 1c3e
00000080: 50e2 bc3a 5d0b dcbd 3fa6 6f3e f096 60be
00000090: 57b3 52be 2b3b 803d 14cb adbe a5c1 7abe
000000a0: 5985 68be 4938 0e3d 9eb2 9dbe 85fb 89be
000000b0: 11d5 d63d 51d1 4abe ecf6 a4bd ccc4 bc3e
000000c0: a49f 093e f65c eabd 2998 44be 48ff ef3d
000000d0: 5608 06bd 6adb 8bbe 5dd4 013e 1249 ac3d
000000e0: 6b63 d0be 7724 3abd 14c1 9e3d 93b2 e2be
000000f0: 3dd9 3b3d 106c d1bc 8356 1ebe 0e47 80be
00000100: 173d 3fbe 30e9 253d f753 74be 755e 96be
00000110: 5045 21be 3a8c b93c bdd8 813e 9260 6b3e
00000120: 612b 1bbe 8002 f1bd 3206 463e 4057 d83d
00000130: 3c81 97be 68d4 78be 04c0 87be 57c2 68be
00000140: 4771 c3bd 475d 1cbe eb7b 3d3b 2d09 2f3e
00000150: aa19 f43c d29f 5ebe 862f 7abe c251 59be
00000160: a4ff cd3d 6616 54be 1e03 43bd a314 79be
00000170: 9343 9bbe 2585 de3c d0a8 d7bd cbe4 9dbe
00000180: fadb 3cbe 6166 83bc 83cb 2fbd 29be 86bb
00000190: 79e6 333e efd3 79bd 957c 8fbe 8170 0c3d
000001a0: a5f2 dfbd d0c9 f73d 14e2 2cbe b13c 283e
000001b0: b221 783e 8dfc cc3d f434 0dbe f711 64bd
000001c0: 8b83 423e f509 cbbc 3700 21be 7ee4 90be
000001d0: 7ecc 74bd 97b7 333e 0a68 fbbd 67f2 0abd
000001e0: 5d62 5dbe 5e96 6cbb 0de9 c03c 6294 c9bd
000001f0: f629 6b3e 345e 6c3d 4ee0 2c3d b782 56bd
00000200: 5bd6 7ebe 2017 fdbe 6201 b2be 84a3 903d
00000210: 8bec 1bbe a683 25bf 4620 b6be c988 873e
00000220: ccbd bf3e d53e bd3e f6d2 11be a839 dbbe
00000230: 744e 4cbe 23a0 a13c 359f a33c 72e7 8abe
00000240: 1596 dbbe 564d 183e 0dc6 953e 0056 b33e
00000250: 7fd1 cdbe 131a b7be 2676 efbd d565 56be
00000260: ded9 99be b34a e7be bbea 5cbe 5df3 0bbe
00000270: ba35 b2bd 2899 b2be fa22 fe3d 8cd6 01bf
00000280: 8a3a 56be 7e5a 72be 2492 31be 3e5f 8dbe
00000290: 2eea 25be e020 4bbe 596e 88be 8c68 613d
000002a0: 9674 e93d 3ca4 afbe 7bc8 ffbe a5e6 63bd
000002b0: fb34 7f3e cdd7 923c 7b3a 2abe 9976 cdbe
000002c0: a186 4cbe 5a33 29bb 59fd fabc a669 7dbe
000002d0: 242a ab3d ffbd 12be fd52 a9be 44f1 d3be
000002e0: 74ea 7cbe 9d6f 533e 737a eabd 2a8a c0be
000002f0: 7e11 f7bd f820 c1be 398a b5be da77 c3be
00000300: 3a32 3c3d 8a6b babe 5e74 a4bd 43bc c0bd
00000310: 562a 613e db82 9e3c f4a6 923e 2a1f 1ebd
00000320: 6daf 49be 9b26 4bbe 48d4 283e 91d9 cabd
00000330: 3d7b 0fbe 3440 e73d 67cf 73be ffe4 823c
00000340: c64a 70be d0dd cc3d 172c fcbe 9adb 2d3d
00000350: 5cbc b23d a2e8 0e3d 1f4a f23d 305e 4dbe
00000360: 1025 7ebe ae22 debb c793 983c c15e c03e
00000370: fd4b 21be 2a4a 6dbe 5bac 44bd b65b 09be
00000380: 7ec2 223d 8715 c4bd ea3a bfbb 1f46 a5bd
00000390: 72f0 fe3b 0541 7b3d 890b 18be d3f2 933b
000003a0: a999 87be 9982 cbbd bcd3 b6be c121 903d
000003b0: 8ef0 e63c 590d 803e dec4 433d 91d9 84be
000003c0: bd61 47bd db0f fbbd e26b b2be 068b 4abe
000003d0: f441 b53b bcc7 8abe 3067 2bbe a2c1 063e
000003e0: 7c14 b33e 45e2 873e 9725 1b3e d3f3 e5bd
000003f0: 966e 5d3e de66 00be 60f6 06be b6ff 4dbe

fc_layers.6.bias f4 [32]
0.0063448213 -0.3389631 0.082822226 -0.0728676 0.26166475 -0.40383086 -0.09184369 -0.009567882
-0.20505887 -0.10563432 -0.005939594 -0.29501015 0.118849844 0.1481572 -0.027565446 0.09228618
0.30152166 -0.08820267 -0.094766594 0.18728279 0.5793571 -0.19985399 0.13032806 0.23619235
0.11795386 -0.33845118 -0.10017082 -0.058655422 -0.14985926 0.45351404 0.6181972 0.19443183
00000000: 38e8 cf3b 928c adbe b39e a93d 9c3b 95bd
00000010: ecf8 853e ebc2 cebe 8b18 bcbd 9bc2 1cbc
00000020: f4fa 51be ce56 d8bd eda0 c2bb 920b 97be
00000030: 8c67 f33d 85b6 173e eed0 e1bc 8900 bd3d
00000040: 0c61 9a3e 9aa3 b4bd fd14 c2bd 0fc7 3f3e
00000050: bf50 143f 86a6 4cbe b874 053e 68dc 713e
00000060: cb91 f13d 7949 adbe 5c26 cdbd ab40 70bd
00000070: b574 19be fe32 e83e 2c42 1e3f 2319 473e

fc_layers.8.weight f4 [4, 32]
-0.07078083 -0.11673935 -0.43895197 0.14335391 0.0325711 -0.076447755 -0.29718044 -0.05178425
-0.12719078 -0.30051664 0.18496408 -0.09344256 -0.24313626 -0.049021963 -0.07477117 -0.027320689
0.09074244 0.11382221 0.09105726 0.18588024 0.31648105 0.3019259 -0.027119152 0.099064164
0.09528528 -0.18127711 -0.018061768 0.14013532 0.03167197 0.11261194 0.2606558 -0.64753574
-0.7342024 -0.15812445 -0.22279854 -0.23150368 -0.77082604 -0.29558188 -0.043601137 0.016301524
0.021025967 0.049054913 0.18187273 0.021033421 0.03194831 0.14653578 -0.25339183 -0.31426683
0.20724261 0.030981645 0.089341 0.14343342 0.30911753 -0.05008749 0.15278949 0.17361091
-0.27080363 -0.25582698 -0.3293296 0.16862029 0.06563386 0.27471605 0.254782 -0.2575691
0.056466725 -0.057429876 -0.20361608 0.021763196 -0.0769449 0.26763055 -0.26366183 -0.37960142
-0.14854592 -0.03720949 -0.024614353 -0.025418133 -0.0145665165 -0.07914907 -0.35748017 0.04161122
-0.048369154 -0.0015323177 0.24445432 -0.020617206 0.264845 0.04298743 0.24880579 -0.32558477
0.17213114 -0.016417425 0.0505173 0.021856815 -0.18981862 0.22540551 0.43588158 -0.71609545
-0.2003145 0.045219034 -0.10027618 -0.08501874 -0.25507265 -0.21229884 -0.11960428 0.014759596
0.08975082 -0.015254514 0.31749335 0.14994602 0.13293552 -0.02074796 0.23996325 -0.14105187
0.115610175 0.11799057 0.22949989 0.095945485 0.18068895 0.06363399 -0.29253563 0.12812874
-0.02305757 -0.40694287 -0.06830823 0.12696218 0.14278668 0.16765371 -0.04749904 -0.09941227
00000000: 8af5 90bd 0a15 efbd 50be e0be 5ecb 123e
00000010: 4669 053d a490 9cbd 0928 98be b91b 54bd
00000020: 4d3e 02be 51dd 99be 3967 3d3e d05e bfbd
00000030: b6f8 78be 41cb 48bd a121 99bd a3cf dfbc
00000040: 2cd7 b93d 9e1b e93d 3b7c ba3d 6457 3e3e
00000050: ce09 a23e 0896 9a3e fc28 debc 27e2 ca3d
00000060: ee24 c33d b5a0 39be 46f6 93bc a27f 0f3e
00000070: 78ba 013d 17a1 e63d ad74 853e e7c4 25bf
00000080: b0f4 3bbf 60eb 21be 4d25 64be 4d0f 6dbe
00000090: db54 45bf 8256 97be 1b97 32bd c68a 853c
000000a0: a63e ac3c ceed 483d d83c 3a3e 484e ac3c
000000b0: 3bdc 023d 7a0d 163e 93bc 81be 95e7 a0be
000000c0: 6837 543e 38cd fd3c 6af8 b63d 36e0 123e
000000d0: a744 9e3e 8a28 4dbd d974 1c3e 0fc7 313e
000000e0: c6a6 8abe c1fb 82be e49d a8be ccaa 2c3e
000000f0: 0c6b 863d 95a7 8c3e c972 823e 19e0 83be
00000100: a749 673d 973b 6bbd bc80 50be bb48 b23c
00000110: 4a95 9dbd df06 893e affe 86be 1e5b c2be
00000120: 6c1c 18be fa68 18bd 0aa4 c9bc b039 d0bc
00000130: 66a8 6ebc e818 a2bd a407 b7be 8770 2a3d
00000140: bc1e 46bd 0dd8 c8ba 3c52 7a3e 6ae5 a8bc
00000150: c499 873e 9613 303d f2c6 7e3e 0cb3 a6be
00000160: 2543 303e d67d 86bc 3aeb 4e3d 100d b33c
00000170: d05f 42be b4d0 663e df2b df3e 0852 37bf
00000180: 3f1f 4dbe 9837 393d 995d cdbd 4e1e aebd
00000190: e298 82be de64 59be 17f3 f4bd 3cd2 713c
000001a0: 47cf b73d 12ee 79bc 7d8e a23e 738b 193e
000001b0: 4020 083e a0f7 a9bc edb8 753e e76f 10be
000001c0: 07c5 ec3d 0aa5 f13d 0502 6b3e 117f c43d
000001d0: 8606 393e 8a52 823d 3bc7 95be 2e34 033e
000001e0: 3be3 bcbc d15a d0be 2fe5 8bbd 6002 023e
000001f0: ac36 123e 6aad 2b3e 5a8e 42bd a998 cbbd

fc_layers.8.bias f4 [4]
0.23109564 0.27528298 0.23236221 0.4586965
00000000: 56a4 6c3e e4f1 8c3e 5cf0 6d3e 45da ea3e
