output/dqn/model/4x4/1500.pth (torch, 53468 bytes, 8 tensors)

fc_layers.0.weight f4 [128, 16]
00000000: 5634 0a3e 3f32 e73e 008c a53c e7de e53e
00000010: 034d e13e 8079 f0bd 47f6 e63e a609 f13e
00000020: bd7b 593e 8430 0a3f e7b8 e7be 80d7 e8be
00000030: 5136 103f 931e 193f b847 bf3d 5841 9a3e
00000040: b810 75be ef6a 7b3d 78b6 ed3d ea98 fbbe
00000050: a9d6 f43d 3657 f83e 20db c8be 2a5f 0bbf
00000060: 37bf 963e 402f 09be 4697 a7be 2096 1dbd
00000070: abe9 163f c399 133f f198 73bd 6e88 07be
00000080: 3de8 01be 52b1 e1be c43b ce3b ed3d 38bd
00000090: 8508 b7be 9ead ce3e 347f e33e fae5 28be
000000a0: 23ff 143d bdcc ee3e 6ce9 d03e c053 d1bd
000000b0: fed6 af3e 3132 12bf c490 fe3e 0081 a03d
000000c0: fd5a e4be 03d4 093e 099e 08bf 2077 dfbd
000000d0: 9273 5dbe 4a95 9f3e de88 0dbf d80b a2be
000000e0: 4ad2 d23e e270 bb3e 1fc0 393e 488e 983e
000000f0: 28bf 91be 5a8f 083f c297 bd3e 1850 e3bd
00000100: 861d fd3c 79a1 6f3e 3acb 7d3e 6183 07bf
00000110: 5c1d 1abf 969c f73e a43b e3be e062 6abe
00000120: afdd c33e c21b 17be 72b0 d63e bc67 3cbe
00000130: 5861 a6bd 47a9 9cbe 3e17 d03e a59d 053f
00000140: da83 dfbe a0a9 55be cc84 22be 9f04 893e
00000150: dc16 05bf 9a67 a53e 58a2 cf3d a0be 8fbc
00000160: df7a cb3e 720b 703e 4e68 6dbe b282 1fbe
00000170: 60b4 5a3d bd66 713e 9856 8b3d aca1 0bbf
00000180: c8fc fabd 2ae5 33be 596a 88be 88a2 0cbf
00000190: 1e08 56bd b0fd 7f3e 35cf 0fbf ae1d 14be
000001a0: 921a 59be 52e5 86be 05fa c43e 0a11 db3e
000001b0: 6820 abbd 8dfe 8abd cdd4 9d3e 9894 5d3e
000001c0: c0d2 abbc aad8 a4be 1f32 f8be 7286 f7be
000001d0: 004c 333b f07f 69be 7048 033f 70de 49bd
000001e0: 1e7a 4f3e 4cd9 dbbe 178c 233e 4440 be3e
000001f0: c422 6cbe d287 0b3f e01e cc3d f8cd 19bf
00000200: 7e1d 563e b840 073f 98d0 c2bd a85f ccbe
00000210: f6ae 0cbe 7b89 fbbe 128e 33be 7815 dcbe
00000220: 186e 07bf b6ab 063f ced2 4dbe 5cf2 683e
00000230: 38e5 f9be bfce b4be 4105 123f 2801 f6bd
00000240: 389f 423e cc88 16bf 8ed1 14bf 5f09 00bf
00000250: 7a6e 04be 664c da3e c8e2 ddbe 589d f5be
00000260: 247f 353c e10b 833e 1736 6a3e 982b 1cbe
00000270: 40d4 fcbd bf2f b43e 5105 9bbd dfd8 0abf
00000280: f6a0 c0bc 40fe a8bd da36 10bf 8616 27be
00000290: 6451 fcbe 76c7 963e 9f18 c03d 2ebd c83e
000002a0: 255e 0a3e efed eb3e 8682 c53e f074 903d
000002b0: a672 993e c592 06bf c71f c03e 4abb 863e
000002c0: 98e5 f93e 9d3a 2f3e 60e4 53be 9357 a3be
000002d0: 662a b33e 5a92 81be 77fe eb3e 98a9 203e
000002e0: 2370 103e 1b2d dd3e 388b fcbd 04cd 18be
000002f0: f618 f43e ee0c 923d 2a25 2fbe 4095 babc
00000300: 0889 10bf 4945 003f 57d1 4e3e 7ef9 0cbf
00000310: 3fa4 c03e 30f5 4d3d e862 22be 2db9 afbe
00000320: bcb0 1bbf 6503 8f3e f957 243f 1008 1cbe
00000330: a8a1 c6be 964e dabe dd1f c13e 609e edbc
00000340: 8789 033f 6550 0b3f d0a9 c7be b584 653e
00000350: caa7 c43e ca24 ce3e c89f ad3e e64a a83e
00000360: d9b2 923e d39a 363e 5a82 9dbe 20c5 13bd
00000370: df0a 103f 8691 9f3e 9467 13be 30a8 d4bd
00000380: 72b0 06bf a6a5 f33e fcf8 bcbe c0a8 3a3c
00000390: ed48 8abe 2e49 d73e 1684 a1be a138 0b3f
000003a0: 9346 ed3e 3449 613e d2a4 12bf 8213 9e3e
000003b0: e001 5bbe ae06 4abe 31d0 9bbe 92e3 cc3e
000003c0: 0c5c 5b3e 810d 473e 24be f13e 4cad bcbe
000003d0: ad5e be3d 6866 4d3e 9496 a13e 00dc 743e
000003e0: f6e0 16bf 2e4f 3a3e 241b 0d3e a22c bd3e
000003f0: 2c95 3b3e 6808 133f e5fb e7bd 3038 11bd
0.13496527 0.45155522 0.020208359 0.44896623 0.44004068 -0.11741924 0.4510977 0.47077674
0.21238609 0.5398028 -0.45258257 -0.45476913 0.5633288 0.5981228 0.09339851 0.30127978
-0.23932159 0.061381277 0.11607069 -0.49140102 0.11955006 0.48504037 -0.3922968 -0.54442084
0.2944276 -0.1339693 -0.327326 -0.03847325 0.589503 0.57656497 -0.05947203 -0.13235638
-0.12686248 -0.44080597 0.0062937457 -0.044980932 -0.35748687 0.40366834 0.44432986 -0.16493979
0.03637613 0.46640578 0.40803087 -0.10221052 0.34343714 -0.57107836 0.49719822 0.07837105
-0.4460067 0.13459782 -0.5336614 -0.10911393 -0.21626118 0.31168586 -0.5528697 -0.3164966
0.41176063 0.3660956 0.18139695 0.29796052 -0.28466153 0.5334374 0.37029845 -0.11099261
0.030897867 0.2340144 0.24784556 -0.52934843 -0.6020105 0.48361653 -0.4438144 -0.2288928
0.3825507 -0.14756683 0.41931492 -0.18398947 -0.081240356 -0.30597898 0.40642732 0.5219367
-0.43655282 -0.20865488 -0.1587097 0.26761338 -0.51988006 0.32305604 0.101383865 -0.017546952
0.3974218 0.23441866 -0.2318432 -0.155772 0.053394675 0.23574348 0.06803626 -0.54543567
-0.122552454 -0.17567888 -0.26643637 -0.54935503 -0.052253835 0.24999118 -0.5617555 -0.14464447
-0.21201542 -0.26346833 0.38472 0.42786437 -0.083557904 -0.06786833 0.30826417 0.21638715
-0.020974517 -0.32196552 -0.4847574 -0.4834476 0.0027358532 -0.2280271 0.51282406 -0.0492844
0.20261428 -0.42939222 0.15971409 0.37158406 -0.23060137 0.5450412 0.099668264 -0.6007991
0.20909688 0.5283313 -0.09512442 -0.3991673 -0.13738617 -0.49128327 -0.17534664 -0.4298513
-0.52902365 0.5260576 -0.20099947 0.22748703 -0.48807693 -0.35313985 0.57039267 -0.12011939
0.1900605 -0.58802485 -0.58132255 -0.500143 -0.12932768 0.42636412 -0.43337083 -0.47971606
0.011077676 0.25595 0.22872196 -0.15251005 -0.12345171 0.35192677 -0.075693734 -0.5423717
-0.023514252 -0.08251619 -0.56333697 -0.16317186 -0.49280846 0.29449052 0.09379696 0.39206833
0.13512476 0.46079966 0.38576144 0.07053554 0.29970282 -0.525677 0.37524244 0.26314765
0.4880798 0.17112203 -0.20692587 -0.3190275 0.34993285 -0.2530697 0.4609258 0.15689695
0.14105277 0.43198475 -0.12331241 -0.14921957 0.47675294 0.071313724 -0.1710402 -0.022776246
-0.56459093 0.5010572 0.20197044 -0.55068195 0.3762531 0.050282657 -0.15858042 -0.34320965
-0.6081655 0.27932277 0.64196736 -0.1523745 -0.3879521 -0.4263808 0.37719622 -0.029006183
0.51381725 0.5441955 -0.38996744 0.22413905 0.38409263 0.40262443 0.33910966 0.32869643
0.28652075 0.17832498 -0.30763513 -0.036076665 0.5626659 0.31165713 -0.1439498 -0.10383642
-0.52612984 0.47587317 -0.3690871 0.011392772 -0.27008763 0.4204802 -0.31546086 0.54383284
0.46342906 0.22000581 -0.57282746 0.30874258 -0.21387434 -0.1972911 -0.30432275 0.40017372
0.21421832 0.19438745 0.47215378 -0.36850965 0.09295402 0.20058596 0.31560194 0.23912048
-0.58937013 0.18194267 0.13779885 0.36948115 0.18318623 0.574347 -0.11327342 -0.035453975

fc_layers.0.bias f4 [128]
00000000: b24b 1abe f976 293d dd64 1e3e 51ad 493e
00000010: 8e9a b8bc 8dec 9abe 23aa 483e 08d3 60be
00000020: 756e bc3c 72bb 833d 5113 7f3c 0d4c 8e3c
00000030: e5fd 43be 1a00 02be 2b42 26be 07bf e83d
00000040: 104d 86bd 0e7a e9bd 50c0 093e 5028 0d3d
00000050: fbd2 12be 652f 3cbe 72e7 c73d 8d18 083d
00000060: da64 1fbe 2e87 1e3e ccb7 59be 4edd ec3d
00000070: cf35 073d 6ba2 063e f29d 52be 4e35 16bd
00000080: 607a 81be ecf1 f03d a600 b0bc 9db9 913c
00000090: c5c9 24be fb4c 003e 397d a03d 1812 2abe
000000a0: 2b2b 5f3d 88dd 33be 764c 6bbe c999 1bbe
000000b0: 71b7 c4bd e67a 83bd 1b0d c4bd c9e5 0cbe
000000c0: 11e0 003e 5dd8 583c c411 3abe d7a5 c2bd
000000d0: 6874 38be ccfe 25bb 3dd7 fc3d 53b6 b43d
000000e0: 5459 1bbe 0636 b6bd b6f4 1bbc 68d5 2bbe
000000f0: b04b c3b9 1e45 05be d860 b8bd 3f03 78be
00000100: 7d30 a23d 639e 19be 27f9 91bd b837 67be
00000110: 05b4 573e 0f4b 6a3c b80e 2d3c 62db 76be
00000120: c5f1 64bd d0ed 3fbc 718a e13d ae63 0b3e
00000130: 68f6 12be d9b4 afbc 7621 af3b aa28 2fbe
00000140: 3ac7 c0bd 957e 6bbe 2d5c 86be 61bc 13be
00000150: 2a37 f5bb dc04 a7bc 34cc c5bd 9c46 3bbc
00000160: d615 eebd caea 58be e17c d93d 70b4 56be
00000170: 9382 8dbc 0cfe fd3d 52e7 073b 73f6 3fbe
00000180: fc14 b6bd 76a2 0a3e b6b6 e5bd 295c ee3d
00000190: f248 1c3c 2bea c63d 5ce8 7bbd c3dc 4cbe
000001a0: 0e0b 33be 4987 65bd 69db fd3d 89ef 7c3d
000001b0: a467 233e 9b04 403e 32de 313e 20e7 3fbe
000001c0: 60e7 f6bd 504f 9dbd 8d81 bcbd 149d 4ebe
000001d0: c62d b2bc 8a6b d33d 43ed a7bd d177 3b3e
000001e0: 6d5f 5abe 93c9 87be 8515 68bd 59a1 f3bd
000001f0: 8cdf 32be 605a 46be b15d 8fbc 2a5d 79bd
-0.15067938 0.041373227 0.15468164 0.19695021 -0.022534635 -0.302586 0.19596152 -0.21955502
0.023001889 0.06432237 0.01556857 0.017370248 -0.19139822 -0.12695351 -0.16236179 0.113645606
-0.06557667 -0.11400233 0.13452268 0.034462273 -0.14338295 -0.18377455 0.097609416 0.03322654
-0.15565816 0.15481254 -0.21261519 0.11565648 0.0330103 0.13147895 -0.20568064 -0.03667193
-0.25288677 0.11764893 -0.021484684 0.017788703 -0.16092594 0.12529366 0.07836384 -0.16608465
0.054484528 -0.17564976 -0.22978386 -0.15195383 -0.09605301 -0.064199254 -0.09572812 -0.13759531
0.12585475 0.013235179 -0.1817084 -0.09504288 -0.18013155 -0.0025328873 0.12345741 0.08823838
-0.15170795 -0.08897023 -0.009518793 -0.16780627 -0.0003724969 -0.13014647 -0.090028465 -0.24219988
0.07919405 -0.15001826 -0.071276 -0.22579849 0.21064766 0.014300122 0.010562591 -0.24107125
-0.055894632 -0.011714414 0.11012734 0.13612244 -0.14351809 -0.02144854 0.005344565 -0.17105356
-0.094129995 -0.22997506 -0.262422 -0.1442733 -0.0074833827 -0.02038806 -0.09658089 -0.011430409
-0.116252586 -0.21183315 0.10619522 -0.20967269 -0.017274177 0.12401971 0.0020737243 -0.18746357
-0.08890721 0.13538536 -0.1121649 0.11638672 0.009538876 0.09712633 -0.061500892 -0.20006089
-0.17484686 -0.05603722 0.12395365 0.061751876 0.15957505 0.18751757 0.17369917 -0.18740511
-0.1205585 -0.07681143 -0.09204397 -0.20177108 -0.021750342 0.10323246 -0.08199551 0.18307425
-0.21325465 -0.26520976 -0.056661148 -0.11896009 -0.17468089 -0.19370413 -0.01750073 -0.060879864

fc_layers.3.weight f4 [64, 128]
00000000: 40c8 0a3e 6edc 32be a7fc ebbd abe6 44be
00000010: ad4e b2bd 270e 883d c53d 203d fe47 ee3b
00000020: 843b 823d 1f43 be3c 44b6 54bd 3dbc 96bd
00000030: da34 7ebe 46a9 933d 52c7 81bd 6301 0fbe
00000040: fc11 e73d 487e 3cbd 7aae b73d 1ff3 6e3d
00000050: 8a51 55be a261 113d bf43 9d3c 543d d6bd
00000060: 2bda 04bd 18de 06be 16ea cfbd af46 92bd
00000070: b707 0cbe 7bed 47bd 81c4 f53d 2b26 dcbc
00000080: 0eb8 e53d ffcc 01bd 3ccb cdbd e564 d63d
00000090: 1f3d d7bd 4e44 3abe 1b57 f33d 99f4 58be
000000a0: e4f0 6abd 1fff 4cbe 1b14 44be 19da 48bc
000000b0: 66cb 02be 255a 263d 5fb8 593d f291 8bbd
000000c0: 83e6 db3c cbae 20be 470b 103e 85b0 38bd
000000d0: 2cc4 cd3d 474c 4ebe 3ca3 45be 9ddc 183e
000000e0: f565 60be 3f89 20be a71e 31be c5f2 363e
000000f0: d957 ed3d c093 07be 21b5 f5bd febb b53d
00000100: 78f6 49be 82fd 3f3d 58d2 1bbd d9b2 94bd
00000110: 73fb 39be 3df0 e1bd a8b8 c23d 6f7b 5c3e
00000120: adab 72bd a191 0fbc 3e14 3ebe 1e9d 60be
00000130: 8d61 22bc f89a 2e3e 7fb0 75bd 07e3 f03d
00000140: d747 4ebe d8f9 9a3d 682e 2c3e 24ce 20be
00000150: 4f52 273e 4c8a 13be 995d 7dbd 11a9 e63d
00000160: 0212 5fbd 35c1 2cbe 74f6 de3d a7eb 41bd
00000170: b3f0 fabc a254 c6bd 4e74 073d 48f6 a6bd
00000180: 895e b73d ac70 07be 473a 59be 616f c63d
00000190: a223 2d3e bab3 b43d 0813 80bd 511d 363e
000001a0: 75c5 75be acf3 41be 4590 893c 8053 c53d
000001b0: 9eb6 9fbd 960f 5dbd e1b5 243d 1ddd e83d
000001c0: bd17 1fbe 135e 30bd 119a 11bb cb58 60be
000001d0: d66d 20be 12f3 debc 566e 01be fc99 66be
000001e0: 2616 393e 7776 033e 2ce3 96bd 46e5 b6bd
000001f0: a667 5cbe fe3a 48be 326f f5bd e924 22be
00000200: f6bc 3c3d 1713 f83d baea c23d c17c c9bb
00000210: f55e 263e ca47 65bd 4355 563d d563 f43d
00000220: 5979 69be d8a1 babc 7331 21be e45e 40be
00000230: a569 09bd 88a6 a73d 30e6 32bd 3e85 5a3d
00000240: 9a04 ed3d 0102 bcbc 2eb0 b9bd 7cdf b43c
00000250: 8125 70be 5e78 4fbd 0189 0abd ced0 f73d
00000260: 01ea 05be 07bf 723c 15e1 283e b4b0 1abe
00000270: e693 83bd 3e18 db3d 7090 12be 2526 0abe
00000280: f808 d03d 808e b83d 21a3 48be a989 b1bd
00000290: b2a6 4ebe 8d0d f1bd 3e37 5ebe c876 04be
000002a0: fe98 db3d 74c7 04be ab3a 46be 25dc 96bd
000002b0: 51f9 43be b4da 04be f539 3dbd 94ce 07be
000002c0: 102c 56bd 868f 07bd 25d0 da3d d424 37be
000002d0: 4997 60bd e785 fc3d 8683 57be fe13 073c
000002e0: 1138 e53d 83a8 17be dc9a 63be d02d 363d
000002f0: 3443 873d 0534 3dbe 1469 71bc 6d1f be3d
00000300: 701f 2dbe a9f7 cb3c 9b1b a1bc 1f51 afbd
00000310: a550 debc 7ccd 2cbe 3ccd bdbd 101d 583e
00000320: 17b7 9fbd 6a7d 6e3d 3562 fa3d 6476 31bd
00000330: bce3 7cbe d7d7 60be 2e88 b5bc ef83 2c3d
00000340: 82c9 533d 4777 9c3b eaa8 00be e0fc 54be
00000350: b8a0 69be 83f7 a3bd d60e 563d 3548 cebd
00000360: 455e 34bb ef50 183e 9049 a7bc a288 2abd
00000370: f628 f9bb 4cb6 f13d c67b b8bd 687c ed3d
00000380: 3d33 283d ba41 31be 2e16 c83d feb3 ab3c
00000390: 1c51 6e3d 57b0 42bc 204f 31bd 5616 91bc
000003a0: c60d 07be 013c 063d 0c17 a43d 332a 2dbd
000003b0: b2dd 4cbe a1fb 26be ad77 fe3d e56f 1cbe
000003c0: 3517 79be 9d51 003e 87e2 4bbd 7d1b e7bd
000003d0: f2b6 283e 25c6 3ebe b6d7 9a3d 33e4 2dbd
000003e0: df7e 4c3e c56d d33d d421 80be 2425 34be
000003f0: 7bb7 363e 46e2 8f3d af4c 3ebe 2c13 bbbd
0.13552952 -0.174669 -0.11522799 -0.19228618 -0.087064125 0.06643324 0.039121408 0.0072717657
0.06359008 0.023225365 -0.051931635 -0.07360122 -0.24824849 0.07210021 -0.063368455 -0.13965373
0.11282727 -0.04601887 0.08968826 0.058337327 -0.20831886 0.0354935 0.019197343 -0.10460916
-0.032434624 -0.1317066 -0.1015207 -0.07142388 -0.13674818 -0.048810463 0.12000371 -0.026873669
0.11216746 -0.03168964 -0.100485295 0.10468463 -0.10509705 -0.18190119 0.118818484 -0.21187057
-0.057358637 -0.20019196 -0.19148295 -0.01225903 -0.12772903 0.040613312 0.053154346 -0.06814946
0.026843315 -0.15691678 0.14066802 -0.045090217 0.100471824 -0.20146285 -0.1930055 0.14927907
-0.21913894 -0.15677355 -0.17296849 0.17866047 0.11589021 -0.13239956 -0.11997438 0.08873747
-0.19722927 0.046872623 -0.038042396 -0.07260675 -0.18162327 -0.1103215 0.09507877 0.21531461
-0.059245754 -0.008762748 -0.1856241 -0.21934935 -0.009910953 0.17051303 -0.059982773 0.11762052
-0.20144592 0.07567185 0.16814578 -0.15703636 0.16339992 -0.14408225 -0.06185684 0.112627156
-0.054460533 -0.16870578 0.10886851 -0.047343876 -0.030632352 -0.09684111 0.0330699 -0.08152443
0.08953578 -0.13226575 -0.21213637 0.096892126 0.16908124 0.088233426 -0.0625363 0.17784621
-0.24001105 -0.1894061 0.016792426 0.09635067 -0.07798503 -0.053969942 0.040212516 0.11370299
-0.15536399 -0.043058466 -0.0022217075 -0.21908872 -0.15666899 -0.027215514 -0.12639746 -0.22519678
0.18074855 0.1283816 -0.07367548 -0.08930449 -0.21523914 -0.19553754 -0.119840994 -0.15834393
0.046078645 0.12113016 0.09517427 -0.006148905 0.1624716 -0.055976667 0.052327406 0.11933104
-0.22800197 -0.022782251 -0.1574152 -0.18786198 -0.033548016 0.0818606 -0.043676555 0.053349726
0.11573143 -0.022950174 -0.09066807 0.022079222 -0.23451807 -0.0506519 -0.033822063 0.12100373
-0.13077547 0.014816052 0.16492112 -0.1510647 -0.06424694 0.10697983 -0.14312911 -0.13491113
0.10157961 0.09011555 -0.19593479 -0.08668835 -0.20180777 -0.11770163 -0.2170076 -0.12935936
0.1072254 -0.1296671 -0.19358318 -0.07366208 -0.19138075 -0.12974054 -0.04619785 -0.13262397
-0.052288115 -0.03309586 0.10684232 -0.17885143 -0.054831777 0.12330227 -0.21046266 0.008244513
0.111923344 -0.14810376 -0.22227043 0.044477284 0.06604615 -0.18476875 -0.014734525 0.09283338
-0.16906524 0.024898367 -0.019666484 -0.085603945 -0.027138064 -0.16875261 -0.09267661 0.21104836
-0.077985935 0.058225073 0.12225763 -0.043325797 -0.24696249 -0.21957336 -0.022159662 0.04211801
0.051705845 0.004774961 -0.12564436 -0.20799589 -0.22815216 -0.080061935 0.052260242 -0.10072366
-0.002752201 0.14874624 -0.02042082 -0.04163421 -0.00760376 0.118023485 -0.09007983 0.11595994
0.04106449 -0.17310229 0.097698554 0.02095985 0.05818282 -0.011882863 -0.04328835 -0.017710846
-0.13188848 0.032772068 0.08012208 -0.042276572 -0.20006445 -0.16306926 0.1242517 -0.1527706
-0.24325259 0.12531133 -0.04977658 -0.1128454 0.16476038 -0.18630274 0.07560675 -0.042453956
0.19970272 0.10323671 -0.2502581 -0.17592293 0.1784343 0.0702558 -0.1858394 -0.09134516

fc_layers.3.bias f4 [64]
00000000: 7386 2ebc 048c 16be 736c 6a3b 6915 ccbd
00000010: cd73 dabd 6438 f63b bbdb 893c 2186 1ebd
00000020: 552f aabd 1e2d cb3d 0b7b f4bd 2471 39bc
00000030: eee8 2abc 1961 a3bd e287 cbbd 4cb0 fb3c
00000040: a80a 863d 328f d3bd 456d 2d3c ffec a9bd
00000050: 384e afbd 7736 803c 7969 26bd 1e75 e9bd
00000060: 697c 22be 7231 eebd 6d2a 193c 9ced 9dbd
00000070: 844d a3bd ac56 d3bd ca56 91bd 93f2 09bd
00000080: 51bf 17bc b9cc 573d df7c 04bd 712b 1fbe
00000090: 359e f6ba 4c69 c73c ad18 fa3c e622 8ebc
000000a0: 298e 1fbe 7919 adbc dfb0 b03d 5a5f 14be
000000b0: 0249 e5bd cbbd 4fbd b2ff 05be 6f91 14bc
000000c0: 0e08 01bd da57 753c 530e 4dbd 389a 97bd
000000d0: 20ae c4bd 241b 42bd cc28 49bd 33af ed3c
000000e0: 2cf5 2cbb dd7d 6dbc 8961 af3c 5c23 fcbc
000000f0: 35b5 36be 30fb b3bd b625 bfbd 0aea e4bc
-0.010652172 -0.14701849 0.0035770207 -0.09965021 -0.106666185 0.0075140465 0.016828408 -0.038702134
-0.08309809 0.09920715 -0.11937531 -0.011318479 -0.010431511 -0.07977504 -0.09938027 0.030723713
0.06545001 -0.10330047 0.010585134 -0.082971565 -0.08559841 0.01565097 -0.04062793 -0.113992915
-0.15867771 -0.11630525 0.009348494 -0.07711336 -0.07973769 -0.10319266 -0.07096632 -0.033678602
-0.009261922 0.052685473 -0.03234565 -0.15543915 -0.001881546 0.024342202 0.030529344 -0.017350625
-0.15581574 -0.02113031 0.086274855 -0.14489499 -0.11195566 -0.05071811 -0.13085821 -0.009067877
-0.031501822 0.014974559 -0.05006249 -0.07402462 -0.09603524 -0.047389165 -0.049111173 0.029014206
-0.002639125 -0.01449534 0.021408813 -0.03077858 -0.17842562 -0.087881446 -0.09333365 -0.02794363

fc_layers.6.weight f4 [32, 64]
00000000: 14e1 5b3e 6b01 21bc cbc4 6dbe 7f9d 193e
00000010: 2e2f d3bc 6e40 13bd 8e35 893e 4607 853e
00000020: d86e 41bc 085c cdbd 758c 14bd 3295 693e
00000030: e3a6 b6bd ace4 2ebe 82e4 ac3d e853 20be
00000040: 3c48 9c3e 8632 b93c c593 22bd 7dda 813e
00000050: 67d8 843d d08c 2cbe 1f9a 07bd 7338 5c3d
00000060: 0103 78be f466 a5be bad7 d6bd 6eb6 02bd
00000070: 9a88 0fbd c7ad 5f3d 46a2 92be 8584 a93a
00000080: a6f6 e53c 73ee 62be dc9f 563e f096 60be
00000090: 7bb8 45be 8a91 a0bd 5a05 b6be 00df a0be
000000a0: 5985 68be f6db 953d fb35 35be 85fb 89be
000000b0: da9c 9a3d 16ad 00be b873 78bd c4c5 3c3e
000000c0: fa47 f93d 2409 89bd dc3f 48bd b6a2 2a3d
000000d0: 5608 06bd c472 7abe c730 093e 503b 37be
000000e0: ceee 3fbe 7724 3abd 14c1 9e3d fdaa 3abe
000000f0: feca 813d e47e 2e3e 6795 6a3d 6843 febc
00000100: 173d 3fbe 5486 953d 95a1 8ebe 755e 96be
00000110: 504a 14be 33ea 0a3d d4df 763e ef10 743e
00000120: fec0 c1bd de19 57be 3b88 453e 917e 283e
00000130: 8e2c 8bbe 68d4 78be 04c0 87be 815a 7dbe
00000140: 3d4b 07bd 475d 1cbe 24f8 5d3c 84e3 5f3e
00000150: 4e48 ec3d 0e11 82be 862f 7abe 9234 75be
00000160: a4ff cd3d 114a 47be a7a1 97bc 71d0 68be
00000170: 98c3 94be 6b94 8e3d d0a8 d7bd 4e92 9ebe
00000180: 0d2f 3fbe 83d1 2b3d 6f7f 5ebd 29be 86bb
00000190: 80a5 383e d191 88bc 686f abbe 80a5 db3d
000001a0: a5f2 dfbd d0c9 f73d 3c25 04be b13c 283e
000001b0: b221 783e 8dfc cc3d 4263 34be 36f1 87bc
000001c0: 8b83 423e c5f5 67bd 4c86 39be a1cd a1be
000001d0: 7ecc 74bd c01e 543e dbeb 81bd 67f2 0abd
000001e0: 3c07 0ebe 5e96 6cbb 0de9 c03c 1b59 45bd
000001f0: f629 6b3e 13c1 e23d 86be ef3d a9a5 d23c
00000200: 5bd6 7ebe faef 9fbe 2fcd 4b3d 6d06 303d
00000210: 4212 28be 565b 373d ab93 94be c295 873e
00000220: f73b 8d3e b88a a43d f1d1 443d c499 c43d
00000230: 13f0 34be b2d8 4d3d 359f a33c 1682 e33d
00000240: 8b26 84be 5634 253e a402 de3d a547 d23d
00000250: e829 6bbe 3346 58bd c003 b5bd 887d 8c3d
00000260: ded9 99be 094a 89be 3595 7e3d 8d28 1e3e
00000270: 812c 33be d3be 38be fa22 fe3d 2887 803e
00000280: 8241 1dbe effe a1be 7081 2cbe 3e5f 8dbe
00000290: e0b8 2ebe 9779 ddbd 4cdd 103d fb18 073e
000002a0: 9ff5 023e fc0f 52be bfb1 a7be ea85 7ebd
000002b0: 3900 893e 539e 763d 66af 173e 0c6b 98be
000002c0: d441 46be a6ed ae3d 8b01 9bbd 818e fbbd
000002d0: 9422 dc3d efaa 7ebc ac97 67be e248 80be
000002e0: 7894 1c3e 2354 473e 39e5 e4bd 5431 aebe
000002f0: 9dd6 03be 6249 393d a471 33be 7f9c 17be
00000300: 9943 693d ee9e 97be af38 41be 60c1 7ebd
00000310: 562a 613e 7d11 42be 3a96 7d3e de7b 95bc
00000320: c51d 43bd 3157 dbbd 2991 393e 1ffd cbbd
00000330: dc7d cfbd c284 183e d2fb 78be 7e6c 5ebe
00000340: 67b9 debd 12cc d23d 4cc8 81be 98e8 0c3e
00000350: f7d0 6fbd 8d18 c73d e553 d53d 3d9a dabd
00000360: 1025 7ebe d17f 6cbb 5003 043e 3452 3d3e
00000370: 9f42 2ebe af20 a9bd f821 1dbd 3e0e f53c
00000380: 3f76 dc3c d649 07be f4a8 df3b cae8 b5bd
00000390: d623 a1bb e009 d1bd 904b c2bd e7c1 67bd
000003a0: 2a1b 6bbe f980 c13d acd1 29be c162 813d
000003b0: 97b3 493d 3e07 593e ee25 883e baff 32be
000003c0: 2a3a 0bbe f207 51be 6669 8dbe 90f2 86be
000003d0: f441 b53b 14db 4b3b 75fd 41be afa6 393d
000003e0: 3951 873e 2300 923e f91e 1a3e a62e 6bbe
000003f0: aebf 693e d4bc fabd 709e 1cbd d9aa 85bc
0.21472579 -0.009826998 -0.23219602 0.15001486 -0.025779333 -0.035950117 0.2679867 0.25982112
-0.011806212 -0.10027319 -0.036266763 0.2281082 -0.0891855 -0.17079419 0.08442022 -0.15657008
0.3052386 0.0226071 -0.039691705 0.25362006 0.06486588 -0.1685059 -0.033105966 0.05376477
-0.24219896 -0.3230511 -0.10490365 -0.03191226 -0.035042383 0.054609086 -0.2863943 0.0012933171
0.028071713 -0.22161274 0.20959419 -0.21932578 -0.19308655 -0.078402594 -0.35550958 -0.31420135
-0.22707118 0.07317345 -0.17696373 -0.26949707 0.07549448 -0.12566027 -0.060657233 0.18434817
0.121719316 -0.066911966 -0.048889026 0.04165908 -0.032722794 -0.24457842 0.13397513 -0.1789372
-0.1874344 -0.04544493 0.077516705 -0.1822929 0.06337546 0.17040592 0.057271387 -0.031038001
-0.18675648 0.07301012 -0.27857652 -0.2936894 -0.14481473 0.033914756 0.24108821 0.23834585
-0.094606385 -0.21005961 0.19290249 0.16454531 -0.2718243 -0.24299777 -0.26513684 -0.24741556
-0.033030737 -0.15269957 0.013547931 0.21864134 0.115372285 -0.25403637 -0.24432191 -0.23945835
0.10058525 -0.19461848 -0.018509699 -0.22735764 -0.29055476 0.06961902 -0.10530245 -0.30970997
-0.18670292 0.041947853 -0.05432075 -0.0041120243 0.18031883 -0.016671093 -0.33483434 0.10724926
-0.10934953 0.120990396 -0.12904829 0.16429402 0.24231604 0.10009108 -0.17615989 -0.01659451
0.18995492 -0.05663087 -0.18117636 -0.31602195 -0.05976533 0.20714855 -0.06343814 -0.03392258
-0.13869947 -0.0036100368 0.023548627 -0.04818068 0.22965226 0.11071982 0.11706261 0.025713759
-0.24886458 -0.31237775 0.049756225 0.042974878 -0.16413215 0.04476484 -0.29018912 0.26481444
0.27584812 0.08034271 0.04805178 0.09599641 -0.17669706 0.050255485 0.019973377 0.11108796
-0.25810656 0.16133246 0.108403474 0.10267571 -0.22965205 -0.052801322 -0.08838606 0.06859881
-0.30049032 -0.26814297 0.062154014 0.15445156 -0.17497446 -0.18041544 0.12409015 0.25103116
-0.1535702 -0.3163981 -0.16846251 -0.27611727 -0.17062712 -0.10814207 0.035367295 0.13193123
0.1278901 -0.2051391 -0.32752797 -0.06213943 0.26757982 0.060209583 0.14813003 -0.2976917
-0.19361049 0.085414216 -0.07568654 -0.1228304 0.10748783 -0.015543683 -0.22616452 -0.25055605
0.15291011 0.1946569 -0.11176533 -0.3402201 -0.12874837 0.045236 -0.17523819 -0.14805792
0.05694923 -0.2961344 -0.1886928 -0.062196136 0.21988806 -0.18951984 0.24764338 -0.018247541
-0.047635812 -0.1070999 0.1812178 -0.099603884 -0.10131428 0.14894393 -0.24314812 -0.21721074
-0.108752064 0.102928296 -0.25348127 0.13760602 -0.058548894 0.097214796 0.10416392 -0.1067395
-0.24818826 -0.0036086927 0.12891889 0.18488389 -0.17017601 -0.08258187 -0.038362473 0.029914018
0.026911853 -0.1321176 0.0068255607 -0.088822916 -0.004917602 -0.10206962 -0.09487069 -0.056581404
-0.22959581 0.09448428 -0.1658389 0.06317664 0.049243536 0.21194169 0.26591438 -0.17480364
-0.13596407 -0.20413187 -0.27619475 -0.26356936 0.005531544 0.0031105923 -0.18944342 0.045324977
0.26429155 0.2851573 0.15050878 -0.22967014 0.22827026 -0.12243047 -0.038237035 -0.016316818

fc_layers.6.bias f4 [32]
00000000: 48f8 34be de1e 41be aa39 23be 8460 abbd
00000010: 1bf4 4a3e 0347 71be a85e 3bbe e3a1 edbd
00000020: 959e 45be 84e4 92bc efd1 86b9 ded2 febd
00000030: 8a41 d9bd 1be7 043c c821 2abe 2c67 a9bb
00000040: 9a9d 8e3d 4e04 c6bb af59 5dbe 7b13 6fbb
00000050: c854 163e c073 3fbe 4104 71bd 28c2 6bbd
00000060: a251 81bd 176b 37be 3e78 cfbd 0e6f 98bb
00000070: b810 50be 6af3 dc3c 277d 593e a9d5 a63d
-0.17672837 -0.18859431 -0.15939966 -0.08368018 0.19819681 -0.23562245 -0.18297827 -0.11603143
-0.19298775 -0.01793123 -0.00025714884 -0.124425635 -0.10608204 0.00811174 -0.16614449 -0.0051697697
0.06963654 -0.0060429936 -0.21616243 -0.0036480117 0.14680779 -0.18696499 -0.058841947 -0.05755821
-0.06314398 -0.17911945 -0.10130356 -0.0046519106 -0.20318878 0.026971538 0.21239148 0.08146221

fc_layers.8.weight f4 [4, 32]
00000000: 245f 26be 4aad 52be 7c3b 60be 54ae 853e
00000010: a666 96bc e2b9 b2bd fa7d 8dbe dc34 d5bd
00000020: f941 91be fa44 293b 1383 463e 1a4a 8abe
00000030: 1cab 24be 0d7a 25be 514d 3fbe d0fa ce3d
00000040: 110a 47bd 4ceb 0cbe 3a0a 683e 3f00 483e
00000050: 6ab5 163e 90e6 fc3d de07 50be f6fb 9cbd
00000060: 1821 2cbe 5241 25bd 6b7c 63be b424 a33e
00000070: 8cbe fbbc dcfa 0ebe 442f a23e c84e 58be
00000080: 9b6a 87be face 81be 23ee 7bbe e0a8 40be
00000090: 8bb9 ccbd 6e9c a0be 4cb3 57be ab15 7e3d
000000a0: 6731 1ebe 4653 943e 56ef a53e 633b a83d
000000b0: 50bc 31bd f0e5 9a3e f7ef a0be e12d 1bbd
000000c0: d4b5 2c3e f7de 9e3e 9ccb 3ebe 719c 76bd
000000d0: 943c 2d3e e1e6 77be 3210 9d3e 16d2 c43d
000000e0: 76a6 313e 9e84 2bbe dc7e 13be cee9 4c3e
000000f0: 4eb7 abbd e65e 393d f624 133e 0574 1bbe
00000100: 60bd 923d c218 91bd a16a 79bd e892 60bb
00000110: 9626 99be e3f9 9c3e fdb1 95be 92c3 4bbe
00000120: 8db5 ee3d a842 3e3c 9e27 d4bd 8bd4 55be
00000130: 686e 683e e968 15bd 279f 6dbe f0be 0fbd
00000140: 77fd 95bd 77d5 093e 0d23 3d3d 781e 003e
00000150: 4903 633e 59a7 ab3e 0b98 1a3e 5a06 48be
00000160: 3033 9e3e e0a3 62bd 0b05 8d3e 4f56 a63e
00000170: 31a3 84be 3f9f 163e 0906 a33e bb86 78be
00000180: 164b 44bd 416e 5abd aeb2 61be ccdf a8bd
00000190: 0791 90be a89b 9bbe 8051 adbd 6158 a93d
000001a0: 4cf1 a03e 6498 51be 6166 853d 37d9 c63e
000001b0: 53cc d73d a8dc 6b3d 73d5 ac3e 4485 46be
000001c0: e055 0a3e 1f2f 153e 1ac4 4b3e 3005 cdbc
000001d0: c340 fd3d 72f2 0fbe 4600 48be edd3 8a3e
000001e0: 1917 2fbe cfee a7bd 84da 23be 7ec4 d43c
000001f0: f02f fb3d 19dd b23e 6947 143d 01ed 62be
-0.16247231 -0.20573917 -0.21897691 0.26109564 -0.018359493 -0.087268606 -0.27635175 -0.10410473
-0.28370646 0.0025828467 0.19385938 -0.2700966 -0.16080898 -0.1615984 -0.18681838 0.101064324
-0.048593584 -0.13761634 0.22660151 0.19531344 0.14717641 0.12348664 -0.20315501 -0.07665245
-0.168095 -0.040345497 -0.2221543 0.3186394 -0.030730508 -0.13962883 0.31676686 -0.21123803
-0.2644852 -0.25353223 -0.2460256 -0.1881442 -0.09996327 -0.31369346 -0.2106449 0.062032383
-0.15448533 0.28969783 0.3240916 0.08214452 -0.04339248 0.30253553 -0.3143308 -0.03788555
0.16866237 0.31029484 -0.18632358 -0.060207788 0.1691764 -0.24209167 0.3067642 0.09610383
0.17348656 -0.16749808 -0.14403862 0.20011064 -0.08384572 0.045256518 0.14369568 -0.15180977
0.07165027 -0.070848 -0.060892705 -0.003426725 -0.2991225 0.30659398 -0.29237357 -0.19898823
0.11655722 0.011612572 -0.10359119 -0.2088186 0.22698367 -0.036477003 -0.23205243 -0.0350942
-0.07323735 0.13460337 0.046176005 0.12511623 0.22169222 0.33526114 0.15097062 -0.19533673
0.30898428 -0.055332065 0.2754291 0.32487723 -0.25905755 0.14709185 0.31840542 -0.24270146
-0.04792317 -0.053327803 -0.22040817 -0.08245811 -0.28235647 -0.30392194 -0.084628105 0.0826881
0.31434095 -0.20468289 0.06513668 0.38837597 0.105370186 0.05758348 0.337566 -0.19386774
0.13509321 0.14568757 0.19899026 -0.025026888 0.12365868 -0.1405733 -0.19531354 0.27114812
-0.17098655 -0.08199846 -0.16001326 0.025972601 0.12265003 0.3493431 0.036200915 -0.22160722

fc_layers.8.bias f4 [4]
00000000: a5e3 b53c 045e 253d f53c 693d 7d70 d43d
0.022203276 0.040372863 0.0569429 0.10373018
