output/dqn/model/4x4/15000.pth (torch, 53480 bytes, 8 tensors)

fc_layers.0.weight f4 [128, 16]
0	0x3e0a3456	0.13496527
1	0x3e5652cd	0.20930023
2	0x3ca58c00	0.020208359
3	0x3e55219e	0.20813605
4	0x3f0e5ae2	0.55607426
5	0xbdf07980	-0.11741924
6	0x3ee536a0	0.44768238
7	0x3ef109a6	0.47077674
8	0x3e41510e	0.18878576
9	0x3f00b7dd	0.50280553
10	0xbee7b8e7	-0.45258257
11	0xbee8d780	-0.45476913
12	0x3f103651	0.5633288
13	0x3f10fcb3	0.5663559
14	0x3dbf47b8	0.09339851
15	0x3e9a4158	0.30127978
16	0xbe7510b8	-0.23932159
17	0xbce36f37	-0.027762992
18	0x3dacad38	0.08431476
19	0xbefb98ea	-0.49140102
20	0x3e6843e4	0.22682148
21	0x3ef85736	0.48504037
22	0xbec8db20	-0.3922968
23	0xbf0b5f2a	-0.54442084
24	0x3f019411	0.50616556
25	0xbe092f40	-0.1339693
26	0xbea79746	-0.327326
27	0xbd1d9620	-0.03847325
28	0x3f16e9ab	0.589503
29	0x3e98ffa9	0.29882553
30	0xbd7398f1	-0.05947203
31	0xbe07886e	-0.13235638
32	0xbe07e1db	-0.13269751
33	0xbee1b152	-0.44080597
34	0xbda5b04c	-0.080902666
35	0x3e0215c2	0.12703612
36	0xbeb70885	-0.35748687
37	0x3ecead9e	0.40366834
38	0x3ea401ed	0.3203272
39	0xbe28e5fa	-0.16493979
40	0xbd5cab23	-0.053874146
41	0x3e49d31e	0.19709441
42	0x3e5fe0ee	0.21863148
43	0xbdd153c0	-0.10221052
44	0x3eafd6fe	0.34343714
45	0xbf123231	-0.57107836
46	0x3ea43638	0.32072616
47	0x3da08100	0.07837105
48	0xbee45afd	-0.4460067
49	0x3e5eb750	0.21749616
50	0xbf089e09	-0.5336614
51	0xbe144514	-0.14479476
52	0xbe5d7392	-0.21626118
53	0x3e9f954a	0.31168586
54	0xbf0d88de	-0.5528697
55	0xbea20bd8	-0.3164966
56	0x3f142242	0.57864773
57	0x3e055c3f	0.1302347
58	0x3e38cb35	0.18046267
59	0x3e988e48	0.29796052
60	0xbe91bf28	-0.28466153
61	0x3e758f0c	0.2398035
62	0x3e26d2ad	0.16291304
63	0xbde35018	-0.11099261
64	0x3c9c0107	0.019043459
65	0x3eaf961e	0.34294218
66	0x3e0d07c9	0.13772501
67	0xbf078361	-0.52934843
68	0xbf1a1d5c	-0.6020105
69	0x3ef79c96	0.48361653
70	0xbee33ba4	-0.4438144
71	0xbe6a62e0	-0.2288928
72	0x3ed36e10	0.4129491
73	0xbe171bc2	-0.14756683
74	0x3eb96c36	0.3621537
75	0xbe3c67bc	-0.18398947
76	0xbda66158	-0.081240356
77	0xbe9ca947	-0.30597898
78	0x3e371ef9	0.17882909
79	0x3f059da5	0.5219367
80	0xbedf83da	-0.43655282
81	0xbe55a9a0	-0.20865488
82	0xbe2284cc	-0.1587097
83	0x3e89049f	0.26761338
84	0xbf0516dc	-0.51988006
85	0x3ea5679a	0.32305604
86	0x3dcfa258	0.101383865
87	0xbc8fbea0	-0.017546952
88	0x3eb2882e	0.34869522
89	0x3e700b72	0.23441866
90	0xbe6d684e	-0.2318432
91	0xbe1f82b2	-0.155772
92	0x3d5ab460	0.053394675
93	0x3e7166bd	0.23574348
94	0x3d8b5698	0.06803626
95	0xbf0ba1ac	-0.54543567
96	0xbe3b025f	-0.18262623
97	0xbe52ce63	-0.20586543
98	0xbe886a59	-0.26643637
99	0xbf0ca288	-0.54935503
100	0x3c68ebb1	0.014216349
101	0x3e7ffdb0	0.24999118
102	0xbf0fcf35	-0.5617555
103	0xbe141dae	-0.14464447
104	0xbe591a92	-0.21201542
105	0xbe86e552	-0.26346833
106	0x3e8b0d14	0.27158415
107	0x3edb110a	0.42786437
108	0xbdab2068	-0.083557904
109	0xbd95c9ce	-0.07313882
110	0x3e053b68	0.13010943
111	0x3e5d9498	0.21638715
112	0xbcabd2c0	-0.020974517
113	0xbea4d8aa	-0.32196552
114	0xbef8321f	-0.4847574
115	0xbef78672	-0.4834476
116	0x3b334c00	0.0027358532
117	0xbe697ff0	-0.2280271
118	0x3ede8a02	0.43464667
119	0xbd49de70	-0.0492844
120	0x3e4f7a1e	0.20261428
121	0xbedbd94c	-0.42939222
122	0x3e238c17	0.15971409
123	0x3ebe4044	0.37158406
124	0xbe6c22c4	-0.23060137
125	0x3ef226c7	0.4729521
126	0x3dcc1ee0	0.099668264
127	0xbf19cdf8	-0.6007991
128	0x3d9040d0	0.07043612
129	0x3eb4cf24	0.35314286
130	0xbdc2d098	-0.09512442
131	0xbecc5fa8	-0.3991673
132	0xbe0caef6	-0.13738617
133	0xbefb897b	-0.49128327
134	0xbe338e12	-0.17534664
135	0xbedc1578	-0.4298513
136	0xbf076e18	-0.52902365
137	0x3eee7323	0.46572217
138	0xbe4dd2ce	-0.20099947
139	0x3e68f25c	0.22748703
140	0xbef9e538	-0.48807693
141	0xbeb4cebf	-0.35313985
142	0x3e3d8d60	0.18510962
143	0xbdf60128	-0.12011939
144	0x3e295b87	0.16538821
145	0xbf1688cc	-0.58802485
146	0xbf14d18e	-0.58132255
147	0xbf00095f	-0.500143
148	0xbe046e7a	-0.12932768
149	0x3eda4c66	0.42636412
150	0xbedde2c8	-0.43337083
151	0xbef59d58	-0.47971606
152	0xbd33a26c	-0.04385607
153	0x3d9d212a	0.07672341
154	0x3ea0d317	0.3141105
155	0xbe1c2b98	-0.15251005
156	0xbdfcd440	-0.12345171
157	0x3e5309d5	0.2060922
158	0xbd9dba64	-0.07701567
159	0xbf0ad8df	-0.5423717
160	0xbcc1399c	-0.02358704
161	0xbda8fe40	-0.08251619
162	0xbf1036da	-0.56333697
163	0xbe271686	-0.16317186
164	0xbefc5164	-0.49280846
165	0x3e96c776	0.29449052
166	0x3d0ee972	0.0348906
167	0x3ec8bd2e	0.39206833
168	0x3d2301a7	0.039796498
169	0x3e661866	0.22470245
170	0x3ee13c77	0.43991444
171	0x3d9074f0	0.07053554
172	0x3e9972a6	0.29970282
173	0xbf0692c5	-0.525677
174	0x3e5fd578	0.21858776
175	0x3e86bb4a	0.26314765
176	0x3dd03e5f	0.10168146
177	0x3d2f7bf7	0.04284283
178	0xbe53e460	-0.20692587
179	0xbea35793	-0.3190275
180	0x3ea5b2ff	0.32363126
181	0xbe81925a	-0.2530697
182	0x3ebf8712	0.37407738
183	0x3e20a998	0.15689695
184	0x3e434960	0.19070959
185	0x3ea0ba3b	0.31392083
186	0xbdfc8b38	-0.12331241
187	0xbe18cd04	-0.14921957
188	0x3ef418f6	0.47675294
189	0xbae3d770	-0.0017382931
190	0xbe2f252a	-0.1710402
191	0xbcba9540	-0.022776246
192	0xbf108908	-0.56459093
193	0x3e5f1c2f	0.21788095
194	0x3e526b13	0.20548658
195	0xbf0cf97e	-0.55068195
196	0x3eda8ee2	0.42687136
197	0x3d4df530	0.050282657
198	0xbe2262e8	-0.15858042
199	0xbeafb92d	-0.34320965
200	0xbf1bb0bc	-0.6081655
201	0x3e68ca4c	0.2273342
202	0x3ee229ea	0.44172603
203	0xbe1c0810	-0.1523745
204	0xbec6a1a8	-0.3879521
205	0xbeda4e96	-0.4263808
206	0x3ec6e8b7	0.38849422
207	0xbced9e60	-0.029006183
208	0x3e848e5d	0.25889865
209	0x3eb26cef	0.34848735
210	0xbec7a9d0	-0.38996744
211	0x3e15c0c4	0.14624316
212	0x3ec65cd0	0.38742685
213	0x3ece24ca	0.40262443
214	0x3e944f98	0.28966975
215	0x3ea84ae6	0.32869643
216	0x3f143253	0.5788929
217	0x3e241c24	0.1602636
218	0xbe9d825a	-0.30763513
219	0xbd13c520	-0.036076665
220	0x3f100adf	0.5626659
221	0x3e1ee1e9	0.15515865
222	0xbe136794	-0.1439498
223	0xbdd4a830	-0.10383642
224	0xbf06b072	-0.52612984
225	0x3e2fc000	0.17163086
226	0xbebcf8fc	-0.3690871
227	0x3d1db124	0.038499013
228	0xbe8a48ed	-0.27008763
229	0x3ed7492e	0.4204802
230	0xbea18416	-0.31546086
231	0x3f0b38a1	0.54383284
232	0x3f0a7cce	0.54096687
233	0x3eb69d57	0.35666916
234	0xbf12a4d2	-0.57282746
235	0x3e9e1382	0.30874258
236	0xbe5b01e0	-0.21387434
237	0xbe4a06ae	-0.1972911
238	0xbe9bd031	-0.30432275
239	0x3ecce392	0.40017372
240	0xbc8093fe	-0.015695568
241	0x3d9af952	0.07567085
242	0x3dac8e3f	0.08425569
243	0xbebcad4c	-0.36850965
244	0x3d873f08	0.06603819
245	0x3e4d6668	0.20058596
246	0x3e92166d	0.28532735
247	0x3e74dc00	0.23912048
248	0xbf16e0f6	-0.58937013
249	0x3d9510d9	0.07278604
250	0x3d9fd7c1	0.07804824
251	0x3ebd2ca2	0.36948115
252	0x3e3b952c	0.18318623
253	0x3ed017cc	0.40643156
254	0xbde4e57d	-0.11176584
255	0xbd113830	-0.035453975

fc_layers.0.bias f4 [128]
0	0xbe5d6b1f	-0.21622895
1	0xbe20cb17	-0.15702473
2	0xbe8a0153	-0.26954135
3	0xbdf0ccb0	-0.11757791
4	0xbe129954	-0.14316303
5	0xbeb3dee5	-0.35130993
6	0xbc76bd1f	-0.015059738
7	0xbe87db4e	-0.26534504
8	0xbe52f71b	-0.20602076
9	0xbe138483	-0.14406018
10	0xbe6e8909	-0.23294462
11	0xbe412674	-0.18862325
12	0xbe8c91ae	-0.27454895
13	0xbe026d57	-0.12737022
14	0x3d0c2d2b	0.034222763
15	0xbe233921	-0.15939762
16	0x3c5574b7	0.013028315
17	0xbe410318	-0.18848836
18	0xbe62f9e1	-0.22165634
19	0xbe9974c7	-0.29971907
20	0xbe9c741c	-0.30557334
21	0xbe3d5d5f	-0.1849265
22	0xbe757714	-0.23971206
23	0xbdb859f4	-0.09001532
24	0xbe42f851	-0.19040038
25	0x3b545dbd	0.0032404505
26	0xbecc7906	-0.39936084
27	0xbd9b1568	-0.07572442
28	0xbe0e96b2	-0.13924673
29	0x3e1e416d	0.15454645
30	0xbe7a8d6c	-0.2446801
31	0xbde8969e	-0.11356853
32	0xbeec4821	-0.4614878
33	0xbd4ef7d9	-0.050529335
34	0xbe5e5a75	-0.21714194
35	0xbdb5b0da	-0.088716224
36	0xbeb5ffc0	-0.35546684
37	0xbe06c0d5	-0.13159497
38	0xbdc89bbd	-0.0979533
39	0xbea5bb85	-0.3236963
40	0xbd79f397	-0.06102332
41	0xbe7d4b41	-0.24735738
42	0xbe790e7d	-0.24321933
43	0xbe50c6df	-0.20388363
44	0xbe0605f4	-0.13088208
45	0xbd69833e	-0.057009928
46	0xbe62a8a0	-0.22134638
47	0xbec6b71b	-0.38811573
48	0xbc297eac	-0.010345142
49	0xbe2ee648	-0.17080033
50	0xbe2d1890	-0.16903901
51	0xbe554146	-0.20825681
52	0xbe922f80	-0.28551865
53	0xbe8cb938	-0.2748506
54	0x3d09fbe7	0.0336875
55	0xbe3754bb	-0.17903416
56	0xbe2cbcff	-0.16868971
57	0xbe9da817	-0.30792305
58	0xbe057ec6	-0.13036641
59	0xbe1ad52e	-0.15120384
60	0xbcee3ae8	-0.029080823
61	0xbe162056	-0.14660773
62	0xbeb92dfc	-0.36167896
63	0xbe5335bb	-0.20625965
64	0xbda12161	-0.07867695
65	0xbedfd056	-0.43713635
66	0xbd6ac58a	-0.057317294
67	0xbe7fd7a0	-0.24984598
68	0x3e4095ac	0.18807095
69	0xbdf7ed88	-0.12105852
70	0xbdd12482	-0.102120414
71	0xbeaca368	-0.3371842
72	0xbe58efe2	-0.21185258
73	0xbdc90d08	-0.09816939
74	0xbdccb08b	-0.099946104
75	0xbd8b67f2	-0.06806935
76	0xbe49328b	-0.19648187
77	0xbe274e7d	-0.16338535
78	0xbe2e1898	-0.1700157
79	0xbe9c0e5d	-0.30479708
80	0xbe19ed13	-0.15031843
81	0xbe9620c9	-0.29321888
82	0xbe82217e	-0.25416178
83	0xbe99343d	-0.29922667
84	0xbe4b0518	-0.19826162
85	0xbe063dd1	-0.13109519
86	0xbe6547bd	-0.22390647
87	0xbddfbc7b	-0.10924622
88	0xbe9f5020	-0.31115818
89	0xbe37c835	-0.17947467
90	0xbd8e264b	-0.069408976
91	0xbef12a28	-0.47102475
92	0xbe4d0b4f	-0.20023845
93	0xbd98b82e	-0.074570045
94	0xbdf7a2a3	-0.12091567
95	0xbec9830e	-0.393578
96	0xbe022a0f	-0.12711357
97	0xbe07e27d	-0.13269992
98	0xbe6998fe	-0.22812268
99	0xbd3c9582	-0.04604102
100	0xbe4c550b	-0.19954316
101	0xbdfb5388	-0.12271792
102	0xbe021d68	-0.1270653
103	0xbece64d0	-0.4031129
104	0xbe8f22b5	-0.27956167
105	0xbe2eddc0	-0.17076778
106	0xbd3ddba8	-0.04635206
107	0xbd32a601	-0.043615345
108	0xbe25ea8f	-0.16202758
109	0x3cbd0f81	0.023078682
110	0xbcef5b00	-0.029218197
111	0xbea2c49f	-0.31790635
112	0xbe9d2d2c	-0.30698526
113	0xbe5af32b	-0.21381824
114	0xbeaf2ac8	-0.34212327
115	0xbea8991d	-0.32929316
116	0xbe16d31c	-0.1472897
117	0xbe31a3b8	-0.1734761
118	0xbe426838	-0.18985069
119	0xbddf9db3	-0.109187506
120	0xbeabdced	-0.3356699
121	0xbeda76e6	-0.42668837
122	0xbe995d53	-0.29954013
123	0xbe501c39	-0.20323266
124	0xbe8eaa92	-0.2786451
125	0xbdb2c571	-0.08729065
126	0xbe30ee05	-0.17278297
127	0xbe8505d2	-0.25981003

fc_layers.3.weight f4 [64, 128]
0	0x3dcdfe1e	0.10058235
1	0xbe3354e7	-0.17512856
2	0xbe0fe1d4	-0.1405099
3	0xbe44e6ab	-0.19228618
4	0xbdd59f92	-0.10430826
5	0x3d880e27	0.06643324
6	0x3c75ab09	0.014994391
7	0xbcb9bcb9	-0.022672998
8	0x3d3aa2c4	0.04556538
9	0xbac35898	-0.0014903722
10	0xbd844c42	-0.064598575
11	0xbdabcb15	-0.08388344
12	0xbe893d22	-0.26804453
13	0xbc4a3aad	-0.012343091
14	0xbda347aa	-0.07972653
15	0xbe28dad7	-0.16489731
16	0x3d7da241	0.061922316
17	0xbd7574c8	-0.059925824
18	0x3d9b6b5b	0.07588836
19	0xba19ac8b	-0.0005862198
20	0xbe655f84	-0.22399718
21	0x3cbca691	0.023028644
22	0x3bc94a5a	0.0061428966
23	0xbdf02bbc	-0.11727092
24	0xbd856012	-0.065124646
25	0xbe2a540e	-0.16633627
26	0xbdd5f560	-0.10447192
27	0xbddbe1c5	-0.107364215
28	0xbe18fcbf	-0.14940165
29	0xbdbd3644	-0.09238866
30	0x3dd8e0d0	0.105897546
31	0xbd32834b	-0.043582242
32	0x3dcbb6c9	0.09946973
33	0xbd30fdd8	-0.043210834
34	0xbdf5cc03	-0.12001803
35	0x3db05752	0.08610405
36	0xbdeef0d4	-0.11667028
37	0xbe4ff0a8	-0.20306647
38	0x3d8d10ac	0.068879455
39	0xbe6e0563	-0.23244242
40	0xbdae8629	-0.08521683
41	0xbe594799	-0.21218719
42	0xbe5d16da	-0.21590748
43	0xbd93e8bf	-0.07222127
44	0xbe02cb66	-0.12772903
45	0x3c898098	0.016784951
46	0x3d01bb88	0.031672984
47	0xbda5930c	-0.080846876
48	0xbd0aa380	-0.033847332
49	0xbe2c9b44	-0.16856104
50	0x3e030fb9	0.12798966
51	0xbd8b8ce1	-0.0681398
52	0x3db04246	0.08606391
53	0xbe4e4c47	-0.20146285
54	0xbe4f7090	-0.20257783
55	0x3dbb7401	0.09152985
56	0xbe663e8c	-0.22484797
57	0xbe2d8a28	-0.16947234
58	0xbe3d6594	-0.1849578
59	0x3e22fc2d	0.1591651
60	0x3dc4a8a7	0.096024804
61	0xbe20f6cc	-0.15719146
62	0xbe007896	-0.12546
63	0x3d56cb55	0.052440006
64	0xbe4a60d3	-0.19763498
65	0x3d186785	0.0372081
66	0xbd78cc25	-0.060741562
67	0xbdbd20c0	-0.09234762
68	0xbe581660	-0.21102285
69	0xbde1f03d	-0.1103215
70	0x3d6ba88a	0.05753378
71	0x3e4f83b6	0.20265087
72	0xbdad12c0	-0.08450842
73	0xbd06a127	-0.03286853
74	0xbe46fa4f	-0.19431423
75	0xbe61bbff	-0.22044371
76	0xbc94bca4	-0.018156357
77	0x3de18791	0.11012185
78	0xbd942d68	-0.07235223
79	0x3dbd44f8	0.0924167
80	0xbe53b203	-0.20673375
81	0x3d31bcb0	0.043392837
82	0x3e091c33	0.13389663
83	0xbe20ce24	-0.15703636
84	0x3e073b3a	0.13206187
85	0xbe24d018	-0.16095006
86	0xbda606a9	-0.08106739
87	0x3d288367	0.04114094
88	0xbd85b6e4	-0.06529024
89	0xbe4734d7	-0.1945375
90	0x3da31b48	0.07964188
91	0xbd7d64b0	-0.0618636
92	0xbd515db8	-0.051114768
93	0xbdc654a2	-0.09684111
94	0xbae12ac3	-0.0017178882
95	0xbdc77803	-0.09739687
96	0x3b55bd04	0.0032613883
97	0xbe147813	-0.1449893
98	0xbe593698	-0.21212232
99	0x3d8d80b2	0.06909312
100	0x3e0e07f0	0.13870215
101	0x3d396841	0.04526544
102	0xbd8f60d4	-0.070008904
103	0x3e2bf22b	0.16791598
104	0xbe87b62e	-0.2650618
105	0xbe41f3ac	-0.1894061
106	0xbc38c9a3	-0.011278543
107	0x3d5ee1f5	0.05441471
108	0xbdb96cef	-0.090539806
109	0xbde6e24d	-0.11273632
110	0xbc8403a3	-0.016115015
111	0x3dcd603a	0.100281194
112	0xbe3fa200	-0.18714142
113	0xbd305e13	-0.043058466
114	0xbd20e4de	-0.039280765
115	0xbe722399	-0.23646392
116	0xbe30afd9	-0.1725458
117	0xbd22fc80	-0.039791584
118	0xbe2f9f3b	-0.17150585
119	0xbe6b531a	-0.2298092
120	0x3e14023f	0.14453982
121	0x3dee91f1	0.1164893
122	0xbd96e32c	-0.07367548
123	0xbdd2529f	-0.10269665
124	0xbe5c67a6	-0.21523914
125	0xbe54fdef	-0.20799993
126	0xbdf56f32	-0.119840994
127	0xbe375f14	-0.17907363
128	0xbdc62f3e	-0.096769795
129	0x3e9e6c5e	0.30942053
130	0xbdfc3dfd	-0.12316511
131	0x3e043d5b	0.1291403
132	0x3e9155b2	0.28385693
133	0xbd419365	-0.047259707
134	0xbcb1e4aa	-0.02171548
135	0x3a92c87e	0.0011198667
136	0xbe9aa88c	-0.30206716
137	0xbbf3fd75	-0.007445986
138	0xbe55c696	-0.20876536
139	0x3c99b23d	0.018761748
140	0xbdd8c7ea	-0.105850056
141	0x3e34f824	0.17672783
142	0x3e23f343	0.16010766
143	0xbe543f12	-0.20727184
144	0xbe2e7892	-0.17038181
145	0x3e1347ef	0.14382909
146	0xbe2c019b	-0.16797487
147	0xbde48d75	-0.11159793
148	0xbf009ccf	-0.5023927
149	0x3ead50bc	0.33850658
150	0xbe04fe86	-0.12987718
151	0xbd85e5c0	-0.06537962
152	0xbe85b618	-0.2611549
153	0xbd8ed57e	-0.06974314
154	0x3e0c98ab	0.13730113
155	0xbe3132ba	-0.17304507
156	0x3e760ba0	0.24027872
157	0x3e76724d	0.2406704
158	0xbe288a6c	-0.16459054
159	0xbe4f7ecb	-0.20263211
160	0x3d5156f4	0.051108316
161	0xbe3ff117	-0.18744312
162	0xbe0bfd7f	-0.1367092
163	0xbe8d29ac	-0.27570856
164	0xbec04328	-0.37551236
165	0xbe331066	-0.17486724
166	0xbeb81368	-0.35952306
167	0xbe54003a	-0.20703211
168	0xbd96b8c4	-0.0735946
169	0xbeee5c87	-0.46554968
170	0x3d892dce	0.0669819
171	0x3e99fe3d	0.3007678
172	0xbe50b59c	-0.20381778
173	0xbe9d7908	-0.30756402
174	0xbdebbd27	-0.11510687
175	0xbe7677ea	-0.24069181
176	0xbe19e08a	-0.15027061
177	0x3e468220	0.19385576
178	0x3e028bba	0.12748614
179	0xbe9993db	-0.29995617
180	0x3e53e5db	0.20693152
181	0x3d10388e	0.035210185
182	0x3cef585b	0.029216936
183	0xbe1c2818	-0.1524967
184	0x3e9fc7ec	0.31207216
185	0xbe64d58f	-0.22347091
186	0xbe60a7de	-0.21939036
187	0x3e7edf71	0.24889924
188	0x3db72617	0.08942812
189	0xbebe3f47	-0.37157652
190	0xbe28ce9e	-0.16485068
191	0xbc6de951	-0.014520959
192	0xbda64573	-0.08118715
193	0x3c862c50	0.016378552
194	0xbe363716	-0.17794451
195	0xbde6395e	-0.11241411
196	0xbec52922	-0.38507944
197	0xbdc72a29	-0.09724838
198	0xbec0ae3b	-0.37632927
199	0x3df690d1	0.1203934
200	0xbdcb7af4	-0.09935561
201	0xbdb037dc	-0.08604404
202	0xbda37ebf	-0.07983159
203	0xbe4357ca	-0.19076458
204	0xbeec853c	-0.461954
205	0xbe960176	-0.2929799
206	0xbd76ac67	-0.06022301
207	0xbd735e16	-0.0594159
208	0xbe83e802	-0.25762945
209	0xbb41b147	-0.0029555128
210	0xbe790c36	-0.24321064
211	0xbe6f5fa0	-0.23376322
212	0xbed097e8	-0.40740895
213	0x3da8aaef	0.08235728
214	0xbe8452ee	-0.2584452
215	0xbe99c75d	-0.30034915
216	0xbdde9f43	-0.108702205
217	0xbe8ac8d6	-0.2710635
218	0x3e6756a3	0.22591643
219	0xbe120f75	-0.14263709
220	0xbd02dbec	-0.031948015
221	0x3e852719	0.26006392
222	0xbe661543	-0.22469048
223	0x3d1714ab	0.036884945
224	0x3e4dafbc	0.20086569
225	0xbe77edd6	-0.24211821
226	0x3e15c6ff	0.14626692
227	0x3e22cae1	0.15897705
228	0xbe004f22	-0.12530187
229	0x3d79dab4	0.060999587
230	0x3e9311a2	0.2872439
231	0x3d32acf2	0.043621965
232	0xbe8a0577	-0.26957294
233	0x3cb86ae6	0.02251191
234	0xbcfa9b5b	-0.030591657
235	0xbea81024	-0.32824814
236	0xbe22edf4	-0.15911084
237	0xbe2057cc	-0.15658492
238	0x3e8a3bd4	0.2699877
239	0xbe3b8573	-0.18312626
240	0xbe3e8072	-0.18603685
241	0x3daae9b6	0.08345358
242	0xbe7fffdb	-0.24999945
243	0xbe8dbef1	-0.2768474
244	0xbe3c450c	-0.18385714
245	0xbe309757	-0.17245232
246	0xbd295299	-0.041338537
247	0xbd877275	-0.06613628
248	0x3dbca635	0.09211389
249	0x3d9c7cf8	0.076410234
250	0xbe63c27d	-0.2224216
251	0xbe0b2501	-0.13588335
252	0xbcff527b	-0.03116726
253	0x3e8162d7	0.2527072
254	0x3d5772ab	0.05259959
255	0xbebfd371	-0.37466004

fc_layers.3.bias f4 [64]
0	0xbda0f20b	-0.07858666
1	0xbd93bbf3	-0.07213583
2	0x3df81dc9	0.12115056
3	0xbd368e04	-0.04456903
4	0xbe0eff7d	-0.13964649
5	0x3e08b6aa	0.13350931
6	0x3c80635d	0.01567238
7	0xbe1bf545	-0.15230282
8	0x3d8ab23c	0.06772277
9	0x3e9db07d	0.30798712
10	0x3d00b1c0	0.031419516
11	0x3daa731d	0.08322737
12	0xbd0a2de0	-0.033735156
13	0xbdec4455	-0.11536471
14	0xbe203b02	-0.1564751
15	0x3dce88c3	0.10084679
16	0x3e261f05	0.1622277
17	0xbe41c361	-0.18922187
18	0x3d5f1bdb	0.054469924
19	0x3d6e73ce	0.05821591
20	0x3da49954	0.080370575
21	0x3de9a304	0.11408046
22	0xbdc05b0c	-0.09392366
23	0xbd453230	-0.048143566
24	0xbe393f2f	-0.18090509
25	0x3ccb39d5	0.02480785
26	0x3deb899a	0.11500855
27	0x3da434c1	0.080178745
28	0xbe1528a6	-0.14566287
29	0x3d0ea7fc	0.03482817
30	0xbe01c120	-0.12671328
31	0x3e18a883	0.14908032
32	0x3d86fdc5	0.065913714
33	0x3db17713	0.0866529
34	0xbdc64d11	-0.09682668
35	0xbe45e0dd	-0.1932406
36	0xbd7596b8	-0.05995819
37	0x3dd4cb2a	0.10390313
38	0x3e0731e4	0.13202626
39	0x3de39721	0.1111281
40	0xbe55e397	-0.208876
41	0x3bf65b7f	0.0075182314
42	0x3e3b6afa	0.18302527
43	0xbe3e63dd	-0.18592782
44	0xbe353961	-0.1769767
45	0xbd82d332	-0.063879386
46	0xbb449626	-0.0029996722
47	0x3e4643e8	0.19361842
48	0xbdb9191b	-0.090379916
49	0x3dc8451a	0.09778805
50	0xbd1df39a	-0.038562395
51	0x3d0a3e34	0.033750728
52	0xbe236da7	-0.15959798
53	0x3d867bea	0.065666035
54	0x3c1edfdb	0.009696926
55	0x3d83b4f3	0.06430998
56	0x3e0003f9	0.12501515
57	0xbdca0fe5	-0.09866313
58	0xbd95793c	-0.07298514
59	0x3de4c9c2	0.11171295
60	0xbe3eed4b	-0.18645208
61	0x3d5f22a9	0.054476414
62	0x3d321565	0.043477435
63	0x3dcd4bf8	0.100242555

fc_layers.6.weight f4 [32, 64]
0	0x3e5e17e5	0.21688803
1	0xbd4b70d7	-0.04966816
2	0xbe0aed8c	-0.1356718
3	0x3d404c64	0.04694785
4	0xbcd32f2e	-0.025779333
5	0x3cc67472	0.024225447
6	0x3e769a95	0.24082406
7	0x3e791ffa	0.24328604
8	0xbe59ae79	-0.21257962
9	0xbdf135d8	-0.11777848
10	0xbe0483d1	-0.12940909
11	0x3e90acb4	0.28256762
12	0xbbe9666a	-0.0071228044
13	0xbe4d1db8	-0.20030868
14	0x3c10ab72	0.008829938
15	0xbdd6a606	-0.10480885
16	0xbd0b4acb	-0.034006875
17	0x3cb93286	0.0226071
18	0xbd43e15b	-0.047822338
19	0xbdba2f7d	-0.09091089
20	0x3e70b0f9	0.2350501
21	0xbe68c29d	-0.22730489
22	0xbca77825	-0.020443032
23	0xbe0e6e93	-0.13909368
24	0xbe780301	-0.24219896
25	0xbe96da16	-0.2946326
26	0xbe08e7a5	-0.13369615
27	0x3c318430	0.010834739
28	0xbc89bf72	-0.016814921
29	0xbe1c2fcf	-0.15252613
30	0xbe93065a	-0.28715783
31	0x3dfe958b	0.12430867
32	0xbbbf0b59	-0.00583021
33	0xbd9720a4	-0.073792726
34	0x3e6fa63f	0.23403262
35	0xbe6096f0	-0.21932578
36	0xbe52b357	-0.20576225
37	0x3d698018	0.057006925
38	0xbea8db48	-0.32979798
39	0xbe78ce72	-0.24297503
40	0xbe688559	-0.22707118
41	0x3cda401e	0.026641902
42	0xbe9b5705	-0.30339828
43	0xbe89fb85	-0.26949707
44	0x3dd6d511	0.10489858
45	0xbe576433	-0.21034317
46	0xbd9bea80	-0.07613087
47	0x3eb57370	0.35439634
48	0x3e099fa4	0.13439804
49	0xbdebf71e	-0.11521743
50	0xbe449829	-0.1919867
51	0x3d90c3cf	0.070685975
52	0xbd060856	-0.032722794
53	0xbe971991	-0.29511693
54	0x3de5ca95	0.1122028
55	0x3d883002	0.06649782
56	0xbee2e0da	-0.44312173
57	0xbd3a2477	-0.04544493
58	0x3d9ec114	0.077516705
59	0xbeed72f5	-0.46376768
60	0x3d3bd93d	0.04586147
61	0xbd1f40f5	-0.038880307
62	0xbe42144d	-0.18953057
63	0xbe8ee1be	-0.27906603
64	0xbe3f3d17	-0.18675648
65	0x3d25e930	0.040505588
66	0xbe7453f7	-0.23860155
67	0xbe965e75	-0.2936894
68	0xbe214550	-0.15749097
69	0x3cb98c3a	0.022649873
70	0x3e81d8bd	0.2536067
71	0x3e6b6092	0.22986057
72	0xbe1b2b61	-0.15153266
73	0xbdf10280	-0.11768055
74	0x3e460632	0.19338301
75	0x3dd85740	0.105635166
76	0xbe97813c	-0.29590786
77	0xbe78d468	-0.24299777
78	0xbe87c004	-0.26513684
79	0xbe68c257	-0.22730385
80	0xbdc37147	-0.0954309
81	0xbe1c5d47	-0.15269957
82	0x3b3d7beb	0.0028912972
83	0x3e2f092d	0.17093344
84	0x3cf419aa	0.029797394
85	0xbe5e9fd2	-0.21740654
86	0xbe7a2f86	-0.24432191
87	0xbe5951c2	-0.21222594
88	0x3dcdffa4	0.10058525
89	0xbe541666	-0.2071167
90	0xbd43031e	-0.047610395
91	0xbe7914a3	-0.24324279
92	0xbe9b4393	-0.30324993
93	0x3cde8525	0.027163098
94	0xbdd7a8d0	-0.10530245
95	0xbe9de4cb	-0.30838618
96	0xbe3cdbfa	-0.1844329
97	0xbc836661	-0.016040029
98	0xbd2fcb83	-0.042918693
99	0xbb86be29	-0.0041120243
100	0x3e33e679	0.17568387
101	0xbd79d3ef	-0.06099313
102	0xbe8f7c95	-0.28024736
103	0x3d0c7081	0.03428698
104	0xbddff2a5	-0.10934953
105	0x3df7c9d0	0.120990396
106	0xbe2ce214	-0.16883117
107	0x3e283cb1	0.16429402
108	0x3e7821b2	0.24231604
109	0x3dccfc8d	0.10009108
110	0xbe0d34f4	-0.13789731
111	0xbd6411f7	-0.055681195
112	0x3e42838b	0.18995492
113	0xbccb09f5	-0.024785021
114	0xbe210037	-0.15722738
115	0xbe90e47e	-0.28299326
116	0xbd74cc7e	-0.05976533
117	0x3e33b797	0.17550503
118	0xbdfb680a	-0.12275703
119	0xbd0af267	-0.03392258
120	0xbe5d625d	-0.21619554
121	0xbb6c965e	-0.0036100368
122	0x3cc0e90d	0.023548627
123	0xbdc99462	-0.09842755
124	0x3e6b29f6	0.22965226
125	0x3d6c5e34	0.057707027
126	0x3d2ce04e	0.0422061
127	0xbd5682b7	-0.052370753
128	0xbe7ed65b	-0.24886458
129	0xbf0170b3	-0.5056259
130	0xbeb537c9	-0.35394123
131	0x3da922ca	0.082585886
132	0xbe1bec8b	-0.15226953
133	0xbf27d857	-0.65564483
134	0xbed09f0d	-0.40746346
135	0x3e8788c9	0.26471546
136	0x3eb5216a	0.35377055
137	0x3ebf34e8	0.37345052
138	0xbe1fef5a	-0.15618649
139	0xbedffdca	-0.43748313
140	0xbe4c4e74	-0.19951802
141	0x3ca1a023	0.01972968
142	0x3ca39f35	0.019973377
143	0xbe95ead7	-0.2928073
144	0xbee5d69d	-0.448903
145	0x3e184d56	0.14873251
146	0x3e8fbd9b	0.28074345
147	0x3eb8c1c4	0.3608533
148	0xbed0e87e	-0.40802377
149	0xbec0044e	-0.37503284
150	0xbdef7626	-0.11692457
151	0xbe652818	-0.22378576
152	0xbe99d9de	-0.30049032
153	0xbee74ab3	-0.45174178
154	0xbe7416ac	-0.23836774
155	0xbe233d79	-0.15941419
156	0xbdb235ba	-0.08701654
157	0xbebc6f8b	-0.3680385
158	0x3dfe22fa	0.12409015
159	0xbf08afdd	-0.53393346
160	0xbe532d2a	-0.20622697
161	0xbe4630d4	-0.19354564
162	0xbe319224	-0.17340904
163	0xbe8d5f3e	-0.27611727
164	0xbe25ea2e	-0.16202614
165	0xbe508adb	-0.20365469
166	0xbe95d404	-0.29263318
167	0x3d4beb0a	0.049784698
168	0x3de97496	0.1139919
169	0xbeb611e8	-0.35560536
170	0xbeffc87b	-0.49957642
171	0xbd63e6a5	-0.05563988
172	0x3e7f34fb	0.24922554
173	0x3d27048f	0.04077583
174	0xbdc339ce	-0.0953251
175	0xbec87796	-0.39153737
176	0xbe4a61ca	-0.19763866
177	0xbc0c2c3a	-0.008555466
178	0xbcde6813	-0.027149236
179	0xbe88268c	-0.2659191
180	0x3dab2a24	0.08357647
181	0xbe26eb83	-0.16300778
182	0xbea0d0e4	-0.3140937
183	0xbed0e044	-0.407961
184	0xbe822b8c	-0.2542385
185	0x3e536f9d	0.20648046
186	0xbdea7a73	-0.114491366
187	0xbec08a2a	-0.3760541
188	0xbdf7117e	-0.12063883
189	0xbec0461b	-0.37553486
190	0xbeb4b213	-0.3529211
191	0xbecd7c0f	-0.40133712
192	0x3d3c323a	0.045946337
193	0xbeba6b8a	-0.3641017
194	0xbdf83d82	-0.12121107
195	0xbdc0bc43	-0.09410908
196	0x3e612a56	0.21988806
197	0x3d08cdeb	0.033399504
198	0x3e80a849	0.2512839
199	0xbd1e1f2a	-0.03860394
200	0xbe48a5e2	-0.1959453
201	0xbe4b79f9	-0.19870748
202	0x3e28d448	0.16487229
203	0xbddd8ef0	-0.10818279
204	0xbe0f7b3d	-0.14011855
205	0x3de74034	0.11291543
206	0xbe73cf67	-0.23809586
207	0x3cf9a44e	0.030473854
208	0xbe704ac6	-0.23466024
209	0x3dccddd0	0.10003245
210	0xbef488cd	-0.4776062
211	0x3cab1dea	0.020888288
212	0x3d6f6659	0.058447216
213	0x3d0ee8a2	0.034889825
214	0x3df24a1f	0.11830544
215	0xbe4d5e30	-0.20055461
216	0xbe7e2510	-0.24818826
217	0xbcfc0914	-0.030766048
218	0x3bb6caee	0.0055783903
219	0x3eb96e9c	0.362172
220	0xbe214bfd	-0.15751643
221	0xbe6d4a2a	-0.23172823
222	0xbd44ac5b	-0.048015933
223	0xbe1b2e7f	-0.15154456
224	0x3d0732b4	0.03300734
225	0xbdbb30ff	-0.09140205
226	0xbbbf3aea	-0.0058358805
227	0xbda5461f	-0.08070015
228	0x3bfef072	0.007780128
229	0x3cc7f14e	0.024407055
230	0xbe2ebd2c	-0.17064351
231	0x3c38866f	0.01126252
232	0xbe8799a9	-0.2648442
233	0xbdcc957e	-0.09989451
234	0xbeaeeae6	-0.34163588
235	0x3d9021c1	0.07037688
236	0x3ce6f08e	0.028190877
237	0x3e82469d	0.254445
238	0x3cf62434	0.03004656
239	0xbe99c709	-0.30034664
240	0xbd507ae6	-0.050898455
241	0xbdb69b62	-0.08916356
242	0xbeb26be2	-0.34847933
243	0xbe4a8b06	-0.19779596
244	0x3bb541f4	0.005531544
245	0xbe9e6a2b	-0.30940375
246	0xbe28b160	-0.16473913
247	0x3d476eb8	0.048689574
248	0x3ebc15da	0.3673542
249	0x3e87e245	0.26539817
250	0x3e1b2597	0.15151058
251	0xbdfe367c	-0.12412736
252	0x3e5d6e96	0.21624216
253	0xbe0066de	-0.1253924
254	0xbe06ce97	-0.13164745
255	0xbe471360	-0.19440985

fc_layers.6.bias f4 [32]
0	0xbbdafa03	-0.0066826358
1	0xbead8c92	-0.3389631
2	0x3d9be5ff	0.07612228
3	0xbdb5325d	-0.08847497
4	0x3e880c03	0.26571664
5	0xbec84204	-0.39112866
6	0xbdc38e17	-0.09548586
7	0xbc87f1f4	-0.016594864
8	0xbe575d7f	-0.2103176
9	0xbe04185b	-0.12899916
10	0xbbe8f3dd	-0.007109149
11	0xbe9d8c4b	-0.30771098
12	0x3e0025aa	0.12514368
13	0x3e1263ce	0.14295885
14	0xbcd0ac68	-0.025472835
15	0x3db6acbd	0.08919666
16	0x3e9c1e32	0.30491787
17	0xbdbecc56	-0.09316318
18	0xbdbb24cc	-0.09137878
19	0x3e41f781	0.18942071
20	0x3f14ad31	0.5807677
21	0xbe52d6f0	-0.20589805
22	0x3e0033ab	0.1251971
23	0x3e6d51d4	0.23175746
24	0x3e01a0b6	0.12658963
25	0xbeaa601d	-0.33276454
26	0xbdcfbae1	-0.10143066
27	0xbd509182	-0.050920017
28	0xbe0b2d07	-0.13591395
29	0x3ee753b7	0.45181057
30	0x3f1ea6c8	0.6197324
31	0x3e4a4574	0.19753057

fc_layers.8.weight f4 [4, 32]
0	0xbd956da5	-0.07296304
1	0xbdef150a	-0.11673935
2	0xbeebef3f	-0.46080968
3	0x3da07fa3	0.07836845
4	0x3d2094d4	0.039204434
5	0xbd9c90a4	-0.076447755
6	0xbeab0cfa	-0.33408338
7	0xbda8d56a	-0.082438305
8	0xbdfcc741	-0.12342692
9	0xbe99dd51	-0.30051664
10	0x3e29d6f3	0.16585903
11	0xbdbf5ed0	-0.09344256
12	0xbe69d4aa	-0.22835031
13	0xbd4417ac	-0.047874138
14	0xbda7b577	-0.081889085
15	0xbc238f40	-0.009982884
16	0x3db873f4	0.09006491
17	0x3dc75ae5	0.09734134
18	0x3dda0cbd	0.10646961
19	0x3e3c3499	0.1837944
20	0x3ea2ac4e	0.31772083
21	0x3e9a9608	0.3019259
22	0xbc8eea8d	-0.017445827
23	0x3dc305f2	0.09522618
24	0x3dcec5d4	0.100963265
25	0xbe62ded0	-0.22155309
26	0xbc892122	-0.016739432
27	0x3e521c55	0.2051862
28	0x3d6df43b	0.058094244
29	0x3df64d67	0.12026482
30	0x3e851216	0.2599036
31	0xbf2c364d	-0.67270356
32	0xbf38473d	-0.719837
33	0xbe21eb60	-0.15812445
34	0xbe651497	-0.22371136
35	0xbe8652c5	-0.26235023
36	0xbf454f7b	-0.770744
37	0xbe975682	-0.29558188
38	0xbd204c21	-0.039135102
39	0x3bec9a54	0.007220546
40	0x3cd7d3bf	0.026346086
41	0x3ce45f9d	0.027877623
42	0x3e39289f	0.18081902
43	0x3cac4e48	0.021033421
44	0x3ccd2ff8	0.025047287
45	0x3e121f17	0.14269672
46	0xbe803fba	-0.2504862
47	0xbeabc149	-0.33545902
48	0x3e545605	0.20735939
49	0x3d08bcc2	0.03338314
50	0x3db58288	0.088627875
51	0x3e14e721	0.14541294
52	0x3e9cc84a	0.30621558
53	0xbcf43260	-0.029809177
54	0x3e1a51c3	0.15070252
55	0x3e321355	0.17390187
56	0xbe86c518	-0.26322246
57	0xbe7db449	-0.24775805
58	0xbeac767b	-0.33684143
59	0x3e044e75	0.12920554
60	0x3d8c46da	0.06849451
61	0x3e8c84c5	0.27445045
62	0x3e81b8bd	0.25336257
63	0xbe838d40	-0.25693703
64	0x3d34c6e7	0.044135
65	0xbd6b3b97	-0.057429876
66	0xbe4f4dc7	-0.20244513
67	0x3bca3534	0.006170893
68	0xbda856bf	-0.082196705
69	0x3e8906df	0.26763055
70	0xbe7af530	-0.24507594
71	0xbebf6764	-0.37383568
72	0xbe245656	-0.1604856
73	0xbae9edcf	-0.0017847362
74	0xbcf5f994	-0.030026235
75	0xbcd039b0	-0.025418133
76	0xbc8c8170	-0.017151564
77	0xbd850326	-0.06494741
78	0xbece9863	-0.40350637
79	0x3d0f25e0	0.03494823
80	0xbd6c4f5e	-0.057692878
81	0xbc07a080	-0.008278012
82	0x3e70e1cc	0.23523635
83	0xbc4e0eb6	-0.01257675
84	0x3e873e24	0.26414597
85	0x3cfa0544	0.030520089
86	0x3e6f4620	0.23366594
87	0xbeae2c16	-0.3401801
88	0x3e32b589	0.17452063
89	0xbc867dd6	-0.016417425
90	0x3cf76c9f	0.030203162
91	0x3b88549f	0.0041604782
92	0xbe3873b8	-0.18012893
93	0x3e5e63e8	0.21717799
94	0x3ee24e62	0.44200426
95	0xbf3c3d37	-0.73530906
96	0xbe49d4c9	-0.19710077
97	0x3d393798	0.045219034
98	0xbdc3b94d	-0.09556828
99	0xbd9ce131	-0.07660139
100	0xbe850c68	-0.25986028
101	0xbe666651	-0.22499968
102	0xbdef8e3a	-0.116970494
103	0x3c627ecf	0.013824179
104	0x3d996709	0.074903555
105	0xbbc583a3	-0.006027655
106	0x3eab251b	0.33426747
107	0x3e0c89e6	0.13724479
108	0x3e111530	0.14168239
109	0xbc89a227	-0.016800953
110	0x3e8afd27	0.27146265
111	0xbe03434d	-0.12818642
112	0x3df79631	0.120891936
113	0x3df1f42a	0.11814149
114	0x3e7e079c	0.2480759
115	0x3dc3bf07	0.0955792
116	0x3e39b0d4	0.18133861
117	0x3daff04d	0.085907556
118	0xbe9bbf35	-0.30419317
119	0x3ddfff07	0.109373145
120	0xbd03c6a3	-0.032171857
121	0xbed537ca	-0.41644126
122	0xbda13c36	-0.078728124
123	0x3e166310	0.14686227
124	0x3e205386	0.15656862
125	0x3e157e24	0.145989
126	0xbd087fe4	-0.03332509
127	0xbdd83e3e	-0.10558747

fc_layers.8.bias f4 [4]
0	0x3e7035e8	0.23458064
1	0x3e8c2103	0.27368936
2	0x3e7335e3	0.23751025
3	0x3ee909c2	0.45515257
