output/dqn/model/4x4/15500.pth (torch, 53480 bytes, 8 tensors)

fc_layers.0.weight f4 [128, 16]
0	0x3e0a3456	0.13496527
1	0x3e4a9290	0.19782472
2	0x3ca58c00	0.020208359
3	0x3e55219e	0.20813605
4	0x3f10e651	0.56601435
5	0xbdf07980	-0.11741924
6	0x3ed3a014	0.41333067
7	0x3ef109a6	0.47077674
8	0x3e41510e	0.18878576
9	0x3efeb50d	0.49747506
10	0xbee7b8e7	-0.45258257
11	0xbee8d780	-0.45476913
12	0x3f103651	0.5633288
13	0x3f1390ff	0.5764312
14	0x3dbf47b8	0.09339851
15	0x3e9a4158	0.30127978
16	0xbe7510b8	-0.23932159
17	0xbce36f37	-0.027762992
18	0x3dacad38	0.08431476
19	0xbefb98ea	-0.49140102
20	0x3e6629a6	0.22476825
21	0x3ef85736	0.48504037
22	0xbec8db20	-0.3922968
23	0xbf0b5f2a	-0.54442084
24	0x3ef5d4a0	0.48013783
25	0xbe092f40	-0.1339693
26	0xbea79746	-0.327326
27	0xbd1d9620	-0.03847325
28	0x3f16e9ab	0.589503
29	0x3ea1d423	0.3160716
30	0xbd7398f1	-0.05947203
31	0xbe07886e	-0.13235638
32	0xbe07e1db	-0.13269751
33	0xbee1b152	-0.44080597
34	0xbda5b04c	-0.080902666
35	0x3e0215c2	0.12703612
36	0xbeb70885	-0.35748687
37	0x3ecead9e	0.40366834
38	0x3e9d794e	0.3075661
39	0xbe28e5fa	-0.16493979
40	0xbd5cab23	-0.053874146
41	0x3e49d31e	0.19709441
42	0x3e5fe0ee	0.21863148
43	0xbdd153c0	-0.10221052
44	0x3eafd6fe	0.34343714
45	0xbf123231	-0.57107836
46	0x3ea48ebd	0.3214015
47	0x3da08100	0.07837105
48	0xbee45afd	-0.4460067
49	0x3e507f32	0.20361021
50	0xbf089e09	-0.5336614
51	0xbe144514	-0.14479476
52	0xbe5d7392	-0.21626118
53	0x3e9f954a	0.31168586
54	0xbf0d88de	-0.5528697
55	0xbea20bd8	-0.3164966
56	0x3f0c4532	0.54793084
57	0x3e2887bd	0.1645803
58	0x3e361ec3	0.17785172
59	0x3e988e48	0.29796052
60	0xbe91bf28	-0.28466153
61	0x3e808061	0.25097945
62	0x3e0fa0ee	0.14026234
63	0xbde35018	-0.11099261
64	0x3c9c0107	0.019043459
65	0x3ea3d41a	0.31997758
66	0x3e0d07c9	0.13772501
67	0xbf078361	-0.52934843
68	0xbf1a1d5c	-0.6020105
69	0x3ef79c96	0.48361653
70	0xbee33ba4	-0.4438144
71	0xbe6a62e0	-0.2288928
72	0x3ec8c8d7	0.3921573
73	0xbe171bc2	-0.14756683
74	0x3eb07eac	0.34471643
75	0xbe3c67bc	-0.18398947
76	0xbda66158	-0.081240356
77	0xbe9ca947	-0.30597898
78	0x3e39383b	0.18087856
79	0x3f059da5	0.5219367
80	0xbedf83da	-0.43655282
81	0xbe55a9a0	-0.20865488
82	0xbe2284cc	-0.1587097
83	0x3e89049f	0.26761338
84	0xbf0516dc	-0.51988006
85	0x3ea5679a	0.32305604
86	0x3dcfa258	0.101383865
87	0xbc8fbea0	-0.017546952
88	0x3eb2882e	0.34869522
89	0x3e700b72	0.23441866
90	0xbe6d684e	-0.2318432
91	0xbe1f82b2	-0.155772
92	0x3d5ab460	0.053394675
93	0x3e7166bd	0.23574348
94	0x3d8b5698	0.06803626
95	0xbf0ba1ac	-0.54543567
96	0xbe3b025f	-0.18262623
97	0xbe52ce63	-0.20586543
98	0xbe886a59	-0.26643637
99	0xbf0ca288	-0.54935503
100	0x3c042e51	0.008067683
101	0x3e7ffdb0	0.24999118
102	0xbf0fcf35	-0.5617555
103	0xbe141dae	-0.14464447
104	0xbe591a92	-0.21201542
105	0xbe86e552	-0.26346833
106	0x3e8cef62	0.27526385
107	0x3edb110a	0.42786437
108	0xbdab2068	-0.083557904
109	0xbd95c9ce	-0.07313882
110	0x3df0a56b	0.11750301
111	0x3e5d9498	0.21638715
112	0xbcabd2c0	-0.020974517
113	0xbea4d8aa	-0.32196552
114	0xbef8321f	-0.4847574
115	0xbef78672	-0.4834476
116	0x3b334c00	0.0027358532
117	0xbe697ff0	-0.2280271
118	0x3ed730e3	0.42029485
119	0xbd49de70	-0.0492844
120	0x3e4f7a1e	0.20261428
121	0xbedbd94c	-0.42939222
122	0x3e238c17	0.15971409
123	0x3ebe4044	0.37158406
124	0xbe6c22c4	-0.23060137
125	0x3eefbc37	0.46823284
126	0x3dcc1ee0	0.099668264
127	0xbf19cdf8	-0.6007991
128	0x3d9040d0	0.07043612
129	0x3ea72457	0.32644913
130	0xbdc2d098	-0.09512442
131	0xbecc5fa8	-0.3991673
132	0xbe0caef6	-0.13738617
133	0xbefb897b	-0.49128327
134	0xbe338e12	-0.17534664
135	0xbedc1578	-0.4298513
136	0xbf076e18	-0.52902365
137	0x3ef24fb3	0.4732643
138	0xbe4dd2ce	-0.20099947
139	0x3e68f25c	0.22748703
140	0xbef9e538	-0.48807693
141	0xbeb4cebf	-0.35313985
142	0x3e3d8d60	0.18510962
143	0xbdf60128	-0.12011939
144	0x3e1edcb0	0.15513873
145	0xbf1688cc	-0.58802485
146	0xbf14d18e	-0.58132255
147	0xbf00095f	-0.500143
148	0xbe046e7a	-0.12932768
149	0x3eda4c66	0.42636412
150	0xbedde2c8	-0.43337083
151	0xbef59d58	-0.47971606
152	0xbd33a26c	-0.04385607
153	0x3d9d212a	0.07672341
154	0x3e99c9fb	0.3003691
155	0xbe1c2b98	-0.15251005
156	0xbdfcd440	-0.12345171
157	0x3e6a37ca	0.22872844
158	0xbd9dba64	-0.07701567
159	0xbf0ad8df	-0.5423717
160	0xbcc1399c	-0.02358704
161	0xbda8fe40	-0.08251619
162	0xbf1036da	-0.56333697
163	0xbe271686	-0.16317186
164	0xbefc5164	-0.49280846
165	0x3e96c776	0.29449052
166	0x3d0ee972	0.0348906
167	0x3ec8bd2e	0.39206833
168	0x3d2301a7	0.039796498
169	0x3e661866	0.22470245
170	0x3edf5de3	0.43626317
171	0x3d9074f0	0.07053554
172	0x3e9972a6	0.29970282
173	0xbf0692c5	-0.525677
174	0x3e5fd578	0.21858776
175	0x3e86bb4a	0.26314765
176	0x3dd03e5f	0.10168146
177	0x3d2f7bf7	0.04284283
178	0xbe53e460	-0.20692587
179	0xbea35793	-0.3190275
180	0x3ea032d4	0.3128878
181	0xbe81925a	-0.2530697
182	0x3ebf0d7a	0.3731497
183	0x3e20a998	0.15689695
184	0x3e42512d	0.18976279
185	0x3e90c3a6	0.28274268
186	0xbdfc8b38	-0.12331241
187	0xbe18cd04	-0.14921957
188	0x3ef418f6	0.47675294
189	0xbae3d770	-0.0017382931
190	0xbe2f252a	-0.1710402
191	0xbcba9540	-0.022776246
192	0xbf108908	-0.56459093
193	0x3e5f1c2f	0.21788095
194	0x3e526b13	0.20548658
195	0xbf0cf97e	-0.55068195
196	0x3ed5fa66	0.417926
197	0x3d4df530	0.050282657
198	0xbe2262e8	-0.15858042
199	0xbeafb92d	-0.34320965
200	0xbf1bb0bc	-0.6081655
201	0x3e68ca4c	0.2273342
202	0x3ee70a5b	0.45125088
203	0xbe1c0810	-0.1523745
204	0xbec6a1a8	-0.3879521
205	0xbeda4e96	-0.4263808
206	0x3ebcc4b9	0.36868837
207	0xbced9e60	-0.029006183
208	0x3e7db4f5	0.24776061
209	0x3e9efbf7	0.3105161
210	0xbec7a9d0	-0.38996744
211	0x3e0d7744	0.13815027
212	0x3ec14f2f	0.37755725
213	0x3ece24ca	0.40262443
214	0x3e92c824	0.2866832
215	0x3ea84ae6	0.32869643
216	0x3f0d50b6	0.5520128
217	0x3e2777e9	0.16354336
218	0xbe9d825a	-0.30763513
219	0xbd13c520	-0.036076665
220	0x3f100adf	0.5626659
221	0x3e0f0d64	0.13969952
222	0xbe136794	-0.1439498
223	0xbdd4a830	-0.10383642
224	0xbf06b072	-0.52612984
225	0x3e005a7c	0.12534517
226	0xbebcf8fc	-0.3690871
227	0x3d220b03	0.039561283
228	0xbe8a48ed	-0.27008763
229	0x3ed7492e	0.4204802
230	0xbea18416	-0.31546086
231	0x3f0b38a1	0.54383284
232	0x3f0bbc01	0.54583746
233	0x3eb7e824	0.35919297
234	0xbf12a4d2	-0.57282746
235	0x3e9e1382	0.30874258
236	0xbe5b01e0	-0.21387434
237	0xbe4a06ae	-0.1972911
238	0xbe9bd031	-0.30432275
239	0x3ecce392	0.40017372
240	0xbc8093fe	-0.015695568
241	0x3d9af952	0.07567085
242	0x3dac8e3f	0.08425569
243	0xbebcad4c	-0.36850965
244	0x3d873f08	0.06603819
245	0x3e4d6668	0.20058596
246	0x3e8dfe41	0.27733043
247	0x3e74dc00	0.23912048
248	0xbf16e0f6	-0.58937013
249	0x3d9510d9	0.07278604
250	0x3d9fd7c1	0.07804824
251	0x3ebd2ca2	0.36948115
252	0x3e3b952c	0.18318623
253	0x3ecd9c44	0.40158284
254	0xbde4e57d	-0.11176584
255	0xbd113830	-0.035453975

fc_layers.0.bias f4 [128]
0	0xbe57cdc6	-0.2107459
1	0xbe10a2c2	-0.14124587
2	0xbe908d09	-0.282326
3	0xbdd428d8	-0.10359353
4	0xbe1c5103	-0.15265279
5	0xbeb3dee5	-0.35130993
6	0xbce325cb	-0.027727982
7	0xbe8ca160	-0.2746687
8	0xbe50ca82	-0.2038975
9	0xbdfc675e	-0.12324403
10	0xbe71fc0d	-0.23631306
11	0xbe55dd30	-0.20885158
12	0xbe964431	-0.293489
13	0xbe157cf9	-0.14598455
14	0x3cdda3be	0.027055617
15	0xbe28423c	-0.16431516
16	0x3d0bf21c	0.03416644
17	0xbe46618c	-0.19373149
18	0xbe574472	-0.21022204
19	0xbe92632b	-0.28591284
20	0xbeab75ed	-0.33488408
21	0xbe48f976	-0.19626412
22	0xbe77f8d7	-0.24216019
23	0xbe088a32	-0.13333967
24	0xbe5689db	-0.20951025
25	0xbcc973f6	-0.024591427
26	0xbec2d0d3	-0.38049945
27	0xbd8037b3	-0.06260624
28	0xbe245645	-0.16048534
29	0x3e08f86e	0.13376018
30	0xbe77bb17	-0.24192463
31	0xbe161942	-0.14658073
32	0xbeec4821	-0.4614878
33	0xbd924527	-0.07142096
34	0xbe769267	-0.24079286
35	0xbe0319b8	-0.1280278
36	0xbec25143	-0.37952623
37	0xbdda05ff	-0.10645675
38	0xbdbeca3c	-0.09315917
39	0xbea49c8c	-0.32150686
40	0xbcf73004	-0.030174263
41	0xbe8fe835	-0.28106847
42	0xbe8f476d	-0.2798418
43	0xbe6c06fe	-0.23049542
44	0xbe05232e	-0.13001701
45	0xbda06fa8	-0.07833797
46	0xbe5a99c0	-0.21347713
47	0xbec6b71b	-0.38811573
48	0xbcd43d4e	-0.025908139
49	0xbe3714af	-0.17878984
50	0xbe1b550c	-0.15169162
51	0xbe410021	-0.18847705
52	0xbe8eec25	-0.2791454
53	0xbe930f45	-0.28722587
54	0x3d41231c	0.047152624
55	0xbe563437	-0.20918356
56	0xbe4f93cc	-0.20271224
57	0xbea03ab6	-0.31294793
58	0xbde318b6	-0.110886976
59	0xbe132ebb	-0.14373295
60	0xbd6c3bfc	-0.057674393
61	0xbe3293ab	-0.17439143
62	0xbeb92dfc	-0.36167896
63	0xbe543a2d	-0.20725317
64	0xbdf540b0	-0.11975229
65	0xbee6cfe3	-0.4508048
66	0xbd74f535	-0.05980416
67	0xbe86cdf9	-0.2632902
68	0x3e25f767	0.16207658
69	0xbdf7ed88	-0.12105852
70	0xbe0d7119	-0.13812675
71	0xbeab7b84	-0.33492672
72	0xbe6a8631	-0.22902752
73	0xbe0695dc	-0.13143104
74	0xbdc09993	-0.09404292
75	0xbd994142	-0.0748315
76	0xbe4152b8	-0.18879211
77	0xbe2921cd	-0.165168
78	0xbe1f73e7	-0.15571557
79	0xbe96e340	-0.29470253
80	0xbe300561	-0.17189552
81	0xbe95b667	-0.29240724
82	0xbe851a99	-0.25996855
83	0xbe99343d	-0.29922667
84	0xbe768f19	-0.24078025
85	0xbe0d9b31	-0.13828732
86	0xbe5d9780	-0.21639824
87	0xbdf3846d	-0.118904926
88	0xbe96e93d	-0.29474822
89	0xbe47e45f	-0.1952071
90	0xbd287792	-0.041129656
91	0xbee30356	-0.44338483
92	0xbe3857c9	-0.18002237
93	0xbdc3e511	-0.09565175
94	0xbdfb9694	-0.1228458
95	0xbec9830e	-0.393578
96	0xbe1077e8	-0.1410824
97	0xbe158181	-0.14600183
98	0xbe6457b0	-0.22299075
99	0xbd0a0add	-0.033701766
100	0xbe4e1b2d	-0.20127554
101	0xbdfd923d	-0.12381408
102	0xbdeaa937	-0.114580564
103	0xbecf138a	-0.40444595
104	0xbe9274bf	-0.28604695
105	0xbe1cfe22	-0.15331319
106	0xbd8b6c9e	-0.068078265
107	0xbd3a5e58	-0.04550013
108	0xbe24da10	-0.16098809
109	0x3cdc2227	0.026871754
110	0xbd577e5b	-0.052610736
111	0xbea5660e	-0.32304424
112	0xbe8f9f1b	-0.28051075
113	0xbe61bb00	-0.22043991
114	0xbeaf2ac8	-0.34212327
115	0xbea24af5	-0.31697813
116	0xbe48b42b	-0.19599979
117	0xbe2efb00	-0.17087936
118	0xbe535ad6	-0.2064012
119	0xbdc738b7	-0.097276144
120	0xbeae1504	-0.3400041
121	0xbeda76e6	-0.42668837
122	0xbe995d53	-0.29954013
123	0xbe694b37	-0.22782598
124	0xbe937f81	-0.28808215
125	0xbde525dd	-0.111888625
126	0xbe16359f	-0.14668892
127	0xbe8b346a	-0.27188426

fc_layers.3.weight f4 [64, 128]
0	0x3dcdfe1e	0.10058235
1	0xbe3354e7	-0.17512856
2	0xbe0fe1d4	-0.1405099
3	0xbe44e6ab	-0.19228618
4	0xbdd59f92	-0.10430826
5	0x3d880e27	0.06643324
6	0x3c75ab09	0.014994391
7	0xbcb9bcb9	-0.022672998
8	0x3d3aa2c4	0.04556538
9	0xbac35898	-0.0014903722
10	0xbd844c42	-0.064598575
11	0xbdabcb15	-0.08388344
12	0xbe893d22	-0.26804453
13	0xbc4a3aad	-0.012343091
14	0xbda347aa	-0.07972653
15	0xbe28dad7	-0.16489731
16	0x3d7da241	0.061922316
17	0xbd7574c8	-0.059925824
18	0x3d9b6b5b	0.07588836
19	0xba19ac8b	-0.0005862198
20	0xbe655f84	-0.22399718
21	0x3cbca691	0.023028644
22	0x3bc94a5a	0.0061428966
23	0xbdf02bbc	-0.11727092
24	0xbd856012	-0.065124646
25	0xbe2a540e	-0.16633627
26	0xbdd5f560	-0.10447192
27	0xbddbe1c5	-0.107364215
28	0xbe18fcbf	-0.14940165
29	0xbdbd3644	-0.09238866
30	0x3dd8e0d0	0.105897546
31	0xbd32834b	-0.043582242
32	0x3dcbb6c9	0.09946973
33	0xbd30fdd8	-0.043210834
34	0xbdf5cc03	-0.12001803
35	0x3db05752	0.08610405
36	0xbdeef0d4	-0.11667028
37	0xbe4ff0a8	-0.20306647
38	0x3d8d10ac	0.068879455
39	0xbe6e0563	-0.23244242
40	0xbdae8629	-0.08521683
41	0xbe594799	-0.21218719
42	0xbe5d16da	-0.21590748
43	0xbd93e8bf	-0.07222127
44	0xbe02cb66	-0.12772903
45	0x3c898098	0.016784951
46	0x3d01bb88	0.031672984
47	0xbda5930c	-0.080846876
48	0xbd0aa380	-0.033847332
49	0xbe2c9b44	-0.16856104
50	0x3e030fb9	0.12798966
51	0xbd8b8ce1	-0.0681398
52	0x3db04246	0.08606391
53	0xbe4e4c47	-0.20146285
54	0xbe4f7090	-0.20257783
55	0x3dbb7401	0.09152985
56	0xbe663e8c	-0.22484797
57	0xbe2d8a28	-0.16947234
58	0xbe3d6594	-0.1849578
59	0x3e22fc2d	0.1591651
60	0x3dc4a8a7	0.096024804
61	0xbe20f6cc	-0.15719146
62	0xbe007896	-0.12546
63	0x3d56cb55	0.052440006
64	0xbe4a60d3	-0.19763498
65	0x3d186785	0.0372081
66	0xbd78cc25	-0.060741562
67	0xbdbd20c0	-0.09234762
68	0xbe581660	-0.21102285
69	0xbde1f03d	-0.1103215
70	0x3d6ba88a	0.05753378
71	0x3e4f83b6	0.20265087
72	0xbdad12c0	-0.08450842
73	0xbd06a127	-0.03286853
74	0xbe46fa4f	-0.19431423
75	0xbe61bbff	-0.22044371
76	0xbc94bca4	-0.018156357
77	0x3de18791	0.11012185
78	0xbd942d68	-0.07235223
79	0x3dbd44f8	0.0924167
80	0xbe53b203	-0.20673375
81	0x3d31bcb0	0.043392837
82	0x3e091c33	0.13389663
83	0xbe20ce24	-0.15703636
84	0x3e073b3a	0.13206187
85	0xbe24d018	-0.16095006
86	0xbda606a9	-0.08106739
87	0x3d288367	0.04114094
88	0xbd85b6e4	-0.06529024
89	0xbe4734d7	-0.1945375
90	0x3da31b48	0.07964188
91	0xbd7d64b0	-0.0618636
92	0xbd515db8	-0.051114768
93	0xbdc654a2	-0.09684111
94	0xbae12ac3	-0.0017178882
95	0xbdc77803	-0.09739687
96	0x3b55bd04	0.0032613883
97	0xbe147813	-0.1449893
98	0xbe593698	-0.21212232
99	0x3d8d80b2	0.06909312
100	0x3e0e07f0	0.13870215
101	0x3d396841	0.04526544
102	0xbd8f60d4	-0.070008904
103	0x3e2bf22b	0.16791598
104	0xbe87b62e	-0.2650618
105	0xbe41f3ac	-0.1894061
106	0xbc38c9a3	-0.011278543
107	0x3d5ee1f5	0.05441471
108	0xbdb96cef	-0.090539806
109	0xbde6e24d	-0.11273632
110	0xbc8403a3	-0.016115015
111	0x3dcd603a	0.100281194
112	0xbe3fa200	-0.18714142
113	0xbd305e13	-0.043058466
114	0xbd20e4de	-0.039280765
115	0xbe722399	-0.23646392
116	0xbe30afd9	-0.1725458
117	0xbd22fc80	-0.039791584
118	0xbe2f9f3b	-0.17150585
119	0xbe6b531a	-0.2298092
120	0x3e14023f	0.14453982
121	0x3dee91f1	0.1164893
122	0xbd96e32c	-0.07367548
123	0xbdd2529f	-0.10269665
124	0xbe5c67a6	-0.21523914
125	0xbe54fdef	-0.20799993
126	0xbdf56f32	-0.119840994
127	0xbe375f14	-0.17907363
128	0xbddc13dc	-0.107459754
129	0x3e989333	0.29799804
130	0xbe1443e0	-0.14479017
131	0x3df4082f	0.119156234
132	0x3e876790	0.264462
133	0xbd419365	-0.047259707
134	0xbcb1e4aa	-0.02171548
135	0xba9afd91	-0.0011824836
136	0xbe9aa88c	-0.30206716
137	0xbbf3fd75	-0.007445986
138	0xbe55c696	-0.20876536
139	0xbc801458	-0.0156347
140	0xbdf2c583	-0.118540786
141	0x3e1af245	0.15131481
142	0x3e1c1f2f	0.1524627
143	0xbe55e869	-0.20889439
144	0xbe3c5713	-0.18392591
145	0x3dfc21fb	0.12311169
146	0xbe2c019b	-0.16797487
147	0xbde48d75	-0.11159793
148	0xbf009ccf	-0.5023927
149	0x3e9e4795	0.30913988
150	0xbe04fe86	-0.12987718
151	0xbdb11e69	-0.086483784
152	0xbe85b618	-0.2611549
153	0xbd8ed57e	-0.06974314
154	0x3e0c98ab	0.13730113
155	0xbe3da084	-0.18518263
156	0x3e689308	0.22712338
157	0x3e60003c	0.2187509
158	0xbe288a6c	-0.16459054
159	0xbe4f7ecb	-0.20263211
160	0x3d5156f4	0.051108316
161	0xbe4b73c0	-0.19868374
162	0xbe0bfd7f	-0.1367092
163	0xbe8d29ac	-0.27570856
164	0xbec04328	-0.37551236
165	0xbe331066	-0.17486724
166	0xbeb81368	-0.35952306
167	0xbe54003a	-0.20703211
168	0xbd98e5fa	-0.074657395
169	0xbef295ac	-0.47379816
170	0x3d429f58	0.047515243
171	0x3e942977	0.28937885
172	0xbe5db069	-0.21649326
173	0xbe9d7908	-0.30756402
174	0xbdebc176	-0.11511509
175	0xbe7677ea	-0.24069181
176	0xbe19e08a	-0.15027061
177	0x3e3253fb	0.17414849
178	0x3e028bba	0.12748614
179	0xbe9993db	-0.29995617
180	0x3e48746e	0.19575664
181	0x3c6064d8	0.013695918
182	0x3c2e6986	0.010645276
183	0xbe1c2978	-0.15250194
184	0x3e93bddb	0.28855786
185	0xbe64d58f	-0.22347091
186	0xbe60a7de	-0.21939036
187	0x3e69f415	0.22847016
188	0x3da5f2b2	0.08102931
189	0xbebe3f47	-0.37157652
190	0xbe28ce9e	-0.16485068
191	0xbc6df082	-0.014522674
192	0xbdb3341e	-0.08750175
193	0x3b73fc9a	0.003722942
194	0xbe4211e3	-0.18952136
195	0xbde63cf4	-0.11242095
196	0xbec52922	-0.38507944
197	0xbdc72a29	-0.09724838
198	0xbec0ae3b	-0.37632927
199	0x3df690d1	0.1203934
200	0xbdfd46d1	-0.12367023
201	0xbdca35cd	-0.09873543
202	0xbdec45a6	-0.11536722
203	0xbe4357ca	-0.19076458
204	0xbeec853c	-0.461954
205	0xbe9c5873	-0.3053623
206	0xbd76ac67	-0.06022301
207	0xbd735e16	-0.0594159
208	0xbe83e802	-0.25762945
209	0xbb422111	-0.002962176
210	0xbe849dc1	-0.25901607
211	0xbe6f5fa0	-0.23376322
212	0xbed097e8	-0.40740895
213	0x3d92dc6e	0.0717095
214	0xbe8452ee	-0.2584452
215	0xbe99c788	-0.30035043
216	0xbdde9f43	-0.108702205
217	0xbe912a02	-0.28352362
218	0x3e502a69	0.20328678
219	0xbe120f75	-0.14263709
220	0xbd02dbec	-0.031948015
221	0x3e711c79	0.23546018
222	0xbe661543	-0.22469048
223	0x3d1714ab	0.036884945
224	0x3e3c56b1	0.18392445
225	0xbe77edd6	-0.24211821
226	0x3e15c6ff	0.14626692
227	0x3e1e37ac	0.15450925
228	0xbe100d0d	-0.14067478
229	0x3cfdc4af	0.030977575
230	0x3e84c5b8	0.25932097
231	0x3d32acf2	0.043621965
232	0xbe9085db	-0.28227124
233	0x3cb86ae6	0.02251191
234	0xbcfa9b8e	-0.030591752
235	0xbeae8bb3	-0.34090957
236	0xbe2fc47a	-0.17164794
237	0xbe205855	-0.15658696
238	0x3e84bb01	0.25923923
239	0xbe3b8573	-0.18312626
240	0xbe4b8295	-0.19874032
241	0x3d90eaf8	0.07076067
242	0xbe7fffdb	-0.24999945
243	0xbe8dbef1	-0.2768474
244	0xbe4522da	-0.19251576
245	0xbe309757	-0.17245232
246	0xbd295299	-0.041338537
247	0xbd877275	-0.06613628
248	0x3dbca2bf	0.09210729
249	0x3d9c7cf8	0.076410234
250	0xbe63c27d	-0.2224216
251	0xbe0b2507	-0.13588344
252	0xbd5a6192	-0.053315707
253	0x3e6aaa60	0.22916555
254	0x3d2f639f	0.042819615
255	0xbebfd371	-0.37466004

fc_layers.3.bias f4 [64]
0	0xbda0f20b	-0.07858666
1	0xbdb8249f	-0.0899136
2	0x3e150e0f	0.14556144
3	0xbd99c145	-0.07507566
4	0xbe0eff7d	-0.13964649
5	0x3e08d228	0.13361418
6	0xbba2f6ad	-0.0049732537
7	0xbe1bf545	-0.15230282
8	0x3dc570cf	0.09640657
9	0x3e9eb1eb	0.30995116
10	0x3d1523cd	0.036411095
11	0x3da6e496	0.08149068
12	0xbd0a2de0	-0.033735156
13	0xbe01f3c7	-0.1269065
14	0xbe203b02	-0.1564751
15	0x3ddf3f68	0.10900766
16	0x3e0e02e1	0.13868286
17	0xbe41c361	-0.18922187
18	0x3d4c5660	0.04988706
19	0x3d922e58	0.071377456
20	0x3d93b5e2	0.07212426
21	0x3df4851f	0.11939453
22	0xbdc05b0c	-0.09392366
23	0xbd14ab62	-0.036296256
24	0xbe393f2f	-0.18090509
25	0x3cb6d142	0.022316579
26	0x3db5d6f0	0.08878887
27	0x3da09842	0.07841541
28	0xbe1528a6	-0.14566287
29	0x3d64206c	0.055694982
30	0xbe01c120	-0.12671328
31	0x3e108f36	0.1411713
32	0x3d860860	0.06544566
33	0x3d94c1de	0.0726354
34	0xbdc64d11	-0.09682668
35	0xbe45e0dd	-0.1932406
36	0xbd90f004	-0.07077029
37	0x3df3d55c	0.119059294
38	0x3dfd3810	0.12364209
39	0x3dd4afae	0.10385071
40	0xbe55e397	-0.208876
41	0x3b94a46d	0.0045362026
42	0x3e393dc5	0.1808997
43	0xbe3e63dd	-0.18592782
44	0xbe353961	-0.1769767
45	0xbd7449bd	-0.059640635
46	0x3b2202bf	0.0024720875
47	0x3e4a1428	0.19734251
48	0xbdbfd0d4	-0.09366003
49	0x3db1e17f	0.08685588
50	0xbd7151fc	-0.058916077
51	0x3d34dd6b	0.044156473
52	0xbe16ca65	-0.14725645
53	0x3dbdd3cc	0.09268913
54	0x3c374a7d	0.011187193
55	0x3d7091a1	0.058732633
56	0x3dc0821a	0.09399815
57	0xbdca0fe5	-0.09866313
58	0xbd95793c	-0.07298514
59	0x3ded1d84	0.11577895
60	0xbe2d8b62	-0.16947702
61	0x3d04348f	0.032276686
62	0x3d8b23a9	0.06793911
63	0x3d8f9b56	0.0701205

fc_layers.6.weight f4 [32, 64]
0	0x3e5e17e5	0.21688803
1	0xbd7ef223	-0.06224264
2	0xbdfae796	-0.12251203
3	0x3d404c64	0.04694785
4	0xbcd32f2e	-0.025779333
5	0x3cb90968	0.022587493
6	0x3e67abfc	0.226242
7	0x3e791ffa	0.24328604
8	0xbe6fef3b	-0.23431103
9	0xbe045597	-0.12923275
10	0xbe043086	-0.12909135
11	0x3e8415c9	0.2579787
12	0xbbe9666a	-0.0071228044
13	0xbe4d1db8	-0.20030868
14	0x3c10ab72	0.008829938
15	0xbe00213f	-0.12512682
16	0xbd3f2c82	-0.046673305
17	0x3cb93286	0.0226071
18	0xbd43e15b	-0.047822338
19	0xbdcadf66	-0.09905891
20	0x3e654799	0.22390594
21	0xbe68c29d	-0.22730489
22	0xbca77825	-0.020443032
23	0xbe0e6e93	-0.13909368
24	0xbe780301	-0.24219896
25	0xbe8a3196	-0.26990956
26	0xbe08f068	-0.13372958
27	0x3c0f2467	0.008736706
28	0xbc89bf72	-0.016814921
29	0xbe360f02	-0.17779163
30	0xbe93065a	-0.28715783
31	0x3dd505c8	0.10401493
32	0x3acecd11	0.0015777667
33	0xbd973151	-0.07382453
34	0x3e6fa63f	0.23403262
35	0xbe6096f0	-0.21932578
36	0xbe52b357	-0.20576225
37	0x3d5066ef	0.050879415
38	0xbead0352	-0.33791596
39	0xbe709c85	-0.23497207
40	0xbe688559	-0.22707118
41	0x3ca48d67	0.020086957
42	0xbe998551	-0.29984525
43	0xbe89fb85	-0.26949707
44	0x3dd6d511	0.10489858
45	0xbe576433	-0.21034317
46	0xbd9bea80	-0.07613087
47	0x3eb1cc89	0.3472636
48	0x3e099fa4	0.13439804
49	0xbde9a444	-0.11408284
50	0xbe449697	-0.1919807
51	0x3d8c0f4a	0.06838854
52	0xbd060856	-0.032722794
53	0xbe970058	-0.2949245
54	0x3de92447	0.113838725
55	0x3d7bb19f	0.06144869
56	0xbeebd6cc	-0.46062315
57	0xbd3a2477	-0.04544493
58	0x3d9ec114	0.077516705
59	0xbeebc085	-0.46045318
60	0x3d3bd93d	0.04586147
61	0xbd16709d	-0.03672849
62	0xbe390b59	-0.18070735
63	0xbe972f80	-0.29528427
64	0xbe3f3d17	-0.18675648
65	0x3d25e930	0.040505588
66	0xbe7453f7	-0.23860155
67	0xbe965e75	-0.2936894
68	0xbe214550	-0.15749097
69	0x3cb98c3a	0.022649873
70	0x3e81d8bd	0.2536067
71	0x3e6b6092	0.22986057
72	0xbe1b2b61	-0.15153266
73	0xbdf10280	-0.11768055
74	0x3e460632	0.19338301
75	0x3dd85740	0.105635166
76	0xbe97813c	-0.29590786
77	0xbe78d468	-0.24299777
78	0xbe87c004	-0.26513684
79	0xbe68c257	-0.22730385
80	0xbdc37147	-0.0954309
81	0xbe1c5d47	-0.15269957
82	0x3b3d7beb	0.0028912972
83	0x3e2f092d	0.17093344
84	0x3cf419aa	0.029797394
85	0xbe5e9fd2	-0.21740654
86	0xbe7a2f86	-0.24432191
87	0xbe5951c2	-0.21222594
88	0x3dcdffa4	0.10058525
89	0xbe541666	-0.2071167
90	0xbd43031e	-0.047610395
91	0xbe7914a3	-0.24324279
92	0xbe9b4393	-0.30324993
93	0x3cde8525	0.027163098
94	0xbdd7a8d0	-0.10530245
95	0xbe9de4cb	-0.30838618
96	0xbe3cdbfa	-0.1844329
97	0xbc836661	-0.016040029
98	0xbd2fcb83	-0.042918693
99	0xbb86be29	-0.0041120243
100	0x3e33e679	0.17568387
101	0xbd79d3ef	-0.06099313
102	0xbe8f7c95	-0.28024736
103	0x3d0c7081	0.03428698
104	0xbddff2a5	-0.10934953
105	0x3df7c9d0	0.120990396
106	0xbe2ce214	-0.16883117
107	0x3e283cb1	0.16429402
108	0x3e7821b2	0.24231604
109	0x3dccfc8d	0.10009108
110	0xbe0d34f4	-0.13789731
111	0xbd6411f7	-0.055681195
112	0x3e42838b	0.18995492
113	0xbccb09f5	-0.024785021
114	0xbe210037	-0.15722738
115	0xbe90e47e	-0.28299326
116	0xbd74cc7e	-0.05976533
117	0x3e33b797	0.17550503
118	0xbdfb680a	-0.12275703
119	0xbd0af267	-0.03392258
120	0xbe5d625d	-0.21619554
121	0xbb6c965e	-0.0036100368
122	0x3cc0e90d	0.023548627
123	0xbdc99462	-0.09842755
124	0x3e6b29f6	0.22965226
125	0x3d6c5e34	0.057707027
126	0x3d2ce04e	0.0422061
127	0xbd5682b7	-0.052370753
128	0xbe7ed65b	-0.24886458
129	0xbf0170f7	-0.50562996
130	0xbec605e9	-0.38676384
131	0x3da922ca	0.082585886
132	0xbe1bec8b	-0.15226953
133	0xbf302b73	-0.688163
134	0xbed19864	-0.40936577
135	0x3e8788c9	0.26471546
136	0x3ea67609	0.3251193
137	0x3ea5dfa1	0.32397178
138	0xbe20b18b	-0.15692727
139	0xbef0abd2	-0.47006088
140	0xbe4c4e74	-0.19951802
141	0x3cec6200	0.028855324
142	0x3ca39f35	0.019973377
143	0xbea256fc	-0.3170699
144	0xbee69992	-0.4503904
145	0x3e184d56	0.14873251
146	0x3e7b5aaf	0.24546312
147	0x3eb10146	0.34571284
148	0xbed41f84	-0.41430295
149	0xbec5f173	-0.38660774
150	0xbdef7626	-0.11692457
151	0xbe751728	-0.23934615
152	0xbe99d9de	-0.30049032
153	0xbeea408a	-0.45752364
154	0xbe729ca8	-0.23692572
155	0xbe34ee56	-0.17669043
156	0xbdb235ba	-0.08701654
157	0xbec439e2	-0.3832541
158	0x3dfe22fa	0.12409015
159	0xbf042657	-0.51621
160	0xbe7bde88	-0.24596608
161	0xbe3409f3	-0.1758192
162	0xbe319224	-0.17340904
163	0xbe8d5f3e	-0.27611727
164	0xbe25ea2e	-0.16202614
165	0xbe5d3e43	-0.21605782
166	0xbe9b8dfe	-0.3038177
167	0x3d1b70ed	0.03794949
168	0x3de97496	0.1139919
169	0xbeb611e8	-0.35560536
170	0xbf081761	-0.53160673
171	0xbd63e6a5	-0.05563988
172	0x3e7f34fb	0.24922554
173	0x3d27048f	0.04077583
174	0xbd949e5e	-0.07256769
175	0xbece9506	-0.4034807
176	0xbe5675d9	-0.20943393
177	0xbd078832	-0.03308887
178	0xbcde6813	-0.027149236
179	0xbe8e7b42	-0.27828413
180	0x3dab2a24	0.08357647
181	0xbe2f2281	-0.17103006
182	0xbeae9fbc	-0.34106243
183	0xbedc1ef6	-0.4299237
184	0xbe822b8c	-0.2542385
185	0x3e536f9d	0.20648046
186	0xbdea7a73	-0.114491366
187	0xbec1ca61	-0.37849715
188	0xbdf7117e	-0.12063883
189	0xbec15caf	-0.37766024
190	0xbebe7a77	-0.37202808
191	0xbed55254	-0.41664374
192	0x3d3c323a	0.045946337
193	0xbeba6b8a	-0.3641017
194	0xbe17b3fe	-0.14814755
195	0xbdc0bc43	-0.09410908
196	0x3e612a56	0.21988806
197	0x3c70c7bb	0.014696057
198	0x3e6d49f6	0.23172745
199	0xbd1e1f2a	-0.03860394
200	0xbe5822ed	-0.21107073
201	0xbe5794d1	-0.21052863
202	0x3e28d448	0.16487229
203	0xbde7dbb7	-0.11321204
204	0xbe0f7b3d	-0.14011855
205	0x3de74034	0.11291543
206	0xbe73cf67	-0.23809586
207	0x3ccd3be0	0.025052965
208	0xbe704ac6	-0.23466024
209	0x3dccddd0	0.10003245
210	0xbefb085c	-0.49029815
211	0x3d327b05	0.04357435
212	0x3d26ef72	0.040755697
213	0x3d0ee8a2	0.034889825
214	0x3df24a1f	0.11830544
215	0xbe4d5e30	-0.20055461
216	0xbe7e2510	-0.24818826
217	0xbd46f0fa	-0.048569657
218	0x3bb6c682	0.005577863
219	0x3eb4facb	0.3534759
220	0xbe214bfd	-0.15751643
221	0xbe6d4a2a	-0.23172823
222	0xbd44ac5b	-0.048015933
223	0xbe2d911f	-0.1694989
224	0x3d92a18f	0.07159721
225	0xbde86c44	-0.11348775
226	0xbbbf3aea	-0.0058358805
227	0xbda5461f	-0.08070015
228	0x3bfef072	0.007780128
229	0x3c995873	0.018718934
230	0xbe2cfe27	-0.16893826
231	0x3cf8e7ea	0.030384023
232	0xbe8799a9	-0.2648442
233	0xbdbd23e0	-0.09235358
234	0xbeaf1bc9	-0.34200886
235	0x3d9021c1	0.07037688
236	0x3ce6f08e	0.028190877
237	0x3e813d64	0.2524215
238	0x3d0841ca	0.033265866
239	0xbea0327a	-0.3128851
240	0xbd30d0d4	-0.043167904
241	0xbdd27ebc	-0.10278079
242	0xbeb26be2	-0.34847933
243	0xbe4a8b06	-0.19779596
244	0x3bb541f4	0.005531544
245	0xbe9e6a1c	-0.3094033
246	0xbe3139c9	-0.173072
247	0x3d231778	0.039817303
248	0x3eb75a90	0.3581128
249	0x3e87e245	0.26539817
250	0x3e1b2597	0.15151058
251	0xbdfe367c	-0.12412736
252	0x3e5a8de6	0.21343192
253	0xbe0066de	-0.1253924
254	0xbe144803	-0.14480595
255	0xbe451c9c	-0.19249195

fc_layers.6.bias f4 [32]
0	0xbc92eecc	-0.017936133
1	0xbead8c92	-0.3389631
2	0x3d8fd546	0.070231006
3	0xbdb502dd	-0.08838437
4	0x3e86e42c	0.26345956
5	0xbecb66b1	-0.39726785
6	0xbdb4acb4	-0.08822003
7	0xbd37ec00	-0.0449028
8	0xbe5a102e	-0.21295235
9	0xbdf76700	-0.120801926
10	0xbb74fdbe	-0.0037382687
11	0xbe9d8c4b	-0.30771098
12	0x3dd18464	0.1023033
13	0x3e0f2a2d	0.13980933
14	0xbd5a8abd	-0.053354967
15	0x3dc117fc	0.09428403
16	0x3ea13e92	0.3149305
17	0xbd87af72	-0.066252604
18	0xbdb0b096	-0.08627431
19	0x3e443dfc	0.1916427
20	0x3f142b6f	0.57878774
21	0xbe59cf09	-0.21270384
22	0x3e14ea2a	0.14542452
23	0x3e6f4395	0.23365624
24	0x3e1b08f4	0.15140134
25	0xbead5ad3	-0.33858356
26	0xbdf1f8ec	-0.11815056
27	0xbd6e73ee	-0.058216028
28	0xbdb89b98	-0.09014052
29	0x3eeab202	0.45838934
30	0x3f1d3b0c	0.61418223
31	0x3e46bb01	0.19407274

fc_layers.8.weight f4 [4, 32]
0	0xbd95c864	-0.07313612
1	0xbdef150a	-0.11673935
2	0xbef7bd27	-0.483865
3	0x3d87430c	0.06604585
4	0x3d2bd465	0.041950602
5	0xbd9c90a4	-0.076447755
6	0xbeade785	-0.33965698
7	0xbdafa47c	-0.08576295
8	0xbdf24b81	-0.118308075
9	0xbe99dd51	-0.30051664
10	0x3e0f6a73	0.14005451
11	0xbdbf5ed0	-0.09344256
12	0xbe6f08d2	-0.23343208
13	0xbd7ab47a	-0.061207272
14	0xbd966228	-0.073429406
15	0xbd1ec5fa	-0.038763024
16	0x3db1967e	0.08671282
17	0x3de599ca	0.112109736
18	0x3de6a3ca	0.11261709
19	0x3e333206	0.17499551
20	0x3e9fe4ba	0.31229192
21	0x3e9a9608	0.3019259
22	0xbd1587a9	-0.03650633
23	0x3dc108a3	0.094254754
24	0x3db84814	0.08998123
25	0xbe665f2c	-0.22497243
26	0xbc892122	-0.016739432
27	0x3e527644	0.20552927
28	0x3d8ee22a	0.06976731
29	0x3df4575d	0.11930726
30	0x3e84433f	0.25832555
31	0xbf303433	-0.6882965
32	0xbf3a5d8b	-0.72798985
33	0xbe21eb60	-0.15812445
34	0xbe7ef637	-0.24898611
35	0xbe81da8f	-0.2536206
36	0xbf44ec07	-0.7692265
37	0xbe975682	-0.29558188
38	0xbd86530a	-0.06558807
39	0x3c553b15	0.013014575
40	0x3cf7aaf3	0.030232882
41	0xbc4f2fd3	-0.0126456795
42	0x3e3c2d25	0.18376596
43	0x3cac4e48	0.021033421
44	0x3bb3f755	0.0054921308
45	0x3e0ff99b	0.1406006
46	0xbe78ee91	-0.24309756
47	0xbeafadf9	-0.34312418
48	0x3e5c45e3	0.21511035
49	0x3c0e94e7	0.008702493
50	0x3dc4675f	0.09590029
51	0x3e1f3412	0.15547207
52	0x3e9b93f3	0.30386314
53	0xbd145489	-0.03621343
54	0x3e1cabd9	0.1529993
55	0x3e3b9e06	0.18322
56	0xbe926d76	-0.28599137
57	0xbe82c087	-0.25537512
58	0xbeaacdbf	-0.33360097
59	0x3dcb41c0	0.0992465
60	0x3d94806a	0.072510555
61	0x3e90841e	0.28225797
62	0x3e78990b	0.24277131
63	0xbe7762be	-0.24158761
64	0x3d553faa	0.052062668
65	0xbd6b3b97	-0.057429876
66	0xbe3f9976	-0.18710884
67	0xbc068c5a	-0.008212173
68	0xbda1ef04	-0.07906917
69	0x3e8906df	0.26763055
70	0xbe76565c	-0.24056381
71	0xbebd78f4	-0.37006342
72	0xbe26741b	-0.16255228
73	0x3caf20a2	0.021377865
74	0xbcd38526	-0.025820326
75	0xbcd039b0	-0.025418133
76	0xbcb960fe	-0.022629257
77	0xbd8aad1b	-0.067712985
78	0xbecf5a8f	-0.40498778
79	0x3d0eb554	0.034840897
80	0xbcd584b9	-0.026064264
81	0x3cc157e2	0.023601476
82	0x3e52f823	0.20602469
83	0x3c92889e	0.01788741
84	0x3e880dcd	0.2657303
85	0x3cfa0544	0.030520089
86	0x3e7d51f0	0.24738288
87	0xbea41cd7	-0.32053253
88	0x3e2f65a3	0.17128615
89	0xbc867dd6	-0.016417425
90	0x3ca31664	0.019908138
91	0x3a2ac696	0.0006514577
92	0xbe30d71f	-0.17269562
93	0x3e65a6ef	0.22426961
94	0x3ee1f279	0.44130304
95	0xbf41a984	-0.75649285
96	0xbe417809	-0.18893446
97	0x3d393798	0.045219034
98	0xbd61a56c	-0.0550894
99	0xbdcb7cf3	-0.099359415
100	0xbe8c940c	-0.274567
101	0xbe64f19f	-0.22357796
102	0xbdde2dc8	-0.10848576
103	0x3c98700c	0.018608116
104	0x3d9943d3	0.074836396
105	0x3cfb13fc	0.030649178
106	0x3ea4ef95	0.32214037
107	0x3e0c89e6	0.13724479
108	0x3de9d339	0.11417241
109	0xbc0ab82e	-0.008466763
110	0x3e849ffe	0.25903314
111	0xbdbc1236	-0.09183161
112	0x3e0f072f	0.13967584
113	0x3e134001	0.14379884
114	0x3e7e079c	0.2480759
115	0x3d98ca81	0.074604996
116	0x3e3f0b72	0.1865671
117	0x3d43daef	0.047816213
118	0xbebbedde	-0.36704916
119	0x3dbc17f6	0.09184258
120	0xbcda24d3	-0.026628887
121	0xbee2968e	-0.4425549
122	0xbd908954	-0.07057443
123	0x3e200ea0	0.15630579
124	0x3e5c112b	0.21490924
125	0x3dddd65c	0.108319014
126	0xbb836cdb	-0.0040107793
127	0xbe288939	-0.16458596

fc_layers.8.bias f4 [4]
0	0x3e6e7aba	0.23289004
1	0x3e8923af	0.26785037
2	0x3e73b280	0.23798561
3	0x3ef287e1	0.47369292
