output/dqn/model/4x4/16000.pth (torch, 53480 bytes, 8 tensors)

fc_layers.0.weight f4 [128, 16]
00000000: 5634 0a3e bc9d 3d3e 008c a53c 8661 483e
00000010: 2a36 143f 8079 f0bd ea7f c73e a609 f13e
00000020: 0e51 413e f04e 053f e7b8 e7be 80d7 e8be
00000030: 5136 103f 5849 153f b847 bf3d 5841 9a3e
00000040: b810 75be 376f e3bc 38ad ac3d ea98 fbbe
00000050: 2b6b 5d3e 3657 f83e 20db c8be 2a5f 0bbf
00000060: c7ed ee3e 402f 09be 4697 a7be 2096 1dbd
00000070: abe9 163f b25d af3e f198 73bd 6e88 07be
00000080: dbe1 07be 52b1 e1be 4cb0 a5bd c215 023e
00000090: 8508 b7be 9ead ce3e 6bda a13e fae5 28be
000000a0: 23ab 5cbd 1ed3 493e eee0 5f3e c053 d1bd
000000b0: fed6 af3e 3132 12bf 2891 a43e 0081 a03d
000000c0: fd5a e4be c6df 5d3e 099e 08bf 1445 14be
000000d0: 9273 5dbe 4a95 9f3e de88 0dbf d80b a2be
000000e0: b35b 073f f8ff 203e 9a3b 403e 488e 983e
000000f0: 28bf 91be c72f 873e f196 003e 1850 e3bd
00000100: 0701 9c3c 4b2a 943e 60c5 003e 6183 07bf
00000110: 5c1d 1abf 969c f73e a43b e3be e062 6abe
00000120: e715 bd3e c21b 17be 0b01 b53e bc67 3cbe
00000130: 5861 a6bd 47a9 9cbe 284a 4c3e a59d 053f
00000140: da83 dfbe a0a9 55be cc84 22be 9f04 893e
00000150: dc16 05bf 9a67 a53e 58a2 cf3d a0be 8fbc
00000160: 2e88 b23e 720b 703e 4e68 6dbe b282 1fbe
00000170: 60b4 5a3d bd66 713e 9856 8b3d aca1 0bbf
00000180: 5f02 3bbe 63ce 52be 596a 88be 88a2 0cbf
00000190: 512e 043c b0fd 7f3e 35cf 0fbf ae1d 14be
000001a0: 921a 59be 52e5 86be 9270 903e 0a11 db3e
000001b0: 6820 abbd cec9 95bd bf0f fa3d 9894 5d3e
000001c0: c0d2 abbc aad8 a4be 1f32 f8be 7286 f7be
000001d0: 004c 333b f07f 69be 78da cf3e 70de 49bd
000001e0: 1e7a 4f3e 4cd9 dbbe 178c 233e 4440 be3e
000001f0: c422 6cbe 921b f63e e01e cc3d f8cd 19bf
00000200: d040 903d 41fd 9b3e 98d0 c2bd a85f ccbe
00000210: f6ae 0cbe 7b89 fbbe 128e 33be 7815 dcbe
00000220: 186e 07bf 8e4c 083f ced2 4dbe 5cf2 683e
00000230: 38e5 f9be bfce b4be c991 253e 2801 f6bd
00000240: 85b8 103e cc88 16bf 8ed1 14bf 5f09 00bf
00000250: 7a6e 04be 664c da3e c8e2 ddbe 589d f5be
00000260: 6ca2 33bd 2a21 9d3d a275 a53e 982b 1cbe
00000270: 40d4 fcbd 91ae 873e 64ba 9dbd dfd8 0abf
00000280: 9c39 c1bc 40fe a8bd da36 10bf 8616 27be
00000290: 6451 fcbe 76c7 963e 72e9 0e3d 2ebd c83e
000002a0: a701 233d 832c 4d3e 8698 e63e f074 903d
000002b0: a672 993e c592 06bf 91fd 8a3e 4abb 863e
000002c0: 5f3e d03d f77b 2f3d 60e4 53be 9357 a3be
000002d0: cce7 a03e 5a92 81be 2df5 b43e 98a9 203e
000002e0: 2d51 423e 2fb3 8f3e 388b fcbd 04cd 18be
000002f0: f618 f43e 70d7 e3ba 2a25 2fbe 4095 babc
00000300: 0889 10bf 2f1c 5f3e 136b 523e 7ef9 0cbf
00000310: 5f63 d53e 30f5 4d3d e862 22be 2db9 afbe
00000320: bcb0 1bbf 4cca 683e 4cd4 e63e 1008 1cbe
00000330: a8a1 c6be 964e dabe 9ed9 be3e 609e edbc
00000340: 05f4 8b3e d6e0 a03e d0a9 c7be 4477 0d3e
00000350: 0a7e af3e ca24 ce3e 45d5 8b3e e64a a83e
00000360: 7718 093f 56af 173e 5a82 9dbe 20c5 13bd
00000370: df0a 103f 640d 0f3e 9467 13be 30a8 d4bd
00000380: 72b0 06bf 69fb e83d fcf8 bcbe abce 07bb
00000390: ed48 8abe 2e49 d73e 1684 a1be a138 0b3f
000003a0: bc83 053f 3cff b23e d2a4 12bf 8213 9e3e
000003b0: e001 5bbe ae06 4abe 31d0 9bbe 92e3 cc3e
000003c0: fe93 80bc 52f9 9a3d 3f8e ac3d 4cad bcbe
000003d0: 083f 873d 6866 4d3e 459d 7f3e 00dc 743e
000003e0: f6e0 16bf d910 953d c1d7 9f3d a22c bd3e
000003f0: 2c95 3b3e f241 d43e 7de5 e4bd 3038 11bd
0.13496527 0.18517202 0.020208359 0.19568452 0.5789515 -0.11741924 0.38964778 0.47077674
0.18878576 0.52073574 -0.45258257 -0.45476913 0.5633288 0.5831504 0.09339851 0.30127978
-0.23932159 -0.027762992 0.08431476 -0.49140102 0.21622913 0.48504037 -0.3922968 -0.54442084
0.46665785 -0.1339693 -0.327326 -0.03847325 0.589503 0.3425117 -0.05947203 -0.13235638
-0.13269751 -0.44080597 -0.080902666 0.12703612 -0.35748687 0.40366834 0.31611952 -0.16493979
-0.053874146 0.19709441 0.21863148 -0.10221052 0.34343714 -0.57107836 0.32141995 0.07837105
-0.4460067 0.21667394 -0.5336614 -0.14479476 -0.21626118 0.31168586 -0.5528697 -0.3164966
0.52874297 0.15722644 0.18772736 0.29796052 -0.28466153 0.2640364 0.1255758 -0.11099261
0.019043459 0.28938517 0.12575293 -0.52934843 -0.6020105 0.48361653 -0.4438144 -0.2288928
0.36930773 -0.14756683 0.35352358 -0.18398947 -0.081240356 -0.30597898 0.19950163 0.5219367
-0.43655282 -0.20865488 -0.1587097 0.26761338 -0.51988006 0.32305604 0.101383865 -0.017546952
0.34869522 0.23441866 -0.2318432 -0.155772 0.053394675 0.23574348 0.06803626 -0.54543567
-0.18262623 -0.20586543 -0.26643637 -0.54935503 0.008067683 0.24999118 -0.5617555 -0.14464447
-0.21201542 -0.26346833 0.28210884 0.42786437 -0.083557904 -0.07313882 0.122100346 0.21638715
-0.020974517 -0.32196552 -0.4847574 -0.4834476 0.0027358532 -0.2280271 0.40596366 -0.0492844
0.20261428 -0.42939222 0.15971409 0.37158406 -0.23060137 0.4806791 0.099668264 -0.6007991
0.07043612 0.30466655 -0.09512442 -0.3991673 -0.13738617 -0.49128327 -0.17534664 -0.4298513
-0.52902365 0.53241813 -0.20099947 0.22748703 -0.48807693 -0.35313985 0.16168894 -0.12011939
0.14132889 -0.58802485 -0.58132255 -0.500143 -0.12932768 0.42636412 -0.43337083 -0.47971606
-0.04385607 0.07672341 0.3231631 -0.15251005 -0.12345171 0.2650037 -0.07701567 -0.5423717
-0.02358704 -0.08251619 -0.56333697 -0.16317186 -0.49280846 0.29449052 0.0348906 0.39206833
0.039796498 0.20036511 0.4503824 0.07053554 0.29970282 -0.525677 0.2714658 0.26314765
0.10168146 0.04284283 -0.20692587 -0.3190275 0.31426847 -0.2530697 0.35343304 0.15689695
0.18976279 0.28066394 -0.12331241 -0.14921957 0.47675294 -0.0017382931 -0.1710402 -0.022776246
-0.56459093 0.21788095 0.20548658 -0.55068195 0.41677377 0.050282657 -0.15858042 -0.34320965
-0.6081655 0.2273342 0.45083845 -0.1523745 -0.3879521 -0.4263808 0.37275404 -0.029006183
0.2733461 0.31421536 -0.38996744 0.13815027 0.34275848 0.40262443 0.2731115 0.32869643
0.53552955 0.14812979 -0.30763513 -0.036076665 0.5626659 0.13969952 -0.1439498 -0.10383642
-0.52612984 0.11376078 -0.3690871 -0.002072255 -0.27008763 0.4204802 -0.31546086 0.54383284
0.52154136 0.34960353 -0.57282746 0.30874258 -0.21387434 -0.1972911 -0.30432275 0.40017372
-0.015695568 0.07567085 0.08425569 -0.36850965 0.06603819 0.20058596 0.24962337 0.23912048
-0.58937013 0.07278604 0.07804824 0.36948115 0.18318623 0.41456562 -0.11176584 -0.035453975

fc_layers.0.bias f4 [128]
00000000: d3eb 4dbe fd94 ecbd 38ca 8fbe 5aa7 cabd
00000010: fb47 0cbe e5de b3be e808 a1bc dc0a 89be
00000020: 9cd2 23be 695d afbd 89ec 5fbe b9e3 62be
00000030: c564 94be 3eab 1fbe d273 1bba b4cb 22be
00000040: a87c dc3c 1d48 45be c791 33be 4df2 9cbe
00000050: 75ef acbe dc00 30be 427a 69be e189 0fbe
00000060: cfe3 4fbe 551b 1cbd fd8e c0be fc56 4abd
00000070: 40d8 1dbe 9e03 d03d 28b3 6cbe 41b9 10be
00000080: 2148 ecbe 7778 95bd 7d11 62be 700d e8bd
00000090: cdc4 c1be 96bf c1bd 1334 a9bd 2a37 a4be
000000a0: 38ca b7bc 83d6 98be 9e68 99be 808a 62be
000000b0: f464 c5bd 40d9 5bbd 860f 6abe 1bb7 c6be
000000c0: db1a 70bd 952d 20be 46f1 02be 5f6a 45be
000000d0: 40b7 81be ce62 93be 1ea2 563d 6064 4fbe
000000e0: 65cc 65be ac90 96be d4a0 eabd 3e1e 1dbe
000000f0: 0f02 57bd 2f5a 3abe fc2d b9be aeeb 32be
00000100: 5d6a febd 2adf edbe f9ab 74bc b981 82be
00000110: 80e9 273e 88ed f7bd 7535 03be 1187 a8be
00000120: 9ad6 5cbe a40f 0ebe c8e0 a9bd 1c0a 9fbd
00000130: 3c9f 48be 5bb6 33be c1e5 13be e980 9fbe
00000140: f8cd 42be 123a 94be f704 85be 3d34 99be
00000150: be4b 51be 7da4 91bd 8a23 50be 6cd2 f9bd
00000160: ab21 9abe f32f 48be d59b 4dbd ced5 dabe
00000170: 3db3 44be 059d d3bd a497 f0bd 0e83 c9be
00000180: abac 13be f113 14be 846f 5ebe 97ab 41bd
00000190: efdd 4ebe 3168 18be 6444 f5bd eb5f bbbe
000001a0: 0be6 97be 2800 29be 6d8f 6ebd 4f37 51bd
000001b0: 1e5b 35be e022 2d3d 335e 33bd 3ef0 acbe
000001c0: 0967 96be a68f 6bbe c82a afbe 5482 a9be
000001d0: e538 4cbe b304 26be e23e 68be 6396 dcbd
000001e0: a0f0 b9be e676 dabe 535d 99be 2f2a 4dbe
000001f0: e2d4 8bbe f933 d6bd f3e0 fdbd f78f 8dbe
-0.20109491 -0.11551855 -0.28083968 -0.09895201 -0.13699333 -0.35130993 -0.019657567 -0.26766098
-0.1599831 -0.085627384 -0.21867575 -0.22157182 -0.2898313 -0.15592667 -0.00059300393 -0.15898019
0.02691491 -0.1926579 -0.17536078 -0.3065361 -0.3377644 -0.17187828 -0.22800544 -0.1401744
-0.20301746 -0.038112003 -0.3760909 -0.04939936 -0.15414524 0.1015694 -0.23115218 -0.14133169
-0.4614878 -0.072983675 -0.22076984 -0.11330688 -0.3784546 -0.0946037 -0.082618855 -0.32073337
-0.022435293 -0.2985116 -0.2996263 -0.22123146 -0.09638396 -0.053673983 -0.22857484 -0.38811573
-0.05861936 -0.15642388 -0.12787351 -0.19278859 -0.2533512 -0.2878632 0.0524007 -0.20253134
-0.22441252 -0.2940725 -0.11456457 -0.15343568 -0.052492198 -0.18198465 -0.36167896 -0.17472717
-0.12422631 -0.46459323 -0.01493358 -0.25489596 0.16397667 -0.12105852 -0.12813361 -0.32915547
-0.21566239 -0.13873154 -0.08294827 -0.077656 -0.19591993 -0.17550032 -0.14443113 -0.31153038
-0.19023883 -0.28950554 -0.2598035 -0.29922667 -0.2043905 -0.07111452 -0.20326057 -0.12198338
-0.30103812 -0.19549541 -0.05019744 -0.42741245 -0.19208999 -0.103326835 -0.11747673 -0.393578
-0.14421336 -0.14460732 -0.21722227 -0.04728278 -0.20201848 -0.14883496 -0.11975935 -0.36596617
-0.29667696 -0.16503966 -0.05824225 -0.051078137 -0.1771054 0.042269588 -0.043791007 -0.3377704
-0.29375485 -0.23004016 -0.34212327 -0.33107245 -0.19943579 -0.1621273 -0.22680238 -0.107708715
-0.36316395 -0.42668837 -0.29954013 -0.20035623 -0.27310854 -0.10459132 -0.12396421 -0.276489

fc_layers.3.weight f4 [64, 128]
00000000: 1efe cd3d e754 33be d4e1 0fbe abe6 44be
00000010: 929f d5bd 270e 883d 09ab 753c b9bc b9bc
00000020: c4a2 3a3d 9858 c3ba 424c 84bd 15cb abbd
00000030: 223d 89be ad3a 4abc aa47 a3bd d7da 28be
00000040: 41a2 7d3d c874 75bd 5b6b 9b3d 8bac 19ba
00000050: 845f 65be 91a6 bc3c 5a4a c93b bc2b f0bd
00000060: 1260 85bd 0e54 2abe 60f5 d5bd c5e1 dbbd
00000070: bffc 18be 4436 bdbd d0e0 d83d 4b83 32bd
00000080: c9b6 cb3d d8fd 30bd 03cc f5bd 5257 b03d
00000090: d4f0 eebd a8f0 4fbe ac10 8d3d 6305 6ebe
000000a0: 2986 aebd 9947 59be da16 5dbe bfe8 93bd
000000b0: 66cb 02be 9880 893c 88bb 013d 0c93 a5bd
000000c0: 80a3 0abd 449b 2cbe b90f 033e e18c 8bbd
000000d0: 4642 b03d 474c 4ebe 9070 4fbe 0174 bb3d
000000e0: 8c3e 66be 288a 2dbe 9465 3dbe 2dfc 223e
000000f0: a7a8 c43d ccf6 20be 9678 00be 55cb 563d
00000100: d360 4abe 8567 183d 25cc 78bd c020 bdbd
00000110: 6016 58be 3df0 e1bd 8aa8 6b3d b683 4f3e
00000120: c012 adbd 27a1 06bd 4ffa 46be ffbb 61be
00000130: a4bc 94bc 9187 e13d 682d 94bd f844 bd3d
00000140: 03b2 53be b0bc 313d 331c 093e 24ce 20be
00000150: 3a3b 073e 18d0 24be a906 a6bd 6783 283d
00000160: e4b6 85bd d734 47be 481b a33d b064 7dbd
00000170: b85d 51bd a254 c6bd c32a e1ba 0378 c7bd
00000180: 04bd 553b 1378 14be 9836 59be b280 8d3d
00000190: f007 0e3e 4168 393d d460 8fbd 2bf2 2b3e
000001a0: 2eb6 87be acf3 41be a3c9 38bc f5e1 5e3d
000001b0: ef6c b9bd 4de2 e6bd a303 84bc 3a60 cd3d
000001c0: 00a2 3fbe 135e 30bd dee4 20bd 9923 72be
000001d0: d9af 30be 80fc 22bd 3b9f 2fbe 1a53 6bbe
000001e0: 3f02 143e f191 ee3d 2ce3 96bd 9f52 d2bd
000001f0: a667 5cbe effd 54be 326f f5bd 145f 37be
00000200: dc13 dcbd f750 923e e043 14be 8b9b d83d
00000210: 1aea 713e 6593 41bd aae4 b1bc 91fd 9aba
00000220: 8ca8 9abe 75fd f3bb 96c6 55be 5814 80bc
00000230: 83c5 f2bd f48e 0e3e 7969 063e 69e8 55be
00000240: a7b0 48be 0e78 ce3d 9b01 2cbe 758d e4bd
00000250: cf9c 00bf fe0e 913e 86fe 04be 691e b1bd
00000260: 18b6 85be b5af a8bd ab98 0c3e 84a0 3dbe
00000270: 4e9c 5d3e a82f 4d3e 6c8a 28be cb7e 4fbe
00000280: f456 513d 3618 58be 7ffd 0bbe e29e 93be
00000290: 2843 c0be 6610 33be 6813 b8be 3a00 54be
000002a0: fae5 98bd 21ee f7be f5c0 253d 79a9 8c3e
000002b0: 51a2 6abe 0879 9dbe 76c1 ebbd ea77 76be
000002c0: 8ae0 19be 0de8 213e ba8b 023e db93 99be
000002d0: da65 3f3e d864 603c b387 53bb 7829 1cbe
000002e0: 0201 913e 8fd5 64be dea7 60be 67d5 563e
000002f0: bea3 963d 73bf c4be 9ece 28be 82f0 6dbc
00000300: a815 cebd 9afc 733b e311 42be f43c e6bd
00000310: 2229 c5be 292a c7bd 3bae c0be d190 f63d
00000320: d146 fdbd cd35 cabd a645 ecbd ca57 43be
00000330: 3c85 ecbe 7358 9cbe 67ac 76bd 165e 73bd
00000340: 02e8 83be 1121 42bb c19d 84be a05f 6fbe
00000350: e897 d0be 008b 6c3d ee52 84be a23c a0be
00000360: 439f debd 022a 91be bc02 313e 4407 1fbe
00000370: ecdb 02bd 933a 5a3e 4315 66be ab14 173d
00000380: 6dad 2d3e d6ed 77be bede 153e 6716 173e
00000390: 0d0d 10be db99 f83a e758 803e 9deb fd3c
000003a0: db85 90be e66a b83c 8e9b fabc b38b aebe
000003b0: 7ac4 2fbe 5558 20be b263 7f3e 7385 3bbe
000003c0: 9582 4bbe f8ea 903d dbff 7fbe f1be 8dbe
000003d0: da22 45be 5797 30be 9952 29bd 7572 87bd
000003e0: bfa2 bc3d f87c 9c3d 7dc2 63be 0725 0bbe
000003f0: 9261 5abd bd61 5f3e 0e26 b13c 71d3 bfbe
0.10058235 -0.17512856 -0.1405099 -0.19228618 -0.10430826 0.06643324 0.014994391 -0.022672998
0.04556538 -0.0014903722 -0.064598575 -0.08388344 -0.26804453 -0.012343091 -0.07972653 -0.16489731
0.061922316 -0.059925824 0.07588836 -0.0005862198 -0.22399718 0.023028644 0.0061428966 -0.11727092
-0.065124646 -0.16633627 -0.10447192 -0.107364215 -0.14940165 -0.09238866 0.105897546 -0.043582242
0.09946973 -0.043210834 -0.12001803 0.08610405 -0.11667028 -0.20306647 0.068879455 -0.23244242
-0.08521683 -0.21218719 -0.21590748 -0.07222127 -0.12772903 0.016784951 0.031672984 -0.080846876
-0.033847332 -0.16856104 0.12798966 -0.0681398 0.08606391 -0.20146285 -0.20257783 0.09152985
-0.22484797 -0.16947234 -0.1849578 0.1591651 0.096024804 -0.15719146 -0.12546 0.052440006
-0.19763498 0.0372081 -0.060741562 -0.09234762 -0.21102285 -0.1103215 0.05753378 0.20265087
-0.08450842 -0.03286853 -0.19431423 -0.22044371 -0.018156357 0.11012185 -0.07235223 0.0924167
-0.20673375 0.043392837 0.13389663 -0.15703636 0.13206187 -0.16095006 -0.08106739 0.04114094
-0.06529024 -0.1945375 0.07964188 -0.0618636 -0.051114768 -0.09684111 -0.0017178882 -0.09739687
0.0032613883 -0.1449893 -0.21212232 0.06909312 0.13870215 0.04526544 -0.070008904 0.16791598
-0.2650618 -0.1894061 -0.011278543 0.05441471 -0.090539806 -0.11273632 -0.016115015 0.100281194
-0.18714142 -0.043058466 -0.039280765 -0.23646392 -0.1725458 -0.039791584 -0.17150585 -0.2298092
0.14453982 0.1164893 -0.07367548 -0.10269665 -0.21523914 -0.20799993 -0.119840994 -0.17907363
-0.107459754 0.28577396 -0.14479017 0.105765425 0.23624459 -0.047259707 -0.02171548 -0.0011824836
-0.30206716 -0.007445986 -0.20876536 -0.0156347 -0.118540786 0.1392172 0.13126172 -0.20889439
-0.19598638 0.10081492 -0.16797487 -0.11159793 -0.5023927 0.2833175 -0.12987718 -0.086483784
-0.2611549 -0.082366385 0.13730113 -0.18518263 0.21641657 0.2003771 -0.16459054 -0.20263211
0.051108316 -0.21102986 -0.1367092 -0.28832155 -0.37551236 -0.17486724 -0.35952306 -0.20703211
-0.074657395 -0.48423865 0.04046722 0.27473047 -0.22913481 -0.30756402 -0.11511509 -0.24069181
-0.15027061 0.15811177 0.12748614 -0.29995617 0.18691197 0.013695918 -0.0032276928 -0.15250194
0.2832108 -0.22347091 -0.21939036 0.20979844 0.0735545 -0.38427314 -0.16485068 -0.014522674
-0.10062724 0.003722942 -0.18952136 -0.11242095 -0.38507944 -0.09724838 -0.37632927 0.1203934
-0.12367023 -0.09873543 -0.11536722 -0.19076458 -0.461954 -0.3053623 -0.06022301 -0.0594159
-0.25762945 -0.002962176 -0.25901607 -0.23376322 -0.40740895 0.05774975 -0.2584452 -0.3129626
-0.108702205 -0.28352362 0.172862 -0.15530115 -0.031948015 0.21311407 -0.22469048 0.036884945
0.16960688 -0.24211821 0.1463575 0.1475464 -0.14067478 0.0018966751 0.25067827 0.030996138
-0.28227124 0.02251191 -0.030591752 -0.34090957 -0.17164794 -0.15658696 0.24940374 -0.18312626
-0.19874032 0.07076067 -0.24999945 -0.2768474 -0.19251576 -0.17245232 -0.041338537 -0.06613628
0.09210729 0.076410234 -0.2224216 -0.13588344 -0.053315707 0.21814628 0.021624591 -0.37466004

fc_layers.3.bias f4 [64]
00000000: 0bf2 a0bd 009e dabd 0169 fd3d f207 a0bd
00000010: 7dff 0ebe 6900 0b3e c959 20bc 45f5 1bbe
00000020: 1dfb d53d ad23 a13e ea97 ce3c f885 ab3d
00000030: e02d 0abd c7f3 01be 023b 20be d9ea cb3d
00000040: ef19 143e 61c3 41be 2beb f23c 19ca b03d
00000050: 41e7 b83d b168 073e 0c5b c0bd 5de5 21bc
00000060: 2f3f 39be a0cf 343c 64ef c33d dd30 a93d
00000070: a628 15be 84dc 3f3d 20c1 01be 5936 1e3e
00000080: fec8 a03d 1256 623d 114d c6bd dde0 45be
00000090: 38d0 46bd 3d5c 133e 0456 da3d 3517 c43d
000000a0: 97e3 55be a00d a9bc 7625 273e dd63 3ebe
000000b0: 6139 35be aa75 8dbd bfaf 2cbc 90a9 3e3e
000000c0: baa6 b6bd 6d74 a63d 452d a4bd 4413 613d
000000d0: e60a 0bbe 40b6 d13d c5c8 063c c20e 823d
000000e0: 17ba b93d e50f cabd 3c79 95bd cd48 cf3d
000000f0: 9ac5 14be c2d4 e23c 2b18 673d eea4 803d
-0.07858666 -0.10674667 0.123735435 -0.078140154 -0.13964649 0.13574375 -0.009787031 -0.15230282
0.10448287 0.3147253 0.025218923 0.08375162 -0.033735156 -0.1269065 -0.1564751 0.09956903
0.14463018 -0.18922187 0.029653152 0.08632297 0.09028483 0.1322353 -0.09392366 -0.009881345
-0.18090509 0.01103583 0.095671445 0.08261273 -0.14566287 0.04684116 -0.12671328 0.1545042
0.07850836 0.055257864 -0.09682668 -0.1932406 -0.048538417 0.14390655 0.106609374 0.09574739
-0.208876 -0.02063638 0.16322884 -0.18592782 -0.1769767 -0.06907208 -0.010539948 0.1861937
-0.08918519 0.08127675 -0.08016447 0.054950014 -0.13578376 0.102398396 0.008226578 0.06350471
0.09068697 -0.09866313 -0.07298514 0.101213075 -0.14528504 0.027689341 0.056419533 0.06281458

fc_layers.6.weight f4 [32, 64]
00000000: e517 5e3e 23f2 7ebd ebac b0bd 644c 403d
00000010: 2e2f d3bc 8f02 423d f5f7 463e fa1f 793e
00000020: 2474 76be 752b 0dbe 0bb8 00be 97c1 873e
00000030: 6a66 e9bb b81d 4dbe 72ab 103c 3f2f 09be
00000040: 822c 3fbd 8632 b93c d1b8 36bd e016 afbd
00000050: 51da 643e 0a92 6ebe 2578 a7bc 0e81 01be
00000060: 0103 78be 9631 8abe d41d 0ebe 0e2a 63bb
00000070: 72bf 89bc 3dff 35be 5a06 93be cc3c cb3d
00000080: 711d f3bb cecb 83bd 3fa6 6f3e f096 60be
00000090: 57b3 52be e26a 633d ff35 a8be c234 71be
000000a0: 5985 68be 8a9d 893c 367a 99be 85fb 89be
000000b0: 11d5 d63d 3364 57be 80ea 9bbd d88c ab3e
000000c0: a49f 093e 2748 dbbd 9796 44be fe0c a43d
000000d0: 5608 06bd 0a76 96be 540f f93d 800f 7f3d
000000e0: 2b51 edbe 7724 3abd 14c1 9e3d eab3 e9be
000000f0: e152 6f3d 318e 28bd f2fb 3bbe 7de8 95be
00000100: 173d 3fbe 30e9 253d f753 74be 755e 96be
00000110: 5045 21be 4f2a 233c bdd8 813e 9260 6b3e
00000120: 612b 1bbe 8002 f1bd 3206 463e 4057 d83d
00000130: 3c81 97be 68d4 78be 04c0 87be 57c2 68be
00000140: 4771 c3bd 475d 1cbe eb7b 3d3b 2d09 2f3e
00000150: aa0a 8c3c d29f 5ebe 862f 7abe c251 59be
00000160: a4ff cd3d 6616 54be 1e03 43bd a314 79be
00000170: 9343 9bbe 2585 de3c d0a8 d7bd cbe4 9dbe
00000180: fadb 3cbe 6166 83bc 83cb 2fbd 29be 86bb
00000190: 79e6 333e efd3 79bd 957c 8fbe 8170 0c3d
000001a0: a5f2 dfbd d0c9 f73d 14e2 2cbe b13c 283e
000001b0: b221 783e 8dfc cc3d f434 0dbe f711 64bd
000001c0: 8b83 423e f509 cbbc 3700 21be 7ee4 90be
000001d0: 7ecc 74bd 5cb5 263e 0a68 fbbd 67f2 0abd
000001e0: 5d62 5dbe 5e96 6cbb 0de9 c03c 6294 c9bd
000001f0: f629 6b3e 345e 6c3d 4ee0 2c3d 8739 85bd
00000200: 5bd6 7ebe f770 01bf c594 d0be ca22 a93d
00000210: 8bec 1bbe de14 34bf 39a7 debe c988 873e
00000220: d22a 9a3e 5d02 983e 8bb1 20be d2ab f0be
00000230: 744e 4cbe 0062 ec3c 359f a33c 1913 a7be
00000240: 19d8 ecbe 564d 183e 73e0 813e 643e ae3e
00000250: 72dd e0be 0c6a ccbe 2676 efbd 2993 94be
00000260: ded9 99be 8a40 eabe d34c 6bbe 045e 47be
00000270: ba35 b2bd 5fab cabe fa22 fe3d d86e 07bf
00000280: 0937 6bbe b504 2bbe 2492 31be 3e5f 8dbe
00000290: 2eea 25be 0f01 75be 6905 9cbe 7a03 403d
000002a0: 9674 e93d 9f1c bcbe 3de5 04bf a5e6 63bd
000002b0: fb34 7f3e 78d2 413d b094 83bd fa51 c6be
000002c0: 68e8 58be 0e36 69bd 1368 debc 427b 8ebe
000002d0: 242a ab3d 6bed 3bbe bc9f aebe fcf2 e3be
000002e0: 8c2b 82be 9d6f 533e 737a eabd bb58 bbbe
000002f0: 7e11 f7bd 8e11 cdbe c130 cbbe 2850 e6be
00000300: 3a32 3c3d 8a6b babe 7aa9 0abe 43bc c0bd
00000310: 562a 613e 1ca2 b23c ccdc 6a3e 2a1f 1ebd
00000320: 7a8e 5bbe b08a 4dbe 48d4 283e b3c0 e1bd
00000330: 3d7b 0fbe 3440 e73d 67cf 73be 413e df3c
00000340: c64a 70be d0dd cc3d 39da fabe 0c06 3d3d
00000350: 984e 363d a2e8 0e3d 1f4a f23d c7dc 43be
00000360: 1025 7ebe 8970 27bd 5d72 be3b e415 b53e
00000370: fd4b 21be 2a4a 6dbe 5bac 44bd f8bb dbbd
00000380: e5b4 933d bc54 2ebe ea3a bfbb 1f46 a5bd
00000390: 72f0 fe3b a09e 5a3c b165 20be 1d2c 1d3c
000003a0: a999 87be e023 bdbd 93a1 a9be c121 903d
000003b0: 8ef0 e63c a05f 833e e454 843c 9fdf a1be
000003c0: d4d0 30bd 74b0 d2bd e26b b2be 068b 4abe
000003d0: 1af8 033c a47e 9dbe 362c 3abe 1aa4 573d
000003e0: cd13 b83e 45e2 873e 9725 1b3e 7c36 febd
000003f0: 1e93 743e de66 00be 7205 13be 5223 3fbe
0.21688803 -0.06224264 -0.086267315 0.04694785 -0.025779333 0.04736572 0.19430526 0.24328604
-0.24067742 -0.13786109 -0.12570207 0.26514885 -0.0071228044 -0.20030868 0.008829938 -0.13396929
-0.046673305 0.0226071 -0.04460985 -0.08549285 0.22348906 -0.23297897 -0.020443032 -0.12646887
-0.24219896 -0.26990956 -0.13878566 -0.0034662518 -0.016814921 -0.17773147 -0.28715783 0.099237055
-0.007419281 -0.06435357 0.23403262 -0.21932578 -0.20576225 0.055521853 -0.32853696 -0.23555282
-0.22707118 0.016798753 -0.29976052 -0.26949707 0.10489858 -0.21034317 -0.07613087 0.33505893
0.13439804 -0.10707121 -0.1919807 0.080102906 -0.032722794 -0.29386932 0.12161127 0.06227064
-0.4635099 -0.04544493 0.077516705 -0.45645076 0.05842865 -0.04115123 -0.18357828 -0.29278937
-0.18675648 0.040505588 -0.23860155 -0.2936894 -0.15749097 0.009958818 0.2536067 0.22986057
-0.15153266 -0.11768055 0.19338301 0.105635166 -0.29590786 -0.24299777 -0.26513684 -0.22730385
-0.0954309 -0.15269957 0.0028912972 0.17093344 0.017094929 -0.21740654 -0.24432191 -0.21222594
0.10058525 -0.2071167 -0.047610395 -0.24324279 -0.30324993 0.027163098 -0.10530245 -0.30838618
-0.1844329 -0.016040029 -0.042918693 -0.0041120243 0.17568387 -0.06099313 -0.28024736 0.03428698
-0.10934953 0.120990396 -0.16883117 0.16429402 0.24231604 0.10009108 -0.13789731 -0.055681195
0.18995492 -0.024785021 -0.15722738 -0.28299326 -0.05976533 0.1628012 -0.12275703 -0.03392258
-0.21619554 -0.0036100368 0.023548627 -0.09842755 0.22965226 0.057707027 0.0422061 -0.06505113
-0.24886458 -0.50562996 -0.40738502 0.082585886 -0.15226953 -0.7034434 -0.43486956 0.26471546
0.30110794 0.29689303 -0.15692727 -0.47006088 -0.19951802 0.028855324 0.019973377 -0.32631758
-0.4625862 0.14873251 0.25366554 0.34031975 -0.4391895 -0.39924657 -0.11692457 -0.29018524
-0.30049032 -0.45752364 -0.22978525 -0.19469458 -0.08701654 -0.3958387 0.12409015 -0.5290351
-0.22970213 -0.16701014 -0.17340904 -0.27611727 -0.16202614 -0.23926185 -0.30472878 0.046878316
0.1139919 -0.36740586 -0.5191229 -0.05563988 0.24922554 0.04731986 -0.06424844 -0.38734418
-0.21182406 -0.056936316 -0.027149236 -0.27828413 0.08357647 -0.18352287 -0.34106243 -0.4452132
-0.2542385 0.20648046 -0.114491366 -0.36591133 -0.12063883 -0.40052456 -0.39685634 -0.4498303
0.045946337 -0.3641017 -0.13541213 -0.09410908 0.21988806 0.021805815 0.2293579 -0.03860394
-0.21441069 -0.20072436 0.16487229 -0.110230826 -0.14011855 0.11291543 -0.23809586 0.027251365
-0.23466024 0.10003245 -0.48994616 0.046148345 0.044508547 0.034889825 0.11830544 -0.19127189
-0.24818826 -0.040878806 0.005811973 0.35368264 -0.15751643 -0.23172823 -0.048015933 -0.107292116
0.07212237 -0.17024511 -0.0058358805 -0.08070015 0.007780128 0.013343483 -0.15663792 0.009593037
-0.2648442 -0.09235358 -0.33131084 0.07037688 0.028190877 0.25658894 0.01615376 -0.31615922
-0.043167904 -0.10287562 -0.34847933 -0.19779596 0.0080547575 -0.30760682 -0.18180928 0.052646734
0.35952607 0.26539817 0.15151058 -0.12412736 0.23884246 -0.1253924 -0.14357546 -0.18665817

fc_layers.6.bias f4 [32]
00000000: 2574 c3bc 660d b4be 000b ac3d 195b a2bd
00000010: a269 813e b166 cbbe cff9 adbd 947b 93bd
00000020: 3a66 5bbe e6f5 e2bd 8e54 253b 4b8c 9dbe
00000030: 2ae2 f53d d8de 123e ef54 80bd b85f bd3d
00000040: 740f a53e 4feb 80bd d326 94bd 3cd6 463e
00000050: e62d 133f 70d0 6fbe 0c45 1a3e 7fe3 6f3e
00000060: fc67 213e fe51 abbe 52ee e6bd 6055 8cbd
00000070: 26dc d1bd aabf eb3e 22a7 1b3f cd9c 5a3e
-0.023859093 -0.35166472 0.084005356 -0.07927532 0.25275904 -0.39726785 -0.08494913 -0.07201305
-0.21425715 -0.11082058 0.00252274 -0.30771098 0.12006028 0.1434282 -0.062662 0.092467725
0.32238352 -0.062948816 -0.07233968 0.19417661 0.5749191 -0.23419356 0.15065402 0.23426627
0.15762323 -0.33460993 -0.11275925 -0.068522215 -0.10247068 0.46044666 0.608019 0.21348877

fc_layers.8.weight f4 [4, 32]
00000000: 1d36 8cbd 0a15 efbd 1c4a 05bf 3bc2 853d
00000010: 4657 263d a490 9cbd 2264 acbe fda1 afbd
00000020: f561 efbd 51dd 99be 42ec 223e d05e bfbd
00000030: 37d1 7fbe ffaf 8bbd bafa abbd b64a 71bd
00000040: 617a b83d b154 fd3d 9247 c23d df0a 273e
00000050: 55f8 9f3e 0896 9a3e 94d1 27bd 8f18 bd3d
00000060: bf1b 7d3d 2c5f 66be 2221 89bc 9dee 613e
00000070: 20c1 5e3d 8696 013e db3d 833e 5ef4 37bf
00000080: 71cd 37bf 60eb 21be e3f7 77be 54ed 83be
00000090: 4eb1 41bf 8256 97be f70d dcbd 4ee7 af3b
000000a0: f6df e63c 15ec 80bd 477a 363e 484e ac3c
000000b0: 833e 253c f867 123e e206 4fbe e893 b3be
000000c0: b323 633e 4450 56bb c6cd 8f3d 0088 273e
000000d0: 3dbb 9c3e e5f2 46bd 1553 343e 53d0 413e
000000e0: daef acbe f1d0 80be bfcd aabe f314 ac3d
000000f0: aa79 843d a80d 953e a14d 6e3e 3dd4 68be
00000100: b300 4f3d ee36 37bd 9751 41be e5c2 163c
00000110: 2a12 a7bd df06 893e 1794 7abe 8f44 b7be
00000120: 1b74 26be da6e 093c 70f1 d1bc b039 d0bc
00000130: a40d 6ebd 40b2 3fbd 8f5a cfbe 31e4 1e3d
00000140: e313 9bbd 8adb 403b 669e 893e 05ae 163c
00000150: 828f 863e 4405 fa3c 4ae9 6c3e bc43 b7be
00000160: b373 2b3e d67d 86bc 3830 e63c b2a0 0e3c
00000170: 81de 09be b8bd 553e 4524 df3e 374a 4fbf
00000180: 7424 41be 9837 393d d0cd 2fbd c02f b5bd
00000190: cacc 88be 9ff1 64be 86ff 94bd 4869 803c
000001a0: d343 993d ab69 e63c 77f0 a63e e689 0c3e
000001b0: 1344 e83d 5cfe 5d3c 6b18 853e b694 abbd
000001c0: 7ffc 0d3e ed8b 353e 07df 6c3e 87ab 893d
000001d0: eac5 3c3e 0b18 2e3d dd6c cdbe 51b0 a33d
000001e0: 1d95 14bd 8e96 e2be ad48 8abd cf21 1c3e
000001f0: 1321 6c3e 1b7c d93d a819 87bb 2bdf 38be
-0.06846259 -0.11673935 -0.52066207 0.06531187 0.040610574 -0.076447755 -0.33670145 -0.08575819
-0.11688606 -0.30051664 0.15910438 -0.09344256 -0.24982153 -0.06820678 -0.08397432 -0.05890914
0.09007717 0.12369669 0.09486307 0.1631274 0.3124415 0.3019259 -0.040971354 0.092332
0.06179404 -0.22497243 -0.016739432 0.2206368 0.054383397 0.12655076 0.2563313 -0.7185725
-0.71797854 -0.15812445 -0.24215655 -0.25767004 -0.7566117 -0.29558188 -0.10744851 0.00536815
0.028182965 -0.06295029 0.17820083 0.021033421 0.010085705 0.14297473 -0.2021747 -0.3507378
0.22181587 -0.003270165 0.0702167 0.16360474 0.306116 -0.048571486 0.17609818 0.18927126
-0.33776742 -0.2515941 -0.33360097 0.08402433 0.06468518 0.2911198 0.232718 -0.22737212
0.050537776 -0.04473012 -0.1887878 0.00920174 -0.081577614 0.26763055 -0.24470554 -0.35794494
-0.16255228 0.0083882455 -0.025627822 -0.025418133 -0.058118477 -0.04680085 -0.40498778 0.03879184
-0.075721525 0.002942773 0.2687866 0.009196763 0.26281363 0.030520089 0.23135868 -0.35793865
0.16743354 -0.016417425 0.028099164 0.008705305 -0.13463785 0.20873153 0.4358236 -0.8097262
-0.18861562 0.045219034 -0.042920887 -0.08846998 -0.26718742 -0.22357796 -0.072753 0.015675202
0.074836396 0.028126558 0.32605335 0.13724479 0.11341109 0.0135494135 0.25995192 -0.08377974
0.13865851 0.17729159 0.23131953 0.06722169 0.18434873 0.042503398 -0.4012212 0.07992614
-0.036275018 -0.4425549 -0.06752143 0.15247272 0.23059492 0.10619374 -0.0041229315 -0.18053882

fc_layers.8.bias f4 [4]
00000000: 8b41 6d3e a9e1 853e 72df 703e e351 f23e
0.23169534 0.26148728 0.23522738 0.473281
