output/dqn/model/4x4/2000.pth (torch, 53468 bytes, 8 tensors)

fc_layers.0.weight f4 [128, 16]
00000000: 5634 0a3e b4fd ae3e 008c a53c ec82 e83e
00000010: d6f5 d73e 8079 f0bd 8746 d43e a609 f13e
00000020: 4b54 473e f712 043f e7b8 e7be 80d7 e8be
00000030: 5136 103f f633 093f b847 bf3d 5841 9a3e
00000040: b810 75be 2aff 93bc 31b3 8e3d ea98 fbbe
00000050: 6692 f13d 3657 f83e 20db c8be 2a5f 0bbf
00000060: 94be 813e 402f 09be 4697 a7be 2096 1dbd
00000070: abe9 163f 83f1 0e3f f198 73bd 6e88 07be
00000080: dbe1 07be 52b1 e1be 2ca7 323b c845 003d
00000090: 8508 b7be 9ead ce3e 8389 db3e fae5 28be
000000a0: b9f2 a1bc 65eb e13e 4904 cc3e c053 d1bd
000000b0: fed6 af3e 3132 12bf 49b1 e93e 0081 a03d
000000c0: fd5a e4be 0321 103e 099e 08bf 0ad7 02be
000000d0: 9273 5dbe 4a95 9f3e de88 0dbf d80b a2be
000000e0: d726 d43e 7b3a ac3e e2a5 1d3e 488e 983e
000000f0: 28bf 91be 2c38 073f 6ade a83e 1850 e3bd
00000100: 0701 9c3c cd54 863e c112 743e 6183 07bf
00000110: 5c1d 1abf 969c f73e a43b e3be e062 6abe
00000120: adfc a53e c21b 17be cd71 d03e bc67 3cbe
00000130: 5861 a6bd 47a9 9cbe 4b14 d03e a59d 053f
00000140: da83 dfbe a0a9 55be cc84 22be 9f04 893e
00000150: dc16 05bf 9a67 a53e 58a2 cf3d a0be 8fbc
00000160: 2e88 b23e 720b 703e 4e68 6dbe b282 1fbe
00000170: 60b4 5a3d bd66 713e 9856 8b3d aca1 0bbf
00000180: 2fdc f0bd 63ce 52be 596a 88be 88a2 0cbf
00000190: 28fa bdbd b0fd 7f3e 35cf 0fbf ae1d 14be
000001a0: 921a 59be 52e5 86be 945c c13e 0a11 db3e
000001b0: 6820 abbd d445 fdbc 0e4b 8a3e 9894 5d3e
000001c0: c0d2 abbc aad8 a4be 1f32 f8be 7286 f7be
000001d0: 004c 333b f07f 69be 4d57 ef3e 70de 49bd
000001e0: 1e7a 4f3e 4cd9 dbbe 178c 233e 4440 be3e
000001f0: c422 6cbe 1ffa 013f e01e cc3d f8cd 19bf
00000200: 029d 263e d4b6 083f 98d0 c2bd a85f ccbe
00000210: f6ae 0cbe 7b89 fbbe 128e 33be 7815 dcbe
00000220: 186e 07bf cce7 f93e ced2 4dbe 5cf2 683e
00000230: 38e5 f9be bfce b4be c7e9 043f 2801 f6bd
00000240: 6e90 493e cc88 16bf 8ed1 14bf 5f09 00bf
00000250: 7a6e 04be 664c da3e c8e2 ddbe 589d f5be
00000260: 93ee 62bc 33bb 743e d69c 4b3e 982b 1cbe
00000270: 40d4 fcbd 3864 c13e 64ba 9dbd dfd8 0abf
00000280: 9c39 c1bc 40fe a8bd da36 10bf 8616 27be
00000290: 6451 fcbe 76c7 963e 745f 113d 2ebd c83e
000002a0: 5d08 b73d d42e f53e 6f03 c23e f074 903d
000002b0: a672 993e c592 06bf ef0a bb3e 4abb 863e
000002c0: cfd2 ef3e 98a5 443e 60e4 53be 9357 a3be
000002d0: 5dbe 9c3e 5a92 81be fec1 fa3e 98a9 203e
000002e0: 8da9 3d3e 9368 c43e 388b fcbd 04cd 18be
000002f0: f618 f43e fc79 fb3b 2a25 2fbe 4095 babc
00000300: 0889 10bf 0ec9 c43e 1824 3f3e 7ef9 0cbf
00000310: 5098 b13e 30f5 4d3d e862 22be 2db9 afbe
00000320: bcb0 1bbf 9811 a33e 5156 213f 1008 1cbe
00000330: a8a1 c6be 964e dabe d1d0 c23e 609e edbc
00000340: 95cf f53e e759 ff3e d0a9 c7be 5c39 863e
00000350: 18e5 c83e ca24 ce3e 4584 c83e e64a a83e
00000360: 6040 903e 840c 113e 5a82 9dbe 20c5 13bd
00000370: df0a 103f 7589 853e 9467 13be 30a8 d4bd
00000380: 72b0 06bf 719e 0b3f fcf8 bcbe c0a8 3a3c
00000390: ed48 8abe 2e49 d73e 1684 a1be a138 0b3f
000003a0: 2463 de3e 47b2 443e d2a4 12bf 8213 9e3e
000003b0: e001 5bbe ae06 4abe 31d0 9bbe 92e3 cc3e
000003c0: 1eb5 ca3d 82e8 7c3e 0e0c bd3e 4cad bcbe
000003d0: eb03 9a3d 6866 4d3e 8beb aa3e 00dc 743e
000003e0: f6e0 16bf 4e61 363e 4d70 243e a22c bd3e
000003f0: 2c95 3b3e 392b 133f 79ce edbd 3038 11bd
0.13496527 0.34177935 0.020208359 0.45412385 0.42179745 -0.11741924 0.41460058 0.47077674
0.19465749 0.5159144 -0.45258257 -0.45476913 0.5633288 0.5359491 0.09339851 0.30127978
-0.23932159 -0.018066008 0.06967772 -0.49140102 0.117955014 0.48504037 -0.3922968 -0.54442084
0.25340712 -0.1339693 -0.327326 -0.03847325 0.589503 0.5583727 -0.05947203 -0.13235638
-0.13269751 -0.44080597 0.0027260287 0.03131655 -0.35748687 0.40366834 0.4287835 -0.16493979
-0.01976906 0.44124904 0.3984702 -0.10221052 0.34343714 -0.57107836 0.4564307 0.07837105
-0.4460067 0.14075093 -0.5336614 -0.12777343 -0.21626118 0.31168586 -0.5528697 -0.3164966
0.41435882 0.33638367 0.1539531 0.29796052 -0.28466153 0.52820086 0.32982188 -0.11099261
0.019043459 0.26236573 0.23835279 -0.52934843 -0.6020105 0.48361653 -0.4438144 -0.2288928
0.3241934 -0.14756683 0.40711823 -0.18398947 -0.081240356 -0.30597898 0.40640482 0.5219367
-0.43655282 -0.20865488 -0.1587097 0.26761338 -0.51988006 0.32305604 0.101383865 -0.017546952
0.34869522 0.23441866 -0.2318432 -0.155772 0.053394675 0.23574348 0.06803626 -0.54543567
-0.11760747 -0.20586543 -0.26643637 -0.54935503 -0.09276229 0.24999118 -0.5617555 -0.14464447
-0.21201542 -0.26346833 0.37765944 0.42786437 -0.083557904 -0.030917086 0.27010387 0.21638715
-0.020974517 -0.32196552 -0.4847574 -0.4834476 0.0027358532 -0.2280271 0.46746293 -0.0492844
0.20261428 -0.42939222 0.15971409 0.37158406 -0.23060137 0.5077228 0.099668264 -0.6007991
0.16270831 0.53403974 -0.09512442 -0.3991673 -0.13738617 -0.49128327 -0.17534664 -0.4298513
-0.52902365 0.4880966 -0.20099947 0.22748703 -0.48807693 -0.35313985 0.51919216 -0.12011939
0.19684002 -0.58802485 -0.58132255 -0.500143 -0.12932768 0.42636412 -0.43337083 -0.47971606
-0.013850826 0.23899536 0.19884047 -0.15251005 -0.12345171 0.37771773 -0.07701567 -0.5423717
-0.02358704 -0.08251619 -0.56333697 -0.16317186 -0.49280846 0.29449052 0.03549142 0.39206833
0.08937142 0.4788729 0.37893245 0.07053554 0.29970282 -0.525677 0.3653178 0.26314765
0.46840522 0.19203794 -0.20692587 -0.3190275 0.30613986 -0.2530697 0.4897613 0.15689695
0.1852171 0.38361034 -0.12331241 -0.14921957 0.47675294 0.007674454 -0.1710402 -0.022776246
-0.56459093 0.38434643 0.18666112 -0.55068195 0.34686518 0.050282657 -0.15858042 -0.34320965
-0.6081655 0.3184936 0.63022333 -0.1523745 -0.3879521 -0.4263808 0.3804994 -0.029006183
0.48009935 0.49873278 -0.38996744 0.26215637 0.39237285 0.40262443 0.39163414 0.32869643
0.28174114 0.1416493 -0.30763513 -0.036076665 0.5626659 0.26081434 -0.1439498 -0.10383642
-0.52612984 0.5453864 -0.3690871 0.011392772 -0.27008763 0.4204802 -0.31546086 0.54383284
0.43435013 0.19208632 -0.57282746 0.30874258 -0.21387434 -0.1972911 -0.30432275 0.40017372
0.098978266 0.2469807 0.3692326 -0.36850965 0.075202785 0.20058596 0.3338283 0.23912048
-0.58937013 0.17810556 0.16058464 0.36948115 0.18318623 0.5748783 -0.11611647 -0.035453975

fc_layers.0.bias f4 [128]
00000000: 9145 6cbe 3af8 7ebb 1317 c93d 65ac 103e
00000010: 40e1 17bd e5de b3be 9a1c 2e3e c2bb 8dbe
00000020: 235b 20bd a614 493d 4763 4abc aea6 bfbc
00000030: 409d 48be cf98 14be 87ee 47be ce46 e33d
00000040: d8ba f0bc 2989 08be 0077 963d 8dc5 f83b
00000050: e937 1fbe 0a47 30be d9c6 1a3d 44d0 013c
00000060: 80ba d5bd 4f8a 2e3e e483 51be f2b9 203e
00000070: 9bcd 14bd dfdc e93d 9d77 8dbe f69d 47bd
00000080: 2862 6dbe 1efa 973d a376 7abd b2df fbbb
00000090: dbae 2dbe e6b7 dd3d 19cd 4f3d dc26 59be
000000a0: f05a 463d 0d04 45be f7af 77be ea83 05be
000000b0: 8898 4ebd 8f55 63bd 42b0 d6bd 5c96 3cbe
000000c0: 510c aa3d fdc6 2cbd 3dbc 55be a9f9 e7bd
000000d0: 9530 42be 3e42 e1bc 32fb 023e f33e a63d
000000e0: 2d8d 26be 28e8 edbd b0bd b0bb dfef 45be
000000f0: fc0e 96bc f446 fabd d8ab 00be 0d15 66be
00000100: 224c 0e3d eea9 35be 879f 11bd b958 67be
00000110: 35d4 793e f14b 9c3c f156 e9bb b7dd 84be
00000120: 4cd7 a9bd f411 e3bb aa36 c23d 49d1 cd3d
00000130: d048 37be 7124 4d3c bc6d 71ba 39a5 4ebe
00000140: 5af3 98bd c366 7dbe 248c 70be 6fd9 2cbe
00000150: 6e5c bf3b 1542 26bd 9bbc 09be ddeb e0bc
00000160: 77e5 48be 5120 54be 87d7 cb3d 8ead 58be
00000170: 65c5 58bd 2fdd b43d 792c 5c3c 4051 46be
00000180: 420a 77bd c1bf d83d ac9e 09be 2995 b63d
00000190: 2180 0ebd 66b3 e03c d1bb a8bd 562a 73be
000001a0: 9e8d 4cbe ccff bfbd fd4c e33d 9326 303d
000001b0: 5516 9a3d d7e4 363e efaf 193e 024d 54be
000001c0: d2f7 2cbe 5b85 b1bd ea70 05be f2c6 49be
000001d0: 5c51 263d 7f76 9d3d cbda a5bd 3338 163e
000001e0: 19c7 55be a680 93be 24a0 bcbd 9315 0dbe
000001f0: f14f 52be 9922 50be 3b39 3ebd 3a8a c6bd
-0.23073412 -0.0038905279 0.09818854 0.14128263 -0.03708005 -0.35130993 0.17003098 -0.2768231
-0.039149415 0.049091958 -0.012352771 -0.023394909 -0.19591236 -0.14511417 -0.19524585 0.11097489
-0.029385969 -0.13333572 0.07346916 0.0075919093 -0.15548672 -0.17214599 0.037787292 0.00792319
-0.10435963 0.17044948 -0.20460469 0.15695933 -0.036328893 0.11419081 -0.2763032 -0.048734628
-0.23181975 0.07420753 -0.061148297 -0.0076865787 -0.16961233 0.108260915 0.050732706 -0.2120623
0.04842657 -0.19239827 -0.24188219 -0.13038602 -0.050438434 -0.055501517 -0.10482837 -0.18416733
0.083031304 -0.042181958 -0.20872588 -0.11326916 -0.18963845 -0.027497407 0.12791136 0.08117475
-0.16264792 -0.11616546 -0.0053937063 -0.19329785 -0.018317692 -0.122205645 -0.12565553 -0.22468968
0.034740575 -0.17740604 -0.035552528 -0.22592439 0.24397357 0.01907918 -0.00712096 -0.25950405
-0.08293018 -0.0069296304 0.094830826 0.100496836 -0.1789887 0.012520895 -0.0009209772 -0.20180215
-0.074682906 -0.24746232 -0.2349096 -0.1687982 0.005839876 -0.040590364 -0.13450854 -0.027456218
-0.19618784 -0.20715453 0.09953218 -0.21159956 -0.052922625 0.0883125 0.0134383375 -0.19366932
-0.060312517 0.10583449 -0.13439435 0.08915169 -0.034790162 0.027429294 -0.08238948 -0.23746619
-0.19975898 -0.09374961 0.11098669 0.043005537 0.07523791 0.17860733 0.1500852 -0.20732501
-0.16891411 -0.08668014 -0.13031355 -0.19704798 0.040604934 0.07688617 -0.08098372 0.14669876
-0.20876731 -0.28809088 -0.09210232 -0.13777761 -0.20538308 -0.20325698 -0.046441298 -0.096943334

fc_layers.3.weight f4 [64, 128]
00000000: fc61 e83d e754 33be 85fd 02be abe6 44be
00000010: 929f d5bd 270e 883d 09ab 753c f7c9 24bc
00000020: b57a 343d 479a 1d3c 424c 84bd 15cb abbd
00000030: 223d 89be 2230 103d aa47 a3bd 3b3b 24be
00000040: 8f8d a93d c874 75bd f576 9b3d 9690 f63c
00000050: e61a 62be 91a6 bc3c d51e d73b bc2b f0bd
00000060: ff45 57bd 2bf7 0fbe 60f5 d5bd 272b c6bd
00000070: bffc 18be 03bd 98bd d0e0 d83d f2e4 dbbc
00000080: c9b6 cb3d d8fd 30bd 03cc f5bd f746 b13d
00000090: 6dcf d9bd a8f0 4fbe 0148 d23d 732e 61be
000000a0: ba67 7abd 1fff 4cbe 72cf 5bbe 79a7 c1bc
000000b0: 66cb 02be 03de cb3c 8780 273d 0c93 a5bd
000000c0: 5ba3 e6b9 449b 2cbe b90f 033e e18c 8bbd
000000d0: 0c72 b13d 474c 4ebe 9070 4fbe 7934 e63d
000000e0: 8c3e 66be 288a 2dbe 9465 3dbe 2dfc 223e
000000f0: 481b d53d ccf6 20be 9678 00be 0414 983d
00000100: d360 4abe 8567 183d 8bb5 68bd 8a6f adbd
00000110: 8845 4bbe 3df0 e1bd 2692 7a3d b683 4f3e
00000120: 67e3 96bd 500b 9dbc f31d 43be ffbb 61be
00000130: a4bc 94bc 3999 0c3e 682d 94bd f844 bd3d
00000140: 03b2 53be 4cb5 7f3d db5c 223e 24ce 20be
00000150: 96fa 0b3e 4c8a 13be a906 a6bd 9b9b a13d
00000160: 0212 5fbd ddd5 3abe 1233 b13d 66be 77bd
00000170: 5749 40bd a254 c6bd 2407 a33c 531c c7bd
00000180: b780 483d 1378 14be 9836 59be 1df5 a63d
00000190: 4eec 1a3e db19 6d3d d460 8fbd 511d 363e
000001a0: b25e 81be acf3 41be 0f62 1a3b a47a 8c3d
000001b0: ef6c b9bd ccbc a1bd dc94 63bb 58a6 cd3d
000001c0: 822d 2fbe 135e 30bd 0683 d5bc 9923 72be
000001d0: 30f9 24be 80fc 22bd 3b9f 2fbe 879f 69be
000001e0: b92e 2b3e f191 ee3d 2ce3 96bd 9f52 d2bd
000001f0: a667 5cbe effd 54be 326f f5bd 36e3 2ebe
00000200: 5b8f 173d eceb eb3d 5e2e a43d 26eb 4bbc
00000210: 4851 473e 6593 41bd e41c 1d3d d91f e03d
00000220: 2a66 66be 8fb3 1fbc 46d8 f9bd 6815 19be
00000230: dc9c f6bc 2fa9 783d f20d 5abd fbc0 ae3c
00000240: 9bf0 d93d 174e 8cbc b76a a1bd 5dc5 843c
00000250: 0e62 80be 9931 6fbc 324e 0bbd 0c6d 073e
00000260: 02ea 05be f311 343d 6fa9 153e d336 16be
00000270: 4b6d 8fbd 7af7 ef3d 4b18 07be 21df 26be
00000280: c90a 9e3d 914f e63d 78eb 40be 997a e0bd
00000290: d90c 53be 5081 ddbd 9fa1 73be 1f55 dabd
000002a0: 47da af3d c8b0 08be 575c 82be 7261 acbd
000002b0: 51f9 43be 0775 16be 55c5 bc3b dc1a 1dbe
000002c0: dbf5 1ebd f4f8 2cbd 5921 c83d 5241 f6bd
000002d0: 3a09 0dbc e785 fc3d 0656 37be ba27 a13c
000002e0: 2d70 193e afe3 23be dc9a 63be 9ebb a23d
000002f0: 9393 c03d a176 41be aad4 05bd 3d58 df3d
00000300: 270d 25be 6fe5 0d3d 02ee 1abd 1f51 afbd
00000310: 84a5 6ebd 0e86 25be f218 b7bd a263 573e
00000320: cfec 8cbd 2a01 7c3d b97f e43d 447e d3bc
00000330: 971f 73be d311 6abe 78bd 42bd 3547 063d
00000340: 47ed 323d e085 1a3d eaa8 00be 6814 55be
00000350: 5be6 4cbe 4110 3fbd a527 383d 35af 9fbd
00000360: bbc9 ffbc 96bd 0c3e 0e9b 3abb 319b 16bd
00000370: 4783 f4bc 9cdf 013e 1887 06be b8a9 c23d
00000380: 8493 4d3d b175 1bbe eb1c bc3d 3244 313c
00000390: a62e af3d f356 7d3b a75f 10bc 6765 893c
000003a0: 82a9 febd a265 5f3d 7a9a 663d 2dac 52bd
000003b0: 24cd 58be 6c39 27be 775e 163e 1ff9 22be
000003c0: d667 58be 2a06 f93d b0a3 8ebd efba b2bd
000003d0: b784 253e aa34 1ebe 5a47 b53d 926c 64bd
000003e0: 0e48 583e c56d d33d 57ac 7dbe bcfa 4abe
000003f0: fcdb 263e 7547 ab3d 45cd 5abe 75d9 cdbd
0.11346814 -0.17512856 -0.12792023 -0.19228618 -0.10430826 0.06643324 0.014994391 -0.010057918
0.044062335 0.009619302 -0.064598575 -0.08388344 -0.26804453 0.035202153 -0.07972653 -0.1603822
0.08278953 -0.059925824 0.07591049 0.03009824 -0.22080573 0.023028644 0.0065649548 -0.11727092
-0.052556988 -0.14059131 -0.10447192 -0.096761994 -0.14940165 -0.07457926 0.105897546 -0.026842568
0.09946973 -0.043210834 -0.12001803 0.086561136 -0.106352665 -0.20306647 0.1026764 -0.21990375
-0.061134078 -0.20019196 -0.21465853 -0.023639427 -0.12772903 0.024886137 0.040894058 -0.080846876
-0.00043990728 -0.16856104 0.12798966 -0.0681398 0.08664331 -0.20146285 -0.20257783 0.11240477
-0.22484797 -0.16947234 -0.1849578 0.1591651 0.10405594 -0.15719146 -0.12546 0.07425693
-0.19763498 0.0372081 -0.056813758 -0.0846854 -0.19850743 -0.1103215 0.061174534 0.20265087
-0.07367592 -0.019170433 -0.19054393 -0.22044371 -0.018156357 0.13730325 -0.07235223 0.0924167
-0.20673375 0.062428758 0.15855734 -0.15703636 0.1366981 -0.14408225 -0.08106739 0.078910075
-0.054460533 -0.18245645 0.08652319 -0.060484312 -0.046944942 -0.09684111 0.019900866 -0.09722199
0.048950877 -0.1449893 -0.21212232 0.081522204 0.15129206 0.057885986 -0.070008904 0.17784621
-0.2526756 -0.1894061 0.0023556983 0.06859329 -0.090539806 -0.07897338 -0.0034726178 0.10041493
-0.17107204 -0.043058466 -0.026063453 -0.23646392 -0.16110682 -0.039791584 -0.17150585 -0.22814761
0.16717042 0.1164893 -0.07367548 -0.10269665 -0.21523914 -0.20799993 -0.119840994 -0.17078862
0.03700195 0.11519608 0.08016656 -0.0124462005 0.194646 -0.047259707 0.03835763 0.109435745
-0.2249991 -0.0097474 -0.12199454 -0.14949572 -0.030104093 0.06070822 -0.053235956 0.021332255
0.10641595 -0.01712708 -0.07881682 0.016207391 -0.2507481 -0.014599227 -0.03401012 0.13225192
-0.13077548 0.04396243 0.14615415 -0.14669351 -0.07003268 0.11717124 -0.13192861 -0.16296054
0.07716901 0.11245645 -0.18839824 -0.10960884 -0.2061037 -0.1081568 -0.23792122 -0.10660767
0.08586555 -0.13348687 -0.25461075 -0.08417024 -0.19138075 -0.1469308 0.0057608285 -0.15342277
-0.038808685 -0.042229608 0.097719856 -0.120241776 -0.008608157 0.12330227 -0.17903909 0.019672263
0.14984198 -0.16004823 -0.22227043 0.079459414 0.094031475 -0.1889291 -0.032673515 0.10905502
-0.16118298 0.034642633 -0.03782464 -0.085603945 -0.058263317 -0.16164419 -0.08940305 0.210341
-0.06881105 0.061524548 0.11157174 -0.025817044 -0.2374252 -0.22858362 -0.047543973 0.032782752
0.043683317 0.03772533 -0.12564436 -0.20808566 -0.20009749 -0.04664636 0.044959683 -0.0779709
-0.031224122 0.13744196 -0.0028473767 -0.036769096 -0.029847754 0.12682956 -0.13137472 0.095050275
0.05018951 -0.15181614 0.09185203 0.010819482 0.08553819 0.0038656562 -0.008811868 0.016771985
-0.12434675 0.054540284 0.056299664 -0.05143373 -0.21172005 -0.16330498 0.14684473 -0.15915345
-0.2113336 0.12159379 -0.06964815 -0.08727061 0.16163908 -0.15449777 0.088515 -0.055767603
0.21121237 0.10323671 -0.24772774 -0.1982221 0.16294855 0.08363239 -0.21367367 -0.10051242

fc_layers.3.bias f4 [64]
00000000: 31a5 2fbd c362 17be 25ab f83c 7e00 e6bd
00000010: 3680 c9bd ed65 203d e119 02bc 38ff 77bd
00000020: 61ae 93bd 4d8f 013e 6cb4 75bd 1497 5bba
00000030: 4944 ac3c 37e7 8abd 6850 01be 996e 773d
00000040: 9264 c33d caef 0dbe 532a 583c 4b8f 91bd
00000050: e7cb 8bbd 0b59 233d 1bc2 6abd 47b2 c7bd
00000060: f3c1 38be 11b1 d9bd 7d02 b53c b2b5 88bd
00000070: e294 91bd 75e3 66bd 3f0e b4bd bd1a c7bc
00000080: 9d9c fdbb f304 873d 91d8 1cbd 7fe8 2bbe
00000090: 7934 49bc a6b4 a23d 27a1 743d 0d8f 5abd
000000a0: 49d5 27be 4d9f fdbc af3c f63d 4261 26be
000000b0: a862 03be a062 87bd a5e3 08be f9e6 be39
000000c0: e63c 1cbd 4399 093c 6815 1ebd aa75 9abd
000000d0: 42d2 01be 0654 31bd 4c9c 7dbd 7754 6d3a
000000e0: ec34 1d3c f29c f2bc 4fb5 093c 4b59 44bc
000000f0: eada 42be 0101 37bd eb3a 41bd 36b3 a73c
-0.04288215 -0.14783768 0.030355046 -0.112305626 -0.098389074 0.039159704 -0.00794074 -0.06054613
-0.072109945 0.12652321 -0.059986517 -0.00083766994 0.021028655 -0.06782382 -0.12628329 0.06040821
0.09540667 -0.13861004 0.013193685 -0.07107409 -0.06826001 0.03987984 -0.05731402 -0.097508006
-0.18042736 -0.10629476 0.022095913 -0.06675281 -0.07108475 -0.056369264 -0.0879178 -0.024304742
-0.007739617 0.06592741 -0.03829247 -0.16787909 -0.012280577 0.07944612 0.059724 -0.05335908
-0.16389956 -0.03095975 0.12023293 -0.16248038 -0.12830603 -0.06610608 -0.1336809 0.00036411712
-0.038144015 0.008398357 -0.038594633 -0.07541974 -0.12677863 -0.04329302 -0.061916634 0.0009053419
0.009595137 -0.029615853 0.008405044 -0.01198418 -0.19028822 -0.04467869 -0.04717533 0.020471197

fc_layers.6.weight f4 [32, 64]
00000000: 14e1 5b3e 6b01 21bc cbc4 6dbe 7f9d 193e
00000010: 2e2f d3bc 8ea4 11bd 5912 833e 4607 853e
00000020: d5a0 96b9 a20e f1bd 758c 14bd 8486 613e
00000030: e3a6 b6bd ace4 2ebe 82e4 ac3d b197 21be
00000040: e47f 973e 8632 b93c c593 22bd 17b6 813e
00000050: 733e 983d 6255 40be 1f9a 07bd 6333 553d
00000060: 0103 78be f466 a5be a8f3 b6bd a911 65bd
00000070: 9a88 0fbd 67e0 433d 46a2 92be 1ad3 bbbb
00000080: c831 f43c 73ee 62be dc9f 563e f096 60be
00000090: 7bb8 45be 8a91 a0bd 5a05 b6be 00df a0be
000000a0: 5985 68be f6db 953d 5714 32be 85fb 89be
000000b0: da9c 9a3d 16ad 00be b873 78bd c4c5 3c3e
000000c0: fa47 f93d 2409 89bd dc3f 48bd e89f 213d
000000d0: 5608 06bd c472 7abe c730 093e 503b 37be
000000e0: e5fb 4abe 7724 3abd 14c1 9e3d 079e 20be
000000f0: feca 813d 9719 233e 86fd 583d c0d7 51bd
00000100: 173d 3fbe 8cdf ae3d bc12 7cbe 755e 96be
00000110: 5045 21be 5c2e a13c 649d 7b3e 9260 6b3e
00000120: f94b b2bd 1876 1fbe 2ffd 383e 0c34 0c3e
00000130: b780 8fbe 68d4 78be 04c0 87be e96b 64be
00000140: a09e 6abd 475d 1cbe 24f8 5d3c 1a09 8a3e
00000150: 9693 d63d dc26 7dbe 862f 7abe 891c 6cbe
00000160: a4ff cd3d 114a 47be 097f ecbc c60e 6ebe
00000170: 98c3 94be 59d7 873d d0a8 d7bd cbe4 9dbe
00000180: e79a 37be 6157 243d 83cb 2fbd 29be 86bb
00000190: 79e6 333e 3e56 34bb 4842 90be 9d38 dc3d
000001a0: a5f2 dfbd d0c9 f73d 42a7 11be b13c 283e
000001b0: b221 783e 8dfc cc3d 4261 34be 5fcc 51bc
000001c0: 8b83 423e c93c 6ebd c4f3 2dbe 8cdf 8ebe
000001d0: 7ecc 74bd 1c28 783e 5ef6 93bd 67f2 0abd
000001e0: 6782 27be 5e96 6cbb 0de9 c03c b772 70bd
000001f0: f629 6b3e 901c c83d a355 0b3e aceb 903c
00000200: 5bd6 7ebe 516b acbe d800 173c 1de8 f83c
00000210: 4212 28be 2a5a 0a3d 7afd 8fbe 8d9e 873e
00000220: 32d1 8c3e d5e5 c73d df6c 133d a3d8 3d3d
00000230: 6e4b 10be b2d8 4d3d 359f a33c baba c53d
00000240: 9f78 90be 5634 253e 1e0c d83d 378d 0b3e
00000250: 1218 51be e562 d5bd 0b9b a0bd dc46 da3d
00000260: ded9 99be 2422 8abe d4f2 7e3d d895 023e
00000270: 21ba 2fbe 830c 4dbe fa22 fe3d 1f93 703e
00000280: 9961 3abe 8821 a8be 96e5 27be 3e5f 8dbe
00000290: 2eea 25be b6f7 a6bd ab0d db3c bf60 f43d
000002a0: 699c f73d 6115 50be d8fc 94be a5e6 63bd
000002b0: 13f2 853e 539e 763d 619a 043e 2489 95be
000002c0: 2c24 65be b87a 923d 6a0d 24bd 8810 18be
000002d0: c996 c23d be4e f73c a087 85be 806e 56be
000002e0: eb98 003e 2354 473e dab9 e1bd cd2a a9be
000002f0: 9dd6 03be 7c51 8bbc eb62 42be ccbe 3fbe
00000300: bbb6 353d b8db 9dbe 1eb5 51be eef7 4abd
00000310: 562a 613e 81b6 42be 287a 793e de7b 95bc
00000320: 1f41 bebc 3149 1fbe 959f 243e 5055 c0bd
00000330: b271 bdbd c284 183e d2fb 78be 4b4f 4cbe
00000340: 090a 09be d0dd cc3d 1189 87be 9fd1 873d
00000350: 2b8e b5bd 5541 bc3d 0105 ee3d aece 86bd
00000360: 1025 7ebe ae52 eebc 4bd0 c33d 775d 343e
00000370: 9f42 2ebe acaf bfbd 5bac 44bd 9936 d73c
00000380: b77e 8bbc 4d83 10be ea3a bfbb cae8 b5bd
00000390: d623 a1bb 56d7 7fbd 50e8 88bd b070 6dbd
000003a0: a999 87be 24b3 5e3d 43a7 67be c121 903d
000003b0: 97b3 493d 3e07 593e 29e1 393e 3acf 4bbe
000003c0: 145c 10be cb2a 5ebe 532b 8bbe b34a 98be
000003d0: f441 b53b ec01 063c a5bc 6cbe 4c9b 383d
000003e0: f2a4 743e 2300 923e 78ef 1b3e 2641 6cbe
000003f0: aebf 693e 9869 1ebe 6fe3 0fbb 5407 18bd
0.21472579 -0.009826998 -0.23219602 0.15001486 -0.025779333 -0.035557322 0.25599936 0.25982112
-0.0002873006 -0.11770369 -0.036266763 0.2202397 -0.0891855 -0.17079419 0.08442022 -0.15780522
0.2958976 0.0226071 -0.039691705 0.25334236 0.07433786 -0.18782571 -0.033105966 0.05205096
-0.24219896 -0.3230511 -0.089331925 -0.055925045 -0.035042383 0.04782143 -0.2863943 -0.0057319524
0.029808894 -0.22161274 0.20959419 -0.21932578 -0.19308655 -0.078402594 -0.35550958 -0.31420135
-0.22707118 0.07317345 -0.17390572 -0.26949707 0.07549448 -0.12566027 -0.060657233 0.18434817
0.121719316 -0.066911966 -0.048889026 0.03945914 -0.032722794 -0.24457842 0.13397513 -0.1789372
-0.19822653 -0.04544493 0.077516705 -0.15685283 0.06337546 0.1592773 0.052976154 -0.051231146
-0.18675648 0.08538732 -0.24616522 -0.2936894 -0.15749097 0.019675426 0.24571759 0.22986057
-0.08705897 -0.15572393 0.18065332 0.1369173 -0.2802789 -0.24299777 -0.26513684 -0.2230679
-0.057280183 -0.15269957 0.013547931 0.2696007 0.104773685 -0.24721855 -0.24432191 -0.2305776
0.10058525 -0.19461848 -0.028869169 -0.23247823 -0.29055476 0.06632871 -0.10530245 -0.30838618
-0.17930184 0.040122394 -0.042918693 -0.0041120243 0.17568387 -0.0027517225 -0.2817557 0.107529856
-0.10934953 0.120990396 -0.1422396 0.16429402 0.24231604 0.10009108 -0.17615226 -0.0128050735
0.18995492 -0.058163438 -0.1698752 -0.27904928 -0.05976533 0.2423405 -0.07224725 -0.03392258
-0.16358338 -0.0036100368 0.023548627 -0.05870315 0.22965226 0.09771073 0.13606887 0.017690502
-0.24886458 -0.33675626 0.00921651 0.030384118 -0.16413215 0.033777393 -0.28123075 0.26488152
0.27503353 0.09760634 0.0359925 0.04634918 -0.14091274 0.050255485 0.019973377 0.09654756
-0.28217027 0.16133246 0.10549186 0.13628088 -0.20419338 -0.10419253 -0.07842072 0.106580466
-0.30049032 -0.26979172 0.062243298 0.12752473 -0.17160846 -0.20024304 0.12409015 0.23493622
-0.18201293 -0.32838082 -0.16396174 -0.27611727 -0.16202614 -0.08152716 0.026739916 0.11932515
0.1209038 -0.20320655 -0.29099154 -0.05563988 0.2616125 0.060209583 0.12949516 -0.29206192
-0.2237708 0.07152313 -0.040051855 -0.14850056 0.09501416 0.030188914 -0.26080036 -0.2094059
0.12558334 0.1946569 -0.110217765 -0.33040467 -0.12874837 -0.017006628 -0.18983047 -0.18725127
0.04436372 -0.30831695 -0.20479247 -0.04955285 0.21988806 -0.19014932 0.24363005 -0.018247541
-0.023224412 -0.15555264 0.160765 -0.09391272 -0.09250201 0.14894393 -0.24314812 -0.19952123
-0.13382734 0.10003245 -0.2647176 0.06631779 -0.08865007 0.091921486 0.11622048 -0.0658239
-0.24818826 -0.02909216 0.09561213 0.17613779 -0.17017601 -0.093596786 -0.048015933 0.026271151
-0.017028196 -0.14112587 -0.0058358805 -0.088822916 -0.004917602 -0.06246122 -0.06684935 -0.057968795
-0.2648442 0.05437006 -0.22622399 0.07037688 0.049243536 0.21194169 0.18152298 -0.1990327
-0.14097625 -0.21696012 -0.2718149 -0.2974449 0.005531544 0.008179169 -0.23118837 0.045069978
0.23891047 0.2851573 0.15228069 -0.23071727 0.22827026 -0.15469968 -0.002195563 -0.037116364

fc_layers.6.bias f4 [32]
00000000: e5b0 4bbe f81b 3cbe 639a 36be cecd d6bd
00000010: d8f3 9c3e ee4e 87be 175f 6abe 89ae 16be
00000020: 1338 4bbe a26d 03bc 7d12 883b fe62 0ebe
00000030: 3a2a afbd d5fe 993c a38e 48be 3b61 843d
00000040: cb14 9b3d c698 89bb 99de 40be bb49 a4bb
00000050: 7248 683e 6f14 51be 0ade d3bc 619c dcbc
00000060: e6ca 6fbb 696c 8cbe 02db bdbd 8561 0d3c
00000070: ed83 4ebe edbf 0a3e d58c 923e e9d2 f33d
-0.19891699 -0.18370044 -0.17832331 -0.10488473 0.30654788 -0.26427406 -0.22887836 -0.14715017
-0.1984561 -0.008021744 0.0041525946 -0.1390495 -0.08552976 0.018798271 -0.19585662 0.06463858
0.07572325 -0.00419912 -0.18834914 -0.005013672 0.22683886 -0.20417951 -0.025862712 -0.026930036
-0.0036589443 -0.2742646 -0.09270288 0.0086292075 -0.20167513 0.13549776 0.2862307 0.11905462

fc_layers.8.weight f4 [4, 32]
00000000: 245f 26be 0609 26be b719 3fbe e48a 593e
00000010: 0b70 95bd a490 9cbd a5e4 95be e024 e4bd
00000020: 85ec 74be a9c3 d7bc 4fff 633e 66c8 63be
00000030: 662d 31be a391 b4bd 514d 3fbe e3bf a13d
00000040: dce5 a1bb 9371 8ebd ca12 463e 522a 5d3e
00000050: 9f2b 103e 602d 163e a41e 13be 4c1e 02bd
00000060: 7ed1 ddbd 5c9b c7bc d0e9 21be 9dda 9b3e
00000070: 6b11 dcbc 66b1 72bd 2e04 9a3e 267c 1fbe
00000080: 67d5 7bbe 5035 90be 304a 69be c25e 53be
00000090: 9ead 71be f710 a7be 6386 71be bcf9 283d
000000a0: 0501 f3bd e1d8 783e fc07 a23e 5e53 ba3d
000000b0: d62f 1bbd e3cd 923e 669c 9cbe b1b9 88bc
000000c0: 8188 273e 3c84 8d3e de6b 43be fef6 19bd
000000d0: bd99 403e f880 41be 75bb 8b3e 0b81 e93d
000000e0: a81c 253e 0934 44be 07ab fbbd bb52 453e
000000f0: 1704 bfbd 6d65 553d ae75 1a3e 5ab7 0dbe
00000100: 91e6 a33d 88ee 57bd 2c10 e3bd 3c01 ff3c
00000110: c1dc c0be 5095 9b3e a833 88be d877 50be
00000120: 6611 0e3e 136f a73c 2769 86bd 71b3 04be
00000130: dab4 5a3e cfe5 2abd abee 72be b088 9fbd
00000140: 79e9 7ebd 9b9b f13d ea75 133d 3ec0 103e
00000150: e9a0 583e 820b a03e 0a87 413e fa2a 3abe
00000160: fdf0 853e 5be1 dfbd b773 883e b035 833e
00000170: e0a0 84be ff32 ef3d 400c a33e b632 85be
00000180: 4175 6ebd 73ba 3bbc d1e1 5cbe aec4 39be
00000190: 231f c3be 0fb8 8ebe 65bd 8abd 52b1 dc3d
000001a0: 9d54 963e 15a9 29be cc9d 923d b65f b53e
000001b0: ffd1 253e e900 ef3d 2fbf a53e 31cd 79be
000001c0: 4fc7 eb3d db39 3d3e 1c93 753e 3c7c 503d
000001d0: 6016 113e 2889 72bd 25f6 5cbe d24a 803e
000001e0: a9a7 acbd a25e d9bd 6742 dbbd 6eb0 073e
000001f0: 1c5d 043e 734a ad3e 9760 663d 48d0 8cbe
-0.16247231 -0.1621438 -0.18662153 0.21244389 -0.07296761 -0.076447755 -0.29276004 -0.11139846
-0.2391835 -0.026338415 0.22265361 -0.22244415 -0.17302474 -0.088168405 -0.18681838 0.078979276
-0.0049407315 -0.06955256 0.19343105 0.21598175 0.1407914 0.14665747 -0.14367157 -0.031767175
-0.10830973 -0.024366073 -0.15811849 0.30440226 -0.026863774 -0.05925121 0.30081314 -0.15574703
-0.24593125 -0.28165674 -0.22782207 -0.20641616 -0.23601386 -0.3263013 -0.2358642 0.04125379
-0.11865429 0.24301483 0.31646717 0.09097932 -0.037887417 0.28672704 -0.30588073 -0.016690107
0.16360666 0.2763995 -0.19084117 -0.037589066 0.18808647 -0.18896854 0.27291456 0.11401566
0.16124213 -0.19160475 -0.1228848 0.1926984 -0.09326952 0.05209868 0.15083954 -0.13839474
0.080029614 -0.052717716 -0.11087069 0.031128518 -0.37668422 0.30387354 -0.2660191 -0.20358217
0.13873824 0.020438707 -0.06563025 -0.12959076 0.21358052 -0.04172307 -0.23723857 -0.07789743
-0.062234376 0.117972575 0.036001123 0.14135835 0.21155132 0.3125878 0.1889917 -0.18180457
0.26160422 -0.10931655 0.26650783 0.25626898 -0.25903988 0.116796486 0.31845284 -0.26015252
-0.05821729 -0.011458027 -0.21570517 -0.18141434 -0.38109693 -0.278748 -0.067744054 0.10776009
0.2936143 -0.16568406 0.071590036 0.35424584 0.16193388 0.116700955 0.32372424 -0.2439468
0.115126245 0.18479101 0.23981899 0.05089973 0.14168692 -0.059212834 -0.21578272 0.25057083
-0.08430416 -0.10613753 -0.107060246 0.13250896 0.12926143 0.33845863 0.05624446 -0.27502656

fc_layers.8.bias f4 [4]
00000000: 4804 173d 4bda a93d d689 e13d 5216 243e
0.036869317 0.08293589 0.11012618 0.1602414
