output/dqn/model/4x4/2500.pth (torch, 53468 bytes, 8 tensors)

fc_layers.0.weight f4 [128, 16]
0	0x3e0a3456	0.13496527
1	0x3e944e5a	0.28966027
2	0x3ca58c00	0.020208359
3	0x3eb9ca1b	0.36287007
4	0x3ecef615	0.4042212
5	0xbdf07980	-0.11741924
6	0x3ede5083	0.434208
7	0x3ef109a6	0.47077674
8	0x3e41510e	0.18878576
9	0x3f076d3a	0.5290104
10	0xbee7b8e7	-0.45258257
11	0xbee8d780	-0.45476913
12	0x3f103651	0.5633288
13	0x3f0cbc05	0.54974395
14	0x3dbf47b8	0.09339851
15	0x3e9a4158	0.30127978
16	0xbe7510b8	-0.23932159
17	0xbce36f37	-0.027762992
18	0x3e276669	0.1634766
19	0xbefb98ea	-0.49140102
20	0x3e166221	0.1468587
21	0x3ef85736	0.48504037
22	0xbec8db20	-0.3922968
23	0xbf0b5f2a	-0.54442084
24	0x3e9a24c6	0.3010618
25	0xbe092f40	-0.1339693
26	0xbea79746	-0.327326
27	0xbd1d9620	-0.03847325
28	0x3f16e9ab	0.589503
29	0x3f020fec	0.50805545
30	0xbd7398f1	-0.05947203
31	0xbe07886e	-0.13235638
32	0xbe07e1db	-0.13269751
33	0xbee1b152	-0.44080597
34	0xbda5b04c	-0.080902666
35	0x3e450c96	0.19243082
36	0xbeb70885	-0.35748687
37	0x3ecead9e	0.40366834
38	0x3ee417bd	0.4454936
39	0xbe28e5fa	-0.16493979
40	0xbd5cab23	-0.053874146
41	0x3eb7ac9f	0.35873887
42	0x3ecf68ca	0.40509635
43	0xbdd153c0	-0.10221052
44	0x3eafd6fe	0.34343714
45	0xbf123231	-0.57107836
46	0x3ed60199	0.41798094
47	0x3da08100	0.07837105
48	0xbee45afd	-0.4460067
49	0x3dd96e7e	0.10616778
50	0xbf089e09	-0.5336614
51	0xbe144514	-0.14479476
52	0xbe5d7392	-0.21626118
53	0x3e9f954a	0.31168586
54	0xbf0d88de	-0.5528697
55	0xbea20bd8	-0.3164966
56	0x3ec7bdeb	0.39012083
57	0x3e6faae8	0.2340504
58	0x3e3fbc34	0.18724138
59	0x3e988e48	0.29796052
60	0xbe91bf28	-0.28466153
61	0x3ef69fbc	0.48168743
62	0x3ea4f15e	0.322154
63	0xbde35018	-0.11099261
64	0x3c9c0107	0.019043459
65	0x3e9a0736	0.30083627
66	0x3e41b7bd	0.18917747
67	0xbf078361	-0.52934843
68	0xbf1a1d5c	-0.6020105
69	0x3ef79c96	0.48361653
70	0xbee33ba4	-0.4438144
71	0xbe6a62e0	-0.2288928
72	0x3ea2de70	0.3181033
73	0xbe171bc2	-0.14756683
74	0x3ec93c8d	0.3930401
75	0xbe3c67bc	-0.18398947
76	0xbda66158	-0.081240356
77	0xbe9ca947	-0.30597898
78	0x3ec05e71	0.37572053
79	0x3f059da5	0.5219367
80	0xbedf83da	-0.43655282
81	0xbe55a9a0	-0.20865488
82	0xbe2284cc	-0.1587097
83	0x3e89049f	0.26761338
84	0xbf0516dc	-0.51988006
85	0x3ea5679a	0.32305604
86	0x3dcfa258	0.101383865
87	0xbc8fbea0	-0.017546952
88	0x3eb2882e	0.34869522
89	0x3e700b72	0.23441866
90	0xbe6d684e	-0.2318432
91	0xbe1f82b2	-0.155772
92	0x3d5ab460	0.053394675
93	0x3e7166bd	0.23574348
94	0x3d8b5698	0.06803626
95	0xbf0ba1ac	-0.54543567
96	0xbe344630	-0.176049
97	0xbe52ce63	-0.20586543
98	0xbe886a59	-0.26643637
99	0xbf0ca288	-0.54935503
100	0xbd89fae1	-0.067373045
101	0x3e7ffdb0	0.24999118
102	0xbf0fcf35	-0.5617555
103	0xbe141dae	-0.14464447
104	0xbe591a92	-0.21201542
105	0xbe86e552	-0.26346833
106	0x3eb92d98	0.36167598
107	0x3edb110a	0.42786437
108	0xbdab2068	-0.083557904
109	0xbd64ef17	-0.055892076
110	0x3e975bca	0.29562217
111	0x3e5d9498	0.21638715
112	0xbcabd2c0	-0.020974517
113	0xbea4d8aa	-0.32196552
114	0xbef8321f	-0.4847574
115	0xbef78672	-0.4834476
116	0x3b334c00	0.0027358532
117	0xbe697ff0	-0.2280271
118	0x3ef1bad5	0.47212854
119	0xbd49de70	-0.0492844
120	0x3e4f7a1e	0.20261428
121	0xbedbd94c	-0.42939222
122	0x3e238c17	0.15971409
123	0x3ebe4044	0.37158406
124	0xbe6c22c4	-0.23060137
125	0x3f02b68e	0.51059806
126	0x3dcc1ee0	0.099668264
127	0xbf19cdf8	-0.6007991
128	0x3dd209e7	0.10255795
129	0x3f09e995	0.5387204
130	0xbdc2d098	-0.09512442
131	0xbecc5fa8	-0.3991673
132	0xbe0caef6	-0.13738617
133	0xbefb897b	-0.49128327
134	0xbe338e12	-0.17534664
135	0xbedc1578	-0.4298513
136	0xbf076e18	-0.52902365
137	0x3ee6ce7f	0.4507942
138	0xbe4dd2ce	-0.20099947
139	0x3e68f25c	0.22748703
140	0xbef9e538	-0.48807693
141	0xbeb4cebf	-0.35313985
142	0x3f07b527	0.5301079
143	0xbdf60128	-0.12011939
144	0x3df7d8cb	0.12101897
145	0xbf1688cc	-0.58802485
146	0xbf14d18e	-0.58132255
147	0xbf00095f	-0.500143
148	0xbe046e7a	-0.12932768
149	0x3eda4c66	0.42636412
150	0xbedde2c8	-0.43337083
151	0xbef59d58	-0.47971606
152	0xbd33a26c	-0.04385607
153	0x3e945164	0.28968346
154	0x3e410875	0.18850882
155	0xbe1c2b98	-0.15251005
156	0xbdfcd440	-0.12345171
157	0x3eb2fcb2	0.34958416
158	0xbd9dba64	-0.07701567
159	0xbf0ad8df	-0.5423717
160	0xbcc1399c	-0.02358704
161	0xbda8fe40	-0.08251619
162	0xbf1036da	-0.56333697
163	0xbe271686	-0.16317186
164	0xbefc5164	-0.49280846
165	0x3e96c776	0.29449052
166	0x3d0ee972	0.0348906
167	0x3ec8bd2e	0.39206833
168	0x3d2301a7	0.039796498
169	0x3ecf37aa	0.40472156
170	0x3ebcd267	0.36879274
171	0x3d9074f0	0.07053554
172	0x3e9972a6	0.29970282
173	0xbf0692c5	-0.525677
174	0x3eb15068	0.34631658
175	0x3e86bb4a	0.26314765
176	0x3ece5d48	0.40305543
177	0x3e0e4671	0.13894059
178	0xbe53e460	-0.20692587
179	0xbea35793	-0.3190275
180	0x3eaadf4b	0.33373484
181	0xbe81925a	-0.2530697
182	0x3ef89aad	0.48555508
183	0x3e20a998	0.15689695
184	0x3e2e41fb	0.17017357
185	0x3edb141a	0.42788774
186	0xbdfc8b38	-0.12331241
187	0xbe18cd04	-0.14921957
188	0x3ef418f6	0.47675294
189	0xbae3d770	-0.0017382931
190	0xbe2f252a	-0.1710402
191	0xbcba9540	-0.022776246
192	0xbf108908	-0.56459093
193	0x3ea77930	0.32709646
194	0x3e6a8559	0.2290243
195	0xbf0cf97e	-0.55068195
196	0x3eb1337c	0.34609592
197	0x3d4df530	0.050282657
198	0xbe2262e8	-0.15858042
199	0xbeafb92d	-0.34320965
200	0xbf1bb0bc	-0.6081655
201	0x3e972d69	0.29526833
202	0x3f20aa73	0.62760085
203	0xbe1c0810	-0.1523745
204	0xbec6a1a8	-0.3879521
205	0xbeda4e96	-0.4263808
206	0x3ebfab8e	0.37435573
207	0xbced9e60	-0.029006183
208	0x3ece4924	0.40290177
209	0x3edfcb08	0.43709588
210	0xbec7a9d0	-0.38996744
211	0x3e81b4c7	0.25333235
212	0x3ee4a545	0.4465734
213	0x3ece24ca	0.40262443
214	0x3edf0ab3	0.4356285
215	0x3ea84ae6	0.32869643
216	0x3e87b526	0.26505393
217	0x3e110b96	0.14164576
218	0xbe9d825a	-0.30763513
219	0xbd13c520	-0.036076665
220	0x3f100adf	0.5626659
221	0x3e58e13f	0.21179675
222	0xbe136794	-0.1439498
223	0xbdd4a830	-0.10383642
224	0xbf06b072	-0.52612984
225	0x3f1b2437	0.60602134
226	0xbebcf8fc	-0.3690871
227	0x3c3aa8c0	0.011392772
228	0xbe8a48ed	-0.27008763
229	0x3ed7492e	0.4204802
230	0xbea18416	-0.31546086
231	0x3f0b38a1	0.54383284
232	0x3ee83b38	0.4535768
233	0x3e6b04bd	0.22951026
234	0xbf12a4d2	-0.57282746
235	0x3e9e1382	0.30874258
236	0xbe5b01e0	-0.21387434
237	0xbe4a06ae	-0.1972911
238	0xbe9bd031	-0.30432275
239	0x3ecce392	0.40017372
240	0x3c96b536	0.018396955
241	0x3e9e148e	0.30875057
242	0x3eac6c78	0.33676505
243	0xbebcad4c	-0.36850965
244	0x3dcc2be2	0.099693075
245	0x3e4d6668	0.20058596
246	0x3e958a4d	0.29207078
247	0x3e74dc00	0.23912048
248	0xbf16e0f6	-0.58937013
249	0x3e18d1e2	0.14923814
250	0x3e2dea93	0.16984014
251	0x3ebd2ca2	0.36948115
252	0x3e3b952c	0.18318623
253	0x3f098677	0.537208
254	0xbde4e57d	-0.11176584
255	0xbd113830	-0.035453975

fc_layers.0.bias f4 [128]
0	0xbe5cad4e	-0.21550485
1	0xbc4a9265	-0.012364005
2	0x3d31b516	0.043385588
3	0x3dd7d22d	0.10538135
4	0xbd91d367	-0.071204
5	0xbeb3dee5	-0.35130993
6	0x3e31863a	0.1733636
7	0xbe9002aa	-0.28127033
8	0xbd1a61d0	-0.037690938
9	0x3cb81e8e	0.022475507
10	0xbd610f1d	-0.054946054
11	0xbc82e9ea	-0.01598068
12	0xbe53d170	-0.20685363
13	0xbe1ed9be	-0.1551275
14	0xbe232b34	-0.1593445
15	0x3d90e0fc	0.07074162
16	0xbcfcd79e	-0.030864533
17	0xbdf45196	-0.11929624
18	0x3d65c218	0.056093305
19	0xbd85d6a1	-0.06535078
20	0xbe3d2400	-0.18470764
21	0xbe3258b2	-0.17416647
22	0x3d2123b3	0.039340686
23	0xbc47972a	-0.012182036
24	0xbdf2540a	-0.118324354
25	0x3e24a881	0.16079904
26	0xbe4e8f63	-0.20171885
27	0x3e09be28	0.13451445
28	0xbdb5c35a	-0.08875151
29	0x3dded885	0.108811416
30	0xbe9452f2	-0.28969532
31	0xbbf1bcb2	-0.0073772306
32	0xbe83f116	-0.2576987
33	0x3d430d0a	0.047619857
34	0xbdbad73c	-0.09123084
35	0x3c5ce05e	0.013481228
36	0xbe5e1b6b	-0.21690147
37	0x3d6ffe4c	0.058592126
38	0x3ceabc7b	0.028654328
39	0xbe733549	-0.23750795
40	0x3da06b91	0.07833017
41	0xbe638aa8	-0.22220862
42	0xbe89bf63	-0.2690383
43	0xbdc15684	-0.0944033
44	0xbdbee2d8	-0.09320611
45	0xbd94658f	-0.07245933
46	0xbdc88a3a	-0.097919896
47	0xbe3bf23c	-0.18354124
48	0x3d4fe0d3	0.05075152
49	0xbd956cff	-0.0729618
50	0xbe4fd4e3	-0.20296054
51	0xbdbe68b2	-0.09297313
52	0xbe50a08c	-0.20373744
53	0xbd8211ab	-0.06351026
54	0x3dc02878	0.09382719
55	0x3d18c9d1	0.037301842
56	0xbe26455c	-0.16237396
57	0xbe371968	-0.17880785
58	0xbbf59edc	-0.007495744
59	0xbe534633	-0.20632248
60	0xbd00e271	-0.03146595
61	0xbe1481ac	-0.14502591
62	0xbe19afff	-0.15008543
63	0xbe48e869	-0.19619907
64	0x3b12d7c2	0.0022406434
65	0xbe3e42d5	-0.18580182
66	0xbd8331b3	-0.06405964
67	0xbe61a60a	-0.22035995
68	0x3e7eb2fe	0.24872968
69	0x3be32517	0.0069319117
70	0xbc99354c	-0.018702172
71	0xbea36da0	-0.31919575
72	0xbdda6dac	-0.106654495
73	0xbd046af9	-0.03232858
74	0x3de98f53	0.1140429
75	0x3dbf8d3f	0.093531124
76	0xbe3ee1a0	-0.18640757
77	0x3c8c273c	0.017108552
78	0xbd1033a9	-0.035205517
79	0xbe52a8b5	-0.20572169
80	0xbe19ef02	-0.1503258
81	0xbe86aeb4	-0.26305163
82	0xbe81bb37	-0.25338146
83	0xbe29fdd2	-0.16600731
84	0xbc6283d9	-0.01382538
85	0xbd168e4d	-0.036756802
86	0xbe5ba5a2	-0.21449903
87	0xbbd88fe8	-0.006608952
88	0xbe4e9beb	-0.20176665
89	0xbe67f4cc	-0.22651976
90	0x3d943206	0.07236104
91	0xbe808d8c	-0.25107992
92	0xbd396ddd	-0.04527079
93	0x3d96a22b	0.0735515
94	0x3bcbf265	0.006223964
95	0xbe634104	-0.2219277
96	0xbd3a42c2	-0.04547382
97	0x3dc43c3b	0.095818006
98	0xbe33f0c2	-0.1757231
99	0x3d6b92cc	0.057513043
100	0xbd0080fa	-0.031373
101	0x3d6eb399	0.058276746
102	0xbe0866ab	-0.13320415
103	0xbe6c5966	-0.23080978
104	0xbe534acb	-0.20634
105	0xbdf97310	-0.121801496
106	0x3d93e578	0.07221502
107	0x3d8a6427	0.06757384
108	0x3cf1bcd1	0.02950898
109	0x3e24e014	0.16101104
110	0x3e032ab9	0.12809266
111	0xbe5424de	-0.20717189
112	0xbe36b032	-0.1784065
113	0xbde4b482	-0.11167242
114	0xbde22e75	-0.11044017
115	0xbe7e3dc0	-0.24828243
116	0x3d85409f	0.06506466
117	0x3d29cf34	0.04145737
118	0xbd9dcfb5	-0.077056326
119	0x3df5fe9a	0.12011452
120	0xbe6630c4	-0.2247954
121	0xbe9ba076	-0.3039586
122	0xbdef0df5	-0.11672584
123	0xbe2a310b	-0.16620271
124	0xbe73d50f	-0.23811744
125	0xbe383673	-0.1798952
126	0xbdbc8a23	-0.09206035
127	0xbe0051b6	-0.1253117

fc_layers.3.weight f4 [64, 128]
0	0x3de7d901	0.11320687
1	0xbe3354e7	-0.17512856
2	0xbe02fd85	-0.12792023
3	0xbe44e6ab	-0.19228618
4	0xbdd59f92	-0.10430826
5	0x3d880e27	0.06643324
6	0x3c75ab09	0.014994391
7	0xbc24c9f7	-0.010057918
8	0x3d347ab5	0.044062335
9	0x3c1d9a47	0.009619302
10	0xbd844c42	-0.064598575
11	0xbdabcb15	-0.08388344
12	0xbe893d22	-0.26804453
13	0x3d0e6494	0.034763888
14	0xbda347aa	-0.07972653
15	0xbe243b3b	-0.1603822
16	0x3da98d8f	0.08278953
17	0xbd7574c8	-0.059925824
18	0x3d9b6b5b	0.07588836
19	0x3cf69096	0.03009824
20	0xbe655f84	-0.22399718
21	0x3cbca691	0.023028644
22	0x3bc94a5a	0.0061428966
23	0xbdf02bbc	-0.11727092
24	0xbd5745ff	-0.052556988
25	0xbe0ff72b	-0.14059131
26	0xbdd5f560	-0.10447192
27	0xbdc62b27	-0.096761994
28	0xbe18fcbf	-0.14940165
29	0xbda40794	-0.08009258
30	0x3dd8e0d0	0.105897546
31	0xbd0e5678	-0.03475043
32	0x3dcbb6c9	0.09946973
33	0xbd30fdd8	-0.043210834
34	0xbdf5cc03	-0.12001803
35	0x3db05752	0.08610405
36	0xbdd9cf6d	-0.106352665
37	0xbe4ff0a8	-0.20306647
38	0x3dd1b1ee	0.102390155
39	0xbe612e73	-0.21990375
40	0xbd7a67ba	-0.061134078
41	0xbe594799	-0.21218719
42	0xbe5d16da	-0.21590748
43	0xbd12b19e	-0.03581392
44	0xbe02cb66	-0.12772903
45	0x3ccbde03	0.024886137
46	0x3d278087	0.040894058
47	0xbda5930c	-0.080846876
48	0xb9e6a35b	-0.00043990728
49	0xbe2c9b44	-0.16856104
50	0x3e030fb9	0.12798966
51	0xbd8b8ce1	-0.0681398
52	0x3db1720c	0.08664331
53	0xbe4e4c47	-0.20146285
54	0xbe4f7090	-0.20257783
55	0x3de63479	0.11240477
56	0xbe663e8c	-0.22484797
57	0xbe2d8a28	-0.16947234
58	0xbe3d6594	-0.1849578
59	0x3e22fc2d	0.1591651
60	0x3dc4a8a7	0.096024804
61	0xbe20f6cc	-0.15719146
62	0xbe007896	-0.12546
63	0x3d981404	0.07425693
64	0xbe4a60d3	-0.19763498
65	0x3d186785	0.0372081
66	0xbd73a5c9	-0.059484277
67	0xbdad6f8a	-0.0846854
68	0xbe4b4588	-0.19850743
69	0xbde1f03d	-0.1103215
70	0x3d6ba88a	0.05753378
71	0x3e4f83b6	0.20265087
72	0xbd96e367	-0.07367592
73	0xbc9d0b50	-0.019170433
74	0xbe431df3	-0.19054393
75	0xbe61bbff	-0.22044371
76	0xbc94bca4	-0.018156357
77	0x3e09eef1	0.13470055
78	0xbd942d68	-0.07235223
79	0x3dbd44f8	0.0924167
80	0xbe53b203	-0.20673375
81	0x3d7fb54c	0.062428758
82	0x3e15dd61	0.1463523
83	0xbe20ce24	-0.15703636
84	0x3e073b3a	0.13206187
85	0xbe138a4c	-0.14408225
86	0xbda606a9	-0.08106739
87	0x3d9c0d56	0.07619731
88	0xbd5f1202	-0.054460533
89	0xbe3ad5dd	-0.18245645
90	0x3db13312	0.08652319
91	0xbd93f34b	-0.07224139
92	0xbd404957	-0.046944942
93	0xbdc654a2	-0.09684111
94	0x3ca30724	0.019900866
95	0xbdc77803	-0.09739687
96	0x3d4880b7	0.048950877
97	0xbe147813	-0.1449893
98	0xbe593698	-0.21212232
99	0x3da6f51d	0.081522204
100	0x3e1aec4e	0.15129206
101	0x3d6d19db	0.057885986
102	0xbd8f60d4	-0.070008904
103	0x3e2bf22b	0.16791598
104	0xbe815eb2	-0.2526756
105	0xbe41f3ac	-0.1894061
106	0x3b1a620f	0.0023556983
107	0x3d8c7aa4	0.06859329
108	0xbdb96cef	-0.090539806
109	0xbda1bccc	-0.07897338
110	0xbb6394dc	-0.0034726178
111	0x3dcd603a	0.100281194
112	0xbe2f2d82	-0.17107204
113	0xbd305e13	-0.043058466
114	0xbcdaa6f2	-0.026690934
115	0xbe722399	-0.23646392
116	0xbe24f930	-0.16110682
117	0xbd22fc80	-0.039791584
118	0xbe2f9f3b	-0.17150585
119	0xbe6b531a	-0.2298092
120	0x3e2b2eb9	0.16717042
121	0x3dee91f1	0.1164893
122	0xbd96e32c	-0.07367548
123	0xbdd2529f	-0.10269665
124	0xbe5c67a6	-0.21523914
125	0xbe54fdef	-0.20799993
126	0xbdf56f32	-0.119840994
127	0xbe2ee336	-0.17078862
128	0x3cbd28ec	0.023090802
129	0x3e52afec	0.20574921
130	0x3d54c86a	0.051948942
131	0x3ced6783	0.028980022
132	0x3e8897ec	0.26678407
133	0xbd419365	-0.047259707
134	0x3d05f965	0.032708544
135	0x3db36e73	0.08761301
136	0xbe6619ec	-0.22470826
137	0xbd2e4ded	-0.042554785
138	0xbdd08d83	-0.10183241
139	0xbdd8a6fc	-0.10578725
140	0xbda4609f	-0.080262415
141	0x3db15555	0.08658854
142	0x3cd56894	0.026050843
143	0xbd772f6a	-0.060347952
144	0x3d0c840b	0.034305613
145	0x3d6a710c	0.057236716
146	0xbde68fe1	-0.112579115
147	0x3c85eaef	0.016347377
148	0xbe94e779	-0.2908285
149	0x3d2dd2f7	0.04243752
150	0xbd1c9d81	-0.038236145
151	0x3d8d31c7	0.0689426
152	0xbdf9ec89	-0.122033186
153	0x3dd1296f	0.10212981
154	0x3e11baa6	0.14231357
155	0xbe1f1357	-0.15534721
156	0xbbb374ef	-0.005476586
157	0x3e2ef71e	0.17086455
158	0xbdf2edd9	-0.11861772
159	0xbe37729e	-0.17914817
160	0x3d5266e4	0.051367655
161	0x3d75ec6f	0.060039934
162	0xbe1067a2	-0.14102033
163	0xbe13ce44	-0.14434153
164	0xbe7b661d	-0.24550672
165	0xbe006ffa	-0.12542716
166	0xbe967a96	-0.293904
167	0xbdcc9a73	-0.09990396
168	0x3d57846c	0.05261652
169	0xbe20ba41	-0.1569605
170	0xbe62eb94	-0.22160178
171	0xbd31bb56	-0.043391548
172	0xbe43f951	-0.19138075
173	0xbe3fbe23	-0.18724875
174	0xbd166ae7	-0.036723044
175	0xbe2dff21	-0.16991855
176	0xbdcc81a6	-0.09985666
177	0x3c94d835	0.018169502
178	0x3db375db	0.087627135
179	0xbe184a25	-0.14872034
180	0x3d7367e6	0.059425257
181	0x3e1cd78e	0.15316603
182	0xbdb7d758	-0.089766204
183	0x3cee5234	0.029091932
184	0x3e43844b	0.19093435
185	0xbe57d6dc	-0.21078056
186	0xbe5dfd07	-0.21678554
187	0x3e1e7665	0.15474851
188	0x3e05bf4f	0.1306126
189	0xbe78e554	-0.24306232
190	0xbdbb8858	-0.09156865
191	0x3dace36c	0.08441815
192	0xbe18dbc4	-0.14927584
193	0x3ba7166d	0.005099109
194	0xbdb047c7	-0.086074404
195	0xbdb7a8ea	-0.08967765
196	0xbdde113b	-0.1084313
197	0xbd9d3ac7	-0.076772265
198	0xbe07bc62	-0.13255456
199	0x3e59aaaf	0.21256517
200	0xbd1d3ec9	-0.038389955
201	0x3c9ac920	0.018894732
202	0x3dcb33f8	0.099220216
203	0xbdb3f98d	-0.087878324
204	0xbe70c9d6	-0.23514494
205	0xbe3d65d2	-0.18495873
206	0xbd75502a	-0.059890904
207	0xbcf87038	-0.030326948
208	0x3cf3213f	0.029678939
209	0x3dc6addc	0.0970113
210	0xbe09c176	-0.13452706
211	0xbe56e7b3	-0.20986824
212	0xbe86388b	-0.26215014
213	0xbbca887a	-0.00618082
214	0x3b0de782	0.0021652882
215	0xbd9aa045	-0.075501
216	0xbd91c267	-0.071171574
217	0x3d508717	0.05091008
218	0x3d81568c	0.06315336
219	0xbd92e1e1	-0.07171989
220	0xba363674	-0.0006950863
221	0x3e373e6f	0.1789491
222	0xbe0135b2	-0.1261814
223	0x3db134d5	0.08652655
224	0x3e01116d	0.12604304
225	0xbe11650a	-0.141987
226	0x3e141044	0.1445933
227	0x3d83452c	0.06409678
228	0x3d9f0867	0.077652745
229	0x3a8de8a0	0.0010826774
230	0x3d5a4d56	0.05329641
231	0x3da36e00	0.07979965
232	0xbe13b714	-0.14425308
233	0x3db326df	0.087476484
234	0x3c849ff3	0.016189551
235	0xbd877dcb	-0.0661579
236	0xbe0d77cd	-0.13815232
237	0xbe3c0f37	-0.18365179
238	0x3e3d9154	0.1851247
239	0xbe22cbca	-0.15898052
240	0xbe1a5934	-0.15073091
241	0x3def5d92	0.11687769
242	0xbd872697	-0.06599157
243	0xbd7bb02c	-0.061447307
244	0x3d9880de	0.074464545
245	0xbdf5a070	-0.11993492
246	0x3e21af97	0.15789638
247	0xbc98fd9c	-0.018675618
248	0x3e684db3	0.2268589
249	0x3df80794	0.121108204
250	0xbe6de1f3	-0.23230724
251	0xbe3c4cd9	-0.1838869
252	0x3e0acd1c	0.13554806
253	0x3e045b3a	0.12925425
254	0xbe40e915	-0.18838914
255	0xbe2177be	-0.15768334

fc_layers.3.bias f4 [64]
0	0xbd314b58	-0.043284744
1	0xbdc248a4	-0.09486511
2	0x3d0bf9ec	0.03417389
3	0xbdcf8a51	-0.10133804
4	0xbe01ed7a	-0.12688246
5	0x3da35235	0.07974664
6	0xbcb35bb1	-0.021894308
7	0xbdd1fb6d	-0.10253034
8	0xbd105dd9	-0.03524575
9	0x3e1aed27	0.15129529
10	0xbd0a612a	-0.03378407
11	0x3b3385e0	0.0027393028
12	0x3d3eb8ea	0.046563067
13	0xbcd0c26c	-0.025483333
14	0xbe1498cf	-0.14511417
15	0x3dae2418	0.08502978
16	0x3e0a3966	0.13498458
17	0xbe0d7446	-0.13813886
18	0x3cd1bd3d	0.025602931
19	0xbd528fc8	-0.05140665
20	0xbd7facd1	-0.06242067
21	0x3dbfc137	0.09363025
22	0xbdb3e965	-0.08784751
23	0xbd9182f4	-0.071050555
24	0xbe394149	-0.1809131
25	0xbdc30f58	-0.09524411
26	0x3d740c38	0.059581965
27	0xbcf66cfd	-0.030081267
28	0xbd69c908	-0.057076484
29	0xbc507d00	-0.012725115
30	0xbdccc342	-0.0999818
31	0x3cc155a4	0.023600407
32	0x3c251b01	0.010077239
33	0x3dc12292	0.09430422
34	0xbd3bf217	-0.04588517
35	0xbe2be87f	-0.16787909
36	0xbd1a4ba8	-0.037669808
37	0x3dbfbaa6	0.09361772
38	0x3dad3908	0.084581435
39	0xbd468067	-0.048462298
40	0xbe2d044b	-0.16896169
41	0xbcbf6eeb	-0.02336832
42	0x3df9e42b	0.12201723
43	0xbe3346e5	-0.17507513
44	0xbe10320a	-0.14081588
45	0xbd8f2d7c	-0.06991097
46	0xbdde5527	-0.10856085
47	0x3d04bc82	0.032406338
48	0xbd4230d9	-0.047409866
49	0x3cbe9a8e	0.023267057
50	0xbcab45a6	-0.020907234
51	0xbd9af5f7	-0.07566445
52	0xbe17dde4	-0.14830738
53	0x39a7040c	0.00031855737
54	0xbd118d27	-0.035535004
55	0xbc27c591	-0.010239975
56	0x3d3127dc	0.043250903
57	0xbd5585d8	-0.052129596
58	0xbc595ca9	-0.013266721
59	0x3c97da8c	0.018536828
60	0xbe302199	-0.17200316
61	0xba1bec8c	-0.0005948029
62	0xbcaca93d	-0.021076793
63	0x3d17d02a	0.037063755

fc_layers.6.weight f4 [32, 64]
0	0x3e5be114	0.21472579
1	0xbc21016b	-0.009826998
2	0xbe83696f	-0.25666377
3	0x3e199d7f	0.15001486
4	0xbcd32f2e	-0.025779333
5	0xbd688de0	-0.056775928
6	0x3e806176	0.25074357
7	0x3e850746	0.25982112
8	0xbc3ef190	-0.011654273
9	0xbe21aa32	-0.1578758
10	0xbd6f4085	-0.05841114
11	0x3e3d41ca	0.18482128
12	0xbdb6a6e3	-0.0891855
13	0xbe2ee4ac	-0.17079419
14	0x3dace482	0.08442022
15	0xbe2973ae	-0.16548035
16	0x3e92a277	0.28639576
17	0x3cb93286	0.0226071
18	0xbd852392	-0.06500925
19	0x3e76a626	0.24086818
20	0x3d93e1a4	0.07220772
21	0xbe47e2bf	-0.1952009
22	0xbd079a1f	-0.033105966
23	0x3d7189cb	0.0589693
24	0xbe780301	-0.24219896
25	0xbea566f4	-0.3230511
26	0xbdf5c998	-0.120013416
27	0xbd3edb7f	-0.046596047
28	0xbd0f2b0e	-0.03495317
29	0x3cc7043f	0.024294017
30	0xbe92a246	-0.2863943
31	0xbd06ca04	-0.0329075
32	0x3cf431c8	0.029808894
33	0xbe62ee73	-0.22161274
34	0x3e569fdc	0.20959419
35	0xbe6096f0	-0.21932578
36	0xbe45b87b	-0.19308655
37	0xbdba0ef4	-0.09084883
38	0xbeb6055a	-0.35550958
39	0xbea0df00	-0.31420135
40	0xbe688559	-0.22707118
41	0x3d95dbf6	0.07317345
42	0xbe591824	-0.21200615
43	0xbe89fb85	-0.26949707
44	0x3d9a9cda	0.07549448
45	0xbe00ad16	-0.12566027
46	0xbd7873b8	-0.060657233
47	0x3e3cc5c4	0.18434817
48	0x3df947fa	0.121719316
49	0xbda3090d	-0.07960711
50	0xbd483fdc	-0.048889026
51	0x3d9890e9	0.074495144
52	0xbd060856	-0.032722794
53	0xbe7a72c4	-0.24457842
54	0x3e0930c7	0.13397513
55	0xbe373b50	-0.1789372
56	0xbe313c8d	-0.17308255
57	0xbd3a2477	-0.04544493
58	0x3d9ec114	0.077516705
59	0xbe1fad41	-0.15593435
60	0x3d81cafe	0.06337546
61	0x3dff8151	0.12475837
62	0x3d7d3043	0.061813604
63	0xbd461a3a	-0.048364855
64	0xbe3f3d17	-0.18675648
65	0x3d94e2e1	0.07269836
66	0xbe59675a	-0.21230832
67	0xbe965e75	-0.2936894
68	0xbe214550	-0.15749097
69	0xbc1fde7d	-0.009757635
70	0x3e81d8bd	0.2536067
71	0x3e6b6092	0.22986057
72	0xbe0bc18f	-0.13648055
73	0xbe26b4b0	-0.16279864
74	0x3e3d2ad7	0.18473373
75	0x3e0e03b1	0.13868596
76	0xbea7799a	-0.32709962
77	0xbe78d468	-0.24299777
78	0xbe87c004	-0.26513684
79	0xbe6e0c48	-0.23246872
80	0xbda98911	-0.082780965
81	0xbe1c5d47	-0.15269957
82	0x3c044fcc	0.008075666
83	0x3e89d629	0.26921204
84	0x3d670b5f	0.05640733
85	0xbe5d7d73	-0.21629886
86	0xbe7a2f86	-0.24432191
87	0xbe3dbf26	-0.18529949
88	0x3dcdffa4	0.10058525
89	0xbe474a11	-0.19461848
90	0xbd05b32d	-0.03264158
91	0xbe8438f4	-0.25824702
92	0xbe9b4393	-0.30324993
93	0x3d21a2de	0.039461963
94	0xbdd7a8d0	-0.10530245
95	0xbe9de4cb	-0.30838618
96	0xbe3cdbfa	-0.1844329
97	0x3ce76adc	0.028249197
98	0xbd2fcb83	-0.042918693
99	0xbb86be29	-0.0041120243
100	0x3e33e679	0.17568387
101	0xbd3d1051	-0.04615814
102	0xbe8a4cd9	-0.27011755
103	0x3ddc389d	0.107529856
104	0xbddff2a5	-0.10934953
105	0x3df7c9d0	0.120990396
106	0xbe1de828	-0.15420592
107	0x3e283cb1	0.16429402
108	0x3e7821b2	0.24231604
109	0x3dccfc8d	0.10009108
110	0xbe3d10e7	-0.18463479
111	0xbd719097	-0.058975782
112	0x3e42838b	0.18995492
113	0xbd497d51	-0.049191777
114	0xbe2df3c4	-0.1698752
115	0xbe930dbf	-0.28721425
116	0xbd74cc7e	-0.05976533
117	0x3e47d617	0.19515263
118	0xbd88a539	-0.06672139
119	0xbd0af267	-0.03392258
120	0xbe2f3cc8	-0.1711303
121	0xbb6c965e	-0.0036100368
122	0x3cc0e90d	0.023548627
123	0xbdc871e8	-0.09787351
124	0x3e6b29f6	0.22965226
125	0x3d8fcad9	0.07021112
126	0x3dbdaa39	0.09260983
127	0xbc9125cb	-0.017718216
128	0xbe7ed65b	-0.24886458
129	0xbecb3606	-0.39689654
130	0x3cc3abc1	0.02388561
131	0x3cf8e81d	0.030384118
132	0xbe281242	-0.16413215
133	0xbb3e1fb8	-0.0029010605
134	0xbeaa6e85	-0.33287445
135	0x3e879e8d	0.26488152
136	0x3ea2b3c2	0.3177777
137	0x3dd521d2	0.10406841
138	0x3d73a70a	0.059485473
139	0x3d026f71	0.03184456
140	0xbe2d6968	-0.1693474
141	0x3d809738	0.06278843
142	0x3ca39f35	0.019973377
143	0x3dd4043c	0.1035237
144	0xbe914336	-0.2837159
145	0x3e253456	0.16133246
146	0x3ddd9528	0.10819465
147	0x3e294b8d	0.16532727
148	0xbe4c0059	-0.19922008
149	0xbe146723	-0.14492469
150	0xbda09b0b	-0.07842072
151	0x3dd9af34	0.106291205
152	0xbe99d9de	-0.30049032
153	0xbe90c22f	-0.2827315
154	0x3db9629a	0.0905201
155	0x3ddbb737	0.10728305
156	0xbe04f47d	-0.1298389
157	0xbe4d193a	-0.20029154
158	0x3dfe22fa	0.12409015
159	0x3e8aa634	0.27079928
160	0xbe416116	-0.18884692
161	0xbeaff0c6	-0.34363383
162	0xbe27e596	-0.16396174
163	0xbe8d5f3e	-0.27611727
164	0xbe25ea2e	-0.16202614
165	0xbdaeabdc	-0.08528873
166	0x3d850511	0.06495107
167	0x3de322c4	0.110906154
168	0x3de97496	0.1139919
169	0xbe5bf7c0	-0.21481228
170	0xbe9f95a4	-0.31168854
171	0xbd63e6a5	-0.05563988
172	0x3e85f213	0.2616125
173	0x3d769e53	0.060209583
174	0x3dc6488e	0.096818075
175	0xbea2c23e	-0.3178882
176	0xbe623f53	-0.22094469
177	0x3dc85ff6	0.09783928
178	0xbc839139	-0.016060458
179	0xbe2b1180	-0.16705894
180	0x3dc296c9	0.09501416
181	0x3ccc8fcd	0.024970913
182	0xbe9373fd	-0.2879943
183	0xbe596abb	-0.2123212
184	0x3ddc9484	0.107705146
185	0x3e475423	0.1946569
186	0xbde1b9da	-0.110217765
187	0xbeb26641	-0.3484364
188	0xbe0f3d30	-0.13988185
189	0xbccf401a	-0.02529912
190	0xbe46a562	-0.19399026
191	0xbe31a2a3	-0.17347197
192	0x3d35b6bb	0.04436372
193	0xbeaef6d2	-0.34172684
194	0xbe6b2c55	-0.2296613
195	0xbd7ef272	-0.062242933
196	0x3e612a56	0.21988806
197	0xbe1af594	-0.15132743
198	0x3e75bb90	0.2399733
199	0xbc957bde	-0.018247541
200	0xbce48004	-0.027893074
201	0xbe06d39b	-0.13166659
202	0x3e3dfa05	0.18552406
203	0xbdbf9552	-0.093546525
204	0xbda5fcf0	-0.081048846
205	0x3e1884c2	0.14894393
206	0xbe78fbd2	-0.24314812
207	0xbe3e0020	-0.18554735
208	0xbe13d80c	-0.14437884
209	0x3dccddd0	0.10003245
210	0xbe9ed9f9	-0.31025675
211	0x3d85ddc2	0.065364376
212	0xbdf2d533	-0.11857071
213	0x3d7d00c2	0.0617683
214	0x3dee0501	0.11622048
215	0xbbc2e6ae	-0.0059479093
216	0xbe7e2510	-0.24818826
217	0xbd17942d	-0.037006546
218	0x3dd815bc	0.105510205
219	0x3e48d470	0.19612288
220	0xbe2e429f	-0.17017601
221	0xbdd74900	-0.105119705
222	0xbd44ac5b	-0.048015933
223	0x3cd73699	0.026271151
224	0xbc3e56aa	-0.011617342
225	0xbe113fdd	-0.14184518
226	0xbbbf3aea	-0.0058358805
227	0xbdb5e8ca	-0.088822916
228	0x3bfef072	0.007780128
229	0xbd1d6665	-0.03842773
230	0xbd40f023	-0.047104012
231	0xbd514dae	-0.05109947
232	0xbe8799a9	-0.2648442
233	0x3d25d1db	0.040483337
234	0xbe74c30c	-0.2390253
235	0x3d9021c1	0.07037688
236	0x3d49b397	0.049243536
237	0x3e59073e	0.21194169
238	0x3e30516c	0.1721856
239	0xbe2352e7	-0.15949593
240	0xbe105c14	-0.14097625
241	0xbe7d1cd3	-0.24718027
242	0xbe8527ae	-0.26006836
243	0xbe8f4ae7	-0.27986833
244	0x3bb541f4	0.005531544
245	0x3d09507f	0.033524033
246	0xbe79deb2	-0.24401358
247	0x3d389b4c	0.045069978
248	0x3e6a63cc	0.22889632
249	0x3e920023	0.2851573
250	0x3e184ef4	0.14873868
251	0xbe62e961	-0.2215934
252	0x3e69bfae	0.22827026
253	0xbe25e906	-0.16202173
254	0xbca60c2b	-0.020269474
255	0xbc8dcfb1	-0.017310949

fc_layers.6.bias f4 [32]
0	0xbe5429d4	-0.20719081
1	0xbe707d4e	-0.234853
2	0xbe40c02d	-0.18823309
3	0xbdc200f3	-0.09472837
4	0x3ec0dd89	0.37669018
5	0xbe996d58	-0.29966235
6	0xbe935599	-0.28776243
7	0xbe34a411	-0.17640711
8	0xbe32bfb6	-0.17455944
9	0xbc19089b	-0.009340431
10	0x3c0d5bd1	0.008627848
11	0xbe1e262a	-0.15444246
12	0xbd74f004	-0.05979921
13	0x3d14699d	0.036233533
14	0xbe43d728	-0.19125044
15	0x3e0d50f8	0.13800418
16	0x3dba51e8	0.090976536
17	0xbbfbaa66	-0.007680225
18	0xbe1780c9	-0.14795221
19	0xbbd87478	-0.006605681
20	0x3e983efe	0.2973556
21	0xbe6ee174	-0.23328191
22	0x3b0be07a	0.0021343515
23	0x3d144f1f	0.03620827
24	0x3ba7b51f	0.005118027
25	0xbec42ac5	-0.3831388
26	0xbd86f373	-0.06589403
27	0x3c04551c	0.008076932
28	0xbe6f5c4d	-0.23375054
29	0x3e6f96b8	0.23397338
30	0x3eb2804d	0.3486351
31	0x3e020e92	0.1270087

fc_layers.8.weight f4 [4, 32]
0	0xbe18d395	-0.14924462
1	0xbe2a90bf	-0.16656779
2	0xbe75dbc8	-0.24009621
3	0x3e180ee7	0.14849435
4	0xbdf4c9f7	-0.11952584
5	0xbd9c90a4	-0.076447755
6	0xbe8f5a0a	-0.27998382
7	0xbd85a88e	-0.0652629
8	0xbe13feb4	-0.1445263
9	0xbd3ba512	-0.04581172
10	0x3e82eef6	0.25572938
11	0xbe69fb5b	-0.22849791
12	0xbe5e997b	-0.21738236
13	0xbd8cab04	-0.06868556
14	0xbe3f4d51	-0.18681838
15	0xbc821cea	-0.015882928
16	0xbc6d75a9	-0.014493384
17	0xbd1a478e	-0.037665896
18	0x3e53b453	0.20674257
19	0x3e632c0d	0.22184773
20	0x3e2a0b33	0.16605835
21	0x3e184918	0.14871633
22	0xbdbb4c67	-0.09145432
23	0xbc13cdc1	-0.0090212235
24	0xbda227cf	-0.07917749
25	0xbd66b066	-0.05632057
26	0xbe6098cb	-0.21933286
27	0x3e97c481	0.29642108
28	0xbd4dd8ea	-0.050255693
29	0xbda5cf0c	-0.08096132
30	0x3e8d37a4	0.27581513
31	0xbddc5008	-0.10757452
32	0xbe81f84e	-0.25384754
33	0xbe80df26	-0.2517025
34	0xbe841bfa	-0.25802594
35	0xbe34ffd5	-0.17675717
36	0xbebb0805	-0.36529556
37	0xbea4033a	-0.32033712
38	0xbe6cffa8	-0.231444
39	0x3ca05444	0.019571431
40	0xbdae2999	-0.08504028
41	0x3e60d5ef	0.21956609
42	0x3ea46e02	0.3211518
43	0x3dce306c	0.100678295
44	0xbd62cf5a	-0.055373527
45	0x3e87c6b7	0.26518795
46	0xbe9c9c66	-0.30588073
47	0xbc919a6b	-0.017773828
48	0x3e21d632	0.15804365
49	0x3e551d9c	0.20812076
50	0xbdf81f09	-0.121152945
51	0xbb01c73e	-0.0019802595
52	0x3e512c2e	0.2042701
53	0xbdd3fbf9	-0.10350794
54	0x3e8172a6	0.25282782
55	0x3e00a071	0.12561204
56	0x3e3fd5ef	0.18733953
57	0xbe601290	-0.21882081
58	0xbdd67bcb	-0.104728304
59	0x3e083ef9	0.13305272
60	0xbdc49206	-0.09598164
61	0x3d49b36c	0.049243376
62	0x3e3aa9c4	0.18228823
63	0xbde92042	-0.11383106
64	0x3d734993	0.059396338
65	0xbd0f566f	-0.03499454
66	0xbd3cace2	-0.04606331
67	0x3cdcdba8	0.026960209
68	0xbecf3dc8	-0.40476823
69	0x3e9b9550	0.30387354
70	0xbe9a8645	-0.30180565
71	0xbe61b3c3	-0.2204123
72	0x3e14e3c2	0.14540008
73	0x3dc33cca	0.09533079
74	0xbd81a685	-0.06330589
75	0xbe1597b5	-0.14608653
76	0x3e26c8d9	0.16287555
77	0xbc711894	-0.014715333
78	0xbe65ece1	-0.22453643
79	0xbd759637	-0.05995771
80	0xbd5bd383	-0.05366851
81	0x3de374ea	0.11106284
82	0x3d412967	0.047158625
83	0x3deb6cf7	0.11495393
84	0x3e54419f	0.20728157
85	0x3eaf9903	0.34296426
86	0x3e39f0e7	0.18158303
87	0xbe1f0f6d	-0.15533228
88	0x3e500fc4	0.20318514
89	0xbe0b8976	-0.13626656
90	0x3e84332e	0.25820297
91	0x3e445b02	0.19175342
92	0xbe3ea4b4	-0.18617517
93	0x3df67560	0.12034106
94	0x3eac3f8d	0.33642235
95	0xbed70eb3	-0.42003402
96	0xbd355a7c	-0.044275746
97	0x3cb6eb90	0.022329122
98	0xbe3d9b7e	-0.18516347
99	0xbe84b5c5	-0.2591993
100	0xbefd7e68	-0.49510503
101	0xbe7a8116	-0.24463305
102	0xbdb9a983	-0.09065535
103	0x3e0a8906	0.13528833
104	0x3e9d4d5a	0.30723077
105	0xbdf432c1	-0.11923743
106	0x3dbb79f5	0.09154121
107	0x3e9e093b	0.30866417
108	0x3df2df98	0.118590534
109	0x3df1bf6a	0.118040875
110	0x3eab4b3f	0.33455846
111	0xbe9c386d	-0.305118
112	0x3df25e6a	0.11834414
113	0x3e21f9a6	0.1581789
114	0x3e894587	0.26810858
115	0x3dc91645	0.09818701
116	0x3e144550	0.14479566
117	0x3d2d9077	0.0423741
118	0xbe5be8d5	-0.21475537
119	0x3e74492d	0.2385604
120	0x3cc251d0	0.023720652
121	0xbe173710	-0.14767098
122	0xbd8a027a	-0.067387536
123	0x3e094389	0.13404669
124	0x3e3117b3	0.17294197
125	0x3eac9b80	0.33712387
126	0x3d82b1c2	0.06381561
127	0xbe8bc8c8	-0.2730162

fc_layers.8.bias f4 [4]
0	0x3d6c14df	0.05763709
1	0x3de6741c	0.11252615
2	0x3e0efae5	0.13962896
3	0x3e5d4b0e	0.21610662
