output/dqn/model/4x4/3000.pth (torch, 53468 bytes, 8 tensors)

fc_layers.0.weight f4 [128, 16]
000000 56 34 0a 3e 33 ab 73 3e 00 8c a5 3c 73 a7 92 3e
       0.13496527 0.23795776 0.020208359 0.2864338
000010 22 4a c3 3e 80 79 f0 bd 0f 1d cb 3e a6 09 f1 3e
       0.38142496 -0.11741924 0.39670607 0.47077674
000020 0e 51 41 3e a9 d9 01 3f e7 b8 e7 be 80 d7 e8 be
       0.18878576 0.5072275 -0.45258257 -0.45476913
000030 51 36 10 3f 1d e2 14 3f b8 47 bf 3d 58 41 9a 3e
       0.5633288 0.5815752 0.09339851 0.30127978
000040 b8 10 75 be 37 6f e3 bc 8f c4 2f 3e ea 98 fb be
       -0.23932159 -0.027762992 0.17164825 -0.49140102
000050 3c 84 28 3e 36 57 f8 3e 20 db c8 be 2a 5f 0b bf
       0.16456693 0.48504037 -0.3922968 -0.54442084
000060 b3 0a 80 3e 40 2f 09 be 46 97 a7 be 20 96 1d bd
       0.25008163 -0.1339693 -0.327326 -0.03847325
000070 ab e9 16 3f 7d a1 ff 3e f1 98 73 bd 6e 88 07 be
       0.589503 0.49927893 -0.05947203 -0.13235638
000080 db e1 07 be 52 b1 e1 be 4c b0 a5 bd b5 d1 58 3e
       -0.13269751 -0.44080597 -0.080902666 0.21173747
000090 85 08 b7 be 9e ad ce 3e 5a fc b9 3e fa e5 28 be
       -0.35748687 0.40366834 0.3632534 -0.16493979
0000a0 23 ab 5c bd 41 da a3 3e 1f 9b dc 3e c0 53 d1 bd
       -0.053874146 0.32002452 0.43087098 -0.10221052
0000b0 fe d6 af 3e 31 32 12 bf f8 f9 b7 3e 00 81 a0 3d
       0.34343714 -0.57107836 0.359329 0.07837105
0000c0 fd 5a e4 be a1 12 18 3e 09 9e 08 bf 14 45 14 be
       -0.4460067 0.14850856 -0.5336614 -0.14479476
0000d0 92 73 5d be 4a 95 9f 3e de 88 0d bf d8 0b a2 be
       -0.21626118 0.31168586 -0.5528697 -0.3164966
0000e0 fd fe d8 3e aa 74 60 3e 92 d7 37 3e 48 8e 98 3e
       0.4238204 0.21919504 0.17953327 0.29796052
0000f0 28 bf 91 be 61 d9 e1 3e 19 f3 84 3e 18 50 e3 bd
       -0.28466153 0.4411116 0.2596672 -0.11099261
000100 07 01 9c 3c b8 80 a3 3e 05 39 57 3e 61 83 07 bf
       0.019043459 0.31934142 0.21017845 -0.52934843
000110 5c 1d 1a bf 96 9c f7 3e a4 3b e3 be e0 62 6a be
       -0.6020105 0.48361653 -0.4438144 -0.2288928
000120 30 77 af 3e c2 1b 17 be a6 3e bc 3e bc 67 3c be
       0.3427062 -0.14756683 0.36766547 -0.18398947
000130 58 61 a6 bd 47 a9 9c be b1 1d a8 3e a5 9d 05 3f
       -0.081240356 -0.30597898 0.32835153 0.5219367
000140 da 83 df be a0 a9 55 be cc 84 22 be 9f 04 89 3e
       -0.43655282 -0.20865488 -0.1587097 0.26761338
000150 dc 16 05 bf 9a 67 a5 3e 58 a2 cf 3d a0 be 8f bc
       -0.51988006 0.32305604 0.101383865 -0.017546952
000160 2e 88 b2 3e 72 0b 70 3e 4e 68 6d be b2 82 1f be
       0.34869522 0.23441866 -0.2318432 -0.155772
000170 60 b4 5a 3d bd 66 71 3e 98 56 8b 3d ac a1 0b bf
       0.053394675 0.23574348 0.06803626 -0.54543567
000180 5f 02 3b be 63 ce 52 be 59 6a 88 be 88 a2 0c bf
       -0.18262623 -0.20586543 -0.26643637 -0.54935503
000190 53 64 b2 bd b0 fd 7f 3e 35 cf 0f bf ae 1d 14 be
       -0.087105416 0.24999118 -0.5617555 -0.14464447
0001a0 92 1a 59 be 52 e5 86 be ef 45 96 3e 0a 11 db 3e
       -0.21201542 -0.26346833 0.2935023 0.42786437
0001b0 68 20 ab bd 57 25 51 bd ea 02 87 3e 98 94 5d 3e
       -0.083557904 -0.051061 0.2636941 0.21638715
0001c0 c0 d2 ab bc aa d8 a4 be 1f 32 f8 be 72 86 f7 be
       -0.020974517 -0.32196552 -0.4847574 -0.4834476
0001d0 00 4c 33 3b f0 7f 69 be 0f 58 00 3f 70 de 49 bd
       0.0027358532 -0.2280271 0.50134367 -0.0492844
0001e0 1e 7a 4f 3e 4c d9 db be 17 8c 23 3e 44 40 be 3e
       0.20261428 -0.42939222 0.15971409 0.37158406
0001f0 c4 22 6c be 18 d8 05 3f e0 1e cc 3d f8 cd 19 bf
       -0.23060137 0.5228286 0.099668264 -0.6007991
000200 82 b8 92 3d e4 03 0e 3f 98 d0 c2 bd a8 5f cc be
       0.07164098 0.55474687 -0.09512442 -0.3991673
000210 f6 ae 0c be 7b 89 fb be 12 8e 33 be 78 15 dc be
       -0.13738617 -0.49128327 -0.17534664 -0.4298513
000220 18 6e 07 bf 32 41 e5 3e ce d2 4d be 5c f2 68 3e
       -0.52902365 0.44776303 -0.20099947 0.22748703
000230 38 e5 f9 be bf ce b4 be 73 eb f8 3e 28 01 f6 bd
       -0.48807693 -0.35313985 0.48617133 -0.12011939
000240 40 d7 6a 3d cc 88 16 bf 8e d1 14 bf 5f 09 00 bf
       0.057334185 -0.58802485 -0.58132255 -0.500143
000250 7a 6e 04 be 66 4c da 3e c8 e2 dd be 58 9d f5 be
       -0.12932768 0.42636412 -0.43337083 -0.47971606
000260 6c a2 33 bd 45 62 6a 3e 4e f8 5e 3e 98 2b 1c be
       -0.04385607 0.2288905 0.21774408 -0.15251005
000270 40 d4 fc bd 70 88 ab 3e 64 ba 9d bd df d8 0a bf
       -0.12345171 0.3350253 -0.07701567 -0.5423717
000280 9c 39 c1 bc 40 fe a8 bd da 36 10 bf 86 16 27 be
       -0.02358704 -0.08251619 -0.56333697 -0.16317186
000290 64 51 fc be 76 c7 96 3e 72 e9 0e 3d 2e bd c8 3e
       -0.49280846 0.29449052 0.0348906 0.39206833
0002a0 a7 01 23 3d d5 5a b8 3e 7f 0a a9 3e f0 74 90 3d
       0.039796498 0.360068 0.3301582 0.07053554
0002b0 a6 72 99 3e c5 92 06 bf f5 16 b1 3e 4a bb 86 3e
       0.29970282 -0.525677 0.34587827 0.26314765
0002c0 51 17 6c 3e 83 36 80 3d 60 e4 53 be 93 57 a3 be
       0.2305577 0.06260397 -0.20692587 -0.3190275
0002d0 63 3a a1 3e 5a 92 81 be ae c0 e9 3e 98 a9 20 3e
       0.31489858 -0.2530697 0.45654815 0.15689695
0002e0 0b 1b 17 3e 91 b7 e8 3e 38 8b fc bd 04 cd 18 be
       0.1475641 0.4545255 -0.12331241 -0.14921957
0002f0 f6 18 f4 3e 70 d7 e3 ba 2a 25 2f be 40 95 ba bc
       0.47675294 -0.0017382931 -0.1710402 -0.022776246
000300 08 89 10 bf ff 2b 93 3e 13 6b 52 3e 7e f9 0c bf
       -0.56459093 0.28744504 0.20548658 -0.55068195
000310 40 24 ce 3e 30 f5 4d 3d e8 62 22 be 2d b9 af be
       0.40262032 0.050282657 -0.15858042 -0.34320965
000320 bc b0 1b bf f6 54 88 3e 3b 13 12 3f 10 08 1c be
       -0.6081655 0.2662732 0.57060593 -0.1523745
000330 a8 a1 c6 be 96 4e da be 99 f8 bd 3e 60 9e ed bc
       -0.3879521 -0.4263808 0.37103727 -0.029006183
000340 ac 48 b8 3e 62 cf cf 3e d0 a9 c7 be ac c8 54 3e
       0.35992944 0.40587908 -0.38996744 0.20779675
000350 da 76 e7 3e ca 24 ce 3e 28 20 d6 3e e6 4a a8 3e
       0.45207864 0.40262443 0.41821408 0.32869643
000360 9b 4d 96 3e b2 0d 04 3e 5a 82 9d be 20 c5 13 bd
       0.29356083 0.1289585 -0.30763513 -0.036076665
000370 df 0a 10 3f d5 cf 66 3e 94 67 13 be 30 a8 d4 bd
       0.5626659 0.22540219 -0.1439498 -0.10383642
000380 72 b0 06 bf 65 3d 20 3f fc f8 bc be c0 a8 3a 3c
       -0.52612984 0.6259368 -0.3690871 0.011392772
000390 ed 48 8a be 2e 49 d7 3e 16 84 a1 be a1 38 0b 3f
       -0.27008763 0.4204802 -0.31546086 0.54383284
0003a0 4e 8f f1 3e 8a 92 5a 3e d2 a4 12 bf 82 13 9e 3e
       0.47179645 0.21344963 -0.57282746 0.30874258
0003b0 e0 01 5b be ae 06 4a be 31 d0 9b be 92 e3 cc 3e
       -0.21387434 -0.1972911 -0.30432275 0.40017372
0003c0 67 8c 97 3c fe d6 8d 3e c6 a1 8d 3e 4c ad bc be
       0.018499566 0.2770309 0.27662486 -0.36850965
0003d0 ba ff e1 3d 68 66 4d 3e 6e a6 8e 3e 00 dc 74 3e
       0.11035104 0.20058596 0.2786135 0.23912048
0003e0 f6 e0 16 bf e0 75 17 3e 62 c3 2b 3e a2 2c bd 3e
       -0.58937013 0.1479106 0.16773751 0.36948115
0003f0 2c 95 3b 3e 7f 74 02 3f 7d e5 e4 bd 30 38 11 bd
       0.18318623 0.5095901 -0.11176584 -0.035453975

fc_layers.0.bias f4 [128]
000000 13 c6 6e be 73 3f 2d bd 8e 21 1f bd a7 e8 41 3d
       -0.23317747 -0.042296838 -0.03885036 0.047341015
000010 6d 47 ea bd e5 de b3 be 88 a4 f7 3d d3 57 83 be
       -0.11439405 -0.35130993 0.12091929 -0.25652942
000020 68 7b a5 bd 62 da 2c 3b 49 d1 b0 bd e4 f4 44 bd
       -0.080801785 0.0026375283 -0.08633668 -0.04808511
000030 27 4c 7e be 61 a8 1b be ad a7 1e be 66 43 1e 3d
       -0.24833737 -0.1520095 -0.1549365 0.038638495
000040 cc 59 99 3c a2 7a d7 bd 0a 0e 7f ba 4f f3 e5 bd
       0.018719576 -0.10521437 -0.000972957 -0.11228048
000050 81 f9 2f be 4f 70 1a be dc db bb 3c fc 63 62 bd
       -0.17185022 -0.15081905 0.022931986 -0.055271134
000060 46 00 e4 bd cf 63 2f 3e d4 06 7b be 68 fa b4 3d
       -0.11132865 0.17127918 -0.24514323 0.08836824
000070 32 21 e9 bd 2a eb 03 3e cc bc 8c be 23 1c 20 bd
       -0.11383285 0.12882677 -0.2748779 -0.039089333
000080 47 f2 8f be c5 0c c2 3c 06 01 0a be 42 f9 bf 3b
       -0.2811453 0.02368773 -0.13476953 0.0058585713
000090 dc 4e 7d be 5e c7 b3 3c fb 7b 8c bc bc bb 88 be
       -0.24737114 0.021945652 -0.017148962 -0.2670573
0000a0 ea 74 6b 3d 4e ee 4f be 2b 0f 98 be 56 cf cb bd
       0.057484545 -0.2030575 -0.29699072 -0.099516556
0000b0 33 bc bd bd 24 b0 d9 bd ae a4 e2 bd 8f 7d 63 be
       -0.09264412 -0.10629299 -0.110665664 -0.22215866
0000c0 d1 24 00 3c 0f 01 f0 bd 13 a5 81 be c1 74 ea bd
       0.007821278 -0.11718952 -0.25321254 -0.1144805
0000d0 60 36 73 be ca 72 e6 bd b5 11 97 3d 17 39 39 3c
       -0.23751211 -0.11252363 0.07376424 0.011305115
0000e0 52 49 e1 bd 13 7c 50 be 01 61 29 bd ac f8 38 be
       -0.11000313 -0.2035983 -0.041352276 -0.18063611
0000f0 2e f3 c9 bc e7 01 24 be 91 1c 51 be 13 55 22 be
       -0.02465209 -0.1601635 -0.20421053 -0.15852766
000100 29 31 96 bc 3b 85 3e be 1b 0a 50 bd 0e 25 61 be
       -0.018333988 -0.18605511 -0.050790887 -0.21986791
000110 6a 54 58 3e 6e 6c fb bc 85 e1 30 bb e9 76 9f be
       0.21125951 -0.030691352 -0.002698989 -0.3114541
000120 93 cf 03 be 1a 96 5a bd 3d a5 75 3d cb 62 9e 3d
       -0.12872152 -0.053365804 0.059972037 0.07733687
000130 e9 00 4a be 27 09 57 bd 36 f7 5c bd 63 01 43 be
       -0.1972691 -0.052498963 -0.053946696 -0.19043498
000140 46 5a 1d be 04 fb 88 be e3 f0 87 be d4 ff 48 be
       -0.15366468 -0.2675401 -0.2655097 -0.1962884
000150 bd aa 40 bd 8d 25 0c bd ac 1e 68 be f4 15 9c 3b
       -0.04703783 -0.0342155 -0.2266795 0.004763359
000160 9b bc 76 be d4 6a 4a be 67 92 49 3d 4a 47 9a be
       -0.24095385 -0.19767314 0.049211886 -0.30132514
000170 3e 90 d3 bd db 67 ea 3c bb de 30 bb 7a 90 7d be
       -0.103302464 0.028613975 -0.0026988226 -0.24762145
000180 11 dc b0 bd 98 fd 86 3d 73 1d 29 be dc ae 39 3d
       -0.08635724 0.06591338 -0.1651514 0.045332775
000190 6b 5c 8f bd 7c c5 28 3d 32 5e 12 be 34 5f 83 be
       -0.07000049 0.04120396 -0.14293745 -0.25658572
0001a0 d7 3d 58 be 3f 7b 0c be 32 b3 bb 3c fc 46 5d 3c
       -0.2111734 -0.1371889 0.022912595 0.0135056935
0001b0 01 f8 1a bc e8 12 f1 3d f2 92 dd 3d bc 1d 73 be
       -0.009458543 0.11771184 0.10819043 -0.23741812
0001c0 cf bb 68 be 4f 6d 10 be 6c a7 15 be 11 a7 94 be
       -0.22727893 -0.14104198 -0.14614648 -0.29033712
0001d0 9c 27 dc 3c 6d 12 3d 3c 06 1e c7 bd 22 b4 d3 3d
       0.026874356 0.011540038 -0.097225234 0.10337092
0001e0 13 ab 81 be 0c 3d ad be 69 8d 15 be 9c df 2f be
       -0.25325832 -0.33835638 -0.14604725 -0.17175144
0001f0 3f 8d 78 be 8f f3 03 be ab 3b c4 bd 8b fe 07 be
       -0.24272631 -0.12885879 -0.09581693 -0.13280694

fc_layers.3.weight f4 [64, 128]
000000 01 d9 e7 3d e7 54 33 be 85 fd 02 be ab e6 44 be
       0.11320687 -0.17512856 -0.12792023 -0.19228618
000010 92 9f d5 bd 27 0e 88 3d 09 ab 75 3c f7 c9 24 bc
       -0.10430826 0.06643324 0.014994391 -0.010057918
000020 c4 a2 3a 3d 98 58 c3 ba 42 4c 84 bd 15 cb ab bd
       0.04556538 -0.0014903722 -0.064598575 -0.08388344
000030 22 3d 89 be 7f ae 75 39 aa 47 a3 bd d7 da 28 be
       -0.26804453 0.00023430026 -0.07972653 -0.16489731
000040 41 a2 7d 3d c8 74 75 bd 5b 6b 9b 3d 28 e5 43 3c
       0.061922316 -0.059925824 0.07588836 0.011956491
000050 84 5f 65 be 91 a6 bc 3c 5a 4a c9 3b bc 2b f0 bd
       -0.22399718 0.023028644 0.0061428966 -0.11727092
000060 12 60 85 bd 0e 54 2a be 60 f5 d5 bd c5 e1 db bd
       -0.065124646 -0.16633627 -0.10447192 -0.107364215
000070 bf fc 18 be 44 36 bd bd d0 e0 d8 3d 4b 83 32 bd
       -0.14940165 -0.09238866 0.105897546 -0.043582242
000080 c9 b6 cb 3d d8 fd 30 bd 03 cc f5 bd 52 57 b0 3d
       0.09946973 -0.043210834 -0.12001803 0.08610405
000090 6d cf d9 bd a8 f0 4f be ac 10 8d 3d 63 05 6e be
       -0.106352665 -0.20306647 0.068879455 -0.23244242
0000a0 2b c3 94 bd 99 47 59 be da 16 5d be bf e8 93 bd
       -0.07263788 -0.21218719 -0.21590748 -0.07222127
0000b0 66 cb 02 be 98 80 89 3c 88 bb 01 3d 0c 93 a5 bd
       -0.12772903 0.016784951 0.031672984 -0.080846876
0000c0 80 a3 0a bd 44 9b 2c be b9 0f 03 3e e1 8c 8b bd
       -0.033847332 -0.16856104 0.12798966 -0.0681398
0000d0 46 42 b0 3d 47 4c 4e be 90 70 4f be 01 74 bb 3d
       0.08606391 -0.20146285 -0.20257783 0.09152985
0000e0 8c 3e 66 be 28 8a 2d be 94 65 3d be 2d fc 22 3e
       -0.22484797 -0.16947234 -0.1849578 0.1591651
0000f0 a7 a8 c4 3d cc f6 20 be 96 78 00 be 55 cb 56 3d
       0.096024804 -0.15719146 -0.12546 0.052440006
000100 d3 60 4a be 85 67 18 3d 25 cc 78 bd c0 20 bd bd
       -0.19763498 0.0372081 -0.060741562 -0.09234762
000110 88 45 4b be 3d f0 e1 bd 8a a8 6b 3d b6 83 4f 3e
       -0.19850743 -0.1103215 0.05753378 0.20265087
000120 c0 12 ad bd 27 a1 06 bd 8f 2b 3a be ff bb 61 be
       -0.08450842 -0.03286853 -0.18180679 -0.22044371
000130 a4 bc 94 bc 4a 69 fb 3d 68 2d 94 bd f8 44 bd 3d
       -0.018156357 0.12275942 -0.07235223 0.0924167
000140 03 b2 53 be b0 bc 31 3d 61 dd 15 3e 24 ce 20 be
       -0.20673375 0.043392837 0.1463523 -0.15703636
000150 3a 3b 07 3e 18 d0 24 be a9 06 a6 bd b6 45 5c 3d
       0.13206187 -0.16095006 -0.08106739 0.05377742
000160 e4 b6 85 bd d7 34 47 be 48 1b a3 3d b0 64 7d bd
       -0.06529024 -0.1945375 0.07964188 -0.0618636
000170 b8 5d 51 bd a2 54 c6 bd c3 2a e1 ba 03 78 c7 bd
       -0.051114768 -0.09684111 -0.0017178882 -0.09739687
000180 5b 95 81 3c 13 78 14 be 98 36 59 be 1d f5 a6 3d
       0.015818289 -0.1449893 -0.21212232 0.081522204
000190 4e ec 1a 3e db 19 6d 3d d4 60 8f bd 2b f2 2b 3e
       0.15129206 0.057885986 -0.070008904 0.16791598
0001a0 b2 5e 81 be ac f3 41 be a3 c9 38 bc f5 e1 5e 3d
       -0.2526756 -0.1894061 -0.011278543 0.05441471
0001b0 ef 6c b9 bd 4d e2 e6 bd dc 94 63 bb 3a 60 cd 3d
       -0.090539806 -0.11273632 -0.0034726178 0.100281194
0001c0 00 a2 3f be 13 5e 30 bd f2 a6 da bc 99 23 72 be
       -0.18714142 -0.043058466 -0.026690934 -0.23646392
0001d0 d9 af 30 be 80 fc 22 bd 3b 9f 2f be 1a 53 6b be
       -0.1725458 -0.039791584 -0.17150585 -0.2298092
0001e0 3f 02 14 3e f1 91 ee 3d 2c e3 96 bd 9f 52 d2 bd
       0.14453982 0.1164893 -0.07367548 -0.10269665
0001f0 a6 67 5c be ef fd 54 be 32 6f f5 bd 14 5f 37 be
       -0.21523914 -0.20799993 -0.119840994 -0.17907363
000200 d7 5f bd bc e2 4f 63 3e 23 84 31 3d 38 8d 70 3d
       -0.023116989 0.22198442 0.043338906 0.058728427
000210 30 26 99 3e 65 93 41 bd 8f 22 21 3c a0 51 b0 3d
       0.29911947 -0.047259707 0.0098349 0.08609319
000220 83 4a 3c be 56 38 18 bd dd b4 0a be 9c 94 f9 bd
       -0.18387799 -0.0371631 -0.13545556 -0.12186548
000230 a9 28 c0 bd 70 d8 c5 3d d4 53 b8 3c 95 78 60 bd
       -0.09382755 0.09660423 0.02250091 -0.054802496
000240 7d 20 c2 3c 29 ee 88 3d c6 79 1d be 81 79 00 bd
       0.023697132 0.066860504 -0.15378484 -0.031365875
000250 3d 9e a9 be 3b 79 91 3d 88 e1 1d bd 74 76 85 3c
       -0.3312854 0.07103201 -0.03854516 0.016291834
000260 4d e0 15 be e5 8c c1 3d a1 a5 0b 3e 6f 5c 34 be
       -0.14636345 0.094507016 0.13637401 -0.17613386
000270 9d ba a6 3c 4f 7c 39 3e eb dc 0d be ba 55 47 be
       0.020352656 0.18113826 -0.13853805 -0.19466296
000280 44 ce 70 3d 44 c2 83 3d 8e 22 e0 bd 73 14 33 be
       0.05879046 0.064335376 -0.10944091 -0.1748827
000290 b3 67 5e be b1 f5 fe bd 65 a2 a0 be fd 8d 19 be
       -0.21719246 -0.12449206 -0.31373897 -0.1499557
0002a0 36 e5 05 3d ee 55 7f be 3a e3 3e be 7e 63 b2 3c
       0.032689296 -0.24935123 -0.18641368 0.021775957
0002b0 51 f9 43 be a4 77 61 be e4 3a 89 bd 57 52 3e be
       -0.19138075 -0.22018296 -0.067006856 -0.18586098
0002c0 25 30 be bd f7 20 2a 3d f7 d2 95 3d ba 83 4b be
       -0.092865266 0.041535344 0.07315629 -0.19874468
0002d0 e8 d9 a9 3d 10 48 1a 3e 55 cd 9d bd 31 53 18 bd
       0.082935154 0.15066552 -0.077051796 -0.037188713
0002e0 31 71 54 3e dc d6 57 be a9 36 5a be 6c 9b 25 3e
       0.20746304 -0.21078056 -0.21309914 0.1617257
0002f0 ad e7 1b 3e a6 58 8e be de 82 f3 bd 33 2c 95 3d
       0.15225096 -0.27802008 -0.11890195 0.07283821
000300 a4 df 03 be 47 4c 03 ba 6b b5 cf bd e8 00 be bd
       -0.12878281 -0.00050086196 -0.101420246 -0.092775166
000310 cb ad f5 bd f8 3e bf bd ed 0a 1a be fa b6 3a 3e
       -0.11996039 -0.09338182 -0.1504323 0.18233863
000320 df f8 0c bd f0 c6 e3 bc 7b 80 8f 3d 88 8f c9 bd
       -0.03441703 -0.027804822 0.070069276 -0.098418295
000330 96 a9 6e be f7 91 25 be cc 7a ac bd 89 33 13 bd
       -0.2330688 -0.16168962 -0.08421859 -0.03593782
000340 b8 a0 f3 ba 90 1f d8 3d d4 7d 26 be 11 62 62 be
       -0.0018587327 0.10552895 -0.16258937 -0.22107722
000350 c6 8f 73 be ab e2 7b 3c 6e 77 54 bd e1 95 e0 bd
       -0.23785314 0.015373866 -0.05187171 -0.10966087
000360 30 9e 64 bd 78 ae 8e bc 7c 0f c0 3d 1f 57 b1 bd
       -0.05581492 -0.017417178 0.093779534 -0.08659195
000370 83 55 4b b9 e9 81 2e 3e ed 08 01 be 47 d0 57 3d
       -0.00019391444 0.17041744 -0.12601061 0.052688863
000380 39 26 ec 3d 87 05 23 be 0e dd 29 3e b2 82 91 3d
       0.11530728 -0.15920077 0.16588232 0.07105006
000390 7c 43 20 3d a7 a6 3f 3c a0 cc 3d 3d 6e 28 ac 3d
       0.039126858 0.011697448 0.046337724 0.08406149
0003a0 9a db 25 be cb 69 93 3d 68 3a 0f bd 90 1d ab bd
       -0.16197053 0.07197913 -0.03496781 -0.08355248
0003b0 e3 aa 12 be 03 6e 2e be 4b e1 4d 3e 82 88 21 be
       -0.14323 -0.17034154 0.20105474 -0.1577473
0003c0 00 c7 23 be 04 ef 3f 3d 26 65 ca bd a6 36 38 bd
       -0.15993881 0.046858802 -0.09882574 -0.04497399
0003d0 69 89 88 3d b2 94 94 bd b4 65 1a 3e eb 21 3e bd
       0.06666834 -0.07254924 0.15077859 -0.046419065
0003e0 38 62 58 3e 98 d0 a0 3d c4 87 5a be 16 53 54 be
       0.21131217 0.07852286 -0.21340853 -0.2073482
0003f0 2e ff 05 3e 3e a4 08 3e db 87 39 be c0 9b 46 be
       0.13085625 0.13343903 -0.18118231 -0.19395351

fc_layers.3.bias f4 [64]
000000 b1 fc 86 bd f5 05 b2 bd 3e cf 03 3d 7c 32 c1 bd
       -0.06591166 -0.086925425 0.032180063 -0.09433457
000010 7a ed 01 be 06 56 9d 3d 29 57 db bc 6d fb d1 bd
       -0.12688246 0.07682423 -0.02677496 -0.10253034
000020 21 72 3c bd 2e 23 3d 3e 7d 64 48 bd 5a 95 b5 3c
       -0.04600728 0.18470451 -0.048923958 0.022165943
000030 0b b2 78 3d 57 b5 35 bd cf 98 14 be 97 d6 b7 3d
       0.06071667 -0.044362392 -0.14511417 0.08976477
000040 1a ae 1a 3e a9 f9 1a be 6c d2 f3 3c fa b5 94 bc
       0.15105477 -0.151343 0.029763423 -0.01815318
000050 a3 aa a3 bd 64 35 d6 3d ec 7e b3 bd d3 ce 73 bd
       -0.07991531 0.10459402 -0.08764443 -0.059523415
000060 49 41 39 be 7b d7 55 bd a7 35 7b 3d 3a 5f 2b bc
       -0.1809131 -0.05220745 0.061330464 -0.0104597155
000070 a2 41 6a bd 9f ed a1 bc 9e c6 e6 bd 41 87 7c 3c
       -0.0571915 -0.019766627 -0.11268352 0.015413106
000080 22 c2 c3 3c 8b 47 c6 3d 05 c5 56 bd 41 e9 38 be
       0.02389628 0.096816145 -0.052433986 -0.1805773
000090 c5 88 40 bd 2c fd bc 3d fe 93 c4 3d 0a e4 22 bd
       -0.047005434 0.09227976 0.0959854 -0.039768256
0000a0 9d e2 3b be 54 49 5a bc db e4 1b 3e 0f 3f 33 be
       -0.18348165 -0.013323147 0.1522402 -0.17504524
0000b0 86 2d 1d be bf 7c 39 bd 0b 25 ca bd f7 44 74 3d
       -0.15349397 -0.045284983 -0.09870347 0.059636083
0000c0 a0 0e 77 bd d9 40 8f bb 7b 05 92 3b af b1 85 bd
       -0.06031668 -0.004371744 0.0044562197 -0.06528031
0000d0 f1 df 24 be ca 36 ab 3b 18 96 62 bd fe 73 05 3d
       -0.16101052 0.005225037 -0.05531892 0.032581322
0000e0 c1 a4 7b 3d 64 ca 3e bd 38 51 0f bd 2e c4 3c 3d
       0.06143642 -0.046579733 -0.034989566 0.04608553
0000f0 83 81 32 be ce fb 1d 3c f8 1e a3 bc 48 50 26 3d
       -0.17432217 0.009642554 -0.019912228 0.040603906

fc_layers.6.weight f4 [32, 64]
000000 14 e1 5b 3e 6b 01 21 bc 03 b5 55 be 7f 9d 19 3e
       0.21472579 -0.009826998 -0.20869832 0.15001486
000010 2e 2f d3 bc de 45 e1 bd 0f 91 86 3e 46 07 85 3e
       -0.025779333 -0.10999654 0.26282546 0.25982112
000020 26 62 b1 bd 21 91 41 be 54 8f 7a bd cf 31 87 3e
       -0.086612985 -0.18903019 -0.061171845 0.26405188
000030 e1 a5 9c bd 64 81 2a be 82 e4 ac 3d ef dd 31 be
       -0.076488264 -0.16650921 0.08442022 -0.17369817
000040 8c aa 8b 3e 86 32 b9 3c 45 47 cf bd f8 25 38 3e
       0.27278554 0.0226071 -0.101210155 0.17983234
000050 10 cc 80 3d e7 f7 39 be 1f 9a 07 bd fb 4c 73 bb
       0.06288922 -0.18160973 -0.033105966 -0.0037124741
000060 01 03 78 be ea 9c a1 be 7c 4d 23 be 9e 95 bf bd
       -0.24219896 -0.31565028 -0.15947527 -0.09354709
000070 72 bf 89 bc 91 b4 11 3d 46 a2 92 be f3 c9 15 bd
       -0.016814921 0.035572592 -0.2863943 -0.036569547
000080 28 83 17 3d 73 ee 62 be 5c ab 62 3e f0 96 60 be
       0.036990315 -0.22161274 0.22135681 -0.21932578
000090 7b b8 45 be 91 ff c8 bd 6e 73 b9 be 0e 4d a7 be
       -0.19308655 -0.098143704 -0.36220878 -0.32675976
0000a0 59 85 68 be f6 db 95 3d ac ac 58 be 85 fb 89 be
       -0.22707118 0.07317345 -0.21159619 -0.26949707
0000b0 da 9c 9a 3d 16 ad 00 be 6e e8 ca bd 12 f2 3b 3e
       0.07549448 -0.12566027 -0.09907614 0.18354061
0000c0 fa 47 f9 3d 05 ad 7d bd d3 27 88 bd 5c f4 0d 3e
       0.121719316 -0.061932582 -0.06648221 0.13862747
0000d0 56 08 06 bd c4 72 7a be 56 60 f8 3d b9 9b 30 be
       -0.032722794 -0.24457842 0.121277496 -0.17246903
0000e0 98 7c 2c be 77 24 3a bd 14 c1 9e 3d 61 be 1c be
       -0.16844404 -0.04544493 0.077516705 -0.15306999
0000f0 fe ca 81 3d 80 9a df 3d 25 c2 20 3d 12 e3 b9 bd
       0.06337546 0.109181404 0.03924765 -0.09076513
000100 17 3d 3f be e1 e2 94 3d 0e a5 52 be 75 5e 96 be
       -0.18675648 0.07269836 -0.20570776 -0.2936894
000110 50 45 21 be 6b 62 f9 bb bd d8 81 3e 92 60 6b 3e
       -0.15749097 -0.0076106093 0.2536067 0.22986057
000120 65 ae b8 bd 51 91 02 be 32 06 46 3e 03 3d f2 3d
       -0.09017638 -0.12750746 0.19338301 0.11828043
000130 21 e7 9e be 68 d4 78 be 04 c0 87 be 1d b2 7b be
       -0.31035712 -0.24299777 -0.26513684 -0.24579664
000140 47 71 c3 bd 47 5d 1c be 20 df d1 bb 71 7f 8f 3e
       -0.0954309 -0.15269957 -0.0064047724 0.28026918
000150 10 28 ad 3d d2 9f 5e be 86 2f 7a be c2 51 59 be
       0.08454907 -0.21740654 -0.24432191 -0.21222594
000160 a4 ff cd 3d 11 4a 47 be 89 da ed bb 51 24 74 be
       0.10058525 -0.19461848 -0.0072587174 -0.23841979
000170 93 43 9b be 25 85 de 3c d0 a8 d7 bd cb e4 9d be
       -0.30324993 0.027163098 -0.10530245 -0.30838618
000180 fa db 3c be 4e 76 83 3c 83 cb 2f bd 29 be 86 bb
       -0.1844329 0.016047623 -0.042918693 -0.0041120243
000190 79 e6 33 3e ff 16 39 bc ee 3f 83 be 9d 38 dc 3d
       0.17568387 -0.011296987 -0.25634712 0.107529856
0001a0 a5 f2 df bd d0 c9 f7 3d 89 38 37 be b1 3c 28 3e
       -0.10934953 0.120990396 -0.1789266 0.16429402
0001b0 b2 21 78 3e 8d fc cc 3d e7 10 3d be 4d 62 b9 bc
       0.24231604 0.10009108 -0.18463479 -0.022629881
0001c0 8b 83 42 3e c8 7b 2b bd c4 f3 2d be 4f 9e 93 be
       0.18995492 -0.041866094 -0.1698752 -0.28831717
0001d0 7e cc 74 bd aa d8 6a 3e c5 d1 dd bd 67 f2 0a bd
       -0.05976533 0.22934213 -0.10831026 -0.03392258
0001e0 45 4c 37 be 5e 96 6c bb 0d e9 c0 3c 69 a4 b7 bd
       -0.17900188 -0.0036100368 0.023548627 -0.089669056
0001f0 f6 29 6b 3e 34 5e 6c 3d 91 9d c5 3d c0 d9 c2 3b
       0.22965226 0.057707027 0.09649194 0.005946368
000200 5b d6 7e be aa 4b ca be ad 7d 1e 3d 1d e8 f8 3c
       -0.24886458 -0.39510852 0.038694073 0.030384118
000210 42 12 28 be 17 62 76 bd 36 44 a0 be 8d 9e 87 3e
       -0.16413215 -0.06015214 -0.3130204 0.26488152
000220 bc f3 99 3e 52 bd f2 3d ea 9e 39 3d 16 32 5f bc
       0.30068767 0.11852516 0.045317568 -0.013622781
000230 25 e7 31 be 3d e6 46 3d 35 9f a3 3c 86 7b 67 3d
       -0.17373331 0.048559416 0.019973377 0.056514286
000240 bc 79 8b be 56 34 25 3e de 45 d1 3d 13 f3 2a 3e
       -0.27241313 0.16133246 0.10218404 0.16694288
000250 6a 8a 7a be cc 3e 23 be 90 a2 99 bd 1a d3 d8 3d
       -0.24466863 -0.15941924 -0.075017095 0.105871394
000260 de d9 99 be bc 6a 98 be 86 3f af 3d b0 fa ec 3d
       -0.30049032 -0.29768932 0.08557038 0.11571252
000270 d8 05 12 be fc f8 36 be fa 22 fe 3d 14 06 84 3e
       -0.14260042 -0.17868418 0.12409015 0.25785887
000280 c0 aa 65 be 71 95 c2 be 96 e5 27 be 3e 5f 8d be
       -0.22428417 -0.3800464 -0.16396174 -0.27611727
000290 2e ea 25 be 02 37 d5 bd d6 0e 47 3d 96 d6 ce 3d
       -0.16202614 -0.104108825 0.048598133 0.10099523
0002a0 96 74 e9 3d c0 f7 5b be d4 24 9a be a5 e6 63 bd
       0.1139919 -0.21481228 -0.30106223 -0.05563988
0002b0 13 f2 85 3e 53 9e 76 3d 8e 48 c6 3d e8 36 77 be
       0.2616125 0.060209583 0.096818075 -0.24142039
0002c0 c9 ab 4a be 8c 5c c5 3d d5 fe 49 bc 8f 03 48 be
       -0.19792093 0.096367925 -0.012328823 -0.19532607
0002d0 c9 96 c2 3d d6 36 fd 3c bd 10 92 be 2c 97 55 be
       0.09501416 0.030909937 -0.28528395 -0.20858449
0002e0 05 66 9e 3d 23 54 47 3e da b9 e1 bd 65 4f bc be
       0.077343024 0.1946569 -0.110217765 -0.36779323
0002f0 30 3d 0f be 5c 91 92 bd 6b 8c 3a be b2 35 54 be
       -0.13988185 -0.07156631 -0.18217628 -0.20723608
000300 bb b6 35 3d bd cb a6 be 0f 56 41 be df 86 84 bd
       0.04436372 -0.32577315 -0.18880485 -0.06471037
000310 56 2a 61 3e 0c 31 dc bd a9 aa 84 3e de 7b 95 bc
       0.21988806 -0.107515424 0.25911453 -0.018247541
000320 e1 40 d2 bb 4c f7 c3 bd ee 58 56 3e cb 0c fb bd
       -0.0064164256 -0.095686525 0.20932361 -0.122582994
000330 e3 97 b7 bd fa 4a 10 3e d2 fb 78 be 24 df 11 be
       -0.08964517 0.14091101 -0.24314812 -0.14245278
000340 db ea 06 be d0 dd cc 3d ff 3f b5 be 91 7b 81 3d
       -0.13175528 0.10003245 -0.35400388 0.063223965
000350 3f 55 ae bd c3 60 31 3d 01 05 ee 3d 6b e7 d4 bc
       -0.08512353 0.04330517 0.11622048 -0.025989255
000360 10 25 7e be 9e ce 1f 3b 94 e5 f8 3d 27 d7 66 3e
       -0.24818826 0.0024384628 0.121531636 0.22543012
000370 9f 42 2e be ae ae bd bd 5b ac 44 bd 99 36 d7 3c
       -0.17017601 -0.09261833 -0.048015933 0.026271151
000380 82 a6 6a 3c b8 6f 16 be ea 3a bf bb ca e8 b5 bd
       0.014321925 -0.14691055 -0.0058358805 -0.088822916
000390 72 f0 fe 3b d9 97 a2 bd 56 e7 92 bd b4 45 99 bd
       0.007780128 -0.07939119 -0.0717303 -0.07483998
0003a0 a9 99 87 be 26 2e 1a 3d f7 e0 75 be c1 21 90 3d
       -0.2648442 0.037641667 -0.24011599 0.07037688
0003b0 97 b3 49 3d 24 dc 64 3e 14 c8 3b 3e 95 a2 4c be
       0.049243536 0.22349602 0.18338042 -0.19983895
0003c0 92 03 04 be 96 5f 80 be 05 be 8b be b2 bf 9c be
       -0.12891987 -0.25072926 -0.2729341 -0.30615002
0003d0 f4 41 b5 3b a6 78 16 3d f1 86 8b be 13 e5 a5 3d
       0.005531544 0.036736153 -0.2725139 0.08100333
0003e0 1b f0 70 3e 23 00 92 3e 7d 53 0e 3e ff c9 6f be
       0.23529093 0.2851573 0.13899036 -0.23416899
0003f0 0a dd 7d 3e 18 67 27 be 76 03 94 bc 50 1a 66 bd
       0.24791351 -0.16347921 -0.018068057 -0.056177437

fc_layers.6.bias f4 [32]
000000 54 b4 57 be 43 55 62 be d4 ff 2f be 2c f1 66 bd
       -0.21064883 -0.22102837 -0.17187434 -0.056382343
000010 88 8a cb 3e fd a3 9c be d9 45 9b be 57 25 45 be
       0.39754128 -0.30593863 -0.30326727 -0.19252525
000020 51 e9 43 be 72 9d 65 bc 22 d4 37 3c e5 1b 58 be
       -0.19131972 -0.014014589 0.01122001 -0.21104391
000030 d8 2d d0 bc 00 2b fb 3c 3d 15 44 be 16 46 fc 3d
       -0.025412485 0.030660152 -0.19148727 0.12318055
000040 be 7b fb 3d b0 48 16 b8 dd 4b 11 be d7 94 55 bb
       0.12279461 -3.5830482e-05 -0.14189096 -0.0032589936
000050 ab 61 ae 3e df 9e 82 be cc fb 5b b9 8d 6a cd 3d
       0.3405889 -0.25511834 -0.00020979269 0.100300886
000060 99 8c a0 3a 85 2c dd be 02 ae 69 bd d5 66 4f 3c
       0.0012248933 -0.43198028 -0.057050712 0.012658794
000070 ba 76 2f be 99 cf 93 3e bd 60 cb 3e 49 11 3d 3e
       -0.17135134 0.28869322 0.39722243 0.18463625

fc_layers.8.weight f4 [4, 32]
000000 96 58 5f be 5f bf 20 be 1f f7 39 be 39 f3 67 3e
       -0.21811137 -0.15698002 -0.18160675 0.22651376
000010 00 6c 05 be a4 90 9c bd e2 3b 8e be 1c e8 8f bd
       -0.1302948 -0.076447755 -0.27780062 -0.07026693
000020 bc 35 1b be 10 fc 88 3c d7 ed 8b 3e 71 6e 3c be
       -0.15157217 0.016721755 0.27329895 -0.18401505
000030 db dc 47 be e5 84 00 bd 2b 67 3c be fb 3f 84 bc
       -0.19517843 -0.031376738 -0.1839873 -0.01614379
000040 ef 14 51 3d 96 6f c5 3c a6 17 46 3e 53 65 5b 3e
       0.051045354 0.02410106 0.19344959 0.21425371
000050 75 23 45 3e 10 4a 1f 3e ed 15 b3 bd 8d 98 93 3c
       0.19251807 0.15555596 -0.087444164 0.018017078
000060 b6 d3 2b bd bf e6 00 bd 52 2d 23 be f6 0e 90 3e
       -0.04194995 -0.031470057 -0.15935257 0.28136414
000070 56 83 4e 3c 04 e1 93 bd b0 44 94 3e e1 8b 1b be
       0.012604555 -0.07220653 0.28958654 -0.15190078
000080 42 94 61 be 3d 65 82 be 5e fb 72 be d6 91 3d be
       -0.22029212 -0.25467864 -0.23728701 -0.18512663
000090 d0 03 fb be 58 86 9d be 9e 75 7f be 71 32 fe b9
       -0.49026346 -0.3076656 -0.24947211 -0.00048484237
0000a0 6c ae 8c 3d ab 79 58 3e d9 02 9f 3e 68 a7 f1 3d
       0.06869206 0.21140163 0.3105686 0.11799508
0000b0 1d 16 98 bd f7 87 58 3e 46 fb 98 be fa b3 46 bd
       -0.07426093 0.21145616 -0.29879206 -0.048511483
0000c0 2f a5 34 3e 5d 40 21 3e fc dd 18 bd b8 f8 94 3d
       0.17641138 0.15747209 -0.037321076 0.07274002
0000d0 0d 80 6b 3e 21 ee 42 bd bd 6c 5a 3e 5f 1f 12 3e
       0.22998066 -0.04759038 0.21330543 0.1426978
0000e0 c5 61 4a 3e 8b 5a 51 be 80 bd af bd ef 57 ff 3d
       0.19763859 -0.20444696 -0.08581066 0.12467944
0000f0 8d 58 be bd e2 59 06 3e 86 59 4d 3e 2e 53 f7 bd
       -0.092942335 0.13120225 0.20053682 -0.12076412
000100 6a 71 b4 3c 30 93 53 bd b8 58 95 bd 28 ee e1 3c
       0.022026736 -0.05165404 -0.072923124 0.027579382
000110 65 7f c1 be 57 47 a0 3e 61 7c a4 be e4 62 65 be
       -0.37792507 0.31304428 -0.32126144 -0.22401005
000120 f9 07 d5 3d 0d 34 28 3d 5e 4d 87 bd 52 7f f6 bd
       0.10401911 0.041065264 -0.066065535 -0.12036003
000130 15 7c 0d 3e 6a 7f ef bc 7d 3e 63 be 3a fb 31 bd
       0.13816865 -0.02923556 -0.22191806 -0.04345248
000140 f0 f1 8e bd 0e ec ce 3d b1 5a 9d 3c f3 68 f2 3d
       -0.0697974 0.101036176 0.019208284 0.11836424
000150 65 2a 53 3e 4a 02 90 3e ed fd 1b 3e 8d 3e 2c be
       0.20621641 0.28126746 0.15233584 -0.16820736
000160 4f e5 29 3e a3 81 41 be a8 b7 82 3e 3b 16 09 3e
       0.1659138 -0.18897109 0.25530744 0.13387387
000170 47 4f 34 be f8 61 ff 3d e5 d3 b0 3e 46 d6 07 bf
       -0.17608367 0.12469858 0.34536663 -0.5306133
000180 e9 bb 5c bd 8a 90 4d 3c aa 2e 37 be d3 38 61 be
       -0.053890143 0.012546668 -0.17888895 -0.21994333
000190 d1 7e f3 be 13 07 6b be 5f ab f8 bd 43 6a 0b 3e
       -0.4755769 -0.22951917 -0.121420614 0.13614754
0001a0 8c 10 82 3e c5 65 2d be 26 35 e0 3d b9 31 86 3e
       0.2540325 -0.16933353 0.10947637 0.2620981
0001b0 e8 52 9d 3d b3 dc 0c 3e 5c 22 ba 3e 04 99 8d be
       0.07681829 0.13756065 0.3635434 -0.27655804
0001c0 cc 15 ab 3d 6c c6 0b 3e 10 fa 7d 3e b5 38 9b 3d
       0.08353767 0.1364991 0.24802423 0.075791754
0001d0 44 77 0d 3e 79 e4 92 3d 81 d4 fa bd b5 47 52 3e
       0.13815027 0.07172484 -0.12247563 0.20535167
0001e0 2c 81 e5 3c 7e ae 3e be e8 c2 87 bd 1d ae cd 3d
       0.028015696 -0.18621251 -0.06628972 0.10042975
0001f0 83 86 51 3e 78 15 aa 3e 0e ed 54 3d a2 67 8b be
       0.20461468 0.33219504 0.051983885 -0.27227503

fc_layers.8.bias f4 [4]
000000 16 b5 86 3d e3 51 14 3e b3 8e 3a 3e f7 24 68 3e
       0.06577508 0.14484362 0.18218498 0.22670351
