output/dqn/model/4x4/3500.pth (torch, 53468 bytes, 8 tensors)

fc_layers.0.weight f4 [128, 16]
00000000: 5634 0a3e d943 703e 008c a53c 8aca 9b3e
00000010: bcdb b63e 8079 f0bd e1f2 d83e a609 f13e
00000020: 0e51 413e 36f1 f83e e7b8 e7be 80d7 e8be
00000030: 5136 103f 92a3 0a3f b847 bf3d 5841 9a3e
00000040: b810 75be 376f e3bc 6dd2 073e ea98 fbbe
00000050: 8081 003e 3657 f83e 20db c8be 2a5f 0bbf
00000060: 7f7a 5e3e 402f 09be 4697 a7be 2096 1dbd
00000070: abe9 163f 31f4 f93e f198 73bd 6e88 07be
00000080: dbe1 07be 52b1 e1be 4cb0 a5bd 395d 7c3e
00000090: 8508 b7be 9ead ce3e 80b6 cb3e fae5 28be
000000a0: 23ab 5cbd 67d5 8d3e 39f2 db3e c053 d1bd
000000b0: fed6 af3e 3132 12bf 6f50 a23e 0081 a03d
000000c0: fd5a e4be d018 083e 099e 08bf 1445 14be
000000d0: 9273 5dbe 4a95 9f3e de88 0dbf d80b a2be
000000e0: 2f69 e23e cfe5 3a3e bc8a 343e 488e 983e
000000f0: 28bf 91be da46 be3e 9c9a 8a3e 1850 e3bd
00000100: 0701 9c3c af31 a23e ea41 403e 6183 07bf
00000110: 5c1d 1abf 969c f73e a43b e3be e062 6abe
00000120: 25ff a73e c21b 17be ca90 c33e bc67 3cbe
00000130: 5861 a6bd 47a9 9cbe 8873 a83e a59d 053f
00000140: da83 dfbe a0a9 55be cc84 22be 9f04 893e
00000150: dc16 05bf 9a67 a53e 58a2 cf3d a0be 8fbc
00000160: 2e88 b23e 720b 703e 4e68 6dbe b282 1fbe
00000170: 60b4 5a3d bd66 713e 9856 8b3d aca1 0bbf
00000180: 5f02 3bbe 63ce 52be 596a 88be 88a2 0cbf
00000190: 6599 82bd b0fd 7f3e 35cf 0fbf ae1d 14be
000001a0: 921a 59be 52e5 86be 0985 943e 0a11 db3e
000001b0: 6820 abbd 980b e6bc cb57 803e 9894 5d3e
000001c0: c0d2 abbc aad8 a4be 1f32 f8be 7286 f7be
000001d0: 004c 333b f07f 69be 5971 ee3e 70de 49bd
000001e0: 1e7a 4f3e 4cd9 dbbe 178c 233e 4440 be3e
000001f0: c422 6cbe 409b 043f e01e cc3d f8cd 19bf
00000200: d040 903d 0ecb 053f 98d0 c2bd a85f ccbe
00000210: f6ae 0cbe 7b89 fbbe 128e 33be 7815 dcbe
00000220: 186e 07bf 9764 d33e ced2 4dbe 5cf2 683e
00000230: 38e5 f9be bfce b4be d32e f63e 2801 f6bd
00000240: a846 823d cc88 16bf 8ed1 14bf 5f09 00bf
00000250: 7a6e 04be 664c da3e c8e2 ddbe 589d f5be
00000260: 6ca2 33bd b944 543e aa34 803e 982b 1cbe
00000270: 40d4 fcbd 2e35 9d3e 64ba 9dbd dfd8 0abf
00000280: 9c39 c1bc 40fe a8bd da36 10bf 8616 27be
00000290: 6451 fcbe 76c7 963e 72e9 0e3d 2ebd c83e
000002a0: a701 233d 22c3 a03e 210e b83e f074 903d
000002b0: a672 993e c592 06bf 64d3 a63e 4abb 863e
000002c0: a121 543e c844 5f3d 60e4 53be 9357 a3be
000002d0: d37e 963e 5a92 81be eb5a ed3e 98a9 203e
000002e0: 6250 0c3e 4aaf d13e 388b fcbd 04cd 18be
000002f0: f618 f43e 70d7 e3ba 2a25 2fbe 4095 babc
00000300: 0889 10bf 2f1c 5f3e 136b 523e 7ef9 0cbf
00000310: bccb cb3e 30f5 4d3d e862 22be 2db9 afbe
00000320: bcb0 1bbf 3de8 7e3e 0410 0f3f 1008 1cbe
00000330: a8a1 c6be 964e dabe 32ac d33e 609e edbc
00000340: 02a8 ad3e bda0 cb3e d0a9 c7be 2f1c 3c3e
00000350: e96b e63e ca24 ce3e 0206 b03e e64a a83e
00000360: 60aa a03e b20d 043e 5a82 9dbe 20c5 13bd
00000370: df0a 103f 02d9 5f3e 9467 13be 30a8 d4bd
00000380: 72b0 06bf 2a34 113f fcf8 bcbe c0a8 3a3c
00000390: ed48 8abe 2e49 d73e 1684 a1be a138 0b3f
000003a0: 7193 fd3e 6ca4 863e d2a4 12bf 8213 9e3e
000003b0: e001 5bbe ae06 4abe 31d0 9bbe 92e3 cc3e
000003c0: 9a10 b93a a470 853e f068 423e 4cad bcbe
000003d0: 79bd ab3d 6866 4d3e 8f70 8f3e 00dc 743e
000003e0: f6e0 16bf 0225 153e ee94 143e a22c bd3e
000003f0: 2c95 3b3e 10dd fe3e 7de5 e4bd 3038 11bd
0.13496527 0.23463382 0.020208359 0.30427963 0.3571452 -0.11741924 0.42372802 0.47077674
0.18878576 0.4862153 -0.45258257 -0.45476913 0.5633288 0.5415584 0.09339851 0.30127978
-0.23932159 -0.027762992 0.13263865 -0.49140102 0.125494 0.48504037 -0.3922968 -0.54442084
0.21726416 -0.1339693 -0.327326 -0.03847325 0.589503 0.48819116 -0.05947203 -0.13235638
-0.13269751 -0.44080597 -0.080902666 0.24644937 -0.35748687 0.40366834 0.39787674 -0.16493979
-0.053874146 0.27701876 0.4295824 -0.10221052 0.34343714 -0.57107836 0.3170199 0.07837105
-0.4460067 0.13290715 -0.5336614 -0.14479476 -0.21626118 0.31168586 -0.5528697 -0.3164966
0.44220874 0.18251728 0.17631048 0.29796052 -0.28466153 0.3716343 0.27071083 -0.11099261
0.019043459 0.3167853 0.18775144 -0.52934843 -0.6020105 0.48361653 -0.4438144 -0.2288928
0.32811847 -0.14756683 0.38196403 -0.18398947 -0.081240356 -0.30597898 0.32900643 0.5219367
-0.43655282 -0.20865488 -0.1587097 0.26761338 -0.51988006 0.32305604 0.101383865 -0.017546952
0.34869522 0.23441866 -0.2318432 -0.155772 0.053394675 0.23574348 0.06803626 -0.54543567
-0.18262623 -0.20586543 -0.26643637 -0.54935503 -0.06376914 0.24999118 -0.5617555 -0.14464447
-0.21201542 -0.26346833 0.29007748 0.42786437 -0.083557904 -0.0280817 0.2506698 0.21638715
-0.020974517 -0.32196552 -0.4847574 -0.4834476 0.0027358532 -0.2280271 0.46570852 -0.0492844
0.20261428 -0.42939222 0.15971409 0.37158406 -0.23060137 0.5179939 0.099668264 -0.6007991
0.07043612 0.5226296 -0.09512442 -0.3991673 -0.13738617 -0.49128327 -0.17534664 -0.4298513
-0.52902365 0.4128768 -0.20099947 0.22748703 -0.48807693 -0.35313985 0.480826 -0.12011939
0.06361133 -0.58802485 -0.58132255 -0.500143 -0.12932768 0.42636412 -0.43337083 -0.47971606
-0.04385607 0.2072934 0.2504018 -0.15251005 -0.12345171 0.30704635 -0.07701567 -0.5423717
-0.02358704 -0.08251619 -0.56333697 -0.16317186 -0.49280846 0.29449052 0.0348906 0.39206833
0.039796498 0.31398875 0.3594828 0.07053554 0.29970282 -0.525677 0.32583153 0.26314765
0.20715953 0.054508954 -0.20692587 -0.3190275 0.29393634 -0.2530697 0.46358427 0.15689695
0.13702539 0.40954047 -0.12331241 -0.14921957 0.47675294 -0.0017382931 -0.1710402 -0.022776246
-0.56459093 0.21788095 0.20548658 -0.55068195 0.39803874 0.050282657 -0.15858042 -0.34320965
-0.6081655 0.2489328 0.5588381 -0.1523745 -0.3879521 -0.4263808 0.41342312 -0.029006183
0.33917242 0.3977107 -0.38996744 0.18370126 0.45004204 0.40262443 0.34379584 0.32869643
0.31379986 0.1289585 -0.30763513 -0.036076665 0.5626659 0.21860126 -0.1439498 -0.10383642
-0.52612984 0.5672022 -0.3690871 0.011392772 -0.27008763 0.4204802 -0.31546086 0.54383284
0.4952655 0.2629732 -0.57282746 0.30874258 -0.21387434 -0.1972911 -0.30432275 0.40017372
0.0014119328 0.260625 0.18985343 -0.36850965 0.083857484 0.20058596 0.28015563 0.23912048
-0.58937013 0.14564899 0.14509937 0.36948115 0.18318623 0.49778032 -0.11176584 -0.035453975

fc_layers.0.bias f4 [128]
00000000: 0c72 88be e56b 9abd 7ea4 9fbd b16b 173c
00000010: d301 f4bd e5de b3be 48d7 eb3d ebe9 96be
00000020: 3bc3 c1bd 9dcd 2bbc bb13 dfbd 29bd 91bd
00000030: dd7a 6bbe a8ef 4ebe 9c20 e2bd 877b ba3b
00000040: 6707 b73b 4bfc f0bd 7eb8 b9bd 04c0 28be
00000050: aacb 59be db6f 39be 7ac8 d5bc 467f d0bd
00000060: 3391 e3bd edb7 253e 17c5 97be 296b a13d
00000070: b6ed fbbd 6c69 ee3d 8d76 9abe f248 74bd
00000080: dd2a a4be cc1f 76bb c44d 3bbe 3f85 a3bc
00000090: 025a 89be 669d 36bc 1dff 5cbd fb92 89be
000000a0: 4914 a53c d3d2 71be 6588 97be f0c9 88bd
000000b0: 593a bdbd 9ae1 06be 0254 c1bd 02ce 83be
000000c0: f1dc 9f3c 48da ffbd a1ec 7cbe aa0a 1abe
000000d0: 28fe 95be e02c 0ebe 7f6f 9b3d 214d 41bd
000000e0: 8c64 f6bd 8698 89be 9c3e 7bbd 47a9 40be
000000f0: 5d27 42bd 7f04 42be 57be 41be d8b2 30be
00000100: 3d49 1cbd bf72 5cbe e5de 87bd 4ec4 7cbe
00000110: 844f 493e d109 bfbc 443e d3bc 8143 8dbe
00000120: 8b76 25be cd46 b8bd ff59 273c aa69 493d
00000130: 5463 60be 764d 11bd f842 ccbd 8b64 5dbe
00000140: 9654 37be d1f9 9fbe a90b 8ebe 80ab 37be
00000150: 191d ebbd 2bdf bbbd 8165 57be 8588 13b9
00000160: 12dd 81be 1ac8 6ebe 46dd 283d 0bf5 95be
00000170: ba82 e3bd d195 f73a 832a 11bd 2f57 8dbe
00000180: 71b0 90bd 6b85 4e3d e1f9 3fbe e8ce a33b
00000190: e2bd dcbd 7e32 a33c 2f52 fabd 064a 8bbe
000001a0: 699d 3cbe c3c7 19be ce97 dfbc 3423 2dbc
000001b0: a42e 13bd bdea 663d 8371 a03d cc44 71be
000001c0: 1054 6cbe 8d68 43be 45c7 41be 9842 9cbe
000001d0: 2dcc 83b9 ed5b e1bc 2b7b d8bd d69e 593d
000001e0: 71df 86be 8d70 adbe 2832 2bbe 051a 53be
000001f0: d3ef 6abe 1e3e 17be 6946 dbbd 2534 2ebe
-0.2664951 -0.075401105 -0.07795046 0.009241984 -0.119144104 -0.35130993 0.11515671 -0.2947534
-0.094610654 -0.010486034 -0.10892435 -0.071161576 -0.22996087 -0.20208609 -0.11041376 0.005690995
0.005585599 -0.11766871 -0.09068392 -0.16479498 -0.21269098 -0.18109076 -0.026096571 -0.101805255
-0.11111679 0.16183443 -0.29642555 0.07881767 -0.12301199 0.116412014 -0.30168572 -0.05963988
-0.32063952 -0.0037555574 -0.18291384 -0.019960998 -0.26826483 -0.011145925 -0.053954232 -0.2686995
0.020151274 -0.2361558 -0.29596248 -0.066791415 -0.092396446 -0.13171998 -0.09439851 -0.2574311
0.019514533 -0.12492806 -0.24699642 -0.1504313 -0.29295468 -0.13884306 0.075896256 -0.047192696
-0.120308965 -0.2687418 -0.061339006 -0.18814574 -0.04740082 -0.18947028 -0.18920265 -0.17255723
-0.038155783 -0.21528147 -0.06634311 -0.2468426 0.19659239 -0.02332011 -0.025786527 -0.27590564
-0.16158502 -0.08997879 0.010214328 0.049173035 -0.2191289 -0.035474263 -0.09973711 -0.21620385
-0.1790336 -0.31245282 -0.2774327 -0.17936516 -0.11480159 -0.09173425 -0.21034814 -0.0001406987
-0.25363976 -0.2331852 0.041226648 -0.29288515 -0.111089185 0.0018889253 -0.035440933 -0.27605578
-0.070649035 0.050420206 -0.18747665 0.0049990304 -0.10778405 0.019921537 -0.122227065 -0.27204913
-0.18419422 -0.1501761 -0.027294066 -0.010567475 -0.03593315 0.056376208 0.07834151 -0.235614
-0.23078942 -0.19082852 -0.18923672 -0.30519557 -0.0002513839 -0.027509654 -0.105703674 0.053129993
-0.26342347 -0.33874932 -0.16718352 -0.20615394 -0.22943048 -0.1476979 -0.10706789 -0.17012079

fc_layers.3.weight f4 [64, 128]
00000000: 01d9 e73d e754 33be 85fd 02be abe6 44be
00000010: 929f d5bd 270e 883d 09ab 753c f7c9 24bc
00000020: c4a2 3a3d 9858 c3ba 424c 84bd 15cb abbd
00000030: 223d 89be 7fae 7539 aa47 a3bd d7da 28be
00000040: 41a2 7d3d c874 75bd 5b6b 9b3d 28e5 433c
00000050: 845f 65be 91a6 bc3c 5a4a c93b bc2b f0bd
00000060: 1260 85bd 0e54 2abe 60f5 d5bd c5e1 dbbd
00000070: bffc 18be 4436 bdbd d0e0 d83d 4b83 32bd
00000080: c9b6 cb3d d8fd 30bd 03cc f5bd 5257 b03d
00000090: 6dcf d9bd a8f0 4fbe ac10 8d3d 6305 6ebe
000000a0: 2bc3 94bd 9947 59be da16 5dbe bfe8 93bd
000000b0: 66cb 02be 9880 893c 88bb 013d 0c93 a5bd
000000c0: 80a3 0abd 449b 2cbe b90f 033e e18c 8bbd
000000d0: 4642 b03d 474c 4ebe 9070 4fbe 0174 bb3d
000000e0: 8c3e 66be 288a 2dbe 9465 3dbe 2dfc 223e
000000f0: a7a8 c43d ccf6 20be 9678 00be 55cb 563d
00000100: d360 4abe 8567 183d 25cc 78bd c020 bdbd
00000110: 8845 4bbe 3df0 e1bd 8aa8 6b3d b683 4f3e
00000120: c012 adbd 27a1 06bd 8f2b 3abe ffbb 61be
00000130: a4bc 94bc 4a69 fb3d 682d 94bd f844 bd3d
00000140: 03b2 53be b0bc 313d 61dd 153e 24ce 20be
00000150: 3a3b 073e 18d0 24be a906 a6bd b645 5c3d
00000160: e4b6 85bd d734 47be 481b a33d b064 7dbd
00000170: b85d 51bd a254 c6bd c32a e1ba 0378 c7bd
00000180: 5b95 813c 1378 14be 9836 59be 1df5 a63d
00000190: 4eec 1a3e db19 6d3d d460 8fbd 2bf2 2b3e
000001a0: b25e 81be acf3 41be a3c9 38bc f5e1 5e3d
000001b0: ef6c b9bd 4de2 e6bd dc94 63bb 3a60 cd3d
000001c0: 00a2 3fbe 135e 30bd f2a6 dabc 9923 72be
000001d0: d9af 30be 80fc 22bd 3b9f 2fbe 1a53 6bbe
000001e0: 3f02 143e f191 ee3d 2ce3 96bd 9f52 d2bd
000001f0: a667 5cbe effd 54be 326f f5bd 145f 37be
00000200: a98b 0bbd b8a4 5c3e 0a14 063c 1532 873d
00000210: 522e 973e 6593 41bd 6037 1d3b a307 db3d
00000220: 9f72 53be a98b d2bc 1c69 29be 316f cabd
00000230: 3ec0 dbbd a6c3 af3d bd54 683d e6cf b1bd
00000240: 11b2 393b c5c8 813d 892c 23be 4050 16bd
00000250: 92ac b4be d584 c43d 2323 76bd 576b 1dbc
00000260: 3069 22be 4461 c63d 89d6 073e 117f 3fbe
00000270: e697 263d e7be 0f3e a6d5 1abe 19be 5abe
00000280: 98fa 853d 6ace b63c bbd4 fdbd ba5e 1cbe
00000290: dff0 86be 2b78 0cbe 9445 a3be 8f18 19be
000002a0: 0a13 263d 7c57 5fbe fe72 f8bd 5c98 d33c
000002b0: 51f9 43be bb37 81be 4c04 aebd f890 43be
000002c0: 53b8 b3bd df21 3d3d 7385 a43d 7436 7ebe
000002d0: e722 bb3d daaa 143e 7b90 b8bd 7724 35bd
000002e0: a355 393e 8fd5 64be a936 5abe 9eb2 5d3e
000002f0: ff2e 2b3e 7e6e 92be 283f 04be a4da f53c
00000300: 9d7c eabd 8c20 7fbc ea55 f8bd e800 bebd
00000310: 251b 35be ef28 c3bd fb85 2cbe 270b 223e
00000320: 5b54 63bc 0e8f 90bd 33a4 553d 0f94 bebd
00000330: d1d7 94be 0c11 54be aee6 b9bd 8c51 65bd
00000340: 72c9 0dbc 823c a63d 4aca 2abe 1162 62be
00000350: 54ab 5cbe 0fa5 923c 8864 69bd 4313 f3bd
00000360: 47c4 8bbd 03a7 27bd dcac d73d acd1 bdbd
00000370: 5d1e 15bd 910b 353e e61c 24be f400 403d
00000380: 37a0 ea3d 12a5 30be 3722 fe3d 7c17 a83d
00000390: e970 203c 85eb 4ebc f430 653c 340b af3d
000003a0: 2b1b 42be 1ba1 443d 0e27 97bc 05a1 ddbd
000003b0: 384a febd f7aa 1fbe d572 443e ff85 2ebe
000003c0: 088f 32be 96bc 163d 3af1 debd 28a7 99bd
000003d0: fe6e 703d 531f 9fbd d072 3c3e 907a 4abd
000003e0: bd6e 3f3e f87c 9c3d 7c46 5abe d7e4 2cbe
000003f0: ec8e dc3d a8cd 363e b375 2cbe a087 50be
0.11320687 -0.17512856 -0.12792023 -0.19228618 -0.10430826 0.06643324 0.014994391 -0.010057918
0.04556538 -0.0014903722 -0.064598575 -0.08388344 -0.26804453 0.00023430026 -0.07972653 -0.16489731
0.061922316 -0.059925824 0.07588836 0.011956491 -0.22399718 0.023028644 0.0061428966 -0.11727092
-0.065124646 -0.16633627 -0.10447192 -0.107364215 -0.14940165 -0.09238866 0.105897546 -0.043582242
0.09946973 -0.043210834 -0.12001803 0.08610405 -0.106352665 -0.20306647 0.068879455 -0.23244242
-0.07263788 -0.21218719 -0.21590748 -0.07222127 -0.12772903 0.016784951 0.031672984 -0.080846876
-0.033847332 -0.16856104 0.12798966 -0.0681398 0.08606391 -0.20146285 -0.20257783 0.09152985
-0.22484797 -0.16947234 -0.1849578 0.1591651 0.096024804 -0.15719146 -0.12546 0.052440006
-0.19763498 0.0372081 -0.060741562 -0.09234762 -0.19850743 -0.1103215 0.05753378 0.20265087
-0.08450842 -0.03286853 -0.18180679 -0.22044371 -0.018156357 0.12275942 -0.07235223 0.0924167
-0.20673375 0.043392837 0.1463523 -0.15703636 0.13206187 -0.16095006 -0.08106739 0.05377742
-0.06529024 -0.1945375 0.07964188 -0.0618636 -0.051114768 -0.09684111 -0.0017178882 -0.09739687
0.015818289 -0.1449893 -0.21212232 0.081522204 0.15129206 0.057885986 -0.070008904 0.16791598
-0.2526756 -0.1894061 -0.011278543 0.05441471 -0.090539806 -0.11273632 -0.0034726178 0.100281194
-0.18714142 -0.043058466 -0.026690934 -0.23646392 -0.1725458 -0.039791584 -0.17150585 -0.2298092
0.14453982 0.1164893 -0.07367548 -0.10269665 -0.21523914 -0.20799993 -0.119840994 -0.17907363
-0.034068737 0.2154721 0.008183489 0.06601349 0.29527527 -0.047259707 0.0023989305 0.10694816
-0.20649193 -0.02570136 -0.16544002 -0.09884489 -0.10730027 0.08582239 0.056721438 -0.086822316
0.0028334896 0.06337122 -0.15934958 -0.036697626 -0.3528791 0.09595648 -0.060092103 -0.009608111
-0.15860438 0.09686521 0.13265432 -0.18700816 0.040672205 0.14037667 -0.15120563 -0.21361579
0.065419376 0.022315223 -0.12394091 -0.1527051 -0.26355645 -0.13717715 -0.3188902 -0.14950775
0.0405455 -0.21810716 -0.12131308 0.025829487 -0.19138075 -0.2523783 -0.08496913 -0.1909827
-0.087753914 0.04617488 0.08033266 -0.2482546 0.091375165 0.145183 -0.090119325 -0.04422423
0.18099074 -0.22347091 -0.21309914 0.21650168 0.16717146 -0.28599924 -0.12914717 0.030011483
-0.11449549 -0.015571725 -0.12125762 -0.092775166 -0.17686136 -0.09529292 -0.16847984 0.15824567
-0.013875092 -0.070585355 0.052158546 -0.09305584 -0.29070905 -0.20709628 -0.09077202 -0.055985972
-0.008653985 0.0811701 -0.1667873 -0.22107722 -0.21549731 0.017900972 -0.05698064 -0.11868908
-0.06824546 -0.04093076 0.10531017 -0.09268507 -0.03640591 0.17680193 -0.16026649 0.04687591
0.1145634 -0.1725047 0.1240887 0.08207604 0.009792545 -0.012629394 0.013988722 0.08547059
-0.18955676 0.048005205 -0.01845124 -0.10821728 -0.124165 -0.15592562 0.1918443 -0.17043303
-0.17437375 0.036800943 -0.10885854 -0.07502586 0.0586996 -0.077696465 0.18403172 -0.04943329
0.18694587 0.076410234 -0.2131595 -0.1688417 0.10769448 0.17851889 -0.16841774 -0.20364237

fc_layers.3.bias f4 [64]
00000000: b1fc 86bd c7b9 9bbd 580a 273d f46c c5bd
00000010: 3501 02be fa08 8f3d 5031 2abd d0a5 98bd
00000020: 19f8 ccbc b491 463e b681 f0bc c9c9 3f3d
00000030: 98e8 c43c 9d0e d3bc cf98 14be 35f6 df3d
00000040: 9e96 2c3e 05e0 27be 6e91 513d adf3 c6bc
00000050: 64b1 9dbd 10b4 dd3d ec7e b3bd 17e4 88bd
00000060: 0b3a 46be d8aa a0bc d313 6a3d 18ee 68bc
00000070: 1fd6 48bd 34d7 cdbb e2eb ffbd f520 353d
00000080: 3a12 6c3c 6312 a13d 2644 71bd 41e9 38be
00000090: 736f 71bd b195 ab3d c23b dc3d 80fb 27bd
000000a0: 3ee1 48be ee58 25bc b8b4 233e ea9a 3fbe
000000b0: 862d 1dbe 9f99 88bd 5b1b c1bd 32ba d03d
000000c0: 912d 42bd 7046 99bb e068 ee3b 5c06 94bd
000000d0: f1df 24be 9692 463c 9767 c7bd cfd5 4b3d
000000e0: 1ca7 953d 64ca 3ebd d027 43bd a60b 243d
000000f0: 8f5e 49be fa73 8f3c 1af5 f73b 9f5d 6a3d
-0.06591166 -0.076037936 0.04078135 -0.09639922 -0.12695773 0.06984134 -0.041550934 -0.07453501
-0.025020646 0.19391519 -0.029358726 0.046823297 0.02403669 -0.025763804 -0.14511417 0.10935632
0.16854331 -0.1639405 0.051164083 -0.024286116 -0.0769985 0.1082536 -0.08764443 -0.0668413
-0.19358079 -0.019612715 0.057147812 -0.014216922 -0.049032327 -0.0062817577 -0.12496163 0.044220883
0.014408642 0.07864835 -0.058902882 -0.1805773 -0.058944177 0.08378161 0.107535854 -0.041011333
-0.19617173 -0.010092003 0.15986907 -0.18711439 -0.15349397 -0.06669926 -0.09429046 0.10191764
-0.047406737 -0.0046775863 0.0072756857 -0.072277755 -0.16101052 0.01211991 -0.09736555 0.04976445
0.07307264 -0.046579733 -0.04764539 0.04005017 -0.19664977 0.017511357 0.00756706 0.05721819

fc_layers.6.weight f4 [32, 64]
00000000: 14e1 5b3e 6b01 21bc 9e1c 77be 7f9d 193e
00000010: 2e2f d3bc 9411 efbd 9233 803e 65fa 753e
00000020: d4a0 d1bd 8d08 45be 06c2 55bd 7dea 8a3e
00000030: e1a5 9cbd b8e5 3ebe 82e4 ac3d 710a 43be
00000040: de29 853e 8632 b93c 8513 dcbd 7b79 053e
00000050: 10cc 803d 4eb1 5dbe 1f9a 07bd ada7 38bd
00000060: 0103 78be 2973 92be e988 2bbe 5f4a fcbd
00000070: 72bf 89bc 3eba d13c 46a2 92be 7b49 aebc
00000080: 7961 2b3d 73ee 62be 5cab 623e f096 60be
00000090: 7bb8 45be 80bc e1bd 4bbc b4be 0e4d a7be
000000a0: 5985 68be 3b0d 8a3d 871f 82be 85fb 89be
000000b0: da9c 9a3d 16ad 00be 7591 bbbd 3fbf 403e
000000c0: fa47 f93d 5e39 80bd 6726 75bd 3f1a fe3d
000000d0: 5608 06bd c472 7abe 5660 f83d e4c9 a4bd
000000e0: d830 20be 7724 3abd 14c1 9e3d 6dd9 2dbe
000000f0: feca 813d e067 c13d e56c 4d3b 3535 cbbd
00000100: 173d 3fbe e1e2 943d f753 74be 755e 96be
00000110: 5045 21be c8d6 8cbc bdd8 813e 9260 6b3e
00000120: 9225 e5bd a3ee 1cbe 3206 463e 033d f23d
00000130: 7611 99be 68d4 78be 04c0 87be f849 75be
00000140: 4771 c3bd 475d 1cbe c370 39bc e5aa 7d3e
00000150: 5958 773d d29f 5ebe 862f 7abe c251 59be
00000160: a4ff cd3d 114a 47be 5885 60bc a314 79be
00000170: 9343 9bbe 2585 de3c d0a8 d7bd cbe4 9dbe
00000180: fadb 3cbe 4e76 833c 83cb 2fbd 29be 86bb
00000190: 79e6 333e 229e 0fbc 71a2 86be 9d38 dc3d
000001a0: a5f2 dfbd d0c9 f73d 14e2 2cbe b13c 283e
000001b0: b221 783e 8dfc cc3d e710 3dbe ba5e 40bd
000001c0: 8b83 423e c87b 2bbd c4f3 2dbe 7ee4 90be
000001d0: 7ecc 74bd 033b 3b3e dbec e1bd 67f2 0abd
000001e0: c97b 43be 5e96 6cbb 0de9 c03c fa21 f0bd
000001f0: f629 6b3e 345e 6c3d 2929 3b3d dff2 bcbc
00000200: 5bd6 7ebe 5399 debe 6dfb 903d 1de8 f83c
00000210: 4212 28be a18a d2bd 77b1 92be 84e3 9d3e
00000220: 0927 ad3e 406f 203e 1e8c 5e3d b0da 1ebd
00000230: 1eec 2cbe 9f3e 093d 359f a33c 16f4 203d
00000240: 8521 9dbe 5634 253e 76d1 0e3e f8b6 603e
00000250: cdb5 36be 520e 31be 90a2 99bd 4694 0e3e
00000260: ded9 99be 4048 a0be dc84 e53d 076e 073e
00000270: 9750 e6bd 1ebc 12be fa22 fe3d 7726 803e
00000280: 0858 81be 3fc1 cbbe 96e5 27be 3e5f 8dbe
00000290: 2eea 25be d25b c0bd ba58 293d 0435 723d
000002a0: 9674 e93d 7dc2 68be 8d7c a9be a5e6 63bd
000002b0: 13f2 853e e222 aa3d 8191 8a3d adca 51be
000002c0: 2972 57be c888 cc3d 193e 11bd 796c 40be
000002d0: c996 c23d 91e1 f03c b1d1 9fbe 0e6a 30be
000002e0: 09f6 273d 2354 473e dab9 e1bd 93fc a6be
000002f0: 303d 0fbe 00e1 05be bede 49be 55db 2cbe
00000300: bbb6 353d c875 a1be abd1 21be df86 84bd
00000310: 562a 613e e043 71bd a9aa 843e de7b 95bc
00000320: 8507 5b3c 4b73 91bd da3f 633e c0b4 3fbe
00000330: b3bd cebd e652 e83d d2fb 78be b3f9 19be
00000340: 8cc1 03be d0dd cc3d 5aa7 a3be a92a 043e
00000350: 3498 f9bd 16d9 063d 0105 ee3d c88c cebc
00000360: 1025 7ebe 7fe2 06bd dfad 5c3d 38db 533e
00000370: 9f42 2ebe 0bfd a5bd 5bac 44bd 16bf 1e3d
00000380: 27ce 783b c2f2 ddbd ea3a bfbb cae8 b5bd
00000390: 72f0 fe3b ea31 c1bd a0bc 07be a7e3 96bd
000003a0: a999 87be 1090 10bb 5863 96be c121 903d
000003b0: 97b3 493d f072 623e 5c42 123e 90a9 73be
000003c0: 9203 04be b359 52be beee 88be 88f5 99be
000003d0: f441 b53b 2459 2cbd 290b 85be 62fc e93d
000003e0: 3cf8 783e 2300 923e 7d53 0e3e 52b4 61be
000003f0: c873 6f3e 1867 27be 6114 d9bd 60e0 0dbe
0.21472579 -0.009826998 -0.2413201 0.15001486 -0.025779333 -0.11673275 0.25039345 0.24021299
-0.10235754 -0.19241543 -0.05218699 0.27132025 -0.076488264 -0.18642318 0.08442022 -0.19046952
0.26008505 0.0226071 -0.107459106 0.13034622 0.06288922 -0.21649668 -0.033105966 -0.045081783
-0.24219896 -0.28603485 -0.16751446 -0.12318873 -0.016814921 0.025601503 -0.2863943 -0.021275273
0.041841004 -0.22161274 0.22135681 -0.21932578 -0.19308655 -0.11022282 -0.35299906 -0.32675976
-0.22707118 0.06740805 -0.25414678 -0.26949707 0.07549448 -0.12566027 -0.09158603 0.18822955
0.121719316 -0.06260942 -0.059851076 0.1240735 -0.032722794 -0.24457842 0.121277496 -0.0804632
-0.15643632 -0.04544493 0.077516705 -0.16977473 0.06337546 0.09443641 0.0031345424 -0.09922258
-0.18675648 0.07269836 -0.23860155 -0.2936894 -0.15749097 -0.01719226 0.2536067 0.22986057
-0.111888066 -0.15325408 0.19338301 0.11828043 -0.29896134 -0.24299777 -0.26513684 -0.23953998
-0.0954309 -0.15269957 -0.011318388 0.24772222 0.06038699 -0.21740654 -0.24432191 -0.21222594
0.10058525 -0.19461848 -0.013703667 -0.24324279 -0.30324993 0.027163098 -0.10530245 -0.30838618
-0.1844329 0.016047623 -0.042918693 -0.0041120243 0.17568387 -0.008765729 -0.26295808 0.107529856
-0.10934953 0.120990396 -0.16883117 0.16429402 0.24231604 0.10009108 -0.18463479 -0.04696534
0.18995492 -0.041866094 -0.1698752 -0.28299326 -0.05976533 0.1828423 -0.11031505 -0.03392258
-0.19090189 -0.0036100368 0.023548627 -0.117252305 0.22965226 0.057707027 0.04569355 -0.023065029
-0.24886458 -0.43476352 0.07079206 0.030384118 -0.16413215 -0.102803476 -0.2865102 0.30837643
0.33818844 0.15667439 0.054332845 -0.038782775 -0.16886947 0.033506986 0.019973377 0.03929528
-0.30689636 0.16133246 0.1394709 0.21944797 -0.17842789 -0.17290619 -0.075017095 0.1392375
-0.30049032 -0.31305122 0.112069815 0.13225566 -0.1124584 -0.14329574 0.12409015 0.25029346
-0.25262475 -0.39795873 -0.16396174 -0.27611727 -0.16202614 -0.09392513 0.041344382 0.05913259
0.1139919 -0.22730441 -0.33102837 -0.05563988 0.2616125 0.083074346 0.06766034 -0.20487471
-0.21039642 0.099870265 -0.03545961 -0.18791379 0.09501416 0.029404433 -0.3121467 -0.17227957
0.04100612 0.1946569 -0.110217765 -0.32614574 -0.13988185 -0.13074112 -0.19713876 -0.16880544
0.04436372 -0.31535172 -0.15802638 -0.06471037 0.21988806 -0.05890262 0.25911453 -0.018247541
0.013368492 -0.071020685 0.22192326 -0.18721294 -0.10094776 0.113439366 -0.24314812 -0.15036659
-0.12866801 0.10003245 -0.31963617 0.12906899 -0.121872336 0.032921873 0.11622048 -0.025213614
-0.24818826 -0.032930847 0.053876754 0.20689094 -0.17017601 -0.08104905 -0.048015933 0.038756453
0.0037964673 -0.10837318 -0.0058358805 -0.088822916 0.007780128 -0.094333485 -0.13255548 -0.0736764
-0.2648442 -0.0022058524 -0.29372668 0.07037688 0.049243536 0.22114158 0.14283127 -0.23795152
-0.12891987 -0.2054203 -0.26744646 -0.30070138 0.005531544 -0.0420772 -0.25985077 0.11425091
0.24313444 0.2851573 0.13899036 -0.22041443 0.23384011 -0.16347921 -0.1059959 -0.13855124

fc_layers.6.bias f4 [32]
00000000: 059b 51be 2505 8bbe 9979 9ebd 88ca fcbc
00000010: 91c8 c03e 093e a8be 74c9 8cbe 1e86 32be
00000020: 7838 48be 0676 2abd 3e90 1e3c 2cf1 80be
00000030: e6ef 583c 0841 3f3d 0482 3dbe d8c0 e53d
00000040: ba9e 023e 0ffc 07bc e911 18be 2592 3bbb
00000050: b46b b63e 28f1 84be a030 333c af5c 0a3e
00000060: 32f6 7f3b 309c ffbe 8306 8bbd 66c0 9c38
00000070: fadc 15be b161 9b3e 9bb2 d33e 5a7d 4d3e
-0.20469292 -0.27152362 -0.07738037 -0.030858293 0.3765302 -0.3285983 -0.27497447 -0.17433974
-0.19552791 -0.041616462 0.009677945 -0.25184 0.01324079 0.046692878 -0.18506628 0.11218423
0.12755862 -0.008299842 -0.14850582 -0.0028621044 0.35629046 -0.25965238 0.010936886 0.13511918
0.0039056656 -0.4992385 -0.067883514 7.474497e-05 -0.14635077 0.3034797 0.41347203 0.20067349

fc_layers.8.weight f4 [4, 32]
00000000: 0547 51be 08fd 22be 524b 74be 9c7f 763e
00000010: f202 f5bd a490 9cbd c736 adbe 9dff d6bc
00000020: 05bd 17be e155 ddbc bfff 6b3e 3e87 1ebe
00000030: 31ef 2abe 94dc 3dbd 2ab1 15be 5b00 9abd
00000040: d73b c23d 08b3 bbbc e459 4a3e a481 813e
00000050: 894c 4f3e b5d2 2b3e 40f8 e1bd b848 783d
00000060: 3cfb 93bd 7824 90bb 1f01 3dbc 9375 8a3e
00000070: 8a5e 37bd f0da aebc 0f8b 8a3e 7999 a8be
00000080: 18d7 38be 10f3 5bbe 802b 55be aa7c 35be
00000090: bc64 15bf 5886 9dbe 6e14 71be fdbd 183c
000000a0: fd66 953d b498 2d3e f48d 943e 22ef d43d
000000b0: c0b7 6abd 7633 353e dab4 90be e759 b7bd
000000c0: 7483 183e 408e 0e3e cf5e 1f3d 6081 ef3d
000000d0: 10d9 773e 60ad 34bd 2ddf 483e 88c2 033e
000000e0: 3511 363e 99b4 7dbe 72c4 abbd abe5 003e
000000f0: 864f b0bd 3b55 133e 1f5e 4b3e 2662 eabd
00000100: cef8 75bb 8627 60bd bc46 4bbd 88a3 023d
00000110: cb4b a3be eef2 983e 31b0 96be afa7 4fbe
00000120: c4e1 7e3d 1f1b 653d 0056 86bd 50c9 d7bd
00000130: 5c44 083e 11fe 38bd 1ef7 82be 6aba c6bc
00000140: 3cfa 89bd 5882 c13c d709 263d 91d7 e63d
00000150: 2d55 4c3e ef39 8f3e 972a 303e 71df 0fbe
00000160: c4d7 2a3e 88fa 3bbe fddb 6a3e 398c e43d
00000170: 8e39 48be dc5f f83d 63c6 b63e ace3 0dbf
00000180: 1cc9 053d e37d c83c 77f8 84be 3bda 64be
00000190: a350 eabe e844 76be 78f0 c1bd d9aa 0d3e
000001a0: 3714 823e f429 60be 1fed 093e e77a 823e
000001b0: bdf7 bc3d 8ff4 023e 5973 b83e 338e 77be
000001c0: 7930 a03d a644 7a3d 7ea1 783e d7e6 433d
000001d0: ab3e 043e 81b4 a93d 866e d3bd 0668 663e
000001e0: 7710 973c 0818 48be 4a12 9fbd aa95 ae3d
000001f0: 8980 263e dc61 ae3e 4bdd 8c3d 3eb8 64be
-0.20437248 -0.15916836 -0.23856857 0.24072117 -0.119634524 -0.076447755 -0.33830854 -0.026244933
-0.14818199 -0.02701849 0.23046778 -0.15481278 -0.16692807 -0.046352938 -0.14618364 -0.07519599
0.0948407 -0.022912517 0.19760853 0.2529422 0.2024404 0.16779597 -0.11033678 0.060616225
-0.072256535 -0.0043988787 -0.011535912 0.27042827 -0.044767894 -0.021344632 0.27059218 -0.3292959
-0.18050802 -0.2147944 -0.20817375 -0.17723337 -0.58356833 -0.3076656 -0.2354295 0.0093226405
0.07295034 0.16952783 0.29014552 0.103971735 -0.057304144 0.17695412 -0.2826298 -0.089526944
0.14893895 0.13921452 0.038908776 0.11694598 0.24203897 -0.044110656 0.19616385 0.12867177
0.17780001 -0.24775924 -0.08387078 0.12587611 -0.08608918 0.14387982 0.19860123 -0.114445016
-0.0037532332 -0.054725192 -0.049628004 0.031894237 -0.31893763 0.2987284 -0.29431298 -0.2027881
0.062227026 0.055934068 -0.06559372 -0.10536444 0.13307327 -0.04516417 -0.2557916 -0.024258811
-0.067371815 0.023621723 0.040536728 0.11271585 0.19954367 0.27973887 0.17203747 -0.1405008
0.1668387 -0.18357289 0.22935481 0.11159558 -0.19553205 0.12127659 0.35698232 -0.55425525
0.032662496 0.02447409 -0.25970814 -0.22348873 -0.45764646 -0.24049723 -0.09469694 0.13834704
0.25406048 -0.21891004 0.13469361 0.25484392 0.0922694 0.12788604 0.36025503 -0.24175338
0.078217454 0.061100625 0.24280354 0.047827568 0.12914531 0.082863815 -0.10323815 0.2250062
0.018440468 -0.19540417 -0.0776716 0.0852464 0.1625997 0.34059036 0.06878146 -0.22335908

fc_layers.8.bias f4 [4]
00000000: b8fa ba3d dfab 303e 9201 2f3e cc20 523e
0.09129852 0.17253064 0.17090443 0.20520324
