output/dqn/model/4x4/4000.pth (torch, 53468 bytes, 8 tensors)

fc_layers.0.weight f4 [128, 16]
000000 56 34 0a 3e ce 46 63 3e 00 8c a5 3c ac 92 84 3e
       0.13496527 0.22194979 0.020208359 0.25893152
000010 db 4d c4 3e 80 79 f0 bd ea 86 f0 3e a6 09 f1 3e
       0.3834065 -0.11741924 0.4697793 0.47077674
000020 0e 51 41 3e 33 40 00 3f e7 b8 e7 be 80 d7 e8 be
       0.18878576 0.5009796 -0.45258257 -0.45476913
000030 51 36 10 3f 0b 53 0b 3f b8 47 bf 3d 58 41 9a 3e
       0.5633288 0.5442359 0.09339851 0.30127978
000040 b8 10 75 be 37 6f e3 bc d4 77 ea 3d ea 98 fb be
       -0.23932159 -0.027762992 0.11448637 -0.49140102
000050 5b 2b 18 3e 36 57 f8 3e 20 db c8 be 2a 5f 0b bf
       0.14860289 0.48504037 -0.3922968 -0.54442084
000060 72 6c 44 3e 40 2f 09 be 46 97 a7 be 20 96 1d bd
       0.19181994 -0.1339693 -0.327326 -0.03847325
000070 ab e9 16 3f 48 e8 e8 3e f1 98 73 bd 6e 88 07 be
       0.589503 0.45489717 -0.05947203 -0.13235638
000080 db e1 07 be 52 b1 e1 be 4c b0 a5 bd 73 d2 47 3e
       -0.13269751 -0.44080597 -0.080902666 0.19513874
000090 85 08 b7 be 9e ad ce 3e 2e 25 d4 3e fa e5 28 be
       -0.35748687 0.40366834 0.41434616 -0.16493979
0000a0 23 ab 5c bd 9d 61 99 3e d1 43 d0 3e c0 53 d1 bd
       -0.053874146 0.29957286 0.4067674 -0.10221052
0000b0 fe d6 af 3e 31 32 12 bf a5 da 9c 3e 00 81 a0 3d
       0.34343714 -0.57107836 0.30635563 0.07837105
0000c0 fd 5a e4 be 0b 54 1a 3e 09 9e 08 bf 14 45 14 be
       -0.4460067 0.15071122 -0.5336614 -0.14479476
0000d0 92 73 5d be 4a 95 9f 3e de 88 0d bf d8 0b a2 be
       -0.21626118 0.31168586 -0.5528697 -0.3164966
0000e0 c5 80 de 3e 76 41 3e 3e 96 81 5f 3e 48 8e 98 3e
       0.43457618 0.18579659 0.21826777 0.29796052
0000f0 28 bf 91 be 39 63 bb 3e d6 59 84 3e 18 50 e3 bd
       -0.28466153 0.36599138 0.2584979 -0.11099261
000100 07 01 9c 3c d4 3c a4 3e 0b d4 5c 3e 61 83 07 bf
       0.019043459 0.32077658 0.21565263 -0.52934843
000110 5c 1d 1a bf 96 9c f7 3e a4 3b e3 be e0 62 6a be
       -0.6020105 0.48361653 -0.4438144 -0.2288928
000120 e4 99 a8 3e c2 1b 17 be 9d 28 b1 3e bc 67 3c be
       0.3292991 -0.14756683 0.34601298 -0.18398947
000130 58 61 a6 bd 47 a9 9c be 3f be ad 3e a5 9d 05 3f
       -0.081240356 -0.30597898 0.3393421 0.5219367
000140 da 83 df be a0 a9 55 be cc 84 22 be 9f 04 89 3e
       -0.43655282 -0.20865488 -0.1587097 0.26761338
000150 dc 16 05 bf 9a 67 a5 3e 58 a2 cf 3d a0 be 8f bc
       -0.51988006 0.32305604 0.101383865 -0.017546952
000160 2e 88 b2 3e 72 0b 70 3e 4e 68 6d be b2 82 1f be
       0.34869522 0.23441866 -0.2318432 -0.155772
000170 60 b4 5a 3d bd 66 71 3e 98 56 8b 3d ac a1 0b bf
       0.053394675 0.23574348 0.06803626 -0.54543567
000180 5f 02 3b be 63 ce 52 be 59 6a 88 be 88 a2 0c bf
       -0.18262623 -0.20586543 -0.26643637 -0.54935503
000190 50 83 5a bd b0 fd 7f 3e 35 cf 0f bf ae 1d 14 be
       -0.053347886 0.24999118 -0.5617555 -0.14464447
0001a0 92 1a 59 be 52 e5 86 be 2a e7 95 3e 0a 11 db 3e
       -0.21201542 -0.26346833 0.29277927 0.42786437
0001b0 68 20 ab bd 13 b4 65 bd 0f bf 75 3e 98 94 5d 3e
       -0.083557904 -0.056079935 0.23998664 0.21638715
0001c0 c0 d2 ab bc aa d8 a4 be 1f 32 f8 be 72 86 f7 be
       -0.020974517 -0.32196552 -0.4847574 -0.4834476
0001d0 00 4c 33 3b f0 7f 69 be de 61 06 3f 70 de 49 bd
       0.0027358532 -0.2280271 0.52493083 -0.0492844
0001e0 1e 7a 4f 3e 4c d9 db be 17 8c 23 3e 44 40 be 3e
       0.20261428 -0.42939222 0.15971409 0.37158406
0001f0 c4 22 6c be 1a cf 03 3f e0 1e cc 3d f8 cd 19 bf
       -0.23060137 0.51487887 0.099668264 -0.6007991
000200 d0 40 90 3d 01 59 04 3f 98 d0 c2 bd a8 5f cc be
       0.07043612 0.5169831 -0.09512442 -0.3991673
000210 f6 ae 0c be 7b 89 fb be 12 8e 33 be 78 15 dc be
       -0.13738617 -0.49128327 -0.17534664 -0.4298513
000220 18 6e 07 bf cb 44 da 3e ce d2 4d be 5c f2 68 3e
       -0.52902365 0.4263061 -0.20099947 0.22748703
000230 38 e5 f9 be bf ce b4 be 0c df e2 3e 28 01 f6 bd
       -0.48807693 -0.35313985 0.44310796 -0.12011939
000240 8b 2f 92 3d cc 88 16 bf 8e d1 14 bf 5f 09 00 bf
       0.07137974 -0.58802485 -0.58132255 -0.500143
000250 7a 6e 04 be 66 4c da 3e c8 e2 dd be 58 9d f5 be
       -0.12932768 0.42636412 -0.43337083 -0.47971606
000260 6c a2 33 bd a1 a6 2e 3e a4 80 88 3e 98 2b 1c be
       -0.04385607 0.17055751 0.26660645 -0.15251005
000270 40 d4 fc bd 9b 2a a2 3e 64 ba 9d bd df d8 0a bf
       -0.12345171 0.3167313 -0.07701567 -0.5423717
000280 9c 39 c1 bc 40 fe a8 bd da 36 10 bf 86 16 27 be
       -0.02358704 -0.08251619 -0.56333697 -0.16317186
000290 64 51 fc be 76 c7 96 3e 72 e9 0e 3d 2e bd c8 3e
       -0.49280846 0.29449052 0.0348906 0.39206833
0002a0 a7 01 23 3d c0 39 96 3e df 87 b5 3e f0 74 90 3d
       0.039796498 0.29340935 0.35455224 0.07053554
0002b0 a6 72 99 3e c5 92 06 bf c5 f1 9d 3e 4a bb 86 3e
       0.29970282 -0.525677 0.30848518 0.26314765
0002c0 6f d1 22 3e dc 49 61 3d 60 e4 53 be 93 57 a3 be
       0.15900205 0.05500208 -0.20692587 -0.3190275
0002d0 9e 88 95 3e 5a 92 81 be 9a 63 f4 3e 98 a9 20 3e
       0.29205793 -0.2530697 0.4773224 0.15689695
0002e0 eb cf fe 3d eb ec dd 3e 38 8b fc bd 04 cd 18 be
       0.12442001 0.43344817 -0.12331241 -0.14921957
0002f0 f6 18 f4 3e 70 d7 e3 ba 2a 25 2f be 40 95 ba bc
       0.47675294 -0.0017382931 -0.1710402 -0.022776246
000300 08 89 10 bf 2f 1c 5f 3e 13 6b 52 3e 7e f9 0c bf
       -0.56459093 0.21788095 0.20548658 -0.55068195
000310 41 ce d2 3e 30 f5 4d 3d e8 62 22 be 2d b9 af be
       0.41172984 0.050282657 -0.15858042 -0.34320965
000320 bc b0 1b bf 47 04 72 3e 3e 41 04 3f 10 08 1c be
       -0.6081655 0.23634444 0.5166205 -0.1523745
000330 a8 a1 c6 be 96 4e da be 88 20 d2 3e 60 9e ed bc
       -0.3879521 -0.4263808 0.41040444 -0.029006183
000340 9e 30 a2 3e 0c 5f b6 3e d0 a9 c7 be d6 e7 3b 3e
       0.31677717 0.3561939 -0.38996744 0.18350157
000350 b9 29 f3 3e ca 24 ce 3e 8b a2 b4 3e e6 4a a8 3e
       0.4749277 0.40262443 0.3528026 0.32869643
000360 95 c1 9b 3e b2 0d 04 3e 5a 82 9d be 20 c5 13 bd
       0.3042113 0.1289585 -0.30763513 -0.036076665
000370 df 0a 10 3f c3 b7 48 3e 94 67 13 be 30 a8 d4 bd
       0.5626659 0.1960135 -0.1439498 -0.10383642
000380 72 b0 06 bf 75 a7 05 3f fc f8 bc be c0 a8 3a 3c
       -0.52612984 0.52208644 -0.3690871 0.011392772
000390 ed 48 8a be 2e 49 d7 3e 16 84 a1 be a1 38 0b 3f
       -0.27008763 0.4204802 -0.31546086 0.54383284
0003a0 f7 e9 04 3f 65 df 8a 3e d2 a4 12 bf 82 13 9e 3e
       0.519195 0.27123562 -0.57282746 0.30874258
0003b0 e0 01 5b be ae 06 4a be 31 d0 9b be 92 e3 cc 3e
       -0.21387434 -0.1972911 -0.30432275 0.40017372
0003c0 d0 ed ad bb 08 50 3f 3e 9f 76 35 3e 4c ad bc be
       -0.0053078905 0.18682873 0.17721032 -0.36850965
0003d0 5e 1d d0 3d 68 66 4d 3e 24 06 99 3e 00 dc 74 3e
       0.10161851 0.20058596 0.29887497 0.23912048
0003e0 f6 e0 16 bf f1 79 07 3e 68 fe 08 3e a2 2c bd 3e
       -0.58937013 0.1323011 0.13378298 0.36948115
0003f0 2c 95 3b 3e d6 b8 07 3f 7d e5 e4 bd 30 38 11 bd
       0.18318623 0.5301641 -0.11176584 -0.035453975

fc_layers.0.bias f4 [128]
000000 b2 8e 71 be 5d ed f1 bd 07 b1 b0 bd 25 cc 51 3c
       -0.2358959 -0.118128516 -0.08627515 0.0128050195
000010 68 01 fb bd e5 de b3 be 67 67 c9 3d 70 b7 81 be
       -0.122561276 -0.35130993 0.098341756 -0.25335264
000020 b9 59 f3 bd 34 60 f6 bc ef fb 03 be a5 e1 75 bd
       -0.118823476 -0.03007517 -0.12889074 -0.060029645
000030 e9 2d 82 be ce 3d 5a be 03 ba d4 bd f5 f4 a5 bb
       -0.25425652 -0.21312639 -0.103870414 -0.0050646015
000040 cd 5d c7 bc 48 9f ec bd 04 bb 9d bd 54 11 21 be
       -0.02433672 -0.11553818 -0.07701686 -0.15729266
000050 08 72 6b be 6c 66 47 be 92 b5 93 bd 98 03 c4 bd
       -0.22992718 -0.19472665 -0.07212366 -0.09570998
000060 59 38 18 be 25 23 1f 3e e8 da 96 be b0 ec ac 3d
       -0.14865245 0.1554075 -0.29463887 0.08443582
000070 d2 4a 09 be 52 e7 0b 3e 83 49 93 be 0a 34 88 bd
       -0.13407448 0.1366246 -0.28767022 -0.06650551
000080 14 3a a4 be d4 74 fe bb 81 04 53 be 32 07 38 bd
       -0.3207556 -0.007765392 -0.20607187 -0.044928737
000090 d0 4a 86 be 6c d2 9d bb 56 fb 67 bd de 50 8e be
       -0.26228952 -0.004816344 -0.056636177 -0.27796072
0000a0 fc b7 ad 3c 0d 67 6a be 1d e1 90 be bf c3 53 bd
       0.021205895 -0.22890873 -0.28296748 -0.05170035
0000b0 58 b1 06 bd 5d 3e ed bd f4 3f 02 be 94 fa 90 be
       -0.032883972 -0.115841605 -0.12719709 -0.28316176
0000c0 1d 6b 22 3c 39 f2 da bd c2 bd 70 be 5c a4 21 be
       0.009913233 -0.106907316 -0.23509887 -0.15785354
0000d0 4c ad 84 be c4 95 08 be 3a 0e 0d 3d 71 7d 28 bd
       -0.25913465 -0.13338381 0.034437396 -0.041135255
0000e0 42 3d 21 be c2 05 95 be e6 ef 96 bd 0c 93 28 be
       -0.15746024 -0.29105955 -0.07369976 -0.16462344
0000f0 06 56 93 bd fe 43 68 be af 7c 3c be bb 88 37 be
       -0.07194142 -0.22682187 -0.18406938 -0.17923252
000100 9f 17 c0 bc 21 00 50 be 93 8c 8f bd 66 d9 71 be
       -0.023448763 -0.20312549 -0.07009234 -0.23618087
000110 28 94 4e 3e a6 c1 e6 bc 70 3a 40 bd f0 59 ab be
       0.20173705 -0.02816851 -0.04693073 -0.33467054
000120 41 25 30 be 1d 85 a2 bd 2e 05 6b 3c 4a ed 4e 3d
       -0.17201711 -0.079355456 0.014344497 0.050519265
000130 53 5a 5a be e0 0b 2a 3b d8 1b 01 be 01 58 6b be
       -0.21323518 0.002594702 -0.12608278 -0.2298279
000140 0b 98 45 be 2f 52 a6 be 19 c2 81 be 8d 96 41 be
       -0.19296281 -0.32484576 -0.25343397 -0.18905087
000150 f3 72 f4 bd cd 8d e6 bd 5f bd 39 be f5 68 93 bc
       -0.11935987 -0.11257515 -0.18138646 -0.017994383
000160 ae b6 78 be f7 62 56 be e5 68 ec 3c 34 5a a7 be
       -0.24288437 -0.2093619 0.028858611 -0.32686007
000170 ee 80 82 bd 25 da 8c 3b 3b 0f 85 bc 08 32 98 be
       -0.06372248 0.004298466 -0.016242614 -0.2972567
000180 f4 e7 4f bd dc 14 4b 3d 4d 9b 53 be b5 9a 42 3c
       -0.050758317 0.04958044 -0.20664711 0.011877705
000190 f2 72 16 be e5 e2 5a 3c 2a 78 d6 bd f8 76 8b be
       -0.14692286 0.01335976 -0.10472138 -0.27239203
0001a0 f1 ee 57 be 80 28 0a be 07 f6 1e bd 2f ce 2b bd
       -0.21087243 -0.13492012 -0.03880885 -0.04194468
0001b0 f5 eb 0b bd 0d 2d 06 3e 49 e0 61 3d d6 99 78 be
       -0.034160573 0.13103123 0.055145536 -0.24277434
0001c0 4c b1 7e be 37 ab 32 be e9 87 52 be 4b 23 9c be
       -0.24872321 -0.17448126 -0.20559658 -0.30495676
0001d0 1b 97 14 3c e3 8e b6 bc 83 85 db bd 2f 74 84 3d
       0.0090692295 -0.02228493 -0.10718825 0.06467473
0001e0 3b ad a4 be 10 78 b6 be a7 ac 21 be 2f f6 5d be
       -0.32163414 -0.35638475 -0.15788518 -0.21675943
0001f0 04 ae 86 be ff 01 15 be 24 90 a4 bd 28 68 3c be
       -0.26304638 -0.14551543 -0.08035305 -0.18399107

fc_layers.3.weight f4 [64, 128]
000000 01 d9 e7 3d e7 54 33 be 85 fd 02 be ab e6 44 be
       0.11320687 -0.17512856 -0.12792023 -0.19228618
000010 92 9f d5 bd 27 0e 88 3d 09 ab 75 3c f7 c9 24 bc
       -0.10430826 0.06643324 0.014994391 -0.010057918
000020 c4 a2 3a 3d 98 58 c3 ba 42 4c 84 bd 15 cb ab bd
       0.04556538 -0.0014903722 -0.064598575 -0.08388344
000030 22 3d 89 be 7f ae 75 39 aa 47 a3 bd d7 da 28 be
       -0.26804453 0.00023430026 -0.07972653 -0.16489731
000040 41 a2 7d 3d c8 74 75 bd 5b 6b 9b 3d 28 e5 43 3c
       0.061922316 -0.059925824 0.07588836 0.011956491
000050 84 5f 65 be 91 a6 bc 3c 5a 4a c9 3b bc 2b f0 bd
       -0.22399718 0.023028644 0.0061428966 -0.11727092
000060 12 60 85 bd 0e 54 2a be 60 f5 d5 bd c5 e1 db bd
       -0.065124646 -0.16633627 -0.10447192 -0.107364215
000070 bf fc 18 be 44 36 bd bd d0 e0 d8 3d 4b 83 32 bd
       -0.14940165 -0.09238866 0.105897546 -0.043582242
000080 c9 b6 cb 3d d8 fd 30 bd 03 cc f5 bd 52 57 b0 3d
       0.09946973 -0.043210834 -0.12001803 0.08610405
000090 6d cf d9 bd a8 f0 4f be ac 10 8d 3d 63 05 6e be
       -0.106352665 -0.20306647 0.068879455 -0.23244242
0000a0 2b c3 94 bd 99 47 59 be da 16 5d be bf e8 93 bd
       -0.07263788 -0.21218719 -0.21590748 -0.07222127
0000b0 66 cb 02 be 98 80 89 3c 88 bb 01 3d 0c 93 a5 bd
       -0.12772903 0.016784951 0.031672984 -0.080846876
0000c0 80 a3 0a bd 44 9b 2c be b9 0f 03 3e e1 8c 8b bd
       -0.033847332 -0.16856104 0.12798966 -0.0681398
0000d0 46 42 b0 3d 47 4c 4e be 90 70 4f be 01 74 bb 3d
       0.08606391 -0.20146285 -0.20257783 0.09152985
0000e0 8c 3e 66 be 28 8a 2d be 94 65 3d be 2d fc 22 3e
       -0.22484797 -0.16947234 -0.1849578 0.1591651
0000f0 a7 a8 c4 3d cc f6 20 be 96 78 00 be 55 cb 56 3d
       0.096024804 -0.15719146 -0.12546 0.052440006
000100 d3 60 4a be 85 67 18 3d 25 cc 78 bd c0 20 bd bd
       -0.19763498 0.0372081 -0.060741562 -0.09234762
000110 88 45 4b be 3d f0 e1 bd 8a a8 6b 3d b6 83 4f 3e
       -0.19850743 -0.1103215 0.05753378 0.20265087
000120 c0 12 ad bd 27 a1 06 bd 8f 2b 3a be ff bb 61 be
       -0.08450842 -0.03286853 -0.18180679 -0.22044371
000130 a4 bc 94 bc 4a 69 fb 3d 68 2d 94 bd f8 44 bd 3d
       -0.018156357 0.12275942 -0.07235223 0.0924167
000140 03 b2 53 be b0 bc 31 3d 61 dd 15 3e 24 ce 20 be
       -0.20673375 0.043392837 0.1463523 -0.15703636
000150 3a 3b 07 3e 18 d0 24 be a9 06 a6 bd b6 45 5c 3d
       0.13206187 -0.16095006 -0.08106739 0.05377742
000160 e4 b6 85 bd d7 34 47 be 48 1b a3 3d b0 64 7d bd
       -0.06529024 -0.1945375 0.07964188 -0.0618636
000170 b8 5d 51 bd a2 54 c6 bd c3 2a e1 ba 03 78 c7 bd
       -0.051114768 -0.09684111 -0.0017178882 -0.09739687
000180 5b 95 81 3c 13 78 14 be 98 36 59 be 1d f5 a6 3d
       0.015818289 -0.1449893 -0.21212232 0.081522204
000190 4e ec 1a 3e db 19 6d 3d d4 60 8f bd 2b f2 2b 3e
       0.15129206 0.057885986 -0.070008904 0.16791598
0001a0 b2 5e 81 be ac f3 41 be a3 c9 38 bc f5 e1 5e 3d
       -0.2526756 -0.1894061 -0.011278543 0.05441471
0001b0 ef 6c b9 bd 4d e2 e6 bd dc 94 63 bb 3a 60 cd 3d
       -0.090539806 -0.11273632 -0.0034726178 0.100281194
0001c0 00 a2 3f be 13 5e 30 bd f2 a6 da bc 99 23 72 be
       -0.18714142 -0.043058466 -0.026690934 -0.23646392
0001d0 d9 af 30 be 80 fc 22 bd 3b 9f 2f be 1a 53 6b be
       -0.1725458 -0.039791584 -0.17150585 -0.2298092
0001e0 3f 02 14 3e f1 91 ee 3d 2c e3 96 bd 9f 52 d2 bd
       0.14453982 0.1164893 -0.07367548 -0.10269665
0001f0 a6 67 5c be ef fd 54 be 32 6f f5 bd 14 5f 37 be
       -0.21523914 -0.20799993 -0.119840994 -0.17907363
000200 ad ef 64 bd 11 5b 48 3e ee 66 92 bb 11 35 a4 3d
       -0.055892635 0.19565989 -0.0044678366 0.08017934
000210 81 2b 8d 3e 65 93 41 bd f5 3f 25 3b ae fa ad 3d
       0.27572253 -0.047259707 0.0025215123 0.08495079
000220 d2 c9 67 be a9 8b d2 bc 1c 69 29 be c6 d2 bc bd
       -0.22635582 -0.02570136 -0.16544002 -0.09219889
000230 ba 41 da bd 2c 3c a0 3d d4 1e 0f 3d d7 c8 c9 bd
       -0.106570676 0.07823977 0.03494151 -0.0985276
000240 de 1b 8a bc b8 60 0d 3d 89 2c 23 be 24 db 2c bd
       -0.016858991 0.034516066 -0.15934958 -0.042201176
000250 28 a7 be be e5 d0 96 3d 23 23 76 bd 68 db 84 b9
       -0.37236905 0.07364062 -0.060092103 -0.00025340472
000260 30 69 22 be 37 39 95 3d e7 42 fb 3d 57 8f 4b be
       -0.15860438 0.072863035 0.1226862 -0.19878899
000270 d7 fb bd 3c e0 96 fb 3d a6 d5 1a be 91 cb 58 be
       0.023191376 0.122846365 -0.15120563 -0.21171404
000280 af 01 66 3d a3 b1 d7 3a bb d4 fd bd 93 25 2e be
       0.05615395 0.0016456138 -0.12394091 -0.17006521
000290 17 7a 91 be 2b 78 0c be 94 45 a3 be 8f 18 19 be
       -0.2841346 -0.13717715 -0.3188902 -0.14950775
0002a0 df 58 b0 3c 03 8f 8e be fc b2 0e be 18 84 ca 3c
       0.021526752 -0.27843484 -0.13935465 0.02472119
0002b0 51 f9 43 be bb 37 81 be 27 25 98 bd f8 90 43 be
       -0.19138075 -0.2523783 -0.07428961 -0.1909827
0002c0 cb 4e 9a bd bf 5c 85 3d 73 85 a4 3d 83 30 88 be
       -0.0753456 0.065118305 0.08033266 -0.26599512
0002d0 5b 41 cd 3d b9 b3 07 3e 42 de af bd 06 c6 67 bd
       0.10022231 0.13252153 -0.08587314 -0.056585334
0002e0 ae 1c 2b 3e 8f d5 64 be a9 36 5a be a3 fc 52 3e
       0.16710159 -0.22347091 -0.21309914 0.20604186
0002f0 e6 9b 22 3e 3e 7f 93 be 28 3f 04 be a4 da f5 3c
       0.15879783 -0.28808016 -0.12914717 0.030011483
000300 d0 15 cb bd 88 6a 13 bc ea 55 f8 bd e8 00 be bd
       -0.0991627 -0.008997567 -0.12125762 -0.092775166
000310 e2 2b 59 be 29 2a c7 bd 0c 1b 57 be 27 0b 22 3e
       -0.21208146 -0.09724838 -0.21006411 0.15824567
000320 3b 23 02 bd 07 4d 54 bd b5 0f 26 3d 7a ca db bd
       -0.03177188 -0.05183127 0.040542323 -0.10731979
000330 0f 22 a3 be cc e8 43 be ae e6 b9 bd cf f8 75 bd
       -0.31861922 -0.19131774 -0.09077202 -0.060051735
000340 3f 42 1e bc 8c 75 ab 3d 15 c8 37 be 11 62 62 be
       -0.009659349 0.0837203 -0.17947419 -0.22107722
000350 cc d7 83 be 2f 17 b3 bc 1d 84 5f bd df c8 12 be
       -0.25750577 -0.02186164 -0.054569352 -0.14334439
000360 47 c4 8b bd a1 71 87 bd 96 8a d4 3d 70 c6 d7 bd
       -0.06824546 -0.0661347 0.10377996 -0.10535896
000370 67 43 ab bd 33 15 21 3e e6 1c 24 be ab 14 17 3d
       -0.08362465 0.15730743 -0.16026649 0.036884945
000380 e8 1e c1 3d bf a6 3d be 1e 55 e7 3d 86 a5 81 3d
       0.09429723 -0.1852064 0.11295532 0.06330399
000390 e9 70 20 3c d9 3b bf bc 20 26 ee 3c 16 79 a5 3d
       0.009792545 -0.023343967 0.029070914 0.08079736
0003a0 e6 4c 4e be 01 bb 43 3d e3 d0 f3 bc 3d d9 09 be
       -0.20146522 0.047785763 -0.02976269 -0.13461776
0003b0 dc b6 09 be f7 aa 1f be 74 a3 59 3e ff 85 2e be
       -0.13448662 -0.15592562 0.21253759 -0.17043303
0003c0 ef 1d 29 be 37 ad 6b 3d 58 59 06 be 9d 3d de bd
       -0.16515325 0.057538237 -0.1312002 -0.108515956
0003d0 2e 87 39 3d 36 48 b9 bd 6c f1 10 3e 53 13 43 bd
       0.045294933 -0.09046976 0.14154595 -0.04762585
0003e0 bd 6e 3f 3e f8 7c 9c 3d b4 17 64 be d7 e4 2c be
       0.18694587 0.076410234 -0.22274667 -0.1688417
0003f0 64 b1 c2 3d 26 f7 10 3e 4c 58 10 be 1b 0d 5d be
       0.09506491 0.1415678 -0.14096183 -0.2158703

fc_layers.3.bias f4 [64]
000000 b1 fc 86 bd c4 44 c0 bd 03 38 22 3d 3e dc a3 bd
       -0.06591166 -0.09388116 0.0396042 -0.08000992
000010 35 01 02 be 96 0d d3 3d 6d 30 3b bd e7 c6 be bd
       -0.12695773 0.10305326 -0.04570048 -0.09315281
000020 4d 5d 02 bc 66 03 5a 3e bc 18 5f bc 30 1e 2e 3d
       -0.007956815 0.21290359 -0.013616737 0.042509258
000030 e0 a7 6b 3d d7 05 7d bd cf 98 14 be 76 d1 c8 3d
       0.057533145 -0.061773147 -0.14511417 0.098055765
000040 cf 5d 25 3e 05 e0 27 be 4b a7 a3 3d 9b fb 5d bc
       0.16149066 -0.1639405 0.07990893 -0.013548757
000050 0e db 0b bd 20 2f 0e 3e b8 91 8d bd 2f 82 67 bd
       -0.034144454 0.13885164 -0.06912559 -0.056520637
000060 0b 3a 46 be eb c6 dd bb 01 56 a2 3d 2e 5f f9 3c
       -0.19358079 -0.0067680976 0.0792656 0.030440893
000070 a6 8a 7d bd c2 92 90 3c e2 eb ff bd 27 f1 eb 3c
       -0.061899804 0.017648105 -0.12496163 0.028801514
000080 e7 fb 24 3d ba 26 5d 3d 26 44 71 bd 2a ea 45 be
       0.040279295 0.05399201 -0.058902882 -0.19327608
000090 4c 2c 51 bd ae f6 e0 3d 3c 43 15 3e 28 4f e0 bc
       -0.051067635 0.109845504 0.14576429 -0.027381495
0000a0 3e e1 48 be d6 b2 9b bc d1 01 3c 3e ea 9a 3f be
       -0.19617173 -0.019006174 0.18360068 -0.18711439
0000b0 74 74 0c be c7 1b 97 bd 5e 29 65 bd f2 85 fc 3d
       -0.13716298 -0.07378345 -0.055947654 0.123302355
0000c0 55 73 6b bd d8 9d c6 3c 2c da f0 bc 52 98 51 bd
       -0.057483036 0.024245188 -0.029400907 -0.051170655
0000d0 f1 df 24 be d6 0a 46 3d 2f 5d e1 bd 88 ad 93 3d
       -0.16101052 0.048350178 -0.110041015 0.07210833
0000e0 a4 c9 a6 3d c9 b3 72 bd bb 2f 77 bd e0 76 67 3d
       0.08143929 -0.059253488 -0.060348254 0.056509852
0000f0 dc 23 3d be 32 6c 55 3c 5e 33 de 3c d7 53 9f 3d
       -0.1847071 0.013026284 0.027124103 0.07779663

fc_layers.6.weight f4 [32, 64]
000000 14 e1 5b 3e 6b 01 21 bc b5 76 85 be fb da 0c 3e
       0.21472579 -0.009826998 -0.2606713 0.1375541
000010 2e 2f d3 bc 22 c1 b8 bd 33 b3 69 3e fa 1f 79 3e
       -0.025779333 -0.09021212 0.22822265 0.24328604
000020 7c 79 bd bd 41 9d 3f be a6 e3 84 bd dd 61 7e 3e
       -0.09251687 -0.18712331 -0.06488733 0.2484202
000030 26 64 83 bd f4 84 3d be 82 e4 ac 3d 38 02 4e be
       -0.06415586 -0.18507749 0.08442022 -0.20118034
000040 b2 b8 82 3e 86 32 b9 3c 48 df c5 bd 0b f6 01 3e
       0.25531536 0.0226071 -0.09661728 0.12691514
000050 24 eb 88 3d 4e b1 5d be 1f 9a 07 bd 73 0e 34 bd
       0.066854745 -0.21649668 -0.033105966 -0.043959092
000060 01 03 78 be be ac a3 be 93 1f 18 be 7d b1 af bd
       -0.24219896 -0.3196773 -0.14855795 -0.08578775
000070 72 bf 89 bc 08 c8 95 3c 46 a2 92 be 13 f1 14 bc
       -0.016814921 0.018283859 -0.2863943 -0.00909068
000080 6e 8f ef 3c 73 ee 62 be 5c ab 62 3e f0 96 60 be
       0.029243197 -0.22161274 0.22135681 -0.21932578
000090 57 b3 52 be 27 45 f8 bd 15 3f af be 22 d2 a0 be
       -0.20576225 -0.12122565 -0.34227815 -0.3141032
0000a0 59 85 68 be 80 a1 72 3d 85 ab 85 be 85 fb 89 be
       -0.22707118 0.05923605 -0.26107422 -0.26949707
0000b0 36 38 ca 3d 16 ad 00 be 22 5e d5 bd ae e4 2a 3e
       0.09874003 -0.12566027 -0.10418345 0.16688797
0000c0 fa 47 f9 3d ff 70 0a bd 2d 56 3d bd ee 9e e5 3d
       0.121719316 -0.033799168 -0.04622476 0.11211954
0000d0 56 08 06 bd c4 72 7a be 56 60 f8 3d f4 cd ca bd
       -0.032722794 -0.24457842 0.121277496 -0.09902564
0000e0 f0 d2 39 be 77 24 3a bd 14 c1 9e 3d 6b 74 34 be
       -0.18146873 -0.04544493 0.077516705 -0.17622535
0000f0 fe ca 81 3d c1 20 bd 3d 0c 80 06 bc b8 8d dd bd
       0.06337546 0.09234763 -0.00820924 -0.10818046
000100 17 3d 3f be e1 e2 94 3d f7 53 74 be 75 5e 96 be
       -0.18675648 0.07269836 -0.23860155 -0.2936894
000110 50 45 21 be c8 d6 8c bc bd d8 81 3e 92 60 6b 3e
       -0.15749097 -0.01719226 0.2536067 0.22986057
000120 92 25 e5 bd a3 ee 1c be 32 06 46 3e 03 3d f2 3d
       -0.111888066 -0.15325408 0.19338301 0.11828043
000130 ea 0d 9b be 68 d4 78 be 04 c0 87 be f8 49 75 be
       -0.30284053 -0.24299777 -0.26513684 -0.23953998
000140 47 71 c3 bd 47 5d 1c be ef 84 3e 3c e5 aa 7d 3e
       -0.0954309 -0.15269957 0.0116283735 0.24772222
000150 a0 07 a7 3d d2 9f 5e be 86 2f 7a be c2 51 59 be
       0.08155751 -0.21740654 -0.24432191 -0.21222594
000160 a4 ff cd 3d 11 4a 47 be 58 85 60 bc a3 14 79 be
       0.10058525 -0.19461848 -0.013703667 -0.24324279
000170 93 43 9b be 25 85 de 3c d0 a8 d7 bd cb e4 9d be
       -0.30324993 0.027163098 -0.10530245 -0.30838618
000180 fa db 3c be 4e 76 83 3c 83 cb 2f bd 29 be 86 bb
       -0.1844329 0.016047623 -0.042918693 -0.0041120243
000190 79 e6 33 3e f5 9d dc 3b 36 26 80 be 9d 38 dc 3d
       0.17568387 0.006732697 -0.25029153 0.107529856
0001a0 a5 f2 df bd d0 c9 f7 3d 14 e2 2c be b1 3c 28 3e
       -0.10934953 0.120990396 -0.16883117 0.16429402
0001b0 b2 21 78 3e 8d fc cc 3d e7 10 3d be 3c 56 30 bd
       0.24231604 0.10009108 -0.18463479 -0.04305099
0001c0 8b 83 42 3e c8 7b 2b bd c4 f3 2d be 7e e4 90 be
       0.18995492 -0.041866094 -0.1698752 -0.28299326
0001d0 7e cc 74 bd 8c e8 50 3e db ec e1 bd 67 f2 0a bd
       -0.05976533 0.2040121 -0.11031505 -0.03392258
0001e0 c9 7b 43 be 5e 96 6c bb 0d e9 c0 3c fa 21 f0 bd
       -0.19090189 -0.0036100368 0.023548627 -0.117252305
0001f0 f6 29 6b 3e 34 5e 6c 3d d9 68 87 3d 9e 5e b2 bc
       0.22965226 0.057707027 0.06611795 -0.021773633
000200 5b d6 7e be 4d ba d8 be 41 ed 21 3d 6d e5 90 3c
       -0.24886458 -0.42329636 0.039532904 0.017687524
000210 42 12 28 be 41 32 1b be 77 b1 92 be 76 a3 93 3e
       -0.16413215 -0.15155889 -0.2865102 0.28835648
000220 03 39 ac 3e a7 08 21 3e 27 2e 28 3c d3 44 9e bd
       0.33637246 0.15725957 0.01026491 -0.07727971
000230 39 f1 35 be 09 25 3a 3d 35 9f a3 3c a2 9e a8 bc
       -0.177678 0.045445476 0.019973377 -0.020583455
000240 f4 87 8f be 56 34 25 3e 01 f7 0b 3e dc e9 64 3e
       -0.28033412 0.16133246 0.13668443 0.22354835
000250 34 41 56 be 29 1c 44 be 90 a2 99 bd 7d 2b 07 3e
       -0.2092331 -0.19151367 -0.075017095 0.13200183
000260 de d9 99 be 1b 8a a1 be 6e ed 59 3d 73 f5 01 3e
       -0.30049032 -0.3155068 0.053204946 0.12691288
000270 9f 59 c5 bd ce 27 49 be fa 22 fe 3d 51 93 65 3e
       -0.096362345 -0.1964409 0.12409015 0.22419478
000280 01 d3 88 be 78 6f cb be 96 e5 27 be 3e 5f 8d be
       -0.26723483 -0.3973348 -0.16396174 -0.27611727
000290 2e ea 25 be 11 a6 d6 bd 82 ef c0 3c bf 11 2f 3d
       -0.16202614 -0.104808934 0.023551706 0.042741533
0002a0 96 74 e9 3d c3 bf 83 be ac 71 b6 be a5 e6 63 bd
       0.1139919 -0.2573224 -0.356336 -0.05563988
0002b0 fb 34 7f 3e 21 21 b4 3d 76 11 57 3c cd 9c 6a be
       0.24922554 0.08795381 0.013126722 -0.22911377
0002c0 aa 18 57 be d4 89 c6 3d 0f 6f 9c bc f1 49 68 be
       -0.21005502 0.096942574 -0.019095926 -0.22684456
0002d0 c9 96 c2 3d 6a de 20 3d ae cd a7 be 50 3b 31 be
       0.09501416 0.03927461 -0.3277411 -0.17307782
0002e0 97 d1 35 3d 23 54 47 3e da b9 e1 bd 27 61 a1 be
       0.044389334 0.1946569 -0.110217765 -0.31519434
0002f0 30 3d 0f be 4c 01 35 be 80 08 6d be 29 d1 4b be
       -0.13988185 -0.17676276 -0.23147774 -0.19904007
000300 bb b6 35 3d 54 a4 8e be 70 e3 2d be 83 b3 cd bd
       0.04436372 -0.27859747 -0.16981292 -0.10044005
000310 56 2a 61 3e 0e ec 5c bd 32 db 77 3e 2a 1f 1e bd
       0.21988806 -0.053936057 0.2420471 -0.03860394
000320 0e 12 fa 3a d8 a8 93 bd 24 4f 5c 3e d6 05 3f be
       0.0019078867 -0.07209939 0.21514565 -0.1865457
000330 38 6d ff bd 34 40 e7 3d d2 fb 78 be 32 32 17 be
       -0.12472004 0.11291543 -0.24314812 -0.14765242
000340 67 4f db bd d0 dd cc 3d a3 11 98 be c8 e3 16 3e
       -0.10708504 0.10003245 -0.29700956 0.14735329
000350 06 b4 59 be 73 10 37 3d 01 05 ee 3d b5 32 22 bd
       -0.2126008 0.04469342 0.11622048 -0.03959914
000360 10 25 7e be a2 00 e9 bc 50 1b c4 3c 00 ff 83 3e
       -0.24818826 -0.028442685 0.023938805 0.25780487
000370 fd 4b 21 be 0b fd a5 bd 5b ac 44 bd 16 bf 1e 3d
       -0.15751643 -0.08104905 -0.048015933 0.038756453
000380 be 87 a6 3b 18 34 08 be ea 3a bf bb 28 2d 9c bd
       0.0050820997 -0.13301122 -0.0058358805 -0.076258
000390 72 f0 fe 3b 16 a0 f7 bd 7a 1c 92 bd 8a 06 56 bc
       0.007780128 -0.12091081 -0.07134338 -0.0130630825
0003a0 a9 99 87 be 55 a7 69 bd 5e 6f 9c be c1 21 90 3d
       -0.2648442 -0.057044346 -0.30553716 0.07037688
0003b0 a9 2a 54 3d b5 69 32 3e cd 66 d7 3d 64 d2 5c be
       0.051798496 0.17423137 0.105176546 -0.21564633
0003c0 2d 21 e4 bd 91 72 4e be a9 1c 96 be e7 9e 7a be
       -0.1113914 -0.20160891 -0.2931874 -0.24474679
0003d0 f4 41 b5 3b bb 8e bb bd 29 0b 85 be 8b ba 37 3e
       0.005531544 -0.09158083 -0.25985077 0.17942254
0003e0 63 bb 8c 3e 23 00 92 3e 97 25 1b 3e 80 31 6a be
       0.27486715 0.2851573 0.15151058 -0.22870445
0003f0 31 9f 62 3e 89 45 1b be db 24 a8 bd 09 81 4b be
       0.22131039 -0.15163244 -0.082101546 -0.19873442

fc_layers.6.bias f4 [32]
000000 9d 3a 5f be 64 82 80 be b6 aa 8d bd d6 58 fa bc
       -0.21799703 -0.2509948 -0.06917326 -0.030559938
000010 d4 21 c2 3e 09 3e a8 be 98 f1 8c be 20 4e 20 be
       0.37916434 -0.3285983 -0.2752807 -0.15654802
000020 12 bf 5c be 71 df 78 bd 46 50 93 3c 8e 6f 81 be
       -0.21557263 -0.060759965 0.017982613 -0.25280422
000030 d8 c2 63 3d 81 9b 88 3d 24 84 55 be ab 4e 01 3e
       0.05560574 0.06670285 -0.20851189 0.12627666
000040 06 ca 23 3e 1a ab 77 bc 37 1e 13 be 87 fb f7 3b
       0.15995035 -0.015116477 -0.14366995 0.007567826
000050 b4 fe d4 3e ad 89 8f be 3c e8 fe bb f2 e7 32 3e
       0.41600573 -0.28034726 -0.0077791493 0.17471293
000060 42 c7 0c 3c 13 57 08 bf 42 a2 82 bd 0d 61 1c 3c
       0.008592429 -0.53257865 -0.063786045 0.009544623
000070 dc 54 2b be 89 de af 3e 03 0b f4 3e 4f 82 7d 3e
       -0.1673159 0.34349468 0.4766465 0.2475674

fc_layers.8.weight f4 [4, 32]
000000 ac 9e 2a be 08 fd 22 be 73 cf 96 be bf 01 92 3e
       -0.16662091 -0.15916836 -0.29455146 0.28516957
000010 fa 2f b9 bd a4 90 9c bd dc bc c5 be 71 da 13 3d
       -0.09042354 -0.076447755 -0.3862065 0.036096994
000020 7b 7a 26 be 75 cb af bd 2d 55 8b 3e 6b 21 05 be
       -0.1625766 -0.08583728 0.2721342 -0.13001029
000030 dd 6f f1 bd bb 48 68 bd 39 3c f2 bd de 8b ac bd
       -0.11788914 -0.056709986 -0.11827893 -0.08425115
000040 08 af c4 3d 91 36 8d bd 80 6e 0a 3e 20 11 8a 3e
       0.09603697 -0.06895173 0.13518715 0.2696619
000050 d0 47 61 3e b5 d2 2b 3e 9d ea ac bd 2c 28 97 3d
       0.2200005 0.16779597 -0.084431864 0.07380709
000060 42 4a f2 bd 53 1c 72 bd fd c1 ae 3c 91 14 89 3e
       -0.1183057 -0.059109043 0.021332735 0.26773503
000070 4a 1b a9 bc 0d f6 13 bc d9 29 86 3e 12 2f e5 be
       -0.020642895 -0.009030831 0.26203802 -0.44762474
000080 d8 02 83 be 10 f3 5b be 5f 99 5a be 38 c3 40 be
       -0.25588107 -0.2147944 -0.21347569 -0.1882447
000090 ac 13 31 bf 58 86 9d be 46 cb 7d be cc 3a a0 3c
       -0.6917064 -0.3076656 -0.24784574 0.019559287
0000a0 80 8f 4e 3d 5b e1 e5 3d 56 d6 91 3e f1 7d e0 3d
       0.05042982 0.11224624 0.28483838 0.109615214
0000b0 98 93 c9 bd a0 70 38 3e 23 c7 83 be 6c d0 11 be
       -0.098426044 0.18011713 -0.25737867 -0.14239663
0000c0 b2 32 28 3e e4 8b 04 3e 90 56 b9 3d 7c 20 e9 3d
       0.16425589 0.12943989 0.090497136 0.11383149
0000d0 46 e5 85 3e 19 9f 22 bd bd da 5a 3e 44 5c 19 3e
       0.26151484 -0.03970251 0.21372505 0.14976603
0000e0 57 1c bb 3d 91 8b 93 be 80 26 d5 bd d7 4f 03 3e
       0.09136265 -0.28817418 -0.10407734 0.12823425
0000f0 9d fa 91 bd a2 a6 34 3e 9e 8d 5f 3e 6b af e8 bd
       -0.07127879 0.1764169 0.21831366 -0.11361583
000100 8a 79 3b bc df 72 a0 bd 48 19 0a bd 9a 1b 2b 3d
       -0.011442551 -0.0783441 -0.033715516 0.04177437
000110 45 77 a0 be ee f2 98 3e 48 45 97 be b7 c3 60 be
       -0.31340995 0.2987284 -0.29545045 -0.2194966
000120 ef c8 90 3c 6b c3 84 3d 82 94 98 bd ce 32 cf bd
       0.017673938 0.064825855 -0.074502006 -0.10117112
000130 fc ab 01 3e 5c df 2e bd 8e c5 80 be f7 c1 e9 ba
       0.12663263 -0.04269348 -0.25150722 -0.0017834295
000140 cd d7 51 bd b5 14 50 3d 6f a9 a2 3d 4d 5e e0 3d
       -0.051231194 0.050800998 0.07942473 0.109554864
000150 bb a6 71 3e ef 39 8f 3e 08 dd 05 3e e0 05 4a be
       0.23598759 0.27973887 0.13072598 -0.19728804
000160 f6 19 45 3e 84 ff 3d be 35 f3 53 3e 1b e7 df 3d
       0.19248185 -0.18554503 0.20698245 0.10932752
000170 8f cf 2d be e1 11 07 3e 77 8d c6 3e 60 6c 30 bf
       -0.16973709 0.13190414 0.38779804 -0.6891537
000180 0b ee 4d 3d e3 7d c8 3c db 06 44 be 5f 9b 4d be
       0.050275844 0.02447409 -0.1914324 -0.200788
000190 1c 2a e8 be e8 44 76 be ee 1f b9 3c 66 e4 f4 3d
       -0.45344627 -0.24049723 0.022598233 0.11957626
0001a0 3c 49 a0 3e 4c f0 1f be 4e 63 49 3e cf ca 7b 3e
       0.31305873 -0.1561901 0.19666788 0.24589084
0001b0 ba c6 b7 3d 68 c1 c9 3d 7a ba a9 3e 4c df 62 be
       0.08973451 0.098513424 0.33150083 -0.22155493
0001c0 8c 3c 04 3d c8 a8 64 3d 4c 8b 49 3e 0d d9 eb 3c
       0.032284304 0.055825025 0.19682044 0.028790021
0001d0 62 61 c8 3d 6c b3 91 3d f9 58 c2 bd 0b 70 3e 3e
       0.09784199 0.071143 -0.094896264 0.18597429
0001e0 c8 39 86 3d 84 10 78 be 05 40 0d bd 76 aa ab 3d
       0.0655399 -0.2422505 -0.034484882 0.08382122
0001f0 c3 58 2d 3e 10 2c 8a 3e fe cc 0c 3d 0c 9c 4c be
       0.16928391 0.26986742 0.034375183 -0.19981402

fc_layers.8.bias f4 [4]
000000 07 a6 f5 3d fb 1d 44 3e 6a 9d 4b 3e f5 06 8a 3e
       0.11994558 0.19152062 0.19884267 0.26958433
