output/dqn/model/4x4/4500.pth (torch, 53468 bytes, 8 tensors)

fc_layers.0.weight f4 [128, 16]
000000 56 34 0a 3e ce 46 63 3e 00 8c a5 3c ef cf 6a 3e
       0.13496527 0.22194979 0.020208359 0.22930883
000010 8a e9 dd 3e 80 79 f0 bd a7 86 f7 3e a6 09 f1 3e
       0.4334224 -0.11741924 0.4834492 0.47077674
000020 0e 51 41 3e 03 e1 f3 3e e7 b8 e7 be 80 d7 e8 be
       0.18878576 0.47632608 -0.45258257 -0.45476913
000030 51 36 10 3f 38 74 0b 3f b8 47 bf 3d 58 41 9a 3e
       0.5633288 0.5447421 0.09339851 0.30127978
000040 b8 10 75 be 37 6f e3 bc c9 2f fc 3d ea 98 fb be
       -0.23932159 -0.027762992 0.12313802 -0.49140102
000050 67 cf 3a 3e 36 57 f8 3e 20 db c8 be 2a 5f 0b bf
       0.1824318 0.48504037 -0.3922968 -0.54442084
000060 05 aa 25 3e 40 2f 09 be 46 97 a7 be 20 96 1d bd
       0.16178139 -0.1339693 -0.327326 -0.03847325
000070 ab e9 16 3f 6a 41 eb 3e f1 98 73 bd 6e 88 07 be
       0.589503 0.45948344 -0.05947203 -0.13235638
000080 db e1 07 be 52 b1 e1 be 4c b0 a5 bd 40 c5 1c 3e
       -0.13269751 -0.44080597 -0.080902666 0.1530962
000090 85 08 b7 be 9e ad ce 3e 16 1e c4 3e fa e5 28 be
       -0.35748687 0.40366834 0.38304204 -0.16493979
0000a0 23 ab 5c bd 32 7f a6 3e 50 22 c4 3e c0 53 d1 bd
       -0.053874146 0.32518917 0.38307428 -0.10221052
0000b0 fe d6 af 3e 31 32 12 bf aa 50 98 3e 00 81 a0 3d
       0.34343714 -0.57107836 0.29749042 0.07837105
0000c0 fd 5a e4 be db 49 2d 3e 09 9e 08 bf 14 45 14 be
       -0.4460067 0.16922705 -0.5336614 -0.14479476
0000d0 92 73 5d be 4a 95 9f 3e de 88 0d bf d8 0b a2 be
       -0.21626118 0.31168586 -0.5528697 -0.3164966
0000e0 05 03 db 3e d3 4f 32 3e c0 e6 64 3e 48 8e 98 3e
       0.4277574 0.17413263 0.22353649 0.29796052
0000f0 28 bf 91 be d6 1a b5 3e 00 f2 72 3e 18 50 e3 bd
       -0.28466153 0.35372037 0.23725128 -0.11099261
000100 07 01 9c 3c 26 78 b9 3e 01 c0 5b 3e 61 83 07 bf
       0.019043459 0.36224478 0.21459962 -0.52934843
000110 5c 1d 1a bf 96 9c f7 3e a4 3b e3 be e0 62 6a be
       -0.6020105 0.48361653 -0.4438144 -0.2288928
000120 d9 7f aa 3e c2 1b 17 be 9c cd aa 3e bc 67 3c be
       0.33300665 -0.14756683 0.33359993 -0.18398947
000130 58 61 a6 bd 47 a9 9c be 2b d0 ab 3e a5 9d 05 3f
       -0.081240356 -0.30597898 0.33557257 0.5219367
000140 da 83 df be a0 a9 55 be cc 84 22 be 9f 04 89 3e
       -0.43655282 -0.20865488 -0.1587097 0.26761338
000150 dc 16 05 bf 9a 67 a5 3e 58 a2 cf 3d a0 be 8f bc
       -0.51988006 0.32305604 0.101383865 -0.017546952
000160 2e 88 b2 3e 72 0b 70 3e 4e 68 6d be b2 82 1f be
       0.34869522 0.23441866 -0.2318432 -0.155772
000170 60 b4 5a 3d bd 66 71 3e 98 56 8b 3d ac a1 0b bf
       0.053394675 0.23574348 0.06803626 -0.54543567
000180 5f 02 3b be 63 ce 52 be 59 6a 88 be 88 a2 0c bf
       -0.18262623 -0.20586543 -0.26643637 -0.54935503
000190 4e 3b 2a bd b0 fd 7f 3e 35 cf 0f bf ae 1d 14 be
       -0.041560464 0.24999118 -0.5617555 -0.14464447
0001a0 92 1a 59 be 52 e5 86 be f7 06 8a 3e 0a 11 db 3e
       -0.21201542 -0.26346833 0.2695844 0.42786437
0001b0 68 20 ab bd 62 39 39 bd 3a b5 79 3e 98 94 5d 3e
       -0.083557904 -0.04522074 0.24385539 0.21638715
0001c0 c0 d2 ab bc aa d8 a4 be 1f 32 f8 be 72 86 f7 be
       -0.020974517 -0.32196552 -0.4847574 -0.4834476
0001d0 00 4c 33 3b f0 7f 69 be 8a cb 06 3f 70 de 49 bd
       0.0027358532 -0.2280271 0.52654326 -0.0492844
0001e0 1e 7a 4f 3e 4c d9 db be 17 8c 23 3e 44 40 be 3e
       0.20261428 -0.42939222 0.15971409 0.37158406
0001f0 c4 22 6c be 99 fa 05 3f e0 1e cc 3d f8 cd 19 bf
       -0.23060137 0.52335507 0.099668264 -0.6007991
000200 d0 40 90 3d 27 54 0f 3f 98 d0 c2 bd a8 5f cc be
       0.07043612 0.5598778 -0.09512442 -0.3991673
000210 f6 ae 0c be 7b 89 fb be 12 8e 33 be 78 15 dc be
       -0.13738617 -0.49128327 -0.17534664 -0.4298513
000220 18 6e 07 bf 55 98 ce 3e ce d2 4d be 5c f2 68 3e
       -0.52902365 0.40350595 -0.20099947 0.22748703
000230 38 e5 f9 be bf ce b4 be fe ae e6 3e 28 01 f6 bd
       -0.48807693 -0.35313985 0.45055383 -0.12011939
000240 50 87 58 3d cc 88 16 bf 8e d1 14 bf 5f 09 00 bf
       0.05286342 -0.58802485 -0.58132255 -0.500143
000250 7a 6e 04 be 66 4c da 3e c8 e2 dd be 58 9d f5 be
       -0.12932768 0.42636412 -0.43337083 -0.47971606
000260 6c a2 33 bd 21 a5 44 3e 69 77 82 3e 98 2b 1c be
       -0.04385607 0.19203617 0.25481728 -0.15251005
000270 40 d4 fc bd 4f c3 9f 3e 64 ba 9d bd df d8 0a bf
       -0.12345171 0.31203696 -0.07701567 -0.5423717
000280 9c 39 c1 bc 40 fe a8 bd da 36 10 bf 86 16 27 be
       -0.02358704 -0.08251619 -0.56333697 -0.16317186
000290 64 51 fc be 76 c7 96 3e 72 e9 0e 3d 2e bd c8 3e
       -0.49280846 0.29449052 0.0348906 0.39206833
0002a0 a7 01 23 3d 59 be a1 3e 75 33 af 3e f0 74 90 3d
       0.039796498 0.31590536 0.34218946 0.07053554
0002b0 a6 72 99 3e c5 92 06 bf ce 16 a4 3e 4a bb 86 3e
       0.29970282 -0.525677 0.3204865 0.26314765
0002c0 f9 4c 29 3e dc 49 61 3d 60 e4 53 be 93 57 a3 be
       0.16533269 0.05500208 -0.20692587 -0.3190275
0002d0 1d f4 8f 3e 5a 92 81 be a9 b7 f1 3e 98 a9 20 3e
       0.2811593 -0.2530697 0.47210434 0.15689695
0002e0 7f 63 eb 3d 8a c5 d4 3e 38 8b fc bd 04 cd 18 be
       0.11493587 0.4155696 -0.12331241 -0.14921957
0002f0 f6 18 f4 3e 70 d7 e3 ba 2a 25 2f be 40 95 ba bc
       0.47675294 -0.0017382931 -0.1710402 -0.022776246
000300 08 89 10 bf 2f 1c 5f 3e 13 6b 52 3e 7e f9 0c bf
       -0.56459093 0.21788095 0.20548658 -0.55068195
000310 03 33 e8 3e 30 f5 4d 3d e8 62 22 be 2d b9 af be
       0.4535142 0.050282657 -0.15858042 -0.34320965
000320 bc b0 1b bf 7b cd 68 3e ce 5e 04 3f 10 08 1c be
       -0.6081655 0.22734635 0.5170716 -0.1523745
000330 a8 a1 c6 be 96 4e da be 70 a7 d9 3e 60 9e ed bc
       -0.3879521 -0.4263808 0.42510557 -0.029006183
000340 b6 20 a4 3e a1 5e c6 3e d0 a9 c7 be eb 5a 2f 3e
       0.32056206 0.3874407 -0.38996744 0.17124526
000350 06 1e f8 3e ca 24 ce 3e c7 bf c6 3e e6 4a a8 3e
       0.48460406 0.40262443 0.3881819 0.32869643
000360 54 d6 9c 3e b2 0d 04 3e 5a 82 9d be 20 c5 13 bd
       0.3063227 0.1289585 -0.30763513 -0.036076665
000370 df 0a 10 3f 91 88 2f 3e 94 67 13 be 30 a8 d4 bd
       0.5626659 0.1714194 -0.1439498 -0.10383642
000380 72 b0 06 bf 6a a2 0b 3f fc f8 bc be c0 a8 3a 3c
       -0.52612984 0.545447 -0.3690871 0.011392772
000390 ed 48 8a be 2e 49 d7 3e 16 84 a1 be a1 38 0b 3f
       -0.27008763 0.4204802 -0.31546086 0.54383284
0003a0 ce 4e 07 3f 46 f8 91 3e d2 a4 12 bf 82 13 9e 3e
       0.5285462 0.2850973 -0.57282746 0.30874258
0003b0 e0 01 5b be ae 06 4a be 31 d0 9b be 92 e3 cc 3e
       -0.21387434 -0.1972911 -0.30432275 0.40017372
0003c0 d0 ed ad bb 0d 7a 1d 3e b6 82 4f 3e 4c ad bc be
       -0.0053078905 0.1537859 0.20264706 -0.36850965
0003d0 7f fe b2 3d 68 66 4d 3e 74 19 ac 3e 00 dc 74 3e
       0.087399475 0.20058596 0.3361317 0.23912048
0003e0 f6 e0 16 bf 90 08 dd 3d cf 0b 0e 3e a2 2c bd 3e
       -0.58937013 0.10792649 0.13871692 0.36948115
0003f0 2c 95 3b 3e 23 7c 04 3f 7d e5 e4 bd 30 38 11 bd
       0.18318623 0.5175192 -0.11176584 -0.035453975

fc_layers.0.bias f4 [128]
000000 36 ba 7a be b2 f1 f3 bd 45 23 db bd d5 e8 f2 bb
       -0.24485096 -0.11911334 -0.107000865 -0.0074130096
000010 41 fd 00 be e5 de b3 be 3e 2e c2 3d b2 04 80 be
       -0.12596609 -0.35130993 0.09481476 -0.25003582
000020 43 03 e6 bd a2 e9 9f bc df 3c ee bd 62 19 a0 bd
       -0.11231091 -0.019520584 -0.11632704 -0.078173414
000030 1b d3 72 be f2 cb 33 be 1a ea a8 bd 7a 3c bc ba
       -0.23713343 -0.17558268 -0.08247776 -0.0014361285
000040 76 fa 3d bc f4 8f 02 be d9 f1 8f bd 86 9a 4c be
       -0.011595359 -0.12750226 -0.07028551 -0.19980821
000050 3d 71 5a be 8b 36 30 be f1 f7 54 bd d3 ec 0e be
       -0.2133226 -0.17208306 -0.051994268 -0.13957529
000060 e6 2a 23 be 35 79 0f 3e 14 96 8d be a9 e4 a0 3d
       -0.15934333 0.1401108 -0.27653563 0.078561135
000070 63 bd 14 be f4 7c 0d 3e 2f 67 92 be b9 da 8c bd
       -0.1452537 0.13817197 -0.28594348 -0.068776555
000080 28 3d 9c be f0 4f 38 3c e2 87 62 be d1 8a 55 bd
       -0.3051541 0.011249527 -0.22122148 -0.05213434
000090 e8 95 85 be 50 1c 80 bc 47 55 92 bd c9 e6 98 be
       -0.26090932 -0.0156385 -0.071451716 -0.29863575
0000a0 b2 07 6c 3d 8e 19 81 be 05 e7 93 be a1 d1 6f bd
       0.057624526 -0.2521481 -0.2888719 -0.058549527
0000b0 e4 e4 c9 bd a4 c4 e4 bd b6 d3 18 be b7 08 92 be
       -0.098581105 -0.11170319 -0.14924511 -0.28522274
0000c0 b4 f8 08 3d 4a 8f b6 bd c4 47 53 be ca 40 25 be
       0.033440307 -0.08914049 -0.20632845 -0.16137996
0000d0 d5 5d 82 be 75 03 22 be b2 e7 b2 3c 66 08 80 bd
       -0.25462213 -0.15821631 0.021838997 -0.06251602
0000e0 f7 46 2b be 95 cc 99 be 01 6a bc bd 2c a6 3d be
       -0.1672629 -0.30038896 -0.09199906 -0.18520421
0000f0 af 3f 30 bd e7 e5 60 be 3d a3 49 be 30 6a 49 be
       -0.043029483 -0.21962701 -0.19691177 -0.19669414
000100 cd 07 2e 3c c8 a8 82 be dd 00 a9 bd 1d 45 83 be
       0.010621977 -0.25519395 -0.08252118 -0.25638667
000110 73 48 4c 3e 5e e2 8c bd f8 08 90 bd c5 df a2 be
       0.19949512 -0.068791136 -0.07032961 -0.31811348
000120 0f 41 24 be bd a3 99 bd ef a6 2e bc a6 9c 1c 3d
       -0.16040443 -0.07501934 -0.010659917 0.03823533
000130 c2 de 4b be 2d 7a 9b 3c e8 8a 1f be 91 b8 7f be
       -0.19909194 0.018979156 -0.15580332 -0.2497275
000140 98 b8 34 be f5 9e ad be fa 06 88 be 4c 4d 59 be
       -0.17648542 -0.33910337 -0.26567823 -0.21220893
000150 0c c2 f4 bd 8b da 03 be c5 8f 2f be ba c5 3d bc
       -0.11951074 -0.12876336 -0.17144687 -0.011582786
000160 04 a5 73 be e0 4b 34 be cc c8 5b 3c d5 fb ab be
       -0.23793417 -0.17607069 0.013414573 -0.3359057
000170 6f 21 69 bd 8e d8 b0 bb 67 6b d8 bc 3d 09 9c be
       -0.05691665 -0.005396909 -0.0264184 -0.30475798
000180 00 eb 49 bd c4 81 30 3c 69 48 3f be 14 df 93 bc
       -0.04929638 0.010773126 -0.18679966 -0.018050708
000190 50 a9 08 be bf 71 f4 3b b3 ff d5 bd 4d d3 99 be
       -0.13345838 0.0074598487 -0.104491614 -0.30044022
0001a0 7b 16 7b be 74 02 18 be b1 37 4d bd fb 7c ef bb
       -0.24520294 -0.14844686 -0.05010194 -0.0073086
0001b0 a9 50 3c bd c0 95 0c 3e 88 68 9c 3d 8b 7b 65 be
       -0.04597536 0.13729 0.07637125 -0.22410409
0001c0 0e f3 6d be 90 71 4d be b8 6b 60 be c4 f1 a2 be
       -0.2323725 -0.20062852 -0.21916091 -0.31825078
0001d0 d0 8f 40 ba 6c 59 21 bd 7f d9 16 be 22 a6 c8 3c
       -0.00073456485 -0.03939192 -0.14731406 0.02449328
0001e0 f2 90 a1 be 9d 53 b0 be ed db 33 be 8d 17 52 be
       -0.31555897 -0.34438792 -0.17564364 -0.20516796
0001f0 82 f6 84 be a2 19 0f be 6b 5c 99 bd 96 0e 3b be
       -0.2596932 -0.13974622 -0.074883305 -0.18267283

fc_layers.3.weight f4 [64, 128]
000000 01 d9 e7 3d e7 54 33 be 85 fd 02 be ab e6 44 be
       0.11320687 -0.17512856 -0.12792023 -0.19228618
000010 92 9f d5 bd 27 0e 88 3d 09 ab 75 3c f7 c9 24 bc
       -0.10430826 0.06643324 0.014994391 -0.010057918
000020 c4 a2 3a 3d 98 58 c3 ba 42 4c 84 bd 15 cb ab bd
       0.04556538 -0.0014903722 -0.064598575 -0.08388344
000030 22 3d 89 be 7f ae 75 39 aa 47 a3 bd d7 da 28 be
       -0.26804453 0.00023430026 -0.07972653 -0.16489731
000040 41 a2 7d 3d c8 74 75 bd 5b 6b 9b 3d 28 e5 43 3c
       0.061922316 -0.059925824 0.07588836 0.011956491
000050 84 5f 65 be 91 a6 bc 3c 5a 4a c9 3b bc 2b f0 bd
       -0.22399718 0.023028644 0.0061428966 -0.11727092
000060 12 60 85 bd 0e 54 2a be 60 f5 d5 bd c5 e1 db bd
       -0.065124646 -0.16633627 -0.10447192 -0.107364215
000070 bf fc 18 be 44 36 bd bd d0 e0 d8 3d 4b 83 32 bd
       -0.14940165 -0.09238866 0.105897546 -0.043582242
000080 c9 b6 cb 3d d8 fd 30 bd 03 cc f5 bd 52 57 b0 3d
       0.09946973 -0.043210834 -0.12001803 0.08610405
000090 6d cf d9 bd a8 f0 4f be ac 10 8d 3d 63 05 6e be
       -0.106352665 -0.20306647 0.068879455 -0.23244242
0000a0 2b c3 94 bd 99 47 59 be da 16 5d be bf e8 93 bd
       -0.07263788 -0.21218719 -0.21590748 -0.07222127
0000b0 66 cb 02 be 98 80 89 3c 88 bb 01 3d 0c 93 a5 bd
       -0.12772903 0.016784951 0.031672984 -0.080846876
0000c0 80 a3 0a bd 44 9b 2c be b9 0f 03 3e e1 8c 8b bd
       -0.033847332 -0.16856104 0.12798966 -0.0681398
0000d0 46 42 b0 3d 47 4c 4e be 90 70 4f be 01 74 bb 3d
       0.08606391 -0.20146285 -0.20257783 0.09152985
0000e0 8c 3e 66 be 28 8a 2d be 94 65 3d be 2d fc 22 3e
       -0.22484797 -0.16947234 -0.1849578 0.1591651
0000f0 a7 a8 c4 3d cc f6 20 be 96 78 00 be 55 cb 56 3d
       0.096024804 -0.15719146 -0.12546 0.052440006
000100 d3 60 4a be 85 67 18 3d 25 cc 78 bd c0 20 bd bd
       -0.19763498 0.0372081 -0.060741562 -0.09234762
000110 88 45 4b be 3d f0 e1 bd 8a a8 6b 3d b6 83 4f 3e
       -0.19850743 -0.1103215 0.05753378 0.20265087
000120 c0 12 ad bd 27 a1 06 bd 8f 2b 3a be ff bb 61 be
       -0.08450842 -0.03286853 -0.18180679 -0.22044371
000130 a4 bc 94 bc 4a 69 fb 3d 68 2d 94 bd f8 44 bd 3d
       -0.018156357 0.12275942 -0.07235223 0.0924167
000140 03 b2 53 be b0 bc 31 3d 61 dd 15 3e 24 ce 20 be
       -0.20673375 0.043392837 0.1463523 -0.15703636
000150 3a 3b 07 3e 18 d0 24 be a9 06 a6 bd b6 45 5c 3d
       0.13206187 -0.16095006 -0.08106739 0.05377742
000160 e4 b6 85 bd d7 34 47 be 48 1b a3 3d b0 64 7d bd
       -0.06529024 -0.1945375 0.07964188 -0.0618636
000170 b8 5d 51 bd a2 54 c6 bd c3 2a e1 ba 03 78 c7 bd
       -0.051114768 -0.09684111 -0.0017178882 -0.09739687
000180 5b 95 81 3c 13 78 14 be 98 36 59 be 1d f5 a6 3d
       0.015818289 -0.1449893 -0.21212232 0.081522204
000190 4e ec 1a 3e db 19 6d 3d d4 60 8f bd 2b f2 2b 3e
       0.15129206 0.057885986 -0.070008904 0.16791598
0001a0 b2 5e 81 be ac f3 41 be a3 c9 38 bc f5 e1 5e 3d
       -0.2526756 -0.1894061 -0.011278543 0.05441471
0001b0 ef 6c b9 bd 4d e2 e6 bd dc 94 63 bb 3a 60 cd 3d
       -0.090539806 -0.11273632 -0.0034726178 0.100281194
0001c0 00 a2 3f be 13 5e 30 bd f2 a6 da bc 99 23 72 be
       -0.18714142 -0.043058466 -0.026690934 -0.23646392
0001d0 d9 af 30 be 80 fc 22 bd 3b 9f 2f be 1a 53 6b be
       -0.1725458 -0.039791584 -0.17150585 -0.2298092
0001e0 3f 02 14 3e f1 91 ee 3d 2c e3 96 bd 9f 52 d2 bd
       0.14453982 0.1164893 -0.07367548 -0.10269665
0001f0 a6 67 5c be ef fd 54 be 32 6f f5 bd 14 5f 37 be
       -0.21523914 -0.20799993 -0.119840994 -0.17907363
000200 ad ef 64 bd c9 13 30 3e 81 6a ea 3b 64 40 8c 3d
       -0.055892635 0.17195047 0.0071538095 0.06848219
000210 18 44 90 3e 65 93 41 bd 82 f3 25 bc a8 28 ad 3d
       0.2817695 -0.047259707 -0.010128858 0.0845502
000220 ad 1b 80 be 26 4b 1d bd 1c 69 29 be 9b df bc bd
       -0.25021115 -0.038401745 -0.16544002 -0.09222337
000230 ba 41 da bd e4 c2 aa 3d e8 43 12 3d 4d a5 d1 bd
       -0.106570676 0.08337954 0.03570929 -0.10236607
000240 b6 78 67 bc a7 4d 38 3d 89 2c 23 be e0 db f1 bc
       -0.014127901 0.04499593 -0.15934958 -0.02952379
000250 19 54 be be 20 6d cc 3d 23 23 76 bd c5 3a 45 3c
       -0.37173536 0.099817514 -0.060092103 0.0120379375
000260 30 69 22 be bd 8c 96 3d 0a 41 e1 3d 57 8f 4b be
       -0.15860438 0.073510624 0.10998733 -0.19878899
000270 c8 14 9e 3c 93 66 13 3e a6 d5 1a be 1c 10 5d be
       0.019297019 0.14394598 -0.15120563 -0.21588176
000280 ad fd 31 3d 0e 1b 38 bc 00 3f e7 bd ed 7a 33 be
       0.043454815 -0.011236919 -0.11291313 -0.17527361
000290 17 7a 91 be 2b 78 0c be 94 45 a3 be 8f 18 19 be
       -0.2841346 -0.13717715 -0.3188902 -0.14950775
0002a0 7d 77 a4 3c e4 7d 8e be 12 e3 0b be ef 0c d3 3c
       0.020076508 -0.27830422 -0.13660839 0.025763003
0002b0 51 f9 43 be bb 37 81 be 27 25 98 bd 6a 90 50 be
       -0.19138075 -0.2523783 -0.07428961 -0.2036759
0002c0 ee b8 a1 bd 37 1b 9f 3d 73 85 a4 3d f1 3a 88 be
       -0.07896601 0.07768863 0.08033266 -0.2660747
0002d0 66 9a bd 3d 0d ab 13 3e d2 c1 c7 bd b8 16 3a bd
       0.09257965 0.1442072 -0.09753765 -0.045431823
0002e0 30 aa 22 3e 8f d5 64 be a9 36 5a be 21 81 55 3e
       0.15885234 -0.22347091 -0.21309914 0.2085004
0002f0 d6 83 24 3e 2f 28 8f be 28 3f 04 be ca f6 9a 3c
       0.16065916 -0.27960345 -0.12914717 0.018916506
000300 67 38 d4 bd 88 6a 13 bc ea 55 f8 bd d0 d7 c2 bd
       -0.103623204 -0.008997567 -0.12125762 -0.09513819
000310 7c 40 3d be 29 2a c7 bd 31 2b 40 be 27 0b 22 3e
       -0.1848163 -0.09724838 -0.18766476 0.15824567
000320 4d 0e e7 bc d5 73 7f bd b5 0f 26 3d 2e 94 df bd
       -0.028205061 -0.062366325 0.040542323 -0.10916935
000330 76 25 a7 be 39 a6 4d be ae e6 b9 bd cf f8 75 bd
       -0.32645768 -0.2008294 -0.09077202 -0.060051735
000340 67 38 03 ba ce 21 a3 3d 50 71 2b be 11 62 62 be
       -0.0005005658 0.07965432 -0.16742444 -0.22107722
000350 f0 53 8b be e9 48 30 bc f9 04 ab bd 24 5a 09 be
       -0.27212477 -0.010759571 -0.08350558 -0.13413292
000360 47 c4 8b bd 21 a1 a2 bd d1 3c da 3d 70 c6 d7 bd
       -0.06824546 -0.07940889 0.10656131 -0.10535896
000370 67 2c a9 bd 8b cc 29 3e d7 79 32 be ab 14 17 3d
       -0.08260422 0.16581933 -0.1742929 0.036884945
000380 a5 18 e6 3d bf a6 3d be a4 64 d6 3d 77 08 66 3d
       0.11235169 -0.1852064 0.104684144 0.056160416
000390 e9 70 20 3c 6d 47 e6 bc e1 ca c4 3c 16 79 a5 3d
       0.009792545 -0.02811023 0.024022521 0.08079736
0003a0 34 3a 42 be 01 bb 43 3d d7 f4 fc bc 46 48 07 be
       -0.18967515 0.047785763 -0.030878467 -0.13211164
0003b0 bd 0a 16 be f7 aa 1f be 9e ca 49 3e ff 85 2e be
       -0.14652534 -0.15592562 0.19706199 -0.17043303
0003c0 5a 9c 31 be 37 ad 6b 3d 23 08 fe bd 75 d8 d0 bd
       -0.173448 0.057538237 -0.12403896 -0.10197536
0003d0 63 db 3b 3d 67 d3 b6 bd 31 20 12 3e 67 a2 5f bd
       0.04586352 -0.089270405 0.14270093 -0.05459824
0003e0 fb 9e 39 3e f8 7c 9c 3d b4 17 64 be 53 6f 2f be
       0.18127052 0.076410234 -0.22274667 -0.1713231
0003f0 64 b1 c2 3d 5a 6a 18 3e 9e 00 0c be da 07 72 be
       0.09506491 0.1488432 -0.1367211 -0.23635808

fc_layers.3.bias f4 [64]
000000 b1 fc 86 bd b3 47 c1 bd f9 cd 80 3d e3 81 ce bd
       -0.06591166 -0.09437504 0.06289286 -0.10083368
000010 35 01 02 be 45 78 c5 3d 53 3e 7e bd 33 e7 e9 bd
       -0.12695773 0.0964208 -0.062071156 -0.11421051
000020 cd 28 9d bc 74 fa 5d 3e 12 28 aa bc 2f 0d 77 3d
       -0.019184494 0.21677572 -0.02077106 0.060315307
000030 5c 08 27 3d f2 e6 76 bd ee 99 07 be 14 65 d5 3d
       0.040779456 -0.06027884 -0.13242313 0.1041967
000040 9f 06 33 3e 30 c1 34 be 01 0f 78 3d 82 dd 51 bc
       0.17482994 -0.1765182 0.060561184 -0.012809159
000050 85 07 fa 3a 39 c9 0d 3e 7b 8f 8d bd 13 08 9e bd
       0.0019075727 0.13846292 -0.06912132 -0.07716384
000060 0b 3a 46 be 1e 80 82 bc 27 f2 c9 3d 38 bc 13 3d
       -0.19358079 -0.015930232 0.0986064 0.03606817
000070 e3 8b 84 bd 5e 46 a3 3c e2 eb ff bd eb c7 9a 3d
       -0.06471994 0.019931015 -0.12496163 0.075576626
000080 74 2e ba 3c 46 59 2a 3d 26 44 71 bd 2a ea 45 be
       0.022727229 0.041589044 -0.058902882 -0.19327608
000090 a5 4a 97 bd 13 f9 0c 3e ee d3 d8 3d 4c 10 d1 3c
       -0.07387284 0.1376689 0.105872974 0.025520466
0000a0 3e e1 48 be 10 78 af bc b1 78 3f 3e ea 9a 3f be
       -0.19617173 -0.021419555 0.18698384 -0.18711439
0000b0 3a 57 18 be 8d 10 36 bd f3 dd 6e bd 02 77 02 3e
       -0.14877024 -0.044449378 -0.058317136 0.1274071
0000c0 80 ba 92 bd 5f 99 d6 3b 6b ad 68 bd 74 b7 16 bd
       -0.07164478 0.006549045 -0.05680601 -0.03679605
0000d0 f1 df 24 be 60 2a 36 3d 96 e7 c2 bd 5e 7f 8f 3d
       -0.16101052 0.044474006 -0.09516828 0.07006715
0000e0 3b e7 d0 3d c9 b3 72 bd bb 2f 77 bd fd b2 a3 3d
       0.10200354 -0.059253488 -0.060348254 0.07993124
0000f0 e9 23 36 be 0c 83 0c 3d c7 02 12 3d 52 28 b1 3d
       -0.17787136 0.034304664 0.03564718 0.086502686

fc_layers.6.weight f4 [32, 64]
000000 14 e1 5b 3e 6b 01 21 bc 79 c3 87 be fb da 0c 3e
       0.21472579 -0.009826998 -0.2651632 0.1375541
000010 2e 2f d3 bc 9b 43 8b bd b2 7e 6f 3e fa 1f 79 3e
       -0.025779333 -0.06800004 0.23388174 0.24328604
000020 7c 79 bd bd 41 9d 3f be a6 e3 84 bd 8a 91 8a 3e
       -0.09251687 -0.18712331 -0.06488733 0.27064162
000030 05 a1 21 bd b8 1d 4d be 82 e4 ac 3d 0e 87 4f be
       -0.0394602 -0.20030868 0.08442022 -0.20266363
000040 92 36 75 3e 86 32 b9 3c b5 62 d3 bd 7f 4f 0c 3e
       0.23946598 0.0226071 -0.10321561 0.137022
000050 3e c4 f0 3d 4e b1 5d be 1f 9a 07 bd b5 f5 8a bd
       0.1175618 -0.21649668 -0.033105966 -0.06785146
000060 01 03 78 be 54 92 a3 be bc 9e 39 be 19 c9 c2 bd
       -0.24219896 -0.31947577 -0.18126959 -0.095110126
000070 72 bf 89 bc 60 7a 53 3a 46 a2 92 be f1 41 6d bc
       -0.016814921 0.00080672465 -0.2863943 -0.014481054
000080 0b be 97 3c 73 ee 62 be 5c ab 62 3e f0 96 60 be
       0.018523237 -0.22161274 0.22135681 -0.21932578
000090 57 b3 52 be 09 36 1f be 30 88 be be 30 13 a7 be
       -0.20576225 -0.15547957 -0.37213278 -0.32631826
0000a0 59 85 68 be dd 9e 1a 3d 7f ab 85 be 85 fb 89 be
       -0.22707118 0.03774916 -0.26107404 -0.26949707
0000b0 78 1c c4 3d 16 ad 00 be e7 13 bc bd bd 03 3b 3e
       0.095757425 -0.12566027 -0.091834836 0.18263145
0000c0 fa 47 f9 3d 24 a8 2b bb 2d 56 3d bd ab 15 11 3e
       0.121719316 -0.002619275 -0.04622476 0.14168422
0000d0 56 08 06 bd c4 72 7a be 56 60 f8 3d 3b 8b a3 bd
       -0.032722794 -0.24457842 0.121277496 -0.079855405
0000e0 f0 d2 39 be 77 24 3a bd 14 c1 9e 3d f8 cf 42 be
       -0.18146873 -0.04544493 0.077516705 -0.19024646
0000f0 fe ca 81 3d 79 9b 9b 3d d8 fc 9c bc 5e 98 e2 bd
       0.06337546 0.075980134 -0.019163534 -0.11064218
000100 17 3d 3f be e1 e2 94 3d f7 53 74 be 75 5e 96 be
       -0.18675648 0.07269836 -0.23860155 -0.2936894
000110 50 45 21 be 28 0f 69 3c bd d8 81 3e 92 60 6b 3e
       -0.15749097 0.014224805 0.2536067 0.22986057
000120 a9 d0 1b be e9 74 0b be 32 06 46 3e 03 3d f2 3d
       -0.15216316 -0.13618816 0.19338301 0.11828043
000130 5a cd 98 be 68 d4 78 be 04 c0 87 be 57 c2 68 be
       -0.2984417 -0.24299777 -0.26513684 -0.22730385
000140 47 71 c3 bd 47 5d 1c be a2 73 89 3c 80 01 81 3e
       -0.0954309 -0.15269957 0.01677877 0.25196457
000150 47 38 91 3d d2 9f 5e be 86 2f 7a be c2 51 59 be
       0.07090812 -0.21740654 -0.24432191 -0.21222594
000160 a4 ff cd 3d 11 4a 47 be c6 41 93 bc a3 14 79 be
       0.10058525 -0.19461848 -0.0179757 -0.24324279
000170 93 43 9b be 25 85 de 3c d0 a8 d7 bd cb e4 9d be
       -0.30324993 0.027163098 -0.10530245 -0.30838618
000180 fa db 3c be 4e 76 83 3c 83 cb 2f bd 29 be 86 bb
       -0.1844329 0.016047623 -0.042918693 -0.0041120243
000190 79 e6 33 3e 65 a1 b1 bc 77 af 8d be ba 92 da 3d
       0.17568387 -0.021683404 -0.27672932 0.10672517
0001a0 a5 f2 df bd d0 c9 f7 3d 14 e2 2c be b1 3c 28 3e
       -0.10934953 0.120990396 -0.16883117 0.16429402
0001b0 b2 21 78 3e 8d fc cc 3d e7 10 3d be 71 e9 25 bd
       0.24231604 0.10009108 -0.18463479 -0.04050583
0001c0 8b 83 42 3e c8 7b 2b bd c4 f3 2d be 7e e4 90 be
       0.18995492 -0.041866094 -0.1698752 -0.28299326
0001d0 7e cc 74 bd 4e 6a 52 3e db ec e1 bd 67 f2 0a bd
       -0.05976533 0.20548365 -0.11031505 -0.03392258
0001e0 c9 7b 43 be 5e 96 6c bb 0d e9 c0 3c e1 3c f5 bd
       -0.19090189 -0.0036100368 0.023548627 -0.11974502
0001f0 f6 29 6b 3e 34 5e 6c 3d 1d 75 4e 3d 50 9d cc bc
       0.22965226 0.057707027 0.050404657 -0.024977356
000200 5b d6 7e be 4d ba d8 be 00 96 58 3c 6d e5 90 3c
       -0.24886458 -0.42329636 0.013219357 0.017687524
000210 42 12 28 be 86 2d 31 be 77 b1 92 be c9 88 87 3e
       -0.16413215 -0.17302522 -0.2865102 0.26471546
000220 f9 d3 aa 3e d1 a9 29 3e 3f bf 31 bc 61 d6 f8 bd
       0.33364847 0.16568686 -0.010848819 -0.121502645
000230 9e 92 30 be de 9f 28 3c 35 9f a3 3c 57 25 66 3c
       -0.1724343 0.010292022 0.019973377 0.014046988
000240 08 7d 96 be 56 34 25 3e 2c c6 09 3e 7a 4b 69 3e
       -0.29392266 0.16133246 0.13454503 0.22782698
000250 82 83 65 be 99 c2 64 be 90 a2 99 bd 40 1c 02 3e
       -0.22413447 -0.22339858 -0.075017095 0.12706089
000260 de d9 99 be 6f b7 a2 be fa 82 a7 3d c4 2a 18 3e
       -0.30049032 -0.31780574 0.08179279 0.14860064
000270 7e 35 b2 bd 7a 58 66 be fa 22 fe 3d f7 b3 2e 3e
       -0.08701609 -0.22494689 0.12409015 0.17060839
000280 ce b6 92 be 50 cd c7 be 96 e5 27 be 3e 5f 8d be
       -0.28655094 -0.39023829 -0.16396174 -0.27611727
000290 2e ea 25 be 74 f6 b3 bd a7 c7 2e 3d 6a 39 3e 3d
       -0.16202614 -0.087872416 0.042670872 0.046441473
0002a0 96 74 e9 3d 15 3e 8a be 90 c4 b5 be a5 e6 63 bd
       0.1139919 -0.2700049 -0.35501528 -0.05563988
0002b0 fb 34 7f 3e fc 9c b8 3d 05 1f 87 3c da f8 67 be
       0.24922554 0.090143174 0.016494283 -0.22653523
0002c0 aa 18 57 be ee 76 02 3e 2b c6 d8 bc e3 50 73 be
       -0.21005502 0.1274068 -0.026461681 -0.23761325
0002d0 c9 96 c2 3d f8 d9 34 3d 7e 5b a6 be 59 31 27 be
       0.09501416 0.044153184 -0.32491678 -0.16327418
0002e0 6d ba 6b bc 23 54 47 3e da b9 e1 bd 67 f8 a4 be
       -0.014387709 0.1946569 -0.110217765 -0.32220766
0002f0 30 3d 0f be d8 48 49 be 9d 99 6f be eb bc 42 be
       -0.13988185 -0.19656694 -0.23398443 -0.19017379
000300 bb b6 35 3d 9c cd 8b be 70 e3 2d be bf c5 d0 bd
       0.04436372 -0.27305305 -0.16981292 -0.10193967
000310 56 2a 61 3e cd 75 de bc 32 db 77 3e 2a 1f 1e bd
       0.21988806 -0.027155781 0.2420471 -0.03860394
000320 fe 5d 4a 3a 7e 43 96 bd 22 55 4d 3e d8 45 51 be
       0.00077196944 -0.07337092 0.20052007 -0.204368
000330 fe e3 e1 bd 34 40 e7 3d d2 fb 78 be 92 9d 3a be
       -0.11029814 0.11291543 -0.24314812 -0.18224171
000340 09 d3 0d be d0 dd cc 3d b0 f7 91 be b6 8b 30 3e
       -0.13850035 0.10003245 -0.28509283 0.17240795
000350 7c f0 63 be 5a 9f 89 3d 01 05 ee 3d 28 59 6f bc
       -0.22259706 0.06719847 0.11622048 -0.014608659
000360 10 25 7e be 85 13 c6 bc 28 1f a4 bb ed 79 9c 3e
       -0.24818826 -0.02417923 -0.005008597 0.30561772
000370 fd 4b 21 be 0b fd a5 bd 5b ac 44 bd 16 bf 1e 3d
       -0.15751643 -0.08104905 -0.048015933 0.038756453
000380 a8 45 ce 3b 81 5e 0b be ea 3a bf bb 28 2d 9c bd
       0.0062949248 -0.13610269 -0.0058358805 -0.076258
000390 72 f0 fe 3b 46 5f e0 bd 46 75 82 bd e0 b1 ad 3c
       0.007780128 -0.10955672 -0.063700244 0.021202981
0003a0 a9 99 87 be da d3 88 bd 07 d3 a1 be c1 21 90 3d
       -0.2648442 -0.066810325 -0.31606314 0.07037688
0003b0 b9 ac 25 3d c4 a1 4d 3e f3 49 88 3d 61 f2 2e be
       0.040447924 0.2008124 0.0665473 -0.17084648
0003c0 af 17 cb bd 53 e3 27 be 93 09 92 be 84 ce 81 be
       -0.09916627 -0.16395311 -0.2852293 -0.2535287
0003d0 f4 41 b5 3b fd 5b bd bd 29 0b 85 be 47 5f 4e 3e
       0.005531544 -0.09246061 -0.25985077 0.20153533
0003e0 bc 58 a2 3e 23 00 92 3e 97 25 1b 3e 50 3d 42 be
       0.31708324 0.2851573 0.15151058 -0.18968701
0003f0 ad ce 58 3e 89 45 1b be bb 76 6e bd 3e 9b 3d be
       0.2117259 -0.15163244 -0.0582187 -0.18516251

fc_layers.6.bias f4 [32]
000000 9f 37 53 be 70 a2 76 be 85 a3 6b bd 61 e5 55 bd
       -0.20626687 -0.24085402 -0.05752899 -0.052220706
000010 13 35 af 3e 09 3e a8 be ae 24 8f be 2d dd 1d be
       0.3422018 -0.3285983 -0.27957672 -0.15416403
000020 78 f8 6c be 48 d2 bd bd e2 46 2d 3d 40 b2 7e be
       -0.23141658 -0.092686236 0.042303927 -0.24872684
000030 43 b5 c1 3d 4b e4 db 3d 34 61 4c be d8 cc a8 3d
       0.09458401 0.10736903 -0.19958955 0.08242196
000040 92 da 5d 3e 89 47 a4 bc ce d6 d4 bd 1a ac 47 3d
       0.21665409 -0.020053642 -0.10392533 0.048748113
000050 59 20 f9 3e 0c 0d 99 be 23 c7 2f 3d 2a 3c 61 3e
       0.48657492 -0.29892766 0.04291452 0.21995607
000060 85 f5 48 3d 18 2e 09 bf 7b 19 84 bd 2a 5f 1a 3d
       0.04906227 -0.5358596 -0.064501725 0.03768841
000070 b5 37 12 be 99 74 ca 3e 08 1b 0a 3f c0 ef 71 3e
       -0.14279063 0.39542082 0.53947496 0.23626614

fc_layers.8.weight f4 [4, 32]
000000 bc c1 50 be 08 fd 22 be f0 cb 99 be 34 a0 9e 3e
       -0.20386404 -0.15916836 -0.30038404 0.309816
000010 7c 95 6e bd a4 90 9c bd a5 7a b2 be fd 87 3a 3c
       -0.05824803 -0.076447755 -0.34859195 0.011384961
000020 1d 95 4a be 9c d1 ce bd c6 b1 98 3e e4 45 b8 bd
       -0.19783445 -0.100985736 0.2982313 -0.089977056
000030 23 93 f9 bd 5c d7 1c bd 96 18 fb bd 89 cd 83 bd
       -0.12186267 -0.03829132 -0.12260549 -0.06435687
000040 a1 35 d8 3d 1d 3e 69 bd 38 24 fc 3d f8 d0 8e 3e
       0.10557104 -0.056944 0.12311596 0.27893806
000050 39 68 84 3e b5 d2 2b 3e 21 44 99 bd ce 07 cc 3d
       0.25860766 0.16779597 -0.07483698 0.09962426
000060 8c 57 4a bd ce 72 ef bd 58 95 6b bc a2 f6 83 3e
       -0.049399897 -0.11691819 -0.014378868 0.25774103
000070 3b 5e aa bb 1f ea 07 3d 88 37 95 3e be 84 fb be
       -0.0051992214 0.03318226 0.2914393 -0.49124712
000080 e0 df 96 be 10 f3 5b be 44 17 5c be 83 21 6c be
       -0.29467678 -0.2147944 -0.2149325 -0.23059659
000090 f9 ab 31 bf 58 86 9d be 9a 10 82 be 5f a6 bd 3c
       -0.69403034 -0.3076656 -0.2540329 0.023150621
0000a0 98 64 9c 3d 33 9d 91 3d 84 4b 91 3e e9 8a 08 3e
       0.07636374 0.071100615 0.28377926 0.1333424
0000b0 50 f3 7d bd d8 4c 3b 3e 3c ee 51 be da 79 0d be
       -0.06199962 0.18291032 -0.20501035 -0.13816014
0000c0 6b f0 36 3e 63 ad ed 3d 04 d4 02 3e 1f c2 00 3e
       0.1786515 0.116053365 0.1277619 0.12574051
0000d0 a9 7e 8b 3e cd 92 87 bc 7e eb 49 3e a6 3a 25 3e
       0.27245072 -0.016549492 0.1971874 0.16135654
0000e0 5b 01 3d 3c 59 ba 9e be 6f a7 de bd 91 b0 19 3e
       0.011535968 -0.31001547 -0.10871779 0.15008761
0000f0 70 ea 57 bd c9 c5 4a 3e 81 fc 6c 3e 54 41 c8 bd
       -0.05271381 0.19802012 0.23143198 -0.09778085
000100 26 61 70 3d c7 e5 76 bd bf 27 40 bd 4a a7 57 3d
       0.058686398 -0.060277727 -0.046912905 0.052649774
000110 54 d1 85 be ee f2 98 3e 69 ab 9a be bd 52 70 be
       -0.26136267 0.2987284 -0.302089 -0.23469062
000120 91 37 ef 3c 3c 2e 63 3d 82 28 7b bd c2 98 d8 bd
       0.0292013 0.055464014 -0.061317928 -0.10576011
000130 73 94 05 3e 9f 3a 8d bd 50 57 8a be b6 87 f8 3b
       0.1304491 -0.06895947 -0.2701974 0.0075845374
000140 4b 6f 54 bd f0 26 13 3d 5f b7 9f 3d c5 95 cf 3d
       -0.05186395 0.035925806 0.07798647 0.10135988
000150 20 29 85 3e ef 39 8f 3e 8a 0e 28 3e ad 06 51 be
       0.26007938 0.27973887 0.16411796 -0.20412703
000160 4a 23 4a 3e da 43 51 be fa e2 4b 3e 31 c3 0c 3e
       0.19740024 -0.2043604 0.19910803 0.13746335
000170 65 d9 36 be fd 5d 2b 3e c6 27 cf 3e 18 df 3a bf
       -0.17856367 0.16735072 0.40460032 -0.72996664
000180 ee e4 97 bb d1 de 54 3d 64 66 23 be cf ac 4f be
       -0.004635445 0.051970307 -0.15957028 -0.20280765
000190 a1 2d e7 be e8 44 76 be cf 03 23 3d 6a 43 f8 3d
       -0.45152 -0.24049723 0.039798554 0.12122233
0001a0 11 8a 8d 3e 5b 55 00 be 0c 47 53 3e b1 43 64 3e
       0.276444 -0.1253256 0.20632571 0.22291447
0001b0 63 a4 e3 3d bc 8c ec 3d 60 13 b0 3e f2 fc 4f be
       0.11115339 0.115502805 0.34389782 -0.20311335
0001c0 b1 32 c1 3d 1a e1 97 3d fd 9e 3a 3e d9 0c 00 3d
       0.09433497 0.074159816 0.18224712 0.031262252
0001d0 f8 98 02 3e 6c b3 91 3d 94 42 32 be 15 e5 51 3e
       0.12753665 0.071143 -0.1740821 0.20497544
0001e0 dc 4d a2 3d 79 36 8b be 53 cf 7f bd e9 33 eb 3d
       0.07925007 -0.27189997 -0.06245358 0.114845105
0001f0 dd d2 10 3e bb a0 93 3e 6e 36 a8 3b de be 62 be
       0.14142938 0.28833565 0.0051334416 -0.22143123

fc_layers.8.bias f4 [4]
000000 49 f3 2c 3e ce 84 6c 3e 47 db 6b 3e 84 17 b3 3e
       0.16889681 0.23097536 0.23032866 0.34978878
