output/dqn/model/4x4/500.pth (torch, 53456 bytes, 8 tensors)

fc_layers.0.weight f4 [128, 16]
000000 ad 3d 09 3e 12 61 fe 3e 00 8c a5 3c ab fb ec 3e
       0.13402434 0.49683434 0.020208359 0.46285757
000010 48 2d e2 3e 80 79 f0 bd 2a f3 01 3f a6 09 f1 3e
       0.44175172 -0.11741924 0.50761664 0.47077674
000020 fb 80 5c 3e 10 f0 0a 3f e7 b8 e7 be 80 d7 e8 be
       0.21533577 0.54272556 -0.45258257 -0.45476913
000030 51 36 10 3f 4c af 0f 3f b8 47 bf 3d 58 41 9a 3e
       0.5633288 0.56126857 0.09339851 0.30127978
000040 b8 10 75 be 80 d1 9a 3d 14 d6 89 3c ea 98 fb be
       -0.23932159 0.0755949 0.016825713 -0.49140102
000050 ba 88 2a 3e 36 57 f8 3e 20 db c8 be 2a 5f 0b bf
       0.1665372 0.48504037 -0.3922968 -0.54442084
000060 54 e1 94 3e 40 2f 09 be 46 97 a7 be 20 96 1d bd
       0.29078162 -0.1339693 -0.327326 -0.03847325
000070 ab e9 16 3f 34 37 13 3f 6a 0f 09 3a 6e 88 07 be
       0.589503 0.5750611 0.0005228432 -0.13235638
000080 24 99 33 bd 52 b1 e1 be 7e 4d 2c 3d 6c da f7 bc
       -0.04384722 -0.44080597 0.04206609 -0.030255519
000090 85 08 b7 be 9e ad ce 3e df f2 fa 3e fa e5 28 be
       -0.35748687 0.40366834 0.4901342 -0.16493979
0000a0 6d 56 7a 3d 6b 70 01 3f 51 ba c9 3e c0 53 d1 bd
       0.06111758 0.5056216 0.3939996 -0.10221052
0000b0 fe d6 af 3e 31 32 12 bf 80 79 02 3f 00 81 a0 3d
       0.34343714 -0.57107836 0.50966644 0.07837105
0000c0 fd 5a e4 be 91 a1 19 3e 09 9e 08 bf 18 ac 4e be
       -0.4460067 0.15003039 -0.5336614 -0.20182836
0000d0 a8 9e 38 be 4a 95 9f 3e de 88 0d bf d8 0b a2 be
       -0.18029273 0.31168586 -0.5528697 -0.3164966
0000e0 39 8a dc 3e 1f f3 cd 3e a8 84 5c 3e 48 8e 98 3e
       0.43074206 0.4022455 0.2153498 0.29796052
0000f0 28 bf 91 be 7d 8b 07 3f dc 01 bc 3e 18 50 e3 bd
       -0.28466153 0.5294722 0.3672017 -0.11099261
000100 ff 44 83 3d 28 29 47 3e 0e bf 65 3e 61 83 07 bf
       0.06409644 0.19449294 0.22436163 -0.52934843
000110 5c 1d 1a bf 96 9c f7 3e a4 3b e3 be e0 62 6a be
       -0.6020105 0.48361653 -0.4438144 -0.2288928
000120 05 b4 fd 3e c2 1b 17 be fc 7d f4 3e bc 67 3c be
       0.49551407 -0.14756683 0.47752368 -0.18398947
000130 58 61 a6 bd 47 a9 9c be 3f 2f c8 3e a5 9d 05 3f
       -0.081240356 -0.30597898 0.39098546 0.5219367
000140 da 83 df be a0 a9 55 be cc 84 22 be 4d dd 8b 3e
       -0.43655282 -0.20865488 -0.1587097 0.27317277
000150 dc 16 05 bf 9a 67 a5 3e 58 a2 cf 3d a0 be 8f bc
       -0.51988006 0.32305604 0.101383865 -0.017546952
000160 ff 4e e0 3e 72 0b 70 3e 4e 68 6d be b2 82 1f be
       0.4381027 0.23441866 -0.2318432 -0.155772
000170 60 b4 5a 3d bd 66 71 3e 98 56 8b 3d ac a1 0b bf
       0.053394675 0.23574348 0.06803626 -0.54543567
000180 ab 17 a6 bd be 4d 03 be 59 6a 88 be 88 a2 0c bf
       -0.08109983 -0.12822625 -0.26643637 -0.54935503
000190 12 7d 3c bc b0 fd 7f 3e 35 cf 0f bf ae 1d 14 be
       -0.011504428 0.24999118 -0.5617555 -0.14464447
0001a0 01 a1 2f be 52 e5 86 be d8 e8 cc 3e 0a 11 db 3e
       -0.17151262 -0.26346833 0.40021396 0.42786437
0001b0 68 20 ab bd b5 4a 96 bd 6a b3 a3 3e 98 94 5d 3e
       -0.083557904 -0.07338468 0.3197282 0.21638715
0001c0 c0 d2 ab bc aa d8 a4 be 1f 32 f8 be 72 86 f7 be
       -0.020974517 -0.32196552 -0.4847574 -0.4834476
0001d0 00 4c 33 3b f0 7f 69 be 4d e5 fc 3e 70 de 49 bd
       0.0027358532 -0.2280271 0.49393693 -0.0492844
0001e0 21 6b 75 3e 4c d9 db be db 78 30 3e 44 40 be 3e
       0.23966648 -0.42939222 0.17233603 0.37158406
0001f0 c4 22 6c be d8 33 20 3f e0 1e cc 3d f8 cd 19 bf
       -0.23060137 0.6257911 0.099668264 -0.6007991
000200 e4 60 8a 3e c4 82 01 3f 98 d0 c2 bd a8 5f cc be
       0.27027047 0.5059016 -0.09512442 -0.3991673
000210 f6 ae 0c be 7b 89 fb be 12 8e 33 be 78 15 dc be
       -0.13738617 -0.49128327 -0.17534664 -0.4298513
000220 18 6e 07 bf 18 5b 0e 3f ce d2 4d be 5c f2 68 3e
       -0.52902365 0.5560775 -0.20099947 0.22748703
000230 38 e5 f9 be bf ce b4 be 0a 43 18 3f 28 01 f6 bd
       -0.48807693 -0.35313985 0.59477293 -0.12011939
000240 d6 a8 c0 3e cc 88 16 bf 8e d1 14 bf 5f 09 00 bf
       0.37628812 -0.58802485 -0.58132255 -0.500143
000250 7a 6e 04 be 66 4c da 3e c8 e2 dd be 58 9d f5 be
       -0.12932768 0.42636412 -0.43337083 -0.47971606
000260 11 9f 01 bd c8 2d 69 3e 4c a4 9d 3e 98 2b 1c be
       -0.03164584 0.2277137 0.3078941 -0.15251005
000270 40 d4 fc bd 8e 2c af 3e 8e 19 98 bd df d8 0a bf
       -0.12345171 0.3421368 -0.07426749 -0.5423717
000280 2e 1d 36 3d 40 fe a8 bd da 36 10 bf 86 16 27 be
       0.04446142 -0.08251619 -0.56333697 -0.16317186
000290 64 51 fc be 76 c7 96 3e 1c ab 21 3e 2e bd c8 3e
       -0.49280846 0.29449052 0.1578793 0.39206833
0002a0 d9 f7 73 3e f7 b7 00 3f b7 c3 c0 3e f0 74 90 3d
       0.23825015 0.5028071 0.3764932 0.07053554
0002b0 a6 72 99 3e c5 92 06 bf 12 0a ba 3e 4a bb 86 3e
       0.29970282 -0.525677 0.36335808 0.26314765
0002c0 6d 60 fd 3e 98 f3 18 3e 60 e4 53 be 93 57 a3 be
       0.4948763 0.14936674 -0.20692587 -0.3190275
0002d0 b4 bf b5 3e 5a 92 81 be 1a 56 da 3e 98 a9 20 3e
       0.3549782 -0.2530697 0.42643815 0.15689695
0002e0 ee de 40 3e 21 f2 10 3f 38 8b fc bd 04 cd 18 be
       0.18835041 0.5661946 -0.12331241 -0.14921957
0002f0 f6 18 f4 3e 6d 7d b2 3d 2a 25 2f be 40 95 ba bc
       0.47675294 0.08715329 -0.1710402 -0.022776246
000300 08 89 10 bf 4e fd 0f 3f 85 0a 80 3e 7e f9 0c bf
       -0.56459093 0.5624589 0.25008026 -0.55068195
000310 4e 20 c1 3e 30 f5 4d 3d e8 62 22 be 2d b9 af be
       0.3771996 0.050282657 -0.15858042 -0.34320965
000320 bc b0 1b bf 46 a0 81 3e b7 7f 1b 3f 10 08 1c be
       -0.6081655 0.2531759 0.6074175 -0.1523745
000330 a8 a1 c6 be 96 4e da be 71 60 d0 3e 60 9e ed bc
       -0.3879521 -0.4263808 0.4069858 -0.029006183
000340 f4 52 08 3f 5a 42 0e 3f d0 a9 c7 be 3b 6e 43 3e
       0.53251576 0.55569994 -0.38996744 0.19085018
000350 06 b6 86 3e ca 24 ce 3e b9 f2 b4 3e e6 4a a8 3e
       0.26310748 0.40262443 0.35341433 0.32869643
000360 7c b5 9d 3e 0d 3b 50 3e 5a 82 9d be 20 c5 13 bd
       0.30802524 0.20335026 -0.30763513 -0.036076665
000370 df 0a 10 3f 6e 04 c2 3e 94 67 13 be 30 a8 d4 bd
       0.5626659 0.37894005 -0.1439498 -0.10383642
000380 72 b0 06 bf f6 25 eb 3e fc f8 bc be c0 a8 3a 3c
       -0.52612984 0.459274 -0.3690871 0.011392772
000390 ed 48 8a be 2e 49 d7 3e 16 84 a1 be a1 38 0b 3f
       -0.27008763 0.4204802 -0.31546086 0.54383284
0003a0 14 23 f9 3e 8e fc 85 3e d2 a4 12 bf 82 13 9e 3e
       0.48659575 0.26169246 -0.57282746 0.30874258
0003b0 e0 01 5b be ae 06 4a be 31 d0 9b be 92 e3 cc 3e
       -0.21387434 -0.1972911 -0.30432275 0.40017372
0003c0 17 ae 5d 3e c8 5d 45 3e 80 15 13 3f 4c ad bc be
       0.21648441 0.19274056 0.5745468 -0.36850965
0003d0 7a 88 2c 3d 68 66 4d 3e cd 61 9b 3e 00 dc 74 3e
       0.04212234 0.20058596 0.30348054 0.23912048
0003e0 f6 e0 16 bf ee c6 5d 3e 22 11 94 3d a2 2c bd 3e
       -0.58937013 0.21657917 0.0722983 0.36948115
0003f0 2c 95 3b 3e 0e 45 17 3f 05 5e bf 3b 30 38 11 bd
       0.18318623 0.59089744 0.0058400654 -0.035453975

fc_layers.0.bias f4 [128]
000000 b0 8f 18 be c0 3f d0 3d d8 08 50 3e 86 a6 73 3e
       -0.14898562 0.10168409 0.20315874 0.23793992
000010 f1 f6 58 3b c7 5a 87 be 7f f0 6f 3e f9 7b 1e be
       0.0033106173 -0.26436445 0.23431586 -0.1547698
000020 2e b3 85 3d e5 20 e8 3d 8f d2 65 3d e4 bf 87 3d
       0.065283164 0.11334399 0.056109007 0.06628397
000030 ec 51 47 be e4 94 b4 bd 07 ad 09 be af ab 41 3e
       -0.19464844 -0.08817461 -0.13444911 0.18913148
000040 f6 8a 38 be c1 9f 17 bd 73 89 34 3e b8 c1 dc 3d
       -0.1802176 -0.037017588 0.17630558 0.107791364
000050 11 a1 28 be dd 4f 3f be bb 5f 28 3e 00 e9 35 3d
       -0.16467692 -0.18682809 0.16442768 0.04441166
000060 b8 bc 2b be d7 75 6e 3e 51 78 4b be 80 d9 33 3e
       -0.16771209 0.2328714 -0.19870116 0.17563438
000070 1e 7f e4 3d c5 e0 21 3e 4a 1c ce bd 9c cb 4a bd
       0.11157058 0.15808399 -0.100639895 -0.049510583
000080 04 8a 5a be c0 09 26 3e 5f ed 77 3c 54 0a d3 3d
       -0.21341711 0.16214657 0.015132277 0.10304704
000090 28 ce 10 be cf 84 4b 3e f2 0a ad 3d 22 32 ec bd
       -0.14141142 0.19874881 0.08449353 -0.115329996
0000a0 2e 4d 49 3d b5 2d 26 be 43 5c 4b be 8e 49 47 be
       0.04914587 -0.16228373 -0.19859414 -0.19461653
0000b0 d3 54 37 be 88 91 0c ba ef 7c 13 be 1b 07 be bd
       -0.17903452 -0.0005362262 -0.14403127 -0.09278699
0000c0 6d a2 10 3e 99 1e 6b 3c a1 10 29 be b8 bb bd bd
       0.1412446 0.014350557 -0.1651025 -0.0926432
0000d0 3a ff e9 bd 0a 28 c0 3d 49 f5 0c 3e c3 d6 0b 3e
       -0.11425634 0.09382637 0.13765444 0.13656144
0000e0 da ad 0e be 80 1c 7d bc 6b 30 c5 3c 19 41 d8 bd
       -0.13933507 -0.015448689 0.024070939 -0.105592914
0000f0 7d 3b aa 3d bc b3 8a bd 67 9c 19 bb 5d 26 59 be
       0.08312128 -0.06772563 -0.002343917 -0.2120604
000100 b8 07 03 3e 15 e5 2e be c5 d5 10 bd 82 b4 5f be
       0.12795913 -0.17079575 -0.035360117 -0.21846202
000110 fc 34 1e 3e 5f 2a d2 bb 2b 75 6c 3d 86 a2 6b be
       0.154499 -0.0064137424 0.057728928 -0.23011217
000120 47 b0 62 bb 99 62 a8 3d a8 b1 26 3e 9e e2 32 3e
       -0.0034589933 0.08221931 0.16278708 0.1746926
000130 c8 16 cf bd b4 bb 25 bc ad 74 7b 3d 59 72 f3 bd
       -0.10111767 -0.010115553 0.061390568 -0.118870445
000140 73 08 f6 bd 5c 52 80 be 7e 2d 9b be 65 2d f3 bd
       -0.1201333 -0.25062835 -0.30308145 -0.11873893
000150 51 30 26 3d 9b 70 f0 3b 3e ac 0c bd 48 9f 1b 3c
       0.040573422 0.0073376424 -0.03434395 0.009498425
000160 c3 38 d6 bd 85 c9 83 be ab 1c 22 3e 58 b4 38 be
       -0.10460045 -0.25739685 0.15831248 -0.18037546
000170 6e 94 a1 bb 8a c5 e1 3d 24 ea ee 3c ff 24 b7 bd
       -0.0049310243 0.11024006 0.029164381 -0.08942603
000180 89 6e 3b be 89 e4 06 3e 8b 02 1c bd ba e0 21 3e
       -0.18303885 0.13173117 -0.038088363 0.15808383
000190 17 8d af 3d ba cd 14 3e 86 c4 22 bd 75 ed b7 bd
       0.085718326 0.14531603 -0.0397382 -0.08980838
0001a0 c0 02 3e be b9 ab bd bc 90 45 24 3e 8b c1 f6 3d
       -0.18555737 -0.023153173 0.16042161 0.12048634
0001b0 b0 9c 55 3e 82 c5 50 3e 7d ac 4f 3e 16 0b 2d be
       0.20860553 0.20387843 0.20280643 -0.1689876
0001c0 bf cf f0 bd 84 2e 40 bd 64 f9 e3 bd 50 38 08 be
       -0.117583744 -0.04691936 -0.11131552 -0.13302732
0001d0 cd bc e8 bd 60 92 4e 3e 47 85 7e bd e4 a2 7a 3e
       -0.11364136 0.20173025 -0.062138822 0.244762
0001e0 93 dd 4e be 4a 56 74 be ca 99 0d 3d a3 f5 3a bd
       -0.20201711 -0.23861042 0.034570493 -0.045644414
0001f0 b5 7e f6 bd c5 bb 35 be 60 70 eb 3c 23 b6 28 bd
       -0.12035886 -0.1774741 0.028740108 -0.041189324

fc_layers.3.weight f4 [64, 128]
000000 c2 66 2a 3e d4 16 3b be 17 86 8b bd c0 d5 2d be
       0.16640761 -0.18270427 -0.06812685 -0.1697607
000010 4c 1c c2 bd 54 47 86 3d 82 10 72 3d 90 c7 35 3d
       -0.094780535 0.065565735 0.059097774 0.04437977
000020 eb e6 90 3d 75 72 14 3d bd 5c 23 bd 57 c6 23 bd
       0.07075294 0.036241967 -0.039883364 -0.039984073
000030 2e 76 62 be 47 eb d0 3d f6 9a 8b bd 09 73 d4 bd
       -0.22115394 0.102011256 -0.06816666 -0.10373504
000040 07 2b d0 3d ec 69 ab b9 d2 9c 01 3e a0 4e 9a 3d
       0.10164457 -0.0003269458 0.12657478 0.07534528
000050 6b 43 4b be 74 5d 9e 3d db 9a 38 3d 1a d2 86 bd
       -0.19849937 0.077326685 0.045069557 -0.065830424
000060 2c 1b 33 bd f2 bb 1e be d7 ac 9a bd 21 88 71 bd
       -0.043727085 -0.15501383 -0.07552498 -0.058967713
000070 09 fb 01 be 1c f5 42 bd 1f 0a 04 3e 2f bd 8b bc
       -0.12693419 -0.047597036 0.12894486 -0.017057983
000080 60 a2 11 3e ea 9c c0 b9 db 0d c8 bd 82 bd e0 3d
       0.14222097 -0.00036738004 -0.09768268 0.10973646
000090 ee 9e a6 bd c8 e9 2d be 66 f5 ff 3d 61 e7 54 be
       -0.08135782 -0.16983712 0.12497978 -0.20791389
0000a0 3f da 26 bc dd 4c 45 be e9 f9 33 be 74 ef 33 bb
       -0.01018387 -0.19267602 -0.17575802 -0.0027455958
0000b0 04 0b 18 be 99 9a 7b 3d 38 b7 8d 3d 7c 38 9d bd
       -0.14847952 0.061426733 0.06919712 -0.07676789
0000c0 a3 13 6a 3d f4 bd 21 be f0 4b 18 3e 1f fc 61 bc
       0.057147633 -0.15795118 0.14872718 -0.0137930205
0000d0 6e 23 05 3e fb ed 4d be 55 87 4b be 23 60 2a 3e
       0.13001797 -0.20110314 -0.19875844 0.16638236
0000e0 ab 5b 55 be f7 7e 3b be 20 4d 32 be a3 10 51 3e
       -0.2083575 -0.18310152 -0.17412233 0.20416503
0000f0 89 b8 0c 3e 0d 19 e7 bd 38 8b c5 bd 10 47 de 3d
       0.1374227 -0.11284075 -0.096456945 0.10853398
000100 d6 79 16 be b9 45 a9 3d 7c 79 0d bd 92 3d a0 bd
       -0.14694914 0.08265252 -0.034539685 -0.078242436
000110 54 3d 35 be a8 a7 e3 bd 6b f2 d9 3d d2 0d 67 3e
       -0.17699176 -0.11115962 0.10641941 0.22563866
000120 32 86 63 bd 3e 9e e5 bb d5 61 34 be 7d 4c 44 be
       -0.0555479 -0.0070073893 -0.17615445 -0.19169803
000130 f9 26 32 3b 6e fd 2c 3e 23 d3 3f bd 1b 64 03 3e
       0.0027183874 0.16893551 -0.046832215 0.12831156
000140 66 5b 3d be 5f b1 89 3d 1e a1 21 3e 7a db 32 be
       -0.18491897 0.06723284 0.15784118 -0.17466536
000150 48 3f 24 3e a3 57 0d be 0d 4f 71 bd f5 45 08 3e
       0.16039765 -0.13802962 -0.05891328 0.13307936
000160 2b c8 2e bd 7e a4 15 be 90 7b ef 3d f7 0f 25 bd
       -0.042671364 -0.1461353 0.116934896 -0.04029843
000170 f9 9d 15 bd 46 77 c6 bd 07 52 25 3d 81 30 d3 bd
       -0.036527608 -0.09690718 0.04036143 -0.10311986
000180 99 01 b6 3d 4e 3b 06 be 84 d4 29 be d7 ee 08 3e
       0.088870235 -0.1310856 -0.16584975 0.1337236
000190 ed 80 36 3e 1a 03 de 3d a9 26 84 bd 8d 46 37 3e
       0.17822619 0.10840435 -0.06452686 0.17898007
0001a0 47 82 75 be 5e 9b 44 be 05 ab f1 3c 6a 0f a0 3d
       -0.23975478 -0.19199893 0.029500494 0.0781544
0001b0 b8 8b 7a bd b2 72 b6 bc be 01 80 3d 33 01 08 3e
       -0.061168402 -0.022271488 0.06250332 0.13281707
0001c0 be 78 16 be 78 05 d6 bc f1 42 b9 3c fd 56 54 be
       -0.14694497 -0.026125655 0.022614928 -0.20736308
0001d0 90 7b 2b be 6a 55 95 3c 47 2f f6 bd 9c b9 4d be
       -0.16746354 0.018229205 -0.12020736 -0.20090336
0001e0 74 05 46 3e a0 76 10 3e 4f 14 7e bd 93 5e 4d bd
       0.19338018 0.14107752 -0.062031087 -0.05013902
0001f0 f3 ec 50 be 8a be 46 be ea 0b e8 bd a9 68 1e be
       -0.20402889 -0.19408622 -0.113303974 -0.15469612
000200 b9 80 a8 3d 41 b6 fe 3d 6c 1f 03 3e db 09 34 3c
       0.08227677 0.12437106 0.12804955 0.010988678
000210 e7 e1 38 3e 00 fd 62 bd ff 57 89 3d 84 de 0d 3e
       0.18054925 -0.05541706 0.06706237 0.13854414
000220 ac 84 66 be c7 b5 e8 3b 5c 14 08 be bd f8 29 be
       -0.22511548 0.0071017477 -0.13289016 -0.16598792
000230 a8 81 8b bc a6 04 de 3d 24 00 58 bc e4 2f c7 3d
       -0.017029598 0.1084073 -0.013183627 0.09725931
000240 65 37 db 3d 69 2b 8a 3a 88 22 8d bd b8 28 4c 3d
       0.10703925 0.0010541502 -0.06891352 0.04984352
000250 57 13 59 be 1a 6f c1 bc ef 74 5a 3b 4d 29 27 3e
       -0.21198784 -0.023612548 0.0033333858 0.16324349
000260 dc 82 f6 bd de 2b 21 3d b5 d3 43 3e c0 84 06 be
       -0.12036678 0.039348476 0.19123729 -0.13136578
000270 f6 4f 3f bd 87 e3 10 3e a9 b4 05 be 74 cf 07 be
       -0.046707116 0.14149295 -0.13057198 -0.13262731
000280 4e 80 07 3e 01 53 ea 3d 00 69 3d be ba 83 ab bd
       0.13232538 0.11441613 -0.18497086 -0.08374734
000290 5c 21 3b be c5 37 f5 bd 86 23 49 be f5 69 ee bd
       -0.18274444 -0.11973528 -0.19642457 -0.116413034
0002a0 d0 48 04 3e 32 37 dc bd 9b ed 31 be 4b 22 87 bd
       0.12918401 -0.10752715 -0.17375796 -0.06598338
0002b0 51 f9 43 be 6e 90 b9 bd c3 4a 5b bc ab d9 ff bd
       -0.19138075 -0.09060751 -0.013384524 -0.12492689
0002c0 e7 d1 fa bc 30 cf d4 bb 8a 08 dc 3d d2 f5 1b be
       -0.030617667 -0.0064944252 0.10743816 -0.15230492
0002d0 cb 56 72 bc bb 91 0b 3e a6 34 61 be 1c d5 f1 3c
       -0.014791201 0.1362981 -0.2199274 0.029520564
0002e0 02 e6 19 3e 90 19 1a be 75 34 56 be 58 9b a3 3d
       0.15029147 -0.15048814 -0.20918448 0.07988614
0002f0 31 b9 ce 3d a2 4b 29 be 2f 4d 85 3c af 28 f9 3d
       0.10093916 -0.16532758 0.016272156 0.12165963
000300 66 5b 1e be 52 6a 4f 3d ef 01 d2 bc 89 79 ca bd
       -0.15464553 0.050638504 -0.025635688 -0.09886462
000310 dd 51 ad 3b f3 39 24 be e2 4e a4 bd 70 c7 56 3e
       0.0052893 -0.16037731 -0.08022858 0.20974517
000320 e8 54 60 bd c5 1f 90 3d 49 5d 14 3e 96 45 cb bc
       -0.054768473 0.070373096 0.1448871 -0.024813455
000330 47 1d 62 be 2f f5 5a be 71 f1 fa ba ae 50 97 3d
       -0.22081481 -0.21382593 -0.0019145441 0.07388435
000340 39 22 a2 3d 1c f4 4d 3d e9 85 ee bd c8 39 40 be
       0.07916684 0.05028163 -0.11646635 -0.18772042
000350 d5 d0 70 be f8 6c 45 bd 3b 63 96 3d 64 9b b0 bd
       -0.23517163 -0.048199624 0.073431455 -0.086233884
000360 be eb 46 3c 0c 97 18 3e 70 11 61 bb 4a 54 57 bc
       0.012141166 0.1490137 -0.003434267 -0.013142655
000370 bc 04 e6 3c 61 da 1b 3e 5e a3 9c bd f3 6d e6 3d
       0.02807843 0.15220024 -0.07648347 0.1125144
000380 09 2d 69 3d 1f 35 1e be c5 5c 02 3e 0c 03 88 3d
       0.056927714 -0.15449952 0.12730701 0.06641206
000390 c0 f9 a1 3d e3 99 b0 3c ab e5 95 bc 4d 9d 99 3a
       0.07908964 0.021557754 -0.01829799 0.0011719853
0003a0 dd 8c f1 bd 8b 53 55 3d 85 e4 de 3d 31 66 ce bc
       -0.11794446 0.052081626 0.108834304 -0.025195213
0003b0 28 38 2e be 0f 83 14 be 25 ac 22 3e 5c fa 0a be
       -0.1701361 -0.1450312 0.1588598 -0.13572067
0003c0 23 21 6e be 65 f0 17 3e da ab f6 bc fb f2 cf bd
       -0.23254828 0.14837797 -0.030111242 -0.10153767
0003d0 16 7b 29 3e 54 0e 44 be 8e 35 bc 3d 77 53 1b bc
       0.1655086 -0.19146091 0.09189902 -0.009480349
0003e0 98 b6 51 3e 8e 38 b2 3d 18 a5 68 be 93 79 1d be
       0.2047981 0.08702193 -0.22719228 -0.15378408
0003f0 92 e9 40 3e 8a d0 c5 3d 95 f6 32 be 63 a2 a1 bd
       0.188391 0.09658916 -0.17476876 -0.07892301

fc_layers.3.bias f4 [64]
000000 e2 c0 7e 3c a0 dd cb bd ce 09 4f bb c9 3f 54 bd
       0.0155489165 -0.09954381 -0.0031591537 -0.051818643
000010 d4 18 a0 bd da eb 8b bc 60 99 1d 3c 37 a3 f4 3b
       -0.078172356 -0.017080236 0.009619087 0.007465746
000020 e6 2b a8 bd 4e f8 8d 3d c5 89 b0 bd f5 a4 08 3b
       -0.08211498 0.06932126 -0.086200275 0.0020850275
000030 d4 91 e0 3c 4a 18 ce bc a9 15 8b bd fa e5 60 bc
       0.027413286 -0.025158066 -0.06791241 -0.013726706
000040 15 a5 21 3d 5e 6f 8c bd 60 97 a2 bc ba 77 81 bd
       0.039464075 -0.06857179 -0.019847572 -0.06321664
000050 82 f6 9c bd 71 c2 d6 3c c4 5f 6c bc dc 9d 0f be
       -0.07664205 0.026215764 -0.014427129 -0.14025062
000060 d9 ac f5 bd da 28 d1 bd c8 ac 32 bd 20 89 01 be
       -0.11995859 -0.1021287 -0.04362181 -0.12649965
000070 fc 6b 8d bd 8e 4a f6 bd 59 ef 8f bc 61 e2 9d bc
       -0.06905362 -0.12025939 -0.017570185 -0.019272985
000080 f8 d9 9e bc 4c 1d 69 3d 7a 8b 9f 39 77 18 ea bd
       -0.019391045 0.056912705 0.0003043076 -0.114304475
000090 fa 87 5d 3d 59 02 3c 3d b1 ff b5 bc 40 c6 c4 bc
       0.054084755 0.045900676 -0.02221665 -0.024020314
0000a0 66 0a 01 be dd f0 3e 3c dc 56 60 3d 16 1c db bd
       -0.12601623 0.011654106 0.054770336 -0.10698716
0000b0 51 07 ac bd 80 dd 81 bc 52 d7 fa bd 60 47 3e 3d
       -0.08399833 -0.01585269 -0.122481 0.046454787
0000c0 f5 9e b2 3c 6a f7 27 3d f5 8b 51 bd 92 cc 2b bd
       0.021804312 0.041007437 -0.051158864 -0.04194314
0000d0 78 1c 95 bd 57 b5 49 bd a1 5f ec bc c3 d2 6d 3d
       -0.072808206 -0.049245205 -0.028854193 0.058062326
0000e0 dd a6 33 bd 6a ef e9 3c 6c cb 1f 3d c6 ae 0f bd
       -0.043860305 0.028556544 0.039012358 -0.035078786
0000f0 52 cd fc bd 46 7f b3 bd 47 5d 03 be 23 4a 75 bd
       -0.12343849 -0.0876451 -0.12828551 -0.059885155

fc_layers.6.weight f4 [32, 64]
000000 47 60 61 3e 2f 7f 04 bc d7 32 6c be fb 4b 2e 3e
       0.22009383 -0.008086964 -0.23066269 0.17021172
000010 77 b8 da bc 86 b2 24 bd 0d f1 83 3e 6b cc 87 3e
       -0.026699288 -0.040209316 0.25769845 0.26523146
000020 32 87 14 bc 8f 76 d6 bd f3 b7 17 bd 05 f4 77 3e
       -0.009065436 -0.10471832 -0.037040662 0.2421418
000030 bd 84 b4 bd aa 20 30 be ac 61 ad 3d 2c 2b f3 bd
       -0.0881438 -0.1719996 0.08465895 -0.11873469
000040 a9 7b 8d 3e f9 4b 9a 3c 04 ea c3 bc 1e 70 93 3e
       0.27633408 0.018835055 -0.023915298 0.28796476
000050 a1 d3 c5 3d b9 5d 1e be e2 8f 0a bd 29 08 d3 3d
       0.09659506 -0.1546544 -0.033828624 0.10304291
000060 6d 3d 78 be b1 cf a5 be 8a 5a fb bd 91 8c 54 bb
       -0.24242182 -0.32385018 -0.12273128 -0.0032432417
000070 46 3e 08 bd 93 37 56 3d a6 0b 93 be 7e c0 2f 3c
       -0.033262514 0.052299093 -0.28719825 0.010727046
000080 bc db 10 3d d8 1e 65 be 68 d7 56 3e 40 97 60 be
       0.035365805 -0.22375047 0.20980608 -0.21932697
000090 d9 14 3e be 0d c6 8e bd 7a c5 9a be 68 6a a1 be
       -0.1856264 -0.06971369 -0.30228788 -0.31526494
0000a0 57 33 69 be 15 0f f4 3d 1a 26 36 be 16 e6 8b be
       -0.22773491 0.11916939 -0.17787972 -0.2732398
0000b0 0c ec 9e 3d 51 e4 e8 bd f8 c0 72 bd 35 c9 60 3e
       0.07759866 -0.11371673 -0.05926606 0.21951754
0000c0 c7 65 ef 3d 8e 64 89 bd 45 6b 3c bd ba a2 28 3d
       0.11689334 -0.067086324 -0.046000738 0.041170813
0000d0 99 01 04 bd 0e 01 7a be 89 25 0a 3e 29 48 3a be
       -0.032228086 -0.24414465 0.13490881 -0.1819159
0000e0 84 d3 5b be 4b 81 3c bd a0 c1 a0 3d 31 9d 37 be
       -0.21467406 -0.04602174 0.07849431 -0.17931058
0000f0 99 e4 81 3d 85 bf 2a 3e 0a 71 bd 3d 73 30 26 bb
       0.0634243 0.16674621 0.09250076 -0.0025358468
000100 89 f0 3d be 86 76 93 3d 65 36 76 be 62 bd 90 be
       -0.18548788 0.07200341 -0.24044187 -0.28269488
000110 1f 25 14 be b4 68 de 3d 12 33 83 3e 91 80 74 3e
       -0.14467286 0.10859814 0.256249 0.23877169
000120 54 22 b4 bd 0d cc 44 be 22 ee 45 3e 40 51 43 3e
       -0.0879561 -0.19218464 0.19329122 0.19073963
000130 22 b5 8f be a2 d5 7a be 1b c0 87 be 99 f6 7e be
       -0.2806788 -0.24495557 -0.26513752 -0.24898757
000140 8b d7 e9 3a 57 84 24 be c5 7d 51 3c 74 4a 7e 3e
       0.0017840726 -0.16066109 0.012786333 0.24833089
000150 fc 1a 12 3e ba f0 72 be 03 30 6e be 38 f0 75 be
       0.14268106 -0.23724642 -0.23260503 -0.24017417
000160 75 ea cc 3d 87 f0 43 be 3a da 89 3d 4c dd 85 be
       0.10005657 -0.19134723 0.067310765 -0.261454
000170 43 46 8a be 55 3d 06 3e 61 44 d7 bd b6 14 99 be
       -0.2700673 0.13109334 -0.10511089 -0.29898614
000180 33 b3 3b be 90 cd 2b 3d 2e 37 51 bd e4 7b 84 bb
       -0.18330078 0.041944087 -0.051078014 -0.004043089
000190 41 2b 35 3e ff de 34 3b dc 43 ae be c4 36 dc 3d
       0.17692281 0.0027598736 -0.34036148 0.10752633
0001a0 8f 79 e3 bd 65 4b f8 3d 57 41 ba bd 37 99 27 3e
       -0.1110717 0.12123755 -0.09094494 0.1636704
0001b0 98 0d 7a 3e 10 fc db 3d 02 86 34 be ec 72 00 3c
       0.24419248 0.107414365 -0.17629245 0.0078398995
0001c0 06 6b 3e 3e e5 43 5f bd 0c 76 39 be e3 f1 a7 be
       0.18595514 -0.05450811 -0.18111438 -0.32801732
0001d0 cf 16 73 bd 2d 02 67 3e 6e 83 f1 bc a6 f9 08 bd
       -0.059347924 0.22559424 -0.029481616 -0.03344121
0001e0 cf 78 fe bd a6 e3 21 bb ff 48 c6 3c 77 73 99 3b
       -0.12425386 -0.002470234 0.02420473 0.004682954
0001f0 bc 01 6b 3e 66 ea 3b 3e 23 be 4e 3e 8b e5 cd 3c
       0.2294988 0.18351135 0.20189719 0.025133869
000200 f9 0a 5c be 39 cb 9e be 50 41 e2 3d cd 51 76 3d
       -0.2148856 -0.31014422 0.110476136 0.060136605
000210 39 1d 28 be ad 04 ad 3d 5f 96 96 be 53 78 8b 3e
       -0.16417398 0.084481575 -0.294116 0.27240238
000220 1d dd 70 3e ee 8a 1a 3c 6d a7 84 3d a9 19 fa 3d
       0.23521848 0.0094325375 0.064772464 0.122119255
000230 85 c2 2c be 14 60 28 3d ce 5b a2 3c 9c f0 12 3e
       -0.16871078 0.041107252 0.019819167 0.14349598
000240 5a 5a 92 be 8f f8 07 3e 70 f3 ea b9 cd 3d 09 3e
       -0.28584558 0.13278411 -0.00044813333 0.13402481
000250 c2 75 44 be 75 e2 97 bc d3 ce c5 bd 30 fa 2d 3d
       -0.19185546 -0.0185406 -0.09658589 0.042474926
000260 0f 40 99 be 66 d0 76 be 31 00 41 3d ca d9 37 3e
       -0.29931685 -0.24102935 0.047119323 0.17954174
000270 51 14 14 be 08 ef 47 be eb 0c 04 3e af 03 84 3e
       -0.14460875 -0.19524777 0.12895553 0.2578406
000280 5a 92 0c be 9c aa 99 be 1d 43 21 be 4a 59 8d be
       -0.13727704 -0.30012977 -0.15748258 -0.27607185
000290 a1 28 0e be 88 f7 1e be 69 37 cb 3d 19 a3 64 3e
       -0.13882686 -0.15524113 0.09922678 0.22327842
0002a0 ce 01 e4 3d f9 29 87 be 34 07 a2 be ff fd 7d bd
       0.11133157 -0.2639921 -0.3164612 -0.062009808
0002b0 96 25 92 3e 11 4e 66 3d 62 d0 19 3e 13 ef a7 be
       0.285443 0.056226794 0.15020898 -0.32799587
0002c0 a3 03 64 be a4 31 92 3d 81 29 88 bd 22 78 4c be
       -0.22267012 0.071383744 -0.06648541 -0.19967702
0002d0 bb c3 dc 3d d0 39 99 bd 58 eb 5d be 10 23 8a be
       0.1077952 -0.0748173 -0.21671808 -0.26979876
0002e0 be ef 66 3e 1a 6e 48 3e c7 68 d1 bd 3e 66 96 be
       0.22552392 0.1957325 -0.10225063 -0.2937488
0002f0 22 73 03 be 03 53 09 3e 78 71 0b be 4c 96 2a be
       -0.12836888 0.13410573 -0.13617504 -0.16658896
000300 4c 46 70 3d 53 4c 97 be 64 ce 23 be e9 94 92 bd
       0.05866079 -0.29550418 -0.159967 -0.071573086
000310 e3 03 61 3e 5a 3d 31 be db 70 83 3e 0d 9e 6f bc
       0.21974139 -0.1730856 0.2567204 -0.014625085
000320 cd f4 20 bd f2 09 0d be e8 07 51 3e 8b 71 8c bd
       -0.03929596 -0.13773325 0.20413172 -0.06857594
000330 eb 03 d4 bd eb b7 1e 3e 01 20 79 be e8 77 78 be
       -0.1035231 0.15499847 -0.24328615 -0.2426449
000340 2c dd d7 bd 95 31 06 3e 02 b6 8b be 88 82 12 3e
       -0.10540232 0.13104852 -0.27287298 0.14307606
000350 f9 5a 89 bd 21 b4 ee 3d 41 2f f5 3d c2 74 6c bd
       -0.06706805 0.116554506 0.119719036 -0.057728536
000360 aa 66 70 be bb 78 95 3d 96 63 26 3e 1a 7e 09 3e
       -0.23476663 0.07298418 0.16248927 0.1342701
000370 74 a3 1a be 9c 4b a7 bd 27 4d b9 bc 8a 8b 05 3d
       -0.15101415 -0.08168718 -0.022619797 0.032603778
000380 a1 ef 01 3e 19 0c fb bd 3b a5 a8 3c 6d 58 b4 bd
       0.12689067 -0.12258167 0.0205866 -0.088059284
000390 f3 8b d7 ba 79 c4 c2 bd 15 8f 1a be 8a a9 aa bd
       -0.0016444906 -0.095101304 -0.15093644 -0.08333118
0003a0 4f cc 60 be 7e 20 57 3e f0 70 36 be 60 15 83 3d
       -0.21952938 0.21008489 -0.1781652 0.06400561
0003b0 da d0 21 3d 4c c7 61 3e ff 17 8e 3e 45 81 17 be
       0.039505817 0.22048682 0.27752683 -0.14795406
0003c0 34 75 fa bd d0 c7 48 be 55 a4 96 be 0f 3d 6b be
       -0.12229386 -0.19607472 -0.2942225 -0.22972511
0003d0 50 ea a1 3b 96 05 14 3d 07 3c 2d be 2d ab b7 3c
       0.0049412623 0.03613814 -0.1691743 0.02242049
0003e0 82 38 7c 3e bb 26 96 3e d1 34 29 3e 04 a5 66 be
       0.24630931 0.29326424 0.16524054 -0.22523886
0003f0 5f ea 6b 3e dd 83 04 be d0 22 f5 bc a5 fa 1d 3c
       0.23038624 -0.12940927 -0.029923826 0.009642278

fc_layers.6.bias f4 [32]
000000 c1 9a da bd 12 3e e6 bd 5a 21 cc bd ce a9 7c bd
       -0.10674048 -0.11242308 -0.09967299 -0.061685376
000010 ce 63 16 3c 8a fd 16 be 01 e4 d4 bd 0e d3 ba bd
       0.009179069 -0.14745155 -0.10395051 -0.09122287
000020 b6 1e 33 be 9b 3c fa bb 61 c6 90 bd c0 4a ce ba
       -0.17492184 -0.0076366193 -0.07069088 -0.001573883
000030 ac e6 cc bd 8a cc ad 3b 07 3d e4 bd fa 05 00 be
       -0.10004935 0.005303924 -0.111444525 -0.1250228
000040 31 4f ee 3d d2 51 d8 3c 8a 4f f6 bd 41 bc 20 3d
       0.11636198 0.026406202 -0.120268896 0.039242033
000050 a3 a7 22 3e 19 fc 08 be ad bf 07 bc 0c 80 fe bb
       0.15884261 -0.13377418 -0.008285445 -0.007766729
000060 88 87 d3 bd 39 c0 b1 bd a7 e7 a5 bd 45 d6 ed bd
       -0.10328585 -0.08679242 -0.08100825 -0.11613134
000070 0f 80 a5 bd 2f 0f 32 3c d0 7e 38 3e 09 84 9d 3c
       -0.08081066 0.010867878 0.18017125 0.019227998

fc_layers.8.weight f4 [4, 32]
000000 37 06 34 be eb 9e 60 be ec 79 92 be a2 00 8f 3e
       -0.17580496 -0.21935622 -0.28608644 0.2793017
000010 e0 95 5e 3d 5a 39 0e be a6 21 a3 be 84 af fd bd
       0.05434215 -0.13889065 -0.3186161 -0.123869926
000020 02 07 a8 be 42 e0 6b bd 2d f9 81 3e da 8f ae be
       -0.32817847 -0.057586916 0.2538542 -0.34094125
000030 6d 4a 40 be 0c 50 58 be e8 07 45 be 53 ab ff 3d
       -0.18778391 -0.21124285 -0.19241297 0.124838494
000040 81 50 e0 bc 21 d1 7d be 66 e3 84 3e 91 b8 89 3e
       -0.027382137 -0.24786808 0.2595474 0.26898625
000050 9e 82 32 3e f1 0e 32 3e 5d 64 9e be aa fe f8 bd
       0.17432639 0.17388512 -0.30935946 -0.12157948
000060 54 80 79 be d5 67 18 bd b7 6f bd be ee 60 c2 3e
       -0.2436536 -0.037208397 -0.36999294 0.37964576
000070 7d bd 14 bd 89 71 90 be 73 fa af 3e c5 b3 1d be
       -0.036313523 -0.2821162 0.34370765 -0.15400608
000080 23 6e 99 be d3 90 81 be 03 47 63 be 71 b1 64 be
       -0.2996684 -0.25305805 -0.22195058 -0.22333314
000090 74 83 bb 3d ad 45 c1 be 22 eb 30 be 7b 65 02 bb
       0.09155932 -0.3774847 -0.17277196 -0.0019896913
0000a0 74 88 1e be fb 8a c4 3e f6 8c be 3e b0 bb 0c 3d
       -0.1548174 0.38387284 0.3721692 0.03435868
0000b0 c6 cc 05 be eb 21 bd 3e ef 08 ac be c6 e5 c2 bd
       -0.13066396 0.3693994 -0.33600566 -0.09516482
0000c0 aa 46 59 3e b8 86 ca 3e 29 70 80 be 33 b9 a7 bd
       0.21218362 0.39555907 -0.2508557 -0.08189621
0000d0 15 95 1d 3e f5 38 a5 be 0a 6b a3 3e e7 42 4a 3e
       0.15388902 -0.32270017 0.31917602 0.19752084
0000e0 fc 2c 24 3e 07 b8 1b be 53 e0 71 be d6 ce 7f 3e
       0.16032785 -0.1520692 -0.23620729 0.24981245
0000f0 99 5f c2 bd 8e dc 70 3d 60 94 02 3e c8 a0 54 be
       -0.0949089 0.058804087 0.12751913 -0.20764458
000100 cd 12 50 3d c3 96 34 be 8c 7f 77 bd 0a d2 63 bc
       0.05079918 -0.17635636 -0.060424373 -0.013905058
000110 37 d5 8c be 61 29 a0 3e 47 10 ce be 48 24 6b be
       -0.2750642 0.3128157 -0.40246794 -0.22963059
000120 a0 3d 12 bd 2c ed 66 bd 62 65 3b be b6 b3 a4 be
       -0.0357033 -0.05637853 -0.18300393 -0.3216836
000130 f2 96 93 3e a3 e0 0d bd d0 d8 81 be 0c e9 85 3b
       0.288261 -0.03463806 -0.25360727 0.0040866192
000140 98 60 fc bd 70 7b ca 3d cc 18 10 bd 08 d6 b2 3d
       -0.12323111 0.09886825 -0.0351799 0.087322295
000150 d9 a2 85 3e fe 3f 92 3e 9a 71 08 3e 37 74 87 be
       0.26100805 0.28564447 0.13324586 -0.26455852
000160 1f 18 a1 3e 8b 91 2c bc fe 01 ae 3e 6d 35 8f 3e
       0.31463715 -0.010532747 0.33985895 0.27970448
000170 58 e5 9b be 96 0e 7d 3e d5 37 ae 3e 84 a8 8f be
       -0.30448413 0.24712595 0.3402697 -0.28058255
000180 90 67 f2 bc 10 c1 6c bd 20 7b 9e be 9f 89 32 be
       -0.029590398 -0.057801306 -0.30953312 -0.17435311
000190 eb 9e 11 be b5 2a b4 be 30 f0 94 bd a2 7b 57 3d
       -0.14220779 -0.35188833 -0.07272375 0.05260814
0001a0 8f a0 a3 3e 6d 03 53 be f3 51 e6 3d 73 af b8 3e
       0.31958434 -0.20606776 0.11246099 0.36071357
0001b0 68 da c6 3c 27 ea 14 bc 65 e0 af 3e a4 91 3e be
       0.024274066 -0.009089029 0.34350887 -0.18610245
0001c0 a7 20 26 3e 5c 27 07 3e 1e fa 4e 3e d9 b4 b5 ba
       0.16223393 0.13198608 0.202126 -0.0013863101
0001d0 69 9f a9 3d 28 f0 3e be 7d 66 85 be 79 9e 9d 3e
       0.08282358 -0.186463 -0.26054755 0.30784968
0001e0 37 c4 6c be f5 e5 2a be d6 6c 2a be 53 60 f8 3c
       -0.23121725 -0.16689284 -0.1664308 0.030319368
0001f0 45 d8 1a 3e 44 7c a9 3e 0f bd 02 bb 43 4d 35 be
       0.15121563 0.3310262 -0.0019949113 -0.17705254

fc_layers.8.bias f4 [4]
000000 d7 1f 31 3d 28 7f 1c 3d 02 e2 f5 3c 2f 31 d5 3d
       0.043243255 0.038207203 0.030014995 0.10409772
