output/dqn/model/4x4/5000.pth (torch, 53468 bytes, 8 tensors)

fc_layers.0.weight f4 [128, 16]
0	0x3e0a3456	0.13496527
1	0x3e6346ce	0.22194979
2	0x3ca58c00	0.020208359
3	0x3e6acfef	0.22930883
4	0x3edcc507	0.4311907
5	0xbdf07980	-0.11741924
6	0x3ef97ff0	0.4873042
7	0x3ef109a6	0.47077674
8	0x3e41510e	0.18878576
9	0x3ee8725c	0.4539975
10	0xbee7b8e7	-0.45258257
11	0xbee8d780	-0.45476913
12	0x3f103651	0.5633288
13	0x3ef9cae7	0.48787615
14	0x3dbf47b8	0.09339851
15	0x3e9a4158	0.30127978
16	0xbe7510b8	-0.23932159
17	0xbce36f37	-0.027762992
18	0x3dc3212d	0.09527812
19	0xbefb98ea	-0.49140102
20	0x3e4ee4c5	0.20204456
21	0x3ef85736	0.48504037
22	0xbec8db20	-0.3922968
23	0xbf0b5f2a	-0.54442084
24	0x3e90c7e6	0.2827751
25	0xbe092f40	-0.1339693
26	0xbea79746	-0.327326
27	0xbd1d9620	-0.03847325
28	0x3f16e9ab	0.589503
29	0x3edbb432	0.42910916
30	0xbd7398f1	-0.05947203
31	0xbe07886e	-0.13235638
32	0xbe07e1db	-0.13269751
33	0xbee1b152	-0.44080597
34	0xbda5b04c	-0.080902666
35	0x3e0e4b4d	0.13895912
36	0xbeb70885	-0.35748687
37	0x3ecead9e	0.40366834
38	0x3ec08f86	0.376095
39	0xbe28e5fa	-0.16493979
40	0xbd5cab23	-0.053874146
41	0x3e94d51e	0.29068846
42	0x3ebb50d7	0.36585113
43	0xbdd153c0	-0.10221052
44	0x3eafd6fe	0.34343714
45	0xbf123231	-0.57107836
46	0x3e92ab30	0.2864623
47	0x3da08100	0.07837105
48	0xbee45afd	-0.4460067
49	0x3e26b4e9	0.16279949
50	0xbf089e09	-0.5336614
51	0xbe144514	-0.14479476
52	0xbe5d7392	-0.21626118
53	0x3e9f954a	0.31168586
54	0xbf0d88de	-0.5528697
55	0xbea20bd8	-0.3164966
56	0x3f00f084	0.50367
57	0x3e0beec1	0.13665296
58	0x3e67d72b	0.22640674
59	0x3e988e48	0.29796052
60	0xbe91bf28	-0.28466153
61	0x3eaeba02	0.34126288
62	0x3e60ff34	0.21972352
63	0xbde35018	-0.11099261
64	0x3c9c0107	0.019043459
65	0x3ec1f9c0	0.37885857
66	0x3e4ea3da	0.20179692
67	0xbf078361	-0.52934843
68	0xbf1a1d5c	-0.6020105
69	0x3ef79c96	0.48361653
70	0xbee33ba4	-0.4438144
71	0xbe6a62e0	-0.2288928
72	0x3eb426b5	0.3518578
73	0xbe171bc2	-0.14756683
74	0x3eb1e39d	0.34743968
75	0xbe3c67bc	-0.18398947
76	0xbda66158	-0.081240356
77	0xbe9ca947	-0.30597898
78	0x3e938e86	0.28819674
79	0x3f059da5	0.5219367
80	0xbedf83da	-0.43655282
81	0xbe55a9a0	-0.20865488
82	0xbe2284cc	-0.1587097
83	0x3e89049f	0.26761338
84	0xbf0516dc	-0.51988006
85	0x3ea5679a	0.32305604
86	0x3dcfa258	0.101383865
87	0xbc8fbea0	-0.017546952
88	0x3eb2882e	0.34869522
89	0x3e700b72	0.23441866
90	0xbe6d684e	-0.2318432
91	0xbe1f82b2	-0.155772
92	0x3d5ab460	0.053394675
93	0x3e7166bd	0.23574348
94	0x3d8b5698	0.06803626
95	0xbf0ba1ac	-0.54543567
96	0xbe3b025f	-0.18262623
97	0xbe52ce63	-0.20586543
98	0xbe886a59	-0.26643637
99	0xbf0ca288	-0.54935503
100	0xbcc9de33	-0.024642086
101	0x3e7ffdb0	0.24999118
102	0xbf0fcf35	-0.5617555
103	0xbe141dae	-0.14464447
104	0xbe591a92	-0.21201542
105	0xbe86e552	-0.26346833
106	0x3e8c09eb	0.27351317
107	0x3edb110a	0.42786437
108	0xbdab2068	-0.083557904
109	0xbd95c9ce	-0.07313882
110	0x3e64ca2a	0.22342744
111	0x3e5d9498	0.21638715
112	0xbcabd2c0	-0.020974517
113	0xbea4d8aa	-0.32196552
114	0xbef8321f	-0.4847574
115	0xbef78672	-0.4834476
116	0x3b334c00	0.0027358532
117	0xbe697ff0	-0.2280271
118	0x3f068259	0.52542645
119	0xbd49de70	-0.0492844
120	0x3e4f7a1e	0.20261428
121	0xbedbd94c	-0.42939222
122	0x3e238c17	0.15971409
123	0x3ebe4044	0.37158406
124	0xbe6c22c4	-0.23060137
125	0x3eff7f2e	0.49901718
126	0x3dcc1ee0	0.099668264
127	0xbf19cdf8	-0.6007991
128	0x3d9040d0	0.07043612
129	0x3f1a5805	0.6029056
130	0xbdc2d098	-0.09512442
131	0xbecc5fa8	-0.3991673
132	0xbe0caef6	-0.13738617
133	0xbefb897b	-0.49128327
134	0xbe338e12	-0.17534664
135	0xbedc1578	-0.4298513
136	0xbf076e18	-0.52902365
137	0x3ec9bd96	0.39402455
138	0xbe4dd2ce	-0.20099947
139	0x3e68f25c	0.22748703
140	0xbef9e538	-0.48807693
141	0xbeb4cebf	-0.35313985
142	0x3ed5ccd7	0.41757843
143	0xbdf60128	-0.12011939
144	0x3d982ed0	0.07430804
145	0xbf1688cc	-0.58802485
146	0xbf14d18e	-0.58132255
147	0xbf00095f	-0.500143
148	0xbe046e7a	-0.12932768
149	0x3eda4c66	0.42636412
150	0xbedde2c8	-0.43337083
151	0xbef59d58	-0.47971606
152	0xbd33a26c	-0.04385607
153	0x3e2d1b28	0.1690489
154	0x3e6d3f10	0.23168588
155	0xbe1c2b98	-0.15251005
156	0xbdfcd440	-0.12345171
157	0x3e954e6b	0.2916139
158	0xbd9dba64	-0.07701567
159	0xbf0ad8df	-0.5423717
160	0xbcc1399c	-0.02358704
161	0xbda8fe40	-0.08251619
162	0xbf1036da	-0.56333697
163	0xbe271686	-0.16317186
164	0xbefc5164	-0.49280846
165	0x3e96c776	0.29449052
166	0x3d0ee972	0.0348906
167	0x3ec8bd2e	0.39206833
168	0x3d2301a7	0.039796498
169	0x3eaee791	0.34161046
170	0x3ea1030a	0.3144763
171	0x3d9074f0	0.07053554
172	0x3e9972a6	0.29970282
173	0xbf0692c5	-0.525677
174	0x3ea51d84	0.3224908
175	0x3e86bb4a	0.26314765
176	0x3e0a3afe	0.13499066
177	0x3d6149dc	0.05500208
178	0xbe53e460	-0.20692587
179	0xbea35793	-0.3190275
180	0x3e970b4e	0.29500812
181	0xbe81925a	-0.2530697
182	0x3ef83987	0.4848139
183	0x3e20a998	0.15689695
184	0x3e35ee3f	0.17766665
185	0x3eccf225	0.40028492
186	0xbdfc8b38	-0.12331241
187	0xbe18cd04	-0.14921957
188	0x3ef418f6	0.47675294
189	0xbae3d770	-0.0017382931
190	0xbe2f252a	-0.1710402
191	0xbcba9540	-0.022776246
192	0xbf108908	-0.56459093
193	0x3e5f1c2f	0.21788095
194	0x3e526b13	0.20548658
195	0xbf0cf97e	-0.55068195
196	0x3ede5508	0.4342425
197	0x3d4df530	0.050282657
198	0xbe2262e8	-0.15858042
199	0xbeafb92d	-0.34320965
200	0xbf1bb0bc	-0.6081655
201	0x3e68ca4c	0.2273342
202	0x3efe84e4	0.49710763
203	0xbe1c0810	-0.1523745
204	0xbec6a1a8	-0.3879521
205	0xbeda4e96	-0.4263808
206	0x3edbb5de	0.4291219
207	0xbced9e60	-0.029006183
208	0x3e9d6d4c	0.3074745
209	0x3ec6f910	0.38861895
210	0xbec7a9d0	-0.38996744
211	0x3e235e1c	0.15953869
212	0x3efe6196	0.49683827
213	0x3ece24ca	0.40262443
214	0x3ebfb0cc	0.37439573
215	0x3ea84ae6	0.32869643
216	0x3ed7fae2	0.42183596
217	0x3e040db2	0.1289585
218	0xbe9d825a	-0.30763513
219	0xbd13c520	-0.036076665
220	0x3f100adf	0.5626659
221	0x3e23cc1c	0.1599583
222	0xbe136794	-0.1439498
223	0xbdd4a830	-0.10383642
224	0xbf06b072	-0.52612984
225	0x3f11f43f	0.57013315
226	0xbebcf8fc	-0.3690871
227	0x3c3aa8c0	0.011392772
228	0xbe8a48ed	-0.27008763
229	0x3ed7492e	0.4204802
230	0xbea18416	-0.31546086
231	0x3f0b38a1	0.54383284
232	0x3f0f6abd	0.56022245
233	0x3e9c9146	0.30579585
234	0xbf12a4d2	-0.57282746
235	0x3e9e1382	0.30874258
236	0xbe5b01e0	-0.21387434
237	0xbe4a06ae	-0.1972911
238	0xbe9bd031	-0.30432275
239	0x3ecce392	0.40017372
240	0xbc8093fe	-0.015695568
241	0x3df978da	0.12181254
242	0x3e2c3036	0.16815266
243	0xbebcad4c	-0.36850965
244	0x3dde3b86	0.10851197
245	0x3e4d6668	0.20058596
246	0x3ea2599a	0.31708986
247	0x3e74dc00	0.23912048
248	0xbf16e0f6	-0.58937013
249	0x3de62aa4	0.11238602
250	0x3e1594c3	0.1460753
251	0x3ebd2ca2	0.36948115
252	0x3e3b952c	0.18318623
253	0x3f006023	0.50146693
254	0xbde4e57d	-0.11176584
255	0xbd113830	-0.035453975

fc_layers.0.bias f4 [128]
0	0xbe8f0389	-0.27932385
1	0xbdd7209e	-0.10504268
2	0xbe15d090	-0.14630342
3	0xbd15b464	-0.036548987
4	0xbe1a456c	-0.15065545
5	0xbeb3dee5	-0.35130993
6	0x3d8b155e	0.06791185
7	0xbe856e43	-0.26060686
8	0xbe09cff5	-0.13458236
9	0xbd3e7c6f	-0.046505388
10	0xbdd67d80	-0.10473156
11	0xbd9a844a	-0.075447634
12	0xbe7be592	-0.24599293
13	0xbe2d9c65	-0.16954191
14	0xbd523740	-0.05132222
15	0xbd04697b	-0.032327157
16	0xbd38d7ad	-0.04512756
17	0xbe2a8853	-0.16653566
18	0xbd944e56	-0.07241504
19	0xbe3c436e	-0.18385097
20	0xbe821ec0	-0.25414085
21	0xbe1cb4e1	-0.15303375
22	0xbd977e80	-0.07397175
23	0xbe05a1c1	-0.13049985
24	0xbe32251e	-0.17396972
25	0x3defe2ea	0.11713202
26	0xbe96755a	-0.29386407
27	0x3d2ab32e	0.041674785
28	0xbe2646b3	-0.16237907
29	0x3e119271	0.14216019
30	0xbe8a837c	-0.2705344
31	0xbdaf85a0	-0.08570409
32	0xbeb349bf	-0.350172
33	0x3bf2a8e2	0.0074053863
34	0xbe610bda	-0.21977177
35	0xbd56e503	-0.052464496
36	0xbe8a0814	-0.26959288
37	0xbd42ebb9	-0.047588084
38	0xbd55c82e	-0.05219286
39	0xbea87301	-0.3290024
40	0x3d0228ef	0.03177732
41	0xbe8e38b7	-0.27777645
42	0xbe946bb2	-0.28988415
43	0xbd958a19	-0.07301731
44	0xbe09968a	-0.13436332
45	0xbe0b716d	-0.13617487
46	0xbe13e374	-0.14442235
47	0xbe99f49c	-0.30069435
48	0x3d07108b	0.03297476
49	0xbdef8edc	-0.1169717
50	0xbe742571	-0.23842408
51	0xbe3093f6	-0.17243943
52	0xbe80e0bf	-0.25171468
53	0xbe2bc470	-0.16774154
54	0x3d082c5c	0.03324543
55	0xbd86e5e1	-0.06586815
56	0xbe2829ab	-0.16422145
57	0xbe9d5eaf	-0.307363
58	0xbe0135ad	-0.12618132
59	0xbe3ee124	-0.18640572
60	0xbd3fe301	-0.046847347
61	0xbe4dec26	-0.20109615
62	0xbe56520f	-0.2092974
63	0xbe477a63	-0.1948028
64	0xbc793476	-0.015210262
65	0xbe7ef535	-0.24898227
66	0xbdcff868	-0.101548016
67	0xbe8269ac	-0.25471246
68	0x3e40386e	0.18771526
69	0xbdb15752	-0.08659233
70	0xbd84d0e0	-0.06485152
71	0xbe99d980	-0.30048752
72	0xbe2b338d	-0.16718884
73	0xbdb0f93d	-0.086412884
74	0xbd542cfc	-0.051800713
75	0x3c76f1bc	0.015072282
76	0xbe5adf68	-0.21374285
77	0x3c9a5ca2	0.018842999
78	0xbe2184c6	-0.15773305
79	0xbe681521	-0.2266431
80	0xbe2cef6a	-0.16888204
81	0xbea1f624	-0.31633103
82	0xbe87a86d	-0.26495686
83	0xbe713438	-0.23555076
84	0xbe0c2464	-0.13685757
85	0xbe241008	-0.1602174
86	0xbe57b764	-0.21066052
87	0xbcabc2bf	-0.020966886
88	0xbe7208f6	-0.23636231
89	0xbe531d3a	-0.20616618
90	0x3c635dbe	0.01387733
91	0xbeafb64a	-0.34318763
92	0xbdbf9503	-0.093545936
93	0x3c35292a	0.011057178
94	0xbd4c1818	-0.049827665
95	0xbeaf8830	-0.3428359
96	0xbd865dcb	-0.06560858
97	0xbcd40349	-0.025880473
98	0xbe40d662	-0.1883178
99	0xbccce041	-0.025009276
100	0xbe11e5e6	-0.14247856
101	0x3beb5c83	0.007182659
102	0xbdfed92f	-0.12443768
103	0xbe9eee75	-0.31041303
104	0xbe81b2e3	-0.25331792
105	0xbe1ec737	-0.15505682
106	0xbd80b96d	-0.06285367
107	0xbcc94f94	-0.024574079
108	0xbd7bc294	-0.06146486
109	0x3e2938db	0.16525595
110	0x3db71d7e	0.08941172
111	0xbe7e28f5	-0.24820311
112	0xbe739cd6	-0.23790297
113	0xbe45958d	-0.1929533
114	0xbe5c34e0	-0.21504545
115	0xbea18214	-0.31544554
116	0xbd4cccf1	-0.050000135
117	0xbd906eb2	-0.070523635
118	0xbe3c5c73	-0.18394642
119	0x3c0b0190	0.008484259
120	0xbea07f35	-0.3134705
121	0xbeb8c60b	-0.36088595
122	0xbe40c7f1	-0.18826272
123	0xbe3f1e2e	-0.18663856
124	0xbe8385e8	-0.256881
125	0xbdeffc4c	-0.11718044
126	0xbd716ef4	-0.058943704
127	0xbe3895d0	-0.18025899

fc_layers.3.weight f4 [64, 128]
0	0x3de7d901	0.11320687
1	0xbe3354e7	-0.17512856
2	0xbe02fd85	-0.12792023
3	0xbe44e6ab	-0.19228618
4	0xbdd59f92	-0.10430826
5	0x3d880e27	0.06643324
6	0x3c75ab09	0.014994391
7	0xbc24c9f7	-0.010057918
8	0x3d3aa2c4	0.04556538
9	0xbac35898	-0.0014903722
10	0xbd844c42	-0.064598575
11	0xbdabcb15	-0.08388344
12	0xbe893d22	-0.26804453
13	0x3975ae7f	0.00023430026
14	0xbda347aa	-0.07972653
15	0xbe28dad7	-0.16489731
16	0x3d7da241	0.061922316
17	0xbd7574c8	-0.059925824
18	0x3d9b6b5b	0.07588836
19	0x3c43e528	0.011956491
20	0xbe655f84	-0.22399718
21	0x3cbca691	0.023028644
22	0x3bc94a5a	0.0061428966
23	0xbdf02bbc	-0.11727092
24	0xbd856012	-0.065124646
25	0xbe2a540e	-0.16633627
26	0xbdd5f560	-0.10447192
27	0xbddbe1c5	-0.107364215
28	0xbe18fcbf	-0.14940165
29	0xbdbd3644	-0.09238866
30	0x3dd8e0d0	0.105897546
31	0xbd32834b	-0.043582242
32	0x3dcbb6c9	0.09946973
33	0xbd30fdd8	-0.043210834
34	0xbdf5cc03	-0.12001803
35	0x3db05752	0.08610405
36	0xbdd9cf6d	-0.106352665
37	0xbe4ff0a8	-0.20306647
38	0x3d8d10ac	0.068879455
39	0xbe6e0563	-0.23244242
40	0xbd94c32b	-0.07263788
41	0xbe594799	-0.21218719
42	0xbe5d16da	-0.21590748
43	0xbd93e8bf	-0.07222127
44	0xbe02cb66	-0.12772903
45	0x3c898098	0.016784951
46	0x3d01bb88	0.031672984
47	0xbda5930c	-0.080846876
48	0xbd0aa380	-0.033847332
49	0xbe2c9b44	-0.16856104
50	0x3e030fb9	0.12798966
51	0xbd8b8ce1	-0.0681398
52	0x3db04246	0.08606391
53	0xbe4e4c47	-0.20146285
54	0xbe4f7090	-0.20257783
55	0x3dbb7401	0.09152985
56	0xbe663e8c	-0.22484797
57	0xbe2d8a28	-0.16947234
58	0xbe3d6594	-0.1849578
59	0x3e22fc2d	0.1591651
60	0x3dc4a8a7	0.096024804
61	0xbe20f6cc	-0.15719146
62	0xbe007896	-0.12546
63	0x3d56cb55	0.052440006
64	0xbe4a60d3	-0.19763498
65	0x3d186785	0.0372081
66	0xbd78cc25	-0.060741562
67	0xbdbd20c0	-0.09234762
68	0xbe4b4588	-0.19850743
69	0xbde1f03d	-0.1103215
70	0x3d6ba88a	0.05753378
71	0x3e4f83b6	0.20265087
72	0xbdad12c0	-0.08450842
73	0xbd06a127	-0.03286853
74	0xbe3a2b8f	-0.18180679
75	0xbe61bbff	-0.22044371
76	0xbc94bca4	-0.018156357
77	0x3dfb694a	0.12275942
78	0xbd942d68	-0.07235223
79	0x3dbd44f8	0.0924167
80	0xbe53b203	-0.20673375
81	0x3d31bcb0	0.043392837
82	0x3e15dd61	0.1463523
83	0xbe20ce24	-0.15703636
84	0x3e073b3a	0.13206187
85	0xbe24d018	-0.16095006
86	0xbda606a9	-0.08106739
87	0x3d5c45b6	0.05377742
88	0xbd85b6e4	-0.06529024
89	0xbe4734d7	-0.1945375
90	0x3da31b48	0.07964188
91	0xbd7d64b0	-0.0618636
92	0xbd515db8	-0.051114768
93	0xbdc654a2	-0.09684111
94	0xbae12ac3	-0.0017178882
95	0xbdc77803	-0.09739687
96	0x3c81955b	0.015818289
97	0xbe147813	-0.1449893
98	0xbe593698	-0.21212232
99	0x3da6f51d	0.081522204
100	0x3e1aec4e	0.15129206
101	0x3d6d19db	0.057885986
102	0xbd8f60d4	-0.070008904
103	0x3e2bf22b	0.16791598
104	0xbe815eb2	-0.2526756
105	0xbe41f3ac	-0.1894061
106	0xbc38c9a3	-0.011278543
107	0x3d5ee1f5	0.05441471
108	0xbdb96cef	-0.090539806
109	0xbde6e24d	-0.11273632
110	0xbb6394dc	-0.0034726178
111	0x3dcd603a	0.100281194
112	0xbe3fa200	-0.18714142
113	0xbd305e13	-0.043058466
114	0xbcdaa6f2	-0.026690934
115	0xbe722399	-0.23646392
116	0xbe30afd9	-0.1725458
117	0xbd22fc80	-0.039791584
118	0xbe2f9f3b	-0.17150585
119	0xbe6b531a	-0.2298092
120	0x3e14023f	0.14453982
121	0x3dee91f1	0.1164893
122	0xbd96e32c	-0.07367548
123	0xbdd2529f	-0.10269665
124	0xbe5c67a6	-0.21523914
125	0xbe54fdef	-0.20799993
126	0xbdf56f32	-0.119840994
127	0xbe375f14	-0.17907363
128	0xbd8c7be6	-0.06859569
129	0x3e723372	0.23652437
130	0xbc425f17	-0.0118634915
131	0x3df1049b	0.117684565
132	0x3e9f8eaa	0.31163532
133	0xbd419365	-0.047259707
134	0xbc25f382	-0.010128858
135	0x3d66eb5b	0.056376796
136	0xbe943e00	-0.28953552
137	0xbd5164d4	-0.051121548
138	0xbe29691c	-0.16544002
139	0xbd4ae52a	-0.049534954
140	0xbdda41ba	-0.106570676
141	0x3df0482a	0.11732514
142	0x3d8ce1c5	0.068789996
143	0xbe21afd6	-0.15789732
144	0xbd7271da	-0.05919061
145	0x3dcf1be0	0.101127386
146	0xbe232c89	-0.15934958
147	0xbd556b6f	-0.05210441
148	0xbed86694	-0.4226576
149	0x3e2ad9eb	0.16684692
150	0xbd762323	-0.060092103
151	0x3c453ac5	0.0120379375
152	0xbe3d18b4	-0.18466455
153	0x3d8eef55	0.06979243
154	0x3dc7494e	0.09730779
155	0xbe60af62	-0.21941903
156	0x3dc21757	0.09477108
157	0x3e1fc21d	0.15601392
158	0xbe1ad5a6	-0.15120563
159	0xbe5d102c	-0.215882
160	0x3d31fdad	0.043454815
161	0xbd09d0b3	-0.033646297
162	0xbe0a56eb	-0.13509719
163	0xbe51d809	-0.20492567
164	0xbe8444a4	-0.2583362
165	0xbe0c782b	-0.13717715
166	0xbea9c688	-0.3315928
167	0xbe19188f	-0.14950775
168	0xbbb8bb3f	-0.005637556
169	0xbeaaaed9	-0.33336523
170	0xbdb5c55a	-0.088755324
171	0x3da61b5c	0.08110687
172	0xbe43f951	-0.19138075
173	0xbe87b8cd	-0.2650818
174	0xbdafd647	-0.08585792
175	0xbe5d8ee3	-0.21636538
176	0xbda1b92a	-0.07896645
177	0x3e09699b	0.13419192
178	0x3da48573	0.08033266
179	0xbe8f3577	-0.27970478
180	0x3e06c0ec	0.13159531
181	0x3df1dc77	0.118096285
182	0xbd841b88	-0.06450564
183	0xbd88ce37	-0.06679957
184	0x3e3507b3	0.17678718
185	0xbe64d58f	-0.22347091
186	0xbe5a36a9	-0.21309914
187	0x3e6a8807	0.22903453
188	0x3e20c8bf	0.15701579
189	0xbea7592d	-0.32685223
190	0xbe1c0dd6	-0.15239653
191	0x3bf0df54	0.0073508415
192	0xbdbcba9f	-0.09215283
193	0xbc136a88	-0.008997567
194	0xbe083183	-0.13300137
195	0xbdc2d82e	-0.09513889
196	0xbe6c52b6	-0.23078427
197	0xbdc72a29	-0.09724838
198	0xbe6f3527	-0.2336012
199	0x3e220b27	0.15824567
200	0xbcdad135	-0.026711086
201	0xbd94bf98	-0.07263106
202	0x3c86fbc5	0.016477475
203	0xbe1d47de	-0.15359446
204	0xbec031c7	-0.37537977
205	0xbe41e531	-0.18935086
206	0xbdd3ea34	-0.10347405
207	0xbd75f8cf	-0.060051735
208	0xbda72254	-0.081608444
209	0x3d8cb92c	0.06871256
210	0xbe3f65f2	-0.18691233
211	0xbe626211	-0.22107722
212	0xbe9c069c	-0.30473793
213	0x3d4975d8	0.04918465
214	0xbdf3f198	-0.11911315
215	0xbe40b06c	-0.188173
216	0xbda48211	-0.08032621
217	0xbde6cd8b	-0.11269673
218	0x3dd6aacb	0.10481795
219	0xbdd7c670	-0.10535896
220	0xbcdc63c6	-0.026903044
221	0x3e61cb6c	0.22050256
222	0xbe3c1cae	-0.18370315
223	0x3d1714ab	0.036884945
224	0x3de512b7	0.1118521
225	0xbe3da6bf	-0.1852064
226	0x3e3088bd	0.17239662
227	0x3dcd96e6	0.10038547
228	0xbc2fd7f7	-0.010732642
229	0x3be0233b	0.0068401373
230	0x3dbc18a3	0.091843866
231	0x3da57916	0.08079736
232	0xbe578d21	-0.2104993
233	0x3d43bb01	0.047785763
234	0xbd2755a6	-0.040853165
235	0xbe48e9b6	-0.19620404
236	0xbdc6a9c1	-0.09700347
237	0xbe1faaf7	-0.15592562
238	0x3e7d9904	0.24765402
239	0xbe2e85ff	-0.17043303
240	0xbe319c5a	-0.173448
241	0x3d6bad37	0.057538237
242	0xbe3726da	-0.17885914
243	0xbe0b267f	-0.13588904
244	0xbac7eab3	-0.0015252441
245	0xbdb6d367	-0.089270405
246	0x3e1ea9df	0.15494488
247	0xbd5fa267	-0.05459824
248	0x3e2dfaf7	0.16990267
249	0x3d9c7cf8	0.076410234
250	0xbe6417b4	-0.22274667
251	0xbe395a1b	-0.18100779
252	0x3d8c5d59	0.06853742
253	0x3e5912ef	0.21198629
254	0xbd9d8cae	-0.07692848
255	0xbe7b587e	-0.24545476

fc_layers.3.bias f4 [64]
0	0xbd86fcb1	-0.06591166
1	0xbd8d7fd9	-0.06909151
2	0x3da39428	0.07987243
3	0xbd9a412c	-0.07531962
4	0xbe020135	-0.12695773
5	0x3da9c4b1	0.08289469
6	0xbd7e3e53	-0.062071156
7	0xbe022cf8	-0.12712467
8	0xbd5ff7c1	-0.054679636
9	0x3e508d1d	0.2036633
10	0xbc836f6a	-0.016044337
11	0x3d6bab7f	0.0575366
12	0x3ca6da86	0.020367872
13	0xbda6c287	-0.08142572
14	0xbdfd84ac	-0.12378821
15	0x3dd72e80	0.10506916
16	0x3e2ac4ee	0.16676685
17	0xbe34c130	-0.1765182
18	0x3d81154d	0.06302891
19	0xba11ba53	-0.00055590755
20	0x3cea6c1e	0.028616007
21	0x3e0b4c31	0.13603283
22	0xbd9e1889	-0.077195235
23	0xbda1efd4	-0.07907072
24	0xbe463a0b	-0.19358079
25	0xbce80508	-0.028322712
26	0x3db8c8a5	0.09022645
27	0x3c1c10b6	0.009525469
28	0xbd9bb1d3	-0.07602277
29	0x3c035be7	0.008017517
30	0xbdffebe2	-0.12496163
31	0x3dbf9423	0.09354427
32	0x3ca38114	0.01995901
33	0x3db3a998	0.08772582
34	0xbd714426	-0.058902882
35	0xbe45ea2a	-0.19327608
36	0xbd974aa5	-0.07387284
37	0x3e06038c	0.1308729
38	0x3dbad157	0.0912196
39	0x3b7a7684	0.0038217613
40	0xbe55e397	-0.208876
41	0xbd0d9752	-0.03456814
42	0x3e42cf7a	0.19024459
43	0xbe3f9aea	-0.18711439
44	0xbe11e61d	-0.14247938
45	0xbd9b2510	-0.075754285
46	0xbd5eff88	-0.054442912
47	0x3e0260ef	0.1273229
48	0xbd92ba80	-0.07164478
49	0x3b84b2a2	0.004049615
50	0xbc0afcc8	-0.008483119
51	0xbd25983e	-0.040428393
52	0xbe24dff1	-0.16101052
53	0x3aad2540	0.0013209954
54	0xbd94b30e	-0.072607145
55	0x3d95a922	0.0730765
56	0x3ddfddcb	0.109309755
57	0xbd92c4fb	-0.07166477
58	0xbd772fbb	-0.060348254
59	0x3da03b4c	0.0782381
60	0xbe1c4ccc	-0.1526367
61	0x3d8ba684	0.0681887
62	0x3d17e0d0	0.037079632
63	0x3dcbcc1c	0.0995104

fc_layers.6.weight f4 [32, 64]
0	0x3e5be114	0.21472579
1	0xbcf6ae9d	-0.030112559
2	0xbe87c379	-0.2651632
3	0x3dfc7f17	0.12328928
4	0xbcd32f2e	-0.025779333
5	0x3c9d0a1c	0.01916986
6	0x3e6f7eb2	0.23388174
7	0x3e791ffa	0.24328604
8	0xbd87824a	-0.066166475
9	0xbe44eb99	-0.19230498
10	0xbd84e3a6	-0.06488733
11	0x3e87535c	0.26430786
12	0xbd56fc47	-0.052486684
13	0xbe4d1db8	-0.20030868
14	0x3c47fc84	0.0122062005
15	0xbe6dbe6a	-0.23217168
16	0x3e4be1be	0.19910333
17	0x3cb93286	0.0226071
18	0xbdd5abca	-0.10433157
19	0x3ddd5cf2	0.108087435
20	0x3e2fa454	0.1715253
21	0xbe5cab49	-0.21549715
22	0xbd079a1f	-0.033105966
23	0xbd45c19a	-0.048280336
24	0xbe780301	-0.24219896
25	0xbea1378e	-0.31487697
26	0xbe49e4f6	-0.19716248
27	0x3b12a030	0.0022373311
28	0xbc89bf72	-0.016814921
29	0xbcf77300	-0.030206203
30	0xbe92a246	-0.2863943
31	0xbd82cff4	-0.0638732
32	0x3d7755b2	0.06038446
33	0xbe84d1c6	-0.25941294
34	0x3e62ab5c	0.22135681
35	0xbe6096f0	-0.21932578
36	0xbe52b357	-0.20576225
37	0xbdb52807	-0.08845525
38	0xbece6b2a	-0.40316135
39	0xbeb54ea3	-0.35411558
40	0xbe688559	-0.22707118
41	0x3d36fde4	0.044675723
42	0xbe8c2b64	-0.27376854
43	0xbe89fb85	-0.26949707
44	0x3de08afb	0.109640084
45	0xbe00ad16	-0.12566027
46	0xbdbef7df	-0.093246214
47	0x3e6fd43f	0.23420809
48	0x3df947fa	0.121719316
49	0xbc60effe	-0.013729094
50	0xbd910f89	-0.07083041
51	0x3e221ee7	0.15832101
52	0xbd060856	-0.032722794
53	0xbe8512fa	-0.2599104
54	0x3e07635b	0.13221495
55	0xbd8c050a	-0.068368986
56	0xbe2a80fd	-0.16650768
57	0xbd3a2477	-0.04544493
58	0x3d9ec114	0.077516705
59	0xbe6255fe	-0.22103116
60	0x3d95103c	0.07278487
61	0x3d1445f5	0.03619953
62	0xbd8f252d	-0.069895126
63	0xbe028369	-0.12745441
64	0xbe3f3d17	-0.18675648
65	0x3d75c43f	0.060001608
66	0xbe7453f7	-0.23860155
67	0xbe965e75	-0.2936894
68	0xbe214550	-0.15749097
69	0x3c6accde	0.014331071
70	0x3e81d8bd	0.2536067
71	0x3e6b6092	0.22986057
72	0xbe1b2b61	-0.15153266
73	0xbe05521c	-0.13019603
74	0x3e460632	0.19338301
75	0x3dd85740	0.105635166
76	0xbe97813c	-0.29590786
77	0xbe78d468	-0.24299777
78	0xbe87c004	-0.26513684
79	0xbe68c257	-0.22730385
80	0xbdc37147	-0.0954309
81	0xbe1c5d47	-0.15269957
82	0x3b3d7beb	0.0028912972
83	0x3e653caf	0.2238643
84	0x3d521647	0.051290777
85	0xbe5e9fd2	-0.21740654
86	0xbe7a2f86	-0.24432191
87	0xbe5951c2	-0.21222594
88	0x3dcdffa4	0.10058525
89	0xbe474a11	-0.19461848
90	0xbd42f75b	-0.047599178
91	0xbe7914a3	-0.24324279
92	0xbe9b4393	-0.30324993
93	0x3cde8525	0.027163098
94	0xbdd7a8d0	-0.10530245
95	0xbe9de4cb	-0.30838618
96	0xbe3cdbfa	-0.1844329
97	0x3cd7d21e	0.026345309
98	0xbd2fcb83	-0.042918693
99	0xbb86be29	-0.0041120243
100	0x3e33e679	0.17568387
101	0xbd2f583e	-0.042808764
102	0xbe8f7c95	-0.28024736
103	0x3dbff6ae	0.09373222
104	0xbddff2a5	-0.10934953
105	0x3df7c9d0	0.120990396
106	0xbe2ce214	-0.16883117
107	0x3e283cb1	0.16429402
108	0x3e7821b2	0.24231604
109	0x3dccfc8d	0.10009108
110	0xbe3b855d	-0.18312593
111	0xbd56d756	-0.052451454
112	0x3e42838b	0.18995492
113	0xbcf20015	-0.029541055
114	0xbe2df3c4	-0.1698752
115	0xbe90e47e	-0.28299326
116	0xbd74cc7e	-0.05976533
117	0x3e3bde98	0.18346632
118	0xbdfb680a	-0.12275703
119	0xbd0af267	-0.03392258
120	0xbe5d625d	-0.21619554
121	0xbb6c965e	-0.0036100368
122	0x3cc0e90d	0.023548627
123	0xbde28b5d	-0.11061738
124	0x3e6b29f6	0.22965226
125	0x3d6c5e34	0.057707027
126	0x3d44f28c	0.048082873
127	0xbd94d444	-0.07267049
128	0xbe7ed65b	-0.24886458
129	0xbedf22bd	-0.4358119
130	0xbd42ce86	-0.047560237
131	0x3c90e56d	0.017687524
132	0xbe281242	-0.16413215
133	0xbe6a19bd	-0.22861381
134	0xbe92b177	-0.2865102
135	0x3e8788c9	0.26471546
136	0x3eaf3d93	0.34226665
137	0x3e2f81a0	0.17139292
138	0xbd44142a	-0.047870792
139	0xbe1a5d4f	-0.15074657
140	0xbe265e3c	-0.16246885
141	0x3cd71f7a	0.026260126
142	0x3ca39f35	0.019973377
143	0x3c40a105	0.01175714
144	0xbe99b387	-0.3001978
145	0x3e253456	0.16133246
146	0x3de13d3d	0.109980084
147	0x3e6914ad	0.22761793
148	0xbe6904c8	-0.2275573
149	0xbe8f94a0	-0.2804308
150	0xbd99a290	-0.075017095
151	0x3dd4924c	0.103794664
152	0xbe99d9de	-0.30049032
153	0xbe99bb62	-0.30025774
154	0x3da6aa77	0.08137982
155	0x3e23a7b2	0.1598194
156	0xbdb235ba	-0.08701654
157	0xbe830b1a	-0.25594407
158	0x3dfe22fa	0.12409015
159	0x3de4196a	0.1113766
160	0xbe99d83d	-0.3004779
161	0xbe9d4df9	-0.3072355
162	0xbe27e596	-0.16396174
163	0xbe8d5f3e	-0.27611727
164	0xbe25ea2e	-0.16202614
165	0xbdf8da8a	-0.12151058
166	0x3d27a96f	0.04093307
167	0x3d563140	0.052293062
168	0x3de97496	0.1139919
169	0xbe8a6d96	-0.27036732
170	0xbebc8816	-0.36822575
171	0xbd63e6a5	-0.05563988
172	0x3e7f34fb	0.24922554
173	0x3db2fb07	0.08739286
174	0x3d31445c	0.043278083
175	0xbe80a547	-0.25126097
176	0xbe5718aa	-0.21005502
177	0x3e243dbc	0.16039175
178	0xbcd8c62b	-0.026461681
179	0xbe7974d2	-0.2436097
180	0x3dc296c9	0.09501416
181	0x3cf860e4	0.030319639
182	0xbe9725b8	-0.29520965
183	0xbe1dc3e9	-0.15406765
184	0xbd68844e	-0.0567668
185	0x3e475423	0.1946569
186	0xbde1b9da	-0.110217765
187	0xbeafd72d	-0.34343854
188	0xbe1029b2	-0.14078405
189	0xbe6af378	-0.22944438
190	0xbe8f41e6	-0.27979964
191	0xbe34209a	-0.17590562
192	0x3d35b6bb	0.04436372
193	0xbe8a0b73	-0.2696186
194	0xbe3acf31	-0.182431
195	0xbde56358	-0.11200589
196	0x3e612a56	0.21988806
197	0xb8f50d47	-0.000116849835
198	0x3e77db32	0.2420471
199	0xbd1e1f2a	-0.03860394
200	0xbc212f5d	-0.009837952
201	0xbd4ba8fb	-0.0497217
202	0x3e4d0415	0.20021088
203	0xbdac945b	-0.08426734
204	0xbdeeb7f1	-0.11656178
205	0x3de74034	0.11291543
206	0xbe733f88	-0.23754704
207	0xbe2c6c35	-0.16838153
208	0xbe23bd72	-0.15990236
209	0x3dccddd0	0.10003245
210	0xbe9fef53	-0.31237277
211	0x3e3089de	0.17240092
212	0xbe13a5c6	-0.14418706
213	0x3d8350f4	0.06411925
214	0x3dee0501	0.11622048
215	0xbcb8069b	-0.022464087
216	0xbe7e2510	-0.24818826
217	0xbd042159	-0.032258365
218	0x3c692ceb	0.014231901
219	0x3eb5d407	0.35513327
220	0xbe214bfd	-0.15751643
221	0xbda5fd0b	-0.08104905
222	0xbd44ac5b	-0.048015933
223	0x3d52b839	0.05144522
224	0x3a24365f	0.00062642054
225	0xbd93bb90	-0.07213509
226	0xbbbf3aea	-0.0058358805
227	0xbd9c2d28	-0.076258
228	0x3bfef072	0.007780128
229	0xbd1ce256	-0.03830179
230	0xbd973c98	-0.07384604
231	0x3d22e546	0.039769433
232	0xbe8799a9	-0.2648442
233	0xbdac1fd7	-0.084045105
234	0xbea72e48	-0.32652497
235	0x3d9021c1	0.07037688
236	0x3d25acb9	0.040447924
237	0x3e3ea5a2	0.18617871
238	0x3d96ee2c	0.073696464
239	0xbe16f051	-0.14740111
240	0xbdcb17af	-0.09916627
241	0xbe3bb78e	-0.1833174
242	0xbe8fbac3	-0.28072175
243	0xbe819da5	-0.25315586
244	0x3bb541f4	0.005531544
245	0xbdba834b	-0.091070734
246	0xbe963a62	-0.29341418
247	0x3e514a19	0.20438422
248	0x3ea9a415	0.33132997
249	0x3e920023	0.2851573
250	0x3e1b2597	0.15151058
251	0xbe3d0a7f	-0.18461035
252	0x3e7b0bb1	0.24516179
253	0xbe1f1262	-0.15534356
254	0xbd1936b3	-0.03740568
255	0xbe3899f2	-0.18027475

fc_layers.6.bias f4 [32]
0	0xbe368c6a	-0.17827001
1	0xbe8c3254	-0.27382147
2	0xbd2a8e01	-0.04163933
3	0xbd23061b	-0.039800745
4	0x3e9c8c35	0.3057572
5	0xbea5928b	-0.32338366
6	0xbe6ee935	-0.23331149
7	0xbe0b8585	-0.13625152
8	0xbe7093e7	-0.2349392
9	0xbdfbc476	-0.12293331
10	0x3d51df33	0.05123825
11	0xbe7e38fd	-0.24826427
12	0x3deeeac5	0.116658725
13	0x3df0c710	0.11756718
14	0xbe50c6d0	-0.20388341
15	0x3d9babb2	0.07601108
16	0x3e711c8d	0.23546048
17	0xbabd63ad	-0.0014449261
18	0xbdb706a6	-0.08936815
19	0x3daaf4e5	0.08347491
20	0x3f0374ce	0.51350105
21	0xbe990d0c	-0.29892766
22	0x3dc380b2	0.09546031
23	0x3e6451ab	0.22296779
24	0x3d81d76b	0.06339916
25	0xbf03e0b0	-0.5151472
26	0xbd6cfab5	-0.05785628
27	0x3d12f359	0.035876606
28	0xbde489d5	-0.11159102
29	0x3ed4cca2	0.41562372
30	0x3f10279c	0.5631044
31	0x3e7ed93d	0.24887557

fc_layers.8.weight f4 [4, 32]
0	0xbe5d11aa	-0.2158877
1	0xbe15fc5c	-0.14647049
2	0xbeb3cfb5	-0.35119405
3	0x3e888b33	0.266687
4	0xbd461458	-0.048359245
5	0xbd9c90a4	-0.076447755
6	0xbe866e82	-0.26256186
7	0x3b7c0442	0.0038454686
8	0xbe5cbf2e	-0.21557304
9	0xbd961af6	-0.07329361
10	0x3e91ae11	0.28453115
11	0xbdce4e08	-0.10073477
12	0xbe3dfdfe	-0.18553922
13	0xbd1460bd	-0.03622507
14	0xbdf28cd5	-0.11843268
15	0xbd86ed5f	-0.06588244
16	0x3dd47013	0.10372939
17	0xbd2f8fe5	-0.042861838
18	0x3de618dd	0.11235211
19	0x3e83d737	0.25750133
20	0x3e8e0409	0.27737454
21	0x3e2bd2b5	0.16779597
22	0xbda6ae93	-0.08138766
23	0x3dd5ec9d	0.10445521
24	0x3d889089	0.06668193
25	0xbe3caa4d	-0.1842434
26	0xbd7bc493	-0.061466765
27	0x3e743c18	0.23851049
28	0xbd007f00	-0.031371117
29	0x3d276bf3	0.040874433
30	0x3e9e3249	0.3089774
31	0xbf09675f	-0.53673357
32	0xbeaf26d1	-0.34209302
33	0xbe2f7a92	-0.171366
34	0xbe4e8c8a	-0.20170799
35	0xbe768177	-0.24072824
36	0xbf2804dd	-0.6563242
37	0xbe975682	-0.29558188
38	0xbe712a6e	-0.23551342
39	0x3cb56d8b	0.02214696
40	0x3e0ae1aa	0.13562647
41	0x3da4509b	0.08023187
42	0x3e8abae8	0.27095723
43	0x3de3060b	0.11085137
44	0x3cab2a98	0.020894334
45	0x3e3530c3	0.17694382
46	0xbe31b1ef	-0.17353033
47	0xbe3e7065	-0.18597563
48	0x3e3ba547	0.18324767
49	0x3e14ae31	0.14519574
50	0x3df67d13	0.12035575
51	0x3de01ba9	0.10942776
52	0x3e8bc55e	0.27299017
53	0xbc8792cd	-0.016549492
54	0x3e39319d	0.18085332
55	0x3e262f2e	0.16228935
56	0xbd7ad517	-0.061238375
57	0xbe9b5726	-0.30339926
58	0xbe07bc9c	-0.13255543
59	0x3e14d584	0.14534575
60	0xbcbece16	-0.023291629
61	0x3e546f76	0.20745644
62	0x3e6c12e0	0.23054075
63	0xbded0d57	-0.1157481
64	0x3d0a113c	0.033707842
65	0xbd2ee455	-0.042698223
66	0xbd62e2ec	-0.05539219
67	0x3d2dcb75	0.04243036
68	0xbe7155d9	-0.23567905
69	0x3e9ec5d7	0.31010315
70	0xbe9c3d6b	-0.30515608
71	0xbe7fbc11	-0.24974085
72	0x3cbb9d83	0.022902256
73	0x3d459dfb	0.048246365
74	0xbdaa9fda	-0.083312705
75	0xbdaba0de	-0.08380292
76	0x3df628e4	0.12019518
77	0xbda86d90	-0.082240224
78	0xbe873192	-0.26405007
79	0x3c61d68b	0.013784061
80	0xbd508172	-0.0509047
81	0x3ccac92c	0.02475413
82	0x3da33537	0.07969134
83	0x3db1ed7b	0.08687874
84	0x3e85c321	0.26125434
85	0x3e8f39ef	0.27973887
86	0x3e3f8ed0	0.18706822
87	0xbe45935d	-0.19294496
88	0x3e47ae4f	0.19500087
89	0xbe230eb5	-0.15923579
90	0x3e1c15e6	0.15242729
91	0x3de7e0e0	0.113221884
92	0xbe3313f6	-0.17488083
93	0x3e452045	0.19250591
94	0x3ed1a492	0.4094587
95	0xbf3d3a14	-0.73916745
96	0xbd544998	-0.051827997
97	0x3d603c84	0.054745212
98	0xbe086176	-0.13318428
99	0xbe83101d	-0.2559823
100	0xbee1c068	-0.44092107
101	0xbe80a4f6	-0.25125855
102	0x3d87f64c	0.06638774
103	0x3de4e869	0.11177141
104	0x3e2cbb26	0.16868266
105	0xbda03b1a	-0.07823773
106	0x3e4edc72	0.2020128
107	0x3e527e3f	0.20555972
108	0x3de8bff8	0.1136474
109	0x3df960fb	0.12176701
110	0x3eae6bcb	0.34066615
111	0xbe57dbd9	-0.21079959
112	0x3de361f6	0.11102669
113	0x3df9a306	0.121892974
114	0x3e48911e	0.19586608
115	0x3d0f06c4	0.03491856
116	0x3e226833	0.15860061
117	0x3d91b36c	0.071143
118	0xbe544b5c	-0.20731872
119	0x3e54f302	0.20795825
120	0x3da8ffcc	0.082519144
121	0xbe943eef	-0.28954265
122	0xbde83ed7	-0.11340111
123	0x3dbb7c2e	0.09154545
124	0x3e4465b1	0.19179417
125	0x3e8be904	0.27326214
126	0x3a82a022	0.0009965936
127	0xbe5a6f29	-0.21331467

fc_layers.8.bias f4 [4]
0	0x3e49ce48	0.19707596
1	0x3e69a530	0.2281692
2	0x3e785ea9	0.2425486
3	0x3ec43878	0.38324332
