output/dqn/model/4x4/6000.pth (torch, 53468 bytes, 8 tensors)

fc_layers.0.weight f4 [128, 16]
0.13496527 0.20930023 0.020208359 0.27302504 0.45916465 -0.11741924 0.4926606 0.47077674
0.18878576 0.49048936 -0.45258257 -0.45476913 0.5633288 0.53159714 0.09339851 0.30127978
-0.23932159 -0.027762992 0.1103044 -0.49140102 0.21369189 0.48504037 -0.3922968 -0.54442084
0.33218727 -0.1339693 -0.327326 -0.03847325 0.589503 0.4607434 -0.05947203 -0.13235638
-0.13269751 -0.44080597 -0.080902666 0.12703612 -0.35748687 0.40366834 0.3740648 -0.16493979
-0.053874146 0.29779854 0.36416057 -0.10221052 0.34343714 -0.57107836 0.28476 0.07837105
-0.4460067 0.22811794 -0.5336614 -0.14479476 -0.21626118 0.31168586 -0.5528697 -0.3164966
0.5087994 0.15230222 0.19475286 0.29796052 -0.28466153 0.33798406 0.22689356 -0.11099261
0.019043459 0.44255653 0.2057075 -0.52934843 -0.6020105 0.48361653 -0.4438144 -0.2288928
0.3181289 -0.14756683 0.33868384 -0.18398947 -0.081240356 -0.30597898 0.25391802 0.5219367
-0.43655282 -0.20865488 -0.1587097 0.26761338 -0.51988006 0.32305604 0.101383865 -0.017546952
0.34869522 0.23441866 -0.2318432 -0.155772 0.053394675 0.23574348 0.06803626 -0.54543567
-0.18262623 -0.20586543 -0.26643637 -0.54935503 0.039885752 0.24999118 -0.5617555 -0.14464447
-0.21201542 -0.26346833 0.25922158 0.42786437 -0.083557904 -0.07313882 0.19878533 0.21638715
-0.020974517 -0.32196552 -0.4847574 -0.4834476 0.0027358532 -0.2280271 0.49958566 -0.0492844
0.20261428 -0.42939222 0.15971409 0.37158406 -0.23060137 0.51865935 0.099668264 -0.6007991
0.07043612 0.63857645 -0.09512442 -0.3991673 -0.13738617 -0.49128327 -0.17534664 -0.4298513
-0.52902365 0.40116173 -0.20099947 0.22748703 -0.48807693 -0.35313985 0.40322894 -0.12011939
0.11186468 -0.58802485 -0.58132255 -0.500143 -0.12932768 0.42636412 -0.43337083 -0.47971606
-0.04385607 0.16566682 0.21945578 -0.15251005 -0.12345171 0.30190107 -0.07701567 -0.5423717
-0.02358704 -0.08251619 -0.56333697 -0.16317186 -0.49280846 0.29449052 0.0348906 0.39206833
0.039796498 0.3157488 0.2992291 0.07053554 0.29970282 -0.525677 0.281151 0.26314765
0.109800264 0.04284283 -0.20692587 -0.3190275 0.30097008 -0.2530697 0.45757827 0.15689695
0.24962422 0.39933884 -0.12331241 -0.14921957 0.47675294 -0.0017382931 -0.1710402 -0.022776246
-0.56459093 0.21788095 0.20548658 -0.55068195 0.46226352 0.050282657 -0.15858042 -0.34320965
-0.6081655 0.2273342 0.46554726 -0.1523745 -0.3879521 -0.4263808 0.42507043 -0.029006183
0.30568978 0.38723782 -0.38996744 0.15953869 0.4994936 0.40262443 0.34303245 0.32869643
0.49880937 0.1289585 -0.30763513 -0.036076665 0.5626659 0.1599583 -0.1439498 -0.10383642
-0.52612984 0.5342086 -0.3690871 0.011392772 -0.27008763 0.4204802 -0.31546086 0.54383284
0.53638047 0.3504508 -0.57282746 0.30874258 -0.21387434 -0.1972911 -0.30432275 0.40017372
-0.015695568 0.088495314 0.18419044 -0.36850965 0.07184319 0.20058596 0.3370802 0.23912048
-0.58937013 0.10107728 0.10003178 0.36948115 0.18318623 0.49955758 -0.11176584 -0.035453975
00000000: 5634 0a3e cd52 563e 008c a53c f0c9 8b3e
00000010: a117 eb3e 8079 f0bd 033e fc3e a609 f13e
00000020: 0e51 413e 6c21 fb3e e7b8 e7be 80d7 e8be
00000030: 5136 103f c016 083f b847 bf3d 5841 9a3e
00000040: b810 75be 376f e3bc 46e7 e13d ea98 fbbe
00000050: 0cd2 5a3e 3657 f83e 20db c8be 2a5f 0bbf
00000060: 7314 aa3e 402f 09be 4697 a7be 2096 1dbd
00000070: abe9 163f 8fe6 eb3e f198 73bd 6e88 07be
00000080: dbe1 07be 52b1 e1be 4cb0 a5bd c215 023e
00000090: 8508 b7be 9ead ce3e 6c85 bf3e fae5 28be
000000a0: 23ab 5cbd 0d79 983e 4173 ba3e c053 d1bd
000000b0: fed6 af3e 3132 12bf 10cc 913e 0081 a03d
000000c0: fd5a e4be c097 693e 099e 08bf 1445 14be
000000d0: 9273 5dbe 4a95 9f3e de88 0dbf d80b a2be
000000e0: ad40 023f 1df5 1b3e 4b6d 473e 488e 983e
000000f0: 28bf 91be 3f0c ad3e c956 683e 1850 e3bd
00000100: 0701 9c3c c596 e23e fda4 523e 6183 07bf
00000110: 5c1d 1abf 969c f73e a43b e3be e062 6abe
00000120: cbe1 a23e c21b 17be f867 ad3e bc67 3cbe
00000130: 5861 a6bd 47a9 9cbe 8b01 823e a59d 053f
00000140: da83 dfbe a0a9 55be cc84 22be 9f04 893e
00000150: dc16 05bf 9a67 a53e 58a2 cf3d a0be 8fbc
00000160: 2e88 b23e 720b 703e 4e68 6dbe b282 1fbe
00000170: 60b4 5a3d bd66 713e 9856 8b3d aca1 0bbf
00000180: 5f02 3bbe 63ce 52be 596a 88be 88a2 0cbf
00000190: 3e5f 233d b0fd 7f3e 35cf 0fbf ae1d 14be
000001a0: 921a 59be 52e5 86be b1b8 843e 0a11 db3e
000001b0: 6820 abbd cec9 95bd 628e 4b3e 9894 5d3e
000001c0: c0d2 abbc aad8 a4be 1f32 f8be 7286 f7be
000001d0: 004c 333b f07f 69be b1c9 ff3e 70de 49bd
000001e0: 1e7a 4f3e 4cd9 dbbe 178c 233e 4440 be3e
000001f0: c422 6cbe dcc6 043f e01e cc3d f8cd 19bf
00000200: d040 903d bf79 233f 98d0 c2bd a85f ccbe
00000210: f6ae 0cbe 7b89 fbbe 128e 33be 7815 dcbe
00000220: 186e 07bf 1265 cd3e ced2 4dbe 5cf2 683e
00000230: 38e5 f9be bfce b4be 0674 ce3e 2801 f6bd
00000240: 4f19 e53d cc88 16bf 8ed1 14bf 5f09 00bf
00000250: 7a6e 04be 664c da3e c8e2 ddbe 589d f5be
00000260: 6ca2 33bd 90a4 293e 04b9 603e 982b 1cbe
00000270: 40d4 fcbd c792 9a3e 64ba 9dbd dfd8 0abf
00000280: 9c39 c1bc 40fe a8bd da36 10bf 8616 27be
00000290: 6451 fcbe 76c7 963e 72e9 0e3d 2ebd c83e
000002a0: a701 233d d4a9 a13e 8e34 993e f074 903d
000002b0: a672 993e c592 06bf 06f3 8f3e 4abb 863e
000002c0: f6de e03d f77b 2f3d 60e4 53be 9357 a3be
000002d0: c018 9a3e 5a92 81be b347 ea3e 98a9 203e
000002e0: 7e9d 7f3e 2476 cc3e 388b fcbd 04cd 18be
000002f0: f618 f43e 70d7 e3ba 2a25 2fbe 4095 babc
00000300: 0889 10bf 2f1c 5f3e 136b 523e 7ef9 0cbf
00000310: cead ec3e 30f5 4d3d e862 22be 2db9 afbe
00000320: bcb0 1bbf 4cca 683e 365c ee3e 1008 1cbe
00000330: a8a1 c6be 964e dabe d5a2 d93e 609e edbc
00000340: 5f83 9c3e 0944 c63e d0a9 c7be 1c5e 233e
00000350: a0bd ff3e ca24 ce3e f3a1 af3e e64a a83e
00000360: f163 ff3e b20d 043e 5a82 9dbe 20c5 13bd
00000370: df0a 103f 1ccc 233e 9467 13be 30a8 d4bd
00000380: 72b0 06bf e5c1 083f fcf8 bcbe c0a8 3a3c
00000390: ed48 8abe 2e49 d73e 1684 a1be a138 0b3f
000003a0: 3b50 093f 4a6e b33e d2a4 12bf 8213 9e3e
000003b0: e001 5bbe ae06 4abe 31d0 9bbe 92e3 cc3e
000003c0: fe93 80bc 083d b53d 6b9c 3c3e 4cad bcbe
000003d0: 8622 933d 6866 4d3e c795 ac3e 00dc 743e
000003e0: f6e0 16bf 9b01 cf3d 76dd cc3d a22c bd3e
000003f0: 2c95 3b3e 03c6 ff3e 7de5 e4bd 3038 11bd

fc_layers.0.bias f4 [128]
-0.22808512 -0.055991404 -0.14651474 -0.012186401 -0.17048597 -0.35130993 0.05016478 -0.27142078
-0.13196705 -0.04517294 -0.15672158 -0.08877061 -0.25195593 -0.16924962 -0.025127577 -0.044741496
-0.029867634 -0.103232734 -0.09299144 -0.18883042 -0.24598995 -0.15119018 -0.10658564 -0.122735746
-0.17830625 0.07108419 -0.28142753 0.01776447 -0.16403529 0.12018982 -0.2880512 -0.07694893
-0.35239872 0.0145942485 -0.22286315 -0.081893824 -0.27135393 -0.062125616 -0.0388009 -0.33520368
0.007682775 -0.27905977 -0.30760702 -0.090227164 -0.19839999 -0.13823313 -0.152469 -0.3095837
0.04925511 -0.11886324 -0.19677092 -0.16876544 -0.2219102 -0.21341637 0.0428901 -0.102304995
-0.15566604 -0.3150291 -0.14076598 -0.1733587 -0.04054874 -0.159715 -0.23564316 -0.19559546
-0.00095109723 -0.30365342 -0.11411743 -0.2498345 0.17958331 -0.096508026 -0.09089102 -0.3195574
-0.17809547 -0.07356378 -0.07553207 -0.024471004 -0.18102935 -0.04991736 -0.17686258 -0.23082526
-0.16860116 -0.31441227 -0.25676507 -0.24592154 -0.12890671 -0.16215055 -0.1937235 -0.034319647
-0.2992628 -0.18590297 0.0076858397 -0.40290588 -0.08155181 -0.003413967 -0.09257526 -0.3445608
-0.11576228 -0.01319561 -0.22743323 -0.020976366 -0.13319516 -0.02255679 -0.11958185 -0.32290018
-0.2645968 -0.1813921 -0.06784238 -0.033046797 -0.06997552 0.15980457 0.031347632 -0.2785315
-0.2394441 -0.1813833 -0.20565546 -0.2932523 -0.09232838 -0.084205516 -0.1941639 -0.018384395
-0.3102801 -0.3785068 -0.21623772 -0.19066808 -0.2563101 -0.1417492 -0.08325805 -0.21207014
00000000: 258f 69be 3e57 65bd f607 16be 78a9 47bc
00000010: e093 2ebe e5de b3be 9679 4d3d aaf7 8abe
00000020: 5f22 07be 4307 39bd 9f7b 20be 5ecd b5bd
00000030: 5e00 81be c64f 2dbe 59d8 cdbc dc42 37bd
00000040: f8ac f4bc af6b d3bd 4c72 bebd c35c 41be
00000050: cae4 7bbe 99d1 1abe 9249 dabd e15c fbbd
00000060: ea95 36be 9694 913d 4517 90be cb86 913c
00000070: def8 27be 1526 f63d 727b 93be 6797 9dbd
00000080: 9b6d b4be b71c 6f3c 3d36 64be f3b7 a7bd
00000090: e7ee 8abe 6e77 7ebd b1ed 1ebd d19f abbe
000000a0: cabf fb3b ece0 8ebe ab7e 9dbe 05c9 b8bd
000000b0: 5e29 4bbe fc8c 0dbe d520 1cbe c181 9ebe
000000c0: babf 493d 926e f3bd 517e 49be d9d0 2cbe
000000d0: 6d3c 63be d289 5abe 88ad 2f3d 4885 d1bd
000000e0: eb66 1fbe 7f4b a1be f524 10be f184 31be
000000f0: 7016 26bd 548c 23be 714c 71be 2d4a 48be
00000100: 0e53 79ba 7678 9bbe 66b6 e9bd 9dd4 7fbe
00000110: b0e4 373e 00a6 c5bd 1225 babd 079d a3be
00000120: a95e 36be 9ba8 96bd 8fb0 9abd 6a77 c8bc
00000130: c25f 39be 2576 4cbd 771b 35be 755d 6cbe
00000140: c8a5 2cbe a5fa a0be b676 83be dbd2 7bbe
00000150: 1f00 04be cb0a 26be 745f 46be c292 0cbd
00000160: f938 99be 595d 3ebe 7fd9 fb3b ae49 cebe
00000170: a304 a7bd ddbc 5fbb 1998 bdbd 466a b0be
00000180: c614 edbd 6632 58bc 42e4 68be a1d6 abbc
00000190: 5064 08be 04c9 b8bc 54e7 f4bd 2c53 a5be
000001a0: 3b79 87be dabe 39be f2f0 8abd 145c 07bd
000001b0: 534f 8fbd cfa3 233e 6066 003d ae9b 8ebe
000001c0: d630 75be 8bbc 39be 5897 52be 2a25 96be
000001d0: a916 bdbd f173 acbd e7d2 46be df9a 96bc
000001e0: 09dd 9ebe a5cb c1be 6c6d 5dbe 7e3e 43be
000001f0: 143b 83be b426 11be 3283 aabd ea28 59be

fc_layers.3.weight f4 [64, 128]
0.11320687 -0.17512856 -0.12792023 -0.19228618 -0.10430826 0.06643324 0.014994391 -0.010057918
0.04556538 -0.0014903722 -0.064598575 -0.08388344 -0.26804453 0.00023430026 -0.07972653 -0.16489731
0.061922316 -0.059925824 0.07588836 0.011956491 -0.22399718 0.023028644 0.0061428966 -0.11727092
-0.065124646 -0.16633627 -0.10447192 -0.107364215 -0.14940165 -0.09238866 0.105897546 -0.043582242
0.09946973 -0.043210834 -0.12001803 0.08610405 -0.106352665 -0.20306647 0.068879455 -0.23244242
-0.07263788 -0.21218719 -0.21590748 -0.07222127 -0.12772903 0.016784951 0.031672984 -0.080846876
-0.033847332 -0.16856104 0.12798966 -0.0681398 0.08606391 -0.20146285 -0.20257783 0.09152985
-0.22484797 -0.16947234 -0.1849578 0.1591651 0.096024804 -0.15719146 -0.12546 0.052440006
-0.19763498 0.0372081 -0.060741562 -0.09234762 -0.19850743 -0.1103215 0.05753378 0.20265087
-0.08450842 -0.03286853 -0.18180679 -0.22044371 -0.018156357 0.12275942 -0.07235223 0.0924167
-0.20673375 0.043392837 0.1463523 -0.15703636 0.13206187 -0.16095006 -0.08106739 0.05377742
-0.06529024 -0.1945375 0.07964188 -0.0618636 -0.051114768 -0.09684111 -0.0017178882 -0.09739687
0.015818289 -0.1449893 -0.21212232 0.081522204 0.15129206 0.057885986 -0.070008904 0.16791598
-0.2526756 -0.1894061 -0.011278543 0.05441471 -0.090539806 -0.11273632 -0.0034726178 0.100281194
-0.18714142 -0.043058466 -0.026690934 -0.23646392 -0.1725458 -0.039791584 -0.17150585 -0.2298092
0.14453982 0.1164893 -0.07367548 -0.10269665 -0.21523914 -0.20799993 -0.119840994 -0.17907363
-0.068619676 0.24409106 -0.032859873 0.07043755 0.26126158 -0.047259707 -0.010416694 0.06400035
-0.28953552 -0.05701916 -0.17813896 -0.08110662 -0.10649793 0.12682998 0.031726055 -0.16678385
-0.06401393 0.08699645 -0.15934958 -0.08628743 -0.42080057 0.16944934 -0.072788134 0.024710342
-0.1959292 0.038468067 0.10721182 -0.2030225 0.05287032 0.10779295 -0.16389163 -0.2032326
0.056141663 -0.04239545 -0.12507328 -0.21129854 -0.2646748 -0.14986174 -0.3315928 -0.16220483
-0.019203706 -0.3478289 -0.11030202 0.08336262 -0.19138075 -0.2619885 -0.07316532 -0.22800829
-0.07896645 0.11704361 0.08139561 -0.2923943 0.092746645 0.09826967 -0.09914753 -0.06585932
0.17678878 -0.22347091 -0.21309914 0.18718876 0.1277063 -0.32685223 -0.16485068 0.010398489
-0.117605686 0.0036934344 -0.12034338 -0.0825684 -0.23268546 -0.09724838 -0.23969868 0.14554943
-0.039409995 -0.06021792 0.0072558885 -0.15308605 -0.37537977 -0.19560382 -0.09488271 -0.047361866
-0.09088504 0.06864756 -0.19919282 -0.22107722 -0.31891853 0.013071755 -0.122049205 -0.18928628
-0.067655355 -0.11045884 0.06619921 -0.10535896 -0.029477889 0.19404171 -0.18370315 0.036884945
0.10054176 -0.19782588 0.1451988 0.08181968 -0.035272595 -0.036796894 0.07480507 0.08079736
-0.22895187 0.047785763 -0.033975214 -0.20981646 -0.12312622 -0.15592562 0.19982603 -0.18312626
-0.17328915 0.07022928 -0.18534283 -0.14685185 -0.010195143 -0.089270405 0.124536335 -0.07969471
0.16986194 0.076410234 -0.22274667 -0.17982447 0.05585069 0.17765503 -0.10747018 -0.24393141
00000000: 01d9 e73d e754 33be 85fd 02be abe6 44be
00000010: 929f d5bd 270e 883d 09ab 753c f7c9 24bc
00000020: c4a2 3a3d 9858 c3ba 424c 84bd 15cb abbd
00000030: 223d 89be 7fae 7539 aa47 a3bd d7da 28be
00000040: 41a2 7d3d c874 75bd 5b6b 9b3d 28e5 433c
00000050: 845f 65be 91a6 bc3c 5a4a c93b bc2b f0bd
00000060: 1260 85bd 0e54 2abe 60f5 d5bd c5e1 dbbd
00000070: bffc 18be 4436 bdbd d0e0 d83d 4b83 32bd
00000080: c9b6 cb3d d8fd 30bd 03cc f5bd 5257 b03d
00000090: 6dcf d9bd a8f0 4fbe ac10 8d3d 6305 6ebe
000000a0: 2bc3 94bd 9947 59be da16 5dbe bfe8 93bd
000000b0: 66cb 02be 9880 893c 88bb 013d 0c93 a5bd
000000c0: 80a3 0abd 449b 2cbe b90f 033e e18c 8bbd
000000d0: 4642 b03d 474c 4ebe 9070 4fbe 0174 bb3d
000000e0: 8c3e 66be 288a 2dbe 9465 3dbe 2dfc 223e
000000f0: a7a8 c43d ccf6 20be 9678 00be 55cb 563d
00000100: d360 4abe 8567 183d 25cc 78bd c020 bdbd
00000110: 8845 4bbe 3df0 e1bd 8aa8 6b3d b683 4f3e
00000120: c012 adbd 27a1 06bd 8f2b 3abe ffbb 61be
00000130: a4bc 94bc 4a69 fb3d 682d 94bd f844 bd3d
00000140: 03b2 53be b0bc 313d 61dd 153e 24ce 20be
00000150: 3a3b 073e 18d0 24be a906 a6bd b645 5c3d
00000160: e4b6 85bd d734 47be 481b a33d b064 7dbd
00000170: b85d 51bd a254 c6bd c32a e1ba 0378 c7bd
00000180: 5b95 813c 1378 14be 9836 59be 1df5 a63d
00000190: 4eec 1a3e db19 6d3d d460 8fbd 2bf2 2b3e
000001a0: b25e 81be acf3 41be a3c9 38bc f5e1 5e3d
000001b0: ef6c b9bd 4de2 e6bd dc94 63bb 3a60 cd3d
000001c0: 00a2 3fbe 135e 30bd f2a6 dabc 9923 72be
000001d0: d9af 30be 80fc 22bd 3b9f 2fbe 1a53 6bbe
000001e0: 3f02 143e f191 ee3d 2ce3 96bd 9f52 d2bd
000001f0: a667 5cbe effd 54be 326f f5bd 145f 37be
00000200: 7988 8cbd 02f3 793e 1398 06bd 9041 903d
00000210: 14c4 853e 6593 41bd c8aa 2abc 9e12 833d
00000220: 003e 94be ec8c 69bd 0f6a 36be 3a1b a6bd
00000230: 961b dabd b8df 013e 2ef3 013d 63c9 2abe
00000240: bc19 83bd 322b b23d 892c 23be 77b7 b0bd
00000250: 2c73 d7be 2184 2d3e f211 95bd 586d ca3c
00000260: aaa1 48be b190 1d3d df91 db3d 21e5 4fbe
00000270: 8c8e 583d 8dc2 dc3d 35d3 27be 351c 50be
00000280: cdf4 653d daa6 2dbd 3613 00be a55e 58be
00000290: 7583 87be 5b75 19be 88c6 a9be 0619 26be
000002a0: 1751 9dbc a116 b2be 07e6 e1bd 05ba aa3d
000002b0: 51f9 43be 5b23 86be b3d7 95bd 017b 69be
000002c0: 2ab9 a1bd 8fb4 ef3d beb2 a63d b5b4 95be
000002d0: f4f1 bd3d 9c41 c93d dc0d cbbd 40e1 86bd
000002e0: 1e08 353e 8fd5 64be a936 5abe 69ae 3f3e
000002f0: 71c5 023e 2d59 a7be 9ece 28be 6d5e 2a3c
00000300: 40db f0bd 8c0d 723b 9776 f6bd 9f19 a9bd
00000310: 1945 6ebe 292a c7bd 9273 75be e90a 153e
00000320: 606c 21bd 11a7 76bd cec2 ed3b 97c2 1cbe
00000330: c731 c0be 5e4c 48be de51 c2bd 84fe 41bd
00000340: f021 babd 1897 8c3d 34f9 4bbe 1162 62be
00000350: 4a49 a3be ea2a 563c eff4 f9bd 43d4 41be
00000360: e48e 8abd 3f38 e2bd 7493 873d 70c6 d7bd
00000370: 9d7b f1bc dfb2 463e ae1c 3cbe ab14 173d
00000380: d7e8 cd3d de92 4abe ffae 143e 1491 a73d
00000390: ff79 10bd 57b8 16bd 6733 993d 1679 a53d
000003a0: 5c72 6abe 01bb 433d 9829 0bbd 20da 56be
000003b0: 9a29 fcbd f7aa 1fbe 329f 4c3e 7385 3bbe
000003c0: b672 31be 5ed4 8f3d 83ca 3dbe 5560 16be
000003d0: 8709 27bc 67d3 b6bd e80c ff3d fb36 a3bd
000003e0: 4af0 2d3e f87c 9c3d b417 64be e823 38be
000003f0: b1c3 643d 33eb 353e 5319 dcbd 28c9 79be

fc_layers.3.bias f4 [64]
-0.06591166 -0.09301552 0.08447603 -0.07382888 -0.12695773 0.09868612 -0.054549836 -0.12712467
-0.018759696 0.23589621 -0.013892314 0.054450393 0.009346651 -0.086978234 -0.13508812 0.11931935
0.15998153 -0.1765182 0.076660044 -0.015919212 0.0432806 0.12517923 -0.062108632 -0.07520963
-0.19358079 -0.026581144 0.09299583 0.056689773 -0.09213014 0.021549266 -0.12496163 0.113877386
0.07848683 0.10043375 -0.07159946 -0.18058105 -0.07387284 0.14415848 0.10253569 0.02198134
-0.208876 -0.022851259 0.19383228 -0.17479101 -0.16469304 -0.0813973 -0.052860152 0.13030523
-0.07164478 -0.0048261303 0.024699613 -0.02007111 -0.17370617 0.038700707 -0.093486525 0.08701006
0.112071194 -0.069720834 -0.060348254 0.08823456 -0.17581658 0.051727694 0.0140341865 0.11238328
00000000: b1fc 86bd ec7e bebd c501 ad3d 9933 97bd
00000010: 3501 02be f31b ca3d a66f 5fbd f82c 02be
00000020: efad 99bc c78e 713e 979c 63bc 6007 5f3d
00000030: b222 193c a521 b2bd 8a54 0abe b45d f43d
00000040: 33d2 233e 30c1 34be f1ff 9c3d 0269 82bc
00000050: 0047 313d fc2e 003e 9f65 7ebd 8207 9abd
00000060: 0b3a 46be b3c0 d9bc 9974 be3d 8933 683d
00000070: baae bcbd 1688 b03c e2eb ffbd 8c38 e93d
00000080: b4bd a03d 36b0 cd3d bda2 92bd 3dea 38be
00000090: a54a 97bd 489e 133e 3bfe d13d 3612 b43c
000000a0: 97e3 55be 9032 bbbc f87b 463e 6afc 32be
000000b0: 4ba5 28be a1b3 a6bd e383 58bd bc6e 053e
000000c0: 80ba 92bd 8424 9ebb d856 ca3c 2b6c a4bc
000000d0: 08e0 31be a284 1e3d dd75 bfbd 5532 b23d
000000e0: 9585 e53d ccc9 8ebd bb2f 77bd 52b4 b43d
000000f0: 4309 34be 6be0 533d a5ef 653c 3529 e63d

fc_layers.6.weight f4 [32, 64]
0.21472579 -0.05275818 -0.2507992 0.1202493 -0.025779333 0.056571614 0.22192389 0.24328604
-0.13138667 -0.21714672 -0.06488733 0.26938403 -0.048455007 -0.20030868 0.007153057 -0.23104666
0.15919283 0.0226071 -0.08830597 0.032121826 0.19468097 -0.19204289 -0.033105966 -0.07645038
-0.24219896 -0.29474762 -0.19766639 0.022918668 -0.016814921 -0.05888323 -0.2863943 -0.05211701
0.028400727 -0.21401069 0.23403262 -0.21932578 -0.20576225 -0.058863502 -0.40106553 -0.3066092
-0.22707118 0.06084605 -0.2861533 -0.26949707 0.10489858 -0.12566027 -0.107061334 0.26570284
0.121719316 0.0009057312 -0.10233111 0.1606104 -0.032722794 -0.27995995 0.13502087 -0.03235773
-0.22690672 -0.04544493 0.077516705 -0.23165771 0.04586147 0.022692973 -0.11471268 -0.11608267
-0.18675648 0.040505588 -0.23860155 -0.2936894 -0.15749097 0.022649873 0.2536067 0.22986057
-0.15153266 -0.13019603 0.19338301 0.105635166 -0.29590786 -0.24299777 -0.26513684 -0.22730385
-0.0954309 -0.15269957 0.0028912972 0.19373317 0.034850027 -0.21740654 -0.24432191 -0.21222594
0.10058525 -0.2071167 -0.047610395 -0.24324279 -0.30324993 0.027163098 -0.10530245 -0.30838618
-0.1844329 0.01640117 -0.042918693 -0.0041120243 0.17568387 -0.04829155 -0.28024736 0.061558574
-0.10934953 0.120990396 -0.16883117 0.16429402 0.24231604 0.10009108 -0.13789731 -0.055375926
0.18995492 -0.024785021 -0.15722738 -0.28299326 -0.05976533 0.1819542 -0.12275703 -0.03392258
-0.21619554 -0.0036100368 0.023548627 -0.11061738 0.22965226 0.057707027 0.0422061 -0.06903418
-0.24886458 -0.4358119 -0.07204368 0.017687524 -0.16413215 -0.31715193 -0.2865102 0.26471546
0.34230986 0.17283344 -0.05174873 -0.19837642 -0.19943802 0.01972968 0.019973377 -0.0075638634
-0.33596456 0.16133246 0.14103188 0.23709393 -0.28081656 -0.30695122 -0.075017095 0.02427141
-0.30049032 -0.2904868 0.04732431 0.16435589 -0.08701654 -0.29788995 0.12409015 0.03660359
-0.2481774 -0.30256802 -0.16396174 -0.27611727 -0.16202614 -0.1131105 0.0064865774 0.016453408
0.1139919 -0.273978 -0.4112036 -0.05563988 0.24922554 0.08739548 0.014478557 -0.2677479
-0.21005502 0.1560577 -0.04600892 -0.2678762 0.08357647 -0.020251399 -0.28882277 -0.17767332
-0.12838699 0.1946569 -0.110217765 -0.3386263 -0.12063883 -0.21092927 -0.29673254 -0.1979995
0.04436372 -0.25489 -0.17704682 -0.09418226 0.21988806 0.05743122 0.2420471 -0.03860394
0.00036205404 -0.017020201 0.18317714 -0.1193006 -0.11919214 0.11291543 -0.23809586 -0.17494576
-0.20065552 0.10003245 -0.33080402 0.14913066 -0.061832096 0.04582722 0.10372234 -0.032794755
-0.24818826 -0.025581948 0.0012016903 0.4055628 -0.15751643 -0.10571154 -0.048015933 0.055630207
0.009697901 -0.03719521 -0.0058358805 -0.08778051 0.007780128 0.007259327 -0.0910555 0.05371556
-0.2648442 -0.091564305 -0.30052242 0.07037688 0.028190877 0.18647383 0.088742815 -0.10829397
-0.09916627 -0.15860213 -0.29734135 -0.27582178 0.005531544 -0.058792245 -0.30480647 0.19401653
0.30849844 0.2851573 0.15151058 -0.15201189 0.24840519 -0.15488313 -0.060464773 -0.09699027
00000000: 14e1 5b3e f618 58bd c168 80be 4445 f63d
00000010: 2e2f d3bc a3b7 673d 0440 633e fa1f 793e
00000020: 3a8a 06be b65b 5ebe a6e3 84bd b4ec 893e
00000030: c278 46bd b81d 4dbe 3164 ea3b 7f97 6cbe
00000040: 7203 233e 8632 b93c c3d9 b4bd 2d92 033d
00000050: 735a 473e e4a6 44be 1f9a 07bd 0492 9cbd
00000060: 0103 78be 29e9 96be 0f69 4abe eebf bb3c
00000070: 72bf 89bc 8b2f 71bd 46a2 92be a578 55bd
00000080: a4a8 e83c 9e25 5bbe 3fa6 6f3e f096 60be
00000090: 57b3 52be db1a 71bd 7658 cdbe e2fb 9cbe
000000a0: 5985 68be b539 793d af82 92be 85fb 89be
000000b0: 11d5 d63d 16ad 00be f942 dbbd 340a 883e
000000c0: fa47 f93d 986e 6d3a f992 d1bd 0d77 243e
000000d0: 5608 06bd e956 8fbe e942 0a3e 8a89 04bd
000000e0: 3c5a 68be 7724 3abd 14c1 9e3d ae37 6dbe
000000f0: 3dd9 3b3d 9de6 b93c 7bee eabd c0bc edbd
00000100: 173d 3fbe 30e9 253d f753 74be 755e 96be
00000110: 5045 21be 3a8c b93c bdd8 813e 9260 6b3e
00000120: 612b 1bbe 1c52 05be 3206 463e 4057 d83d
00000130: 3c81 97be 68d4 78be 04c0 87be 57c2 68be
00000140: 4771 c3bd 475d 1cbe eb7b 3d3b fd61 463e
00000150: e7be 0e3d d29f 5ebe 862f 7abe c251 59be
00000160: a4ff cd3d 6616 54be 1e03 43bd a314 79be
00000170: 9343 9bbe 2585 de3c d0a8 d7bd cbe4 9dbe
00000180: fadb 3cbe bf5b 863c 83cb 2fbd 29be 86bb
00000190: 79e6 333e 5ccd 45bd 957c 8fbe d824 7c3d
000001a0: a5f2 dfbd d0c9 f73d 14e2 2cbe b13c 283e
000001b0: b221 783e 8dfc cc3d f434 0dbe ded1 62bd
000001c0: 8b83 423e f509 cbbc 3700 21be 7ee4 90be
000001d0: 7ecc 74bd 3452 3a3e 0a68 fbbd 67f2 0abd
000001e0: 5d62 5dbe 5e96 6cbb 0de9 c03c 5d8b e2bd
000001f0: f629 6b3e 345e 6c3d 4ee0 2c3d cb61 8dbd
00000200: 5bd6 7ebe bd22 dfbe a38b 93bd 6de5 903c
00000210: 4212 28be bd61 a2be 77b1 92be c988 873e
00000220: 3d43 af3e 40fb 303e 7af6 53bd 3023 4bbe
00000230: 7b39 4cbe 23a0 a13c 359f a33c 49da f7bb
00000240: 8c03 acbe 5634 253e a96a 103e c0c8 723e
00000250: 30c7 8fbe b628 9dbe 90a2 99bd d6d4 c63c
00000260: ded9 99be b0ba 94be 23d7 413d e94c 283e
00000270: ba35 b2bd 0885 98be fa22 fe3d a5ed 153d
00000280: 3722 7ebe 32ea 9abe 96e5 27be 3e5f 8dbe
00000290: 2eea 25be 7aa6 e7bd 5b8d d43b 4cc9 863c
000002a0: 9674 e93d d846 8cbe 4789 d2be a5e6 63bd
000002b0: fb34 7f3e 67fc b23d 7837 6d3c 4116 89be
000002c0: aa18 57be 97cd 1f3e d973 3cbd 1227 89be
000002d0: 242a ab3d 43e6 a5bc 94e0 93be ffef 35be
000002e0: e177 03be 2354 473e dab9 e1bd 6d60 adbe
000002f0: 7e11 f7bd d8fd 57be 54ed 97be 62c0 4abe
00000300: bbb6 353d f180 82be c34b 35be a1e2 c0bd
00000310: 562a 613e 003d 6b3d 32db 773e 2a1f 1ebd
00000320: 12d2 bd39 f36d 8bbc ca92 3b3e df53 f4bd
00000330: 021b f4bd 3440 e73d 67cf 73be fb24 33be
00000340: a478 4dbe d0dd cc3d 255f a9be b5b5 183e
00000350: a743 7dbd 53b5 3b3d 616c d43d cb53 06bd
00000360: 1025 7ebe 3c91 d1bc 0982 9d3a eda5 cf3e
00000370: fd4b 21be 4b7f d8bd 5bac 44bd 80dc 633d
00000380: f2e3 1e3c 015a 18bd ea3a bfbb 45c6 b3bd
00000390: 72f0 fe3b a6df ed3b 4e7b babd d904 5c3d
000003a0: a999 87be 1186 bbbd 13de 99be c121 903d
000003b0: 8ef0 e63c fff2 3e3e cbbe b53d 3bc9 ddbd
000003c0: af17 cbbd 9968 22be 203d 98be 8338 8dbe
000003d0: f441 b53b 23d0 70bd 980f 9cbe 45ac 463e
000003e0: 82f3 9d3e 2300 923e 9725 1b3e 01a9 1bbe
000003f0: ee5d 7e3e af99 1ebe e9a9 77bd d6a2 c6bd

fc_layers.6.bias f4 [32]
-0.15027934 -0.31551212 -0.040904135 -0.048449617 0.2918891 -0.35192436 -0.21872063 -0.09849687
-0.24287823 -0.05319093 0.057651915 -0.28653255 0.12821814 0.13640915 -0.14999205 0.07853842
0.27652717 -0.022018788 -0.094469056 0.10840103 0.5332826 -0.21927422 0.10171612 0.23526566
0.08925817 -0.49272943 -0.025505982 0.017331608 -0.10941152 0.4266703 0.58108675 0.22646974
00000000: d4e2 19be ce8a a1be 188b 27bd 1b73 46bd
00000010: 7d72 953e 6e2f b4be 4df8 5fbe bab8 c9bd
00000020: 12b5 78be bcde 59bd 6a24 6c3d 65b4 92be
00000030: 9e4b 033e d7ae 0b3e 8497 19be c0d8 a03d
00000040: f894 8d3e bf60 b4bc fe78 c1bd 5c01 de3d
00000050: 3585 083f 6c89 60be 8b50 d03d 7be9 703e
00000060: fdcc b63d 0847 fcbe ecf1 d0bc 04fb 8d3c
00000070: 2613 e0bd 8874 da3e 1ac2 143f afe7 673e

fc_layers.8.weight f4 [4, 32]
-0.19433866 -0.11673935 -0.1876984 0.25744063 -0.040639613 -0.076447755 -0.27322367 -0.010935933
-0.2018989 -0.08757259 0.2796521 -0.10610183 -0.18713538 -0.026848812 -0.14528374 -0.07658711
0.12656265 0.031024164 0.11980262 0.2393682 0.28893465 0.29969805 -0.12423594 0.11527788
0.07253624 -0.19751291 -0.07494385 0.2270937 -0.01521209 0.06972237 0.29873854 -0.6016917
-0.4149268 -0.15812445 -0.21397816 -0.20155866 -0.68000305 -0.29558188 -0.18045752 0.036805738
0.0741171 0.064526044 0.26413962 0.09386483 0.061697155 0.17041104 -0.14602686 -0.20911475
0.19344062 0.13424532 0.12826194 0.11542944 0.2804828 -0.038264118 0.15352349 0.16827126
-0.12171871 -0.302 -0.14085639 0.14735803 -0.030666731 0.22276331 0.2333155 -0.14747597
0.045357913 -0.05489696 -0.045012537 0.033697054 -0.19022617 0.3106389 -0.29860324 -0.27739492
-0.005269826 0.039663784 -0.05784441 -0.088921264 0.10571046 -0.08511443 -0.23733716 0.016324954
-0.089136705 0.03029648 0.14032087 0.0450228 0.2652529 0.2732805 0.18970688 -0.19509606
0.198139 -0.19851384 0.10703412 0.06689471 -0.16207309 0.19611952 0.41772318 -0.7520498
-0.08946899 0.04614701 -0.1370056 -0.2622757 -0.3803733 -0.21535182 -0.09268986 0.09822556
0.24334891 -0.17817996 0.24595386 0.2135929 0.1381808 0.11599993 0.35090524 -0.23896281
0.12651792 0.13527739 0.24696583 0.032874785 0.1719005 0.093940206 -0.20808764 0.21284746
-0.0087598255 -0.26615152 -0.15488777 0.0523966 0.2268384 0.25244796 -0.06896663 -0.15211517
00000000: b700 47be 0a15 efbd 0234 40be 42cf 833e
00000010: b975 26bd a490 9cbd f9e3 8bbe a12c 33bc
00000020: 96be 4ebe 4259 b3bd 8f2e 8f3e eb4b d9bd
00000030: 6ba0 3fbe 0af2 dbbc 43c5 14be b4d9 9cbd
00000040: a499 013e 6326 fe3c 135b f53d f01c 753e
00000050: 3eef 933e 0672 993e 6a6f febd cf16 ec3d
00000060: e18d 943d d340 4abe 297c 99bd 408b 683e
00000070: 213c 79bc 9aca 8e3d 42f4 983e 7808 1abf
00000080: 4971 d4be 60eb 21be 171d 5bbe 6565 4ebe
00000090: ae14 2ebf 8256 97be dbc9 38be 9dc1 163d
000000a0: b5ca 973d 3b26 843d 4f3d 873e 343c c03d
000000b0: 28b6 7c3d 3b80 2e3e 1188 15be 2d22 56be
000000c0: 4c15 463e 9b77 093e 1957 033e 4566 ec3d
000000d0: 719b 8f3e d6ba 1cbd 4335 1d3e 4d4f 2c3e
000000e0: a947 f9bd be9f 9abe a83c 10be 06e5 163e
000000f0: cc38 fbbc 111c 643e 42ea 6e3e f103 17be
00000100: 38c9 393d a2db 60bd 115f 38bd ec05 0a3d
00000110: a6ca 42be 100c 9f3e 86e2 98be b506 8ebe
00000120: 81ae acbb 7e76 223d 43ee 6cbd 5a1c b6bd
00000130: ba7e d83d 7950 aebd 8308 73be e9bb 853c
00000140: 4e8d b6bd 5330 f83c 46b0 0f3e d469 383d
00000150: 3acf 873e 6ceb 8b3e 8542 423e 43c7 47be
00000160: f3e4 4a3e 3647 4bbe b434 db3d 1800 893d
00000170: 7df6 25be 8ed3 483e d0df d53e 5686 40bf
00000180: 853b b7bd a604 3d3d 324b 0cbe 0049 86be
00000190: 4ac0 c2be 3085 5cbe 2ed4 bdbd 7b2a c93d
000001a0: 7530 793e cf74 36be 54db 7b3e 19b8 5a3e
000001b0: 457f 0d3e 5f91 ed3d daa9 b33e abb2 74be
000001c0: ea8d 013e 2886 0a3e 9ce4 7c3e b6a7 063d
000001d0: af06 303e b963 c03d ed14 55be aff4 593e
000001e0: 5f85 0fbc 0345 88be e69a 1ebe d19d 563d
000001f0: 5348 683e dc40 813e 603e 8dbd 14c4 1bbe

fc_layers.8.bias f4 [4]
0.2168921 0.23816113 0.25958624 0.4046959
00000000: f618 5e3e 83e0 733e 7de8 843e 4d34 cf3e
