output/dqn/model/4x4/6500.pth (torch, 53468 bytes, 8 tensors)

fc_layers.0.weight f4 [128, 16]
0.13496527 0.20930023 0.020208359 0.27489373 0.44553047 -0.11741924 0.5182118 0.47077674
0.18878576 0.44786158 -0.45258257 -0.45476913 0.5633288 0.54757077 0.09339851 0.30127978
-0.23932159 -0.027762992 0.11210727 -0.49140102 0.20528226 0.48504037 -0.3922968 -0.54442084
0.32688153 -0.1339693 -0.327326 -0.03847325 0.589503 0.47907132 -0.05947203 -0.13235638
-0.13269751 -0.44080597 -0.080902666 0.12703612 -0.35748687 0.40366834 0.35660374 -0.16493979
-0.053874146 0.26480293 0.3434066 -0.10221052 0.34343714 -0.57107836 0.2604344 0.07837105
-0.4460067 0.23945129 -0.5336614 -0.14479476 -0.21626118 0.31168586 -0.5528697 -0.3164966
0.48963258 0.1279239 0.18533072 0.29796052 -0.28466153 0.30955577 0.23872621 -0.11099261
0.019043459 0.44634584 0.20108019 -0.52934843 -0.6020105 0.48361653 -0.4438144 -0.2288928
0.3304907 -0.14756683 0.3345033 -0.18398947 -0.081240356 -0.30597898 0.2411257 0.5219367
-0.43655282 -0.20865488 -0.1587097 0.26761338 -0.51988006 0.32305604 0.101383865 -0.017546952
0.34869522 0.23441866 -0.2318432 -0.155772 0.053394675 0.23574348 0.06803626 -0.54543567
-0.18262623 -0.20586543 -0.26643637 -0.54935503 0.031409338 0.24999118 -0.5617555 -0.14464447
-0.21201542 -0.26346833 0.23012896 0.42786437 -0.083557904 -0.07313882 0.19370098 0.21638715
-0.020974517 -0.32196552 -0.4847574 -0.4834476 0.0027358532 -0.2280271 0.4928187 -0.0492844
0.20261428 -0.42939222 0.15971409 0.37158406 -0.23060137 0.5440715 0.099668264 -0.6007991
0.07043612 0.60873383 -0.09512442 -0.3991673 -0.13738617 -0.49128327 -0.17534664 -0.4298513
-0.52902365 0.4250162 -0.20099947 0.22748703 -0.48807693 -0.35313985 0.37374374 -0.12011939
0.101588406 -0.58802485 -0.58132255 -0.500143 -0.12932768 0.42636412 -0.43337083 -0.47971606
-0.04385607 0.1371671 0.20241348 -0.15251005 -0.12345171 0.317057 -0.07701567 -0.5423717
-0.02358704 -0.08251619 -0.56333697 -0.16317186 -0.49280846 0.29449052 0.0348906 0.39206833
0.039796498 0.29390615 0.32107693 0.07053554 0.29970282 -0.525677 0.28172714 0.26314765
0.10168146 0.04284283 -0.20692587 -0.3190275 0.27302602 -0.2530697 0.42982194 0.15689695
0.23677188 0.38730726 -0.12331241 -0.14921957 0.47675294 -0.0017382931 -0.1710402 -0.022776246
-0.56459093 0.21788095 0.20548658 -0.55068195 0.4353199 0.050282657 -0.15858042 -0.34320965
-0.6081655 0.2273342 0.43996114 -0.1523745 -0.3879521 -0.4263808 0.42367992 -0.029006183
0.31262234 0.39427555 -0.38996744 0.15953869 0.46922863 0.40262443 0.34736198 0.32869643
0.50733113 0.1289585 -0.30763513 -0.036076665 0.5626659 0.1599583 -0.1439498 -0.10383642
-0.52612984 0.4877243 -0.3690871 0.011392772 -0.27008763 0.4204802 -0.31546086 0.54383284
0.53761554 0.35116255 -0.57282746 0.30874258 -0.21387434 -0.1972911 -0.30432275 0.40017372
-0.015695568 0.097063586 0.15405564 -0.36850965 0.0651152 0.20058596 0.33430672 0.23912048
-0.58937013 0.09193005 0.08874787 0.36948115 0.18318623 0.5191742 -0.11176584 -0.035453975
00000000: 5634 0a3e cd52 563e 008c a53c dfbe 8c3e
00000010: 921c e43e 8079 f0bd 87a9 043f a609 f13e
00000020: 0e51 413e 1d4e e53e e7b8 e7be 80d7 e8be
00000030: 5136 103f 992d 0c3f b847 bf3d 5841 9a3e
00000040: b810 75be 376f e3bc 7f98 e53d ea98 fbbe
00000050: 8335 523e 3657 f83e 20db c8be 2a5f 0bbf
00000060: 045d a73e 402f 09be 4697 a7be 2096 1dbd
00000070: abe9 163f d648 f53e f198 73bd 6e88 07be
00000080: dbe1 07be 52b1 e1be 4cb0 a5bd c215 023e
00000090: 8508 b7be 9ead ce3e c494 b63e fae5 28be
000000a0: 23ab 5cbd 4094 873e fdd2 af3e c053 d1bd
000000b0: fed6 af3e 3132 12bf a857 853e 0081 a03d
000000c0: fd5a e4be b832 753e 099e 08bf 1445 14be
000000d0: 9273 5dbe 4a95 9f3e de88 0dbf d80b a2be
000000e0: 1fb1 fa3e 7cfe 023e 56c7 3d3e 488e 983e
000000f0: 28bf 91be 187e 9e3e a574 743e 1850 e3bd
00000100: 0701 9c3c 7187 e43e f7e7 4d3e 6183 07bf
00000110: 5c1d 1abf 969c f73e a43b e3be e062 6abe
00000120: 1436 a93e c21b 17be 0444 ab3e bc67 3cbe
00000130: 5861 a6bd 47a9 9cbe a8e9 763e a59d 053f
00000140: da83 dfbe a0a9 55be cc84 22be 9f04 893e
00000150: dc16 05bf 9a67 a53e 58a2 cf3d a0be 8fbc
00000160: 2e88 b23e 720b 703e 4e68 6dbe b282 1fbe
00000170: 60b4 5a3d bd66 713e 9856 8b3d aca1 0bbf
00000180: 5f02 3bbe 63ce 52be 596a 88be 88a2 0cbf
00000190: 14a7 003d b0fd 7f3e 35cf 0fbf ae1d 14be
000001a0: 921a 59be 52e5 86be eda6 6b3e 0a11 db3e
000001b0: 6820 abbd cec9 95bd 8d59 463e 9894 5d3e
000001c0: c0d2 abbc aad8 a4be 1f32 f8be 7286 f7be
000001d0: 004c 333b f07f 69be bc52 fc3e 70de 49bd
000001e0: 1e7a 4f3e 4cd9 dbbe 178c 233e 4440 be3e
000001f0: c422 6cbe 4548 0b3f e01e cc3d f8cd 19bf
00000200: d040 903d fbd5 1b3f 98d0 c2bd a85f ccbe
00000210: f6ae 0cbe 7b89 fbbe 128e 33be 7815 dcbe
00000220: 186e 07bf b99b d93e ced2 4dbe 5cf2 683e
00000230: 38e5 f9be bfce b4be 575b bf3e 2801 f6bd
00000240: 950d d03d cc88 16bf 8ed1 14bf 5f09 00bf
00000250: 7a6e 04be 664c da3e c8e2 ddbe 589d f5be
00000260: 6ca2 33bd 8875 0c3e 7b45 4f3e 982b 1cbe
00000270: 40d4 fcbd 4c55 a23e 64ba 9dbd dfd8 0abf
00000280: 9c39 c1bc 40fe a8bd da36 10bf 8616 27be
00000290: 6451 fcbe 76c7 963e 72e9 0e3d 2ebd c83e
000002a0: a701 233d de7a 963e 3264 a43e f074 903d
000002b0: a672 993e c592 06bf 8a3e 903e 4abb 863e
000002c0: 5f3e d03d f77b 2f3d 60e4 53be 9357 a3be
000002d0: 11ca 8b3e 5a92 81be 9f11 dc3e 98a9 203e
000002e0: 5474 723e 234d c63e 388b fcbd 04cd 18be
000002f0: f618 f43e 70d7 e3ba 2a25 2fbe 4095 babc
00000300: 0889 10bf 2f1c 5f3e 136b 523e 7ef9 0cbf
00000310: 40e2 de3e 30f5 4d3d e862 22be 2db9 afbe
00000320: bcb0 1bbf 4cca 683e 9642 e13e 1008 1cbe
00000330: a8a1 c6be 964e dabe 93ec d83e 609e edbc
00000340: 0910 a03e 7cde c93e d0a9 c7be 1c5e 233e
00000350: bc3e f03e ca24 ce3e 6ed9 b13e e64a a83e
00000360: 74e0 013f b20d 043e 5a82 9dbe 20c5 13bd
00000370: df0a 103f 1ccc 233e 9467 13be 30a8 d4bd
00000380: 72b0 06bf 00b7 f93e fcf8 bcbe c0a8 3a3c
00000390: ed48 8abe 2e49 d73e 1684 a1be a138 0b3f
000003a0: 2ca1 093f 94cb b33e d2a4 12bf 8213 9e3e
000003b0: e001 5bbe ae06 4abe 31d0 9bbe 92e3 cc3e
000003c0: fe93 80bc 46c9 c63d c3c0 1d3e 4cad bcbe
000003d0: 1e5b 853d 6866 4d3e 402a ab3e 00dc 743e
000003e0: f6e0 16bf d245 bc3d 71c1 b53d a22c bd3e
000003f0: 2c95 3b3e 9ae8 043f 7de5 e4bd 3038 11bd

fc_layers.0.bias f4 [128]
-0.25112048 -0.049571164 -0.19700848 -0.035915088 -0.17149538 -0.35130993 0.03866684 -0.2645242
-0.13299361 -0.06806125 -0.16934213 -0.11968464 -0.26674917 -0.16526005 -0.02967569 -0.053657893
-0.042335942 -0.102979064 -0.1289523 -0.2207432 -0.2593796 -0.17569217 -0.112889566 -0.13312286
-0.12745772 0.064467356 -0.27037007 0.022018181 -0.17797515 0.1346645 -0.3152238 -0.10218579
-0.36937302 0.0025197105 -0.19791618 -0.09034115 -0.29322353 -0.08264625 -0.035257008 -0.34448585
0.004099508 -0.27546644 -0.31262183 -0.11185278 -0.16230825 -0.1250471 -0.14352241 -0.3276234
0.048553146 -0.1126311 -0.16520141 -0.16468446 -0.208908 -0.20213816 0.036540776 -0.10626387
-0.17124866 -0.3013724 -0.11856327 -0.19645697 -0.058107007 -0.16033654 -0.25999528 -0.1834939
-0.0036034088 -0.29384714 -0.0981484 -0.23729286 0.17750795 -0.09886312 -0.10041349 -0.30759203
-0.16788988 -0.098064974 -0.09097288 -0.029143624 -0.21084742 -0.060525626 -0.15483356 -0.25345334
-0.18404503 -0.2932641 -0.24332274 -0.24671127 -0.136071 -0.19272956 -0.21371283 -0.05268878
-0.25983325 -0.18246856 0.007250512 -0.3910209 -0.07586795 -0.018088054 -0.11219483 -0.3439192
-0.12104015 -0.018931454 -0.22782879 -0.023261933 -0.14059713 -0.03354418 -0.13223699 -0.3302299
-0.2626654 -0.1898847 -0.06567407 -0.028525718 -0.11176566 0.16683705 0.05114337 -0.2779872
-0.25239864 -0.18808132 -0.19924636 -0.30480576 -0.108553044 -0.092457436 -0.2163289 -0.009380128
-0.33609596 -0.37288827 -0.22928627 -0.19202474 -0.25837153 -0.15006594 -0.08047051 -0.22755282
00000000: dd92 80be 220b 4bbd 97bc 49be b31b 13bd
00000010: 7c9c 2fbe e5de b3be 1f61 1e3d b76f 87be
00000020: 7a2f 08be b263 8bbd 0668 2dbe 381d f5bd
00000030: 5993 88be ee39 29be 6f1a f3bc 61c8 5bbd
00000040: 7468 2dbd b0e6 d2bd 120c 04be 810a 62be
00000050: 67cd 84be a6e8 33be a532 e7bd 5c51 08be
00000060: 4784 02be 7607 843d f26d 8abe 795f b43c
00000070: 1e3f 36be 7ee5 093e 0465 a1be c946 d1bd
00000080: 761e bdbe ba21 253b 8aaa 4abe c804 b9bd
00000090: 6521 96be 7042 a9bd a769 10bd 7360 b0be
000000a0: 2a55 863b f009 8dbe f80f a0be 1213 e5bd
000000b0: 2234 26be 590c 00be 8af7 12be 41be a7be
000000c0: aadf 463d 22ab e6bd 8f2a 29be 0ba3 28be
000000d0: fbeb 55be 4efd 4ebe c8ab 153d dfa0 d9bd
000000e0: cf5b 2fbe 7c4d 9abe 4dd1 f2bd 042c 49be
000000f0: 9d01 6ebd 432f 24be 1a1e 85be d3e5 3bbe
00000100: 2b27 6cbb 2273 96be 0702 c9bd e6fc 72be
00000110: a5c4 353e bf78 cabd 96a5 cdbd b47c 9dbe
00000120: 53eb 2bbe 4ad6 c8bd fd4f babd 9cbe eebc
00000130: 63e8 57be b8e9 77bd b08c 1ebe a3c4 81be
00000140: 4d76 3cbe b626 96be 9929 79be e1a1 7cbe
00000150: 3256 0bbe e65a 45be 89d7 5abe 31d0 57bd
00000160: dd08 85be 0ad9 3abe b495 ed3b e433 c8be
00000170: a860 9bbd 662d 94bc 67c6 e5bd 2d16 b0be
00000180: e6e3 f7bd 2316 9bbc f34b 69be cf8f bebc
00000190: b2f8 0fbe 9f65 09bd 2269 07be e513 a9be
000001a0: 147c 86be 2371 42be 2080 86bd c4ae e9bc
000001b0: 65e5 e4bd 55d7 2a3e b67b 513d 5754 8ebe
000001c0: 653a 81be 6498 40be 3d07 4cbe 800f 9cbe
000001d0: 0f51 debd 535a bdbd 5385 5dbe 1caf 19bc
000001e0: c514 acbe 36eb bebe 05ca 6abe 22a2 44be
000001f0: 4649 84be e3aa 19be b9cd a4bd 9b03 69be

fc_layers.3.weight f4 [64, 128]
0.10058235 -0.17512856 -0.1405099 -0.19228618 -0.10430826 0.06643324 0.014994391 -0.022672998
0.04556538 -0.0014903722 -0.064598575 -0.08388344 -0.26804453 -0.012343091 -0.07972653 -0.16489731
0.061922316 -0.059925824 0.07588836 -0.0005862198 -0.22399718 0.023028644 0.0061428966 -0.11727092
-0.065124646 -0.16633627 -0.10447192 -0.107364215 -0.14940165 -0.09238866 0.105897546 -0.043582242
0.09946973 -0.043210834 -0.12001803 0.08610405 -0.11667028 -0.20306647 0.068879455 -0.23244242
-0.08521683 -0.21218719 -0.21590748 -0.07222127 -0.12772903 0.016784951 0.031672984 -0.080846876
-0.033847332 -0.16856104 0.12798966 -0.0681398 0.08606391 -0.20146285 -0.20257783 0.09152985
-0.22484797 -0.16947234 -0.1849578 0.1591651 0.096024804 -0.15719146 -0.12546 0.052440006
-0.19763498 0.0372081 -0.060741562 -0.09234762 -0.21102285 -0.1103215 0.05753378 0.20265087
-0.08450842 -0.03286853 -0.19431423 -0.22044371 -0.018156357 0.11012185 -0.07235223 0.0924167
-0.20673375 0.043392837 0.13389663 -0.15703636 0.13206187 -0.16095006 -0.08106739 0.04114094
-0.06529024 -0.1945375 0.07964188 -0.0618636 -0.051114768 -0.09684111 -0.0017178882 -0.09739687
0.0032613883 -0.1449893 -0.21212232 0.06909312 0.13870215 0.04526544 -0.070008904 0.16791598
-0.2650618 -0.1894061 -0.011278543 0.05441471 -0.090539806 -0.11273632 -0.016115015 0.100281194
-0.18714142 -0.043058466 -0.039280765 -0.23646392 -0.1725458 -0.039791584 -0.17150585 -0.2298092
0.14453982 0.1164893 -0.07367548 -0.10269665 -0.21523914 -0.20799993 -0.119840994 -0.17907363
-0.05592231 0.27585003 -0.032859873 0.06963637 0.2835503 -0.047259707 -0.010416694 0.07670182
-0.28953552 -0.05701916 -0.17813896 -0.06478348 -0.10649793 0.13203682 0.049152207 -0.17662784
-0.076484345 0.11348411 -0.15934958 -0.08628743 -0.42080057 0.1751944 -0.072788134 0.024710342
-0.1959292 0.042114303 0.11991394 -0.2030225 0.05589092 0.12914781 -0.16389163 -0.2032326
0.06884183 -0.04239545 -0.12507328 -0.21129854 -0.2646748 -0.14986174 -0.3315928 -0.16220483
-0.019203706 -0.3600975 -0.0673396 0.07794764 -0.19138075 -0.2619885 -0.07316532 -0.22800829
-0.07896645 0.13475224 0.09409517 -0.2923943 0.10628842 0.09826967 -0.0756047 -0.06585932
0.17557003 -0.22347091 -0.21309914 0.1746788 0.13335216 -0.32685223 -0.16485068 0.010398489
-0.11376488 0.0036934344 -0.12034338 -0.0825684 -0.24515972 -0.09724838 -0.23969868 0.14554943
-0.039409995 -0.06021792 0.0072558885 -0.15308605 -0.37537977 -0.19560382 -0.08218325 -0.047361866
-0.103232555 0.06864862 -0.19919282 -0.22107722 -0.33138645 -0.0008957034 -0.122049205 -0.18928628
-0.067655355 -0.11045884 0.083100796 -0.10535896 -0.008009183 0.21624644 -0.18370315 0.036884945
0.106118456 -0.19782588 0.1472694 0.10057882 -0.035272595 -0.021222938 0.08394896 0.08079736
-0.22895187 0.047785763 -0.033975214 -0.20981646 -0.11243184 -0.15592562 0.20931806 -0.18312626
-0.17328915 0.07022928 -0.17277083 -0.1341886 -0.022423917 -0.089270405 0.124536335 -0.07969471
0.16986194 0.076410234 -0.22274667 -0.16712938 0.05585069 0.18341102 -0.08955095 -0.2564425
00000000: 1efe cd3d e754 33be d4e1 0fbe abe6 44be
00000010: 929f d5bd 270e 883d 09ab 753c b9bc b9bc
00000020: c4a2 3a3d 9858 c3ba 424c 84bd 15cb abbd
00000030: 223d 89be ad3a 4abc aa47 a3bd d7da 28be
00000040: 41a2 7d3d c874 75bd 5b6b 9b3d 8bac 19ba
00000050: 845f 65be 91a6 bc3c 5a4a c93b bc2b f0bd
00000060: 1260 85bd 0e54 2abe 60f5 d5bd c5e1 dbbd
00000070: bffc 18be 4436 bdbd d0e0 d83d 4b83 32bd
00000080: c9b6 cb3d d8fd 30bd 03cc f5bd 5257 b03d
00000090: d4f0 eebd a8f0 4fbe ac10 8d3d 6305 6ebe
000000a0: 2986 aebd 9947 59be da16 5dbe bfe8 93bd
000000b0: 66cb 02be 9880 893c 88bb 013d 0c93 a5bd
000000c0: 80a3 0abd 449b 2cbe b90f 033e e18c 8bbd
000000d0: 4642 b03d 474c 4ebe 9070 4fbe 0174 bb3d
000000e0: 8c3e 66be 288a 2dbe 9465 3dbe 2dfc 223e
000000f0: a7a8 c43d ccf6 20be 9678 00be 55cb 563d
00000100: d360 4abe 8567 183d 25cc 78bd c020 bdbd
00000110: 6016 58be 3df0 e1bd 8aa8 6b3d b683 4f3e
00000120: c012 adbd 27a1 06bd 4ffa 46be ffbb 61be
00000130: a4bc 94bc 9187 e13d 682d 94bd f844 bd3d
00000140: 03b2 53be b0bc 313d 331c 093e 24ce 20be
00000150: 3a3b 073e 18d0 24be a906 a6bd 6783 283d
00000160: e4b6 85bd d734 47be 481b a33d b064 7dbd
00000170: b85d 51bd a254 c6bd c32a e1ba 0378 c7bd
00000180: 04bd 553b 1378 14be 9836 59be b280 8d3d
00000190: f007 0e3e 4168 393d d460 8fbd 2bf2 2b3e
000001a0: 2eb6 87be acf3 41be a3c9 38bc f5e1 5e3d
000001b0: ef6c b9bd 4de2 e6bd a303 84bc 3a60 cd3d
000001c0: 00a2 3fbe 135e 30bd dee4 20bd 9923 72be
000001d0: d9af 30be 80fc 22bd 3b9f 2fbe 1a53 6bbe
000001e0: 3f02 143e f191 ee3d 2ce3 96bd 9f52 d2bd
000001f0: a667 5cbe effd 54be 326f f5bd 145f 37be
00000200: cb0e 65bd 373c 8d3e 1398 06bd 839d 8e3d
00000210: 812d 913e 6593 41bd c8aa 2abc d815 9d3d
00000220: 003e 94be ec8c 69bd 0f6a 36be 33ad 84bd
00000230: 961b dabd a934 073e d353 493d eedd 34be
00000240: d3a3 9cbd 5b6a e83d 892c 23be 77b7 b0bd
00000250: 2c73 d7be 2966 333e f211 95bd 586d ca3c
00000260: aaa1 48be 0c80 2c3d 7195 f53d 21e5 4fbe
00000270: e1ed 643d 533f 043e 35d3 27be 351c 50be
00000280: f2fc 8c3d daa6 2dbd 3613 00be a55e 58be
00000290: 7583 87be 5b75 19be 88c6 a9be 0619 26be
000002a0: 1751 9dbc b35e b8be 58e9 89bd 03a3 9f3d
000002b0: 51f9 43be 5b23 86be b3d7 95bd 017b 69be
000002c0: 2ab9 a1bd 7efc 093e f8b4 c03d b5b4 95be
000002d0: bead d93d 9c41 c93d a3d6 9abd 40e1 86bd
000002e0: a1c8 333e 8fd5 64be a936 5abe 00df 323e
000002f0: 788d 083e 2d59 a7be 9ece 28be 6d5e 2a3c
00000300: 90fd e8bd 8c0d 723b 9776 f6bd 9f19 a9bd
00000310: 260b 7bbe 292a c7bd 9273 75be e90a 153e
00000320: 606c 21bd 11a7 76bd cec2 ed3b 97c2 1cbe
00000330: c731 c0be 5e4c 48be b14f a8bd 84fe 41bd
00000340: 976b d3bd a697 8c3d 34f9 4bbe 1162 62be
00000350: 7cab a9be a3cd 6aba eff4 f9bd 43d4 41be
00000360: e48e 8abd 3f38 e2bd c030 aa3d 70c6 d7bd
00000370: f338 03bc b56f 5d3e ae1c 3cbe ab14 173d
00000380: a254 d93d de92 4abe cacd 163e 45fc cd3d
00000390: ff79 10bd badb adbc 6fed ab3d 1679 a53d
000003a0: 5c72 6abe 01bb 433d 9829 0bbd 20da 56be
000003b0: aa42 e6bd f7aa 1fbe 7957 563e 7385 3bbe
000003c0: b672 31be 5ed4 8f3d d6ea 30be bd68 09be
000003d0: 5db2 b7bc 67d3 b6bd e80c ff3d fb36 a3bd
000003e0: 4af0 2d3e f87c 9c3d b417 64be f723 2bbe
000003f0: b1c3 643d 19d0 3b3e 7d66 b7bd 6e4c 83be

fc_layers.3.bias f4 [64]
-0.07858666 -0.074896954 0.08701098 -0.07459504 -0.12695773 0.099400066 -0.05316517 -0.13979916
-0.021374531 0.24463344 0.006180781 0.058509793 0.004010445 -0.0989411 -0.13717121 0.11258586
0.1543175 -0.1765182 0.061085448 -0.024732385 0.043888107 0.12316129 -0.045423068 -0.06445365
-0.19358079 -0.03885776 0.091007255 0.02823885 -0.086047344 0.019509336 -0.12496163 0.101493
0.07021173 0.077467725 -0.07159946 -0.18058105 -0.07387284 0.13964765 0.089468926 0.007015171
-0.208876 -0.03971344 0.18164586 -0.18249482 -0.16469304 -0.067315385 -0.056243833 0.14842086
-0.04688516 -0.0125506325 0.01727567 -0.018076207 -0.17370617 0.040550202 -0.018561678 0.082983114
0.10836629 -0.069720834 -0.060348254 0.0922842 -0.18721782 0.03503939 0.0010086147 0.107789405
00000000: 0bf2 a0bd 9363 99bd d032 b23d 49c5 98bd
00000010: 3501 02be 4392 cb3d b9c3 59bd 8327 0fbe
00000020: a419 afbc 3081 7a3e 2688 ca3b f7a7 6f3d
00000030: 0d6a 833b a2a1 cabd 9c76 0cbe 6a93 e63d
00000040: 6805 1e3e 30c1 34be bc34 7a3d 929b cabc
00000050: 04c4 333d fd3b fc3d 8a0d 3abd 4600 84bd
00000060: 0b3a 46be 5129 1fbd 0362 ba3d 2955 e73c
00000070: 9739 b0bd 0bd2 9f3c e2eb ffbd 90db cf3d
00000080: 2bcb 8f3d 66a7 9e3d bda2 92bd 3dea 38be
00000090: a54a 97bd cbff 0e3e 7c3b b73d 85df e53b
000000a0: 97e3 55be 8faa 22bd 5f01 3a3e ecdf 3abe
000000b0: 4ba5 28be a6dc 89bd ef5f 66bd a3fb 173e
000000c0: a70a 40bd 2ba1 4dbc b585 8d3c 8e14 94bc
000000d0: 08e0 31be f817 263d a90e 98bc 0df3 a93d
000000e0: 25ef dd3d ccc9 8ebd bb2f 77bd 80ff bc3d
000000f0: 07b6 3fbe 7785 0f3d 7e33 843a b1c0 dc3d

fc_layers.6.weight f4 [32, 64]
0.21688803 -0.06505668 -0.25127962 0.09294348 -0.025779333 0.10410409 0.22192389 0.24328604
-0.14344369 -0.2266126 -0.077484794 0.28266582 -0.030225063 -0.20030868 0.007153057 -0.2126006
0.13710018 0.0226071 -0.10544129 0.0119482735 0.2109655 -0.19272093 -0.033105966 -0.07103608
-0.24219896 -0.29474762 -0.17770064 0.009646675 -0.016814921 -0.06552282 -0.2863943 -0.06872153
0.024229242 -0.21495062 0.23403262 -0.21932578 -0.20576225 -0.04505485 -0.39645684 -0.3066092
-0.22707118 0.059206184 -0.2865176 -0.26949707 0.10489858 -0.13756834 -0.1212859 0.2858928
0.121719316 -0.025126683 -0.1346179 0.15818846 -0.032722794 -0.261036 0.116026066 -0.015639955
-0.26378036 -0.04544493 0.077516705 -0.2602995 0.04586147 0.0022187035 -0.09585701 -0.1564262
-0.18675648 0.040505588 -0.23860155 -0.2936894 -0.15749097 0.022649873 0.2536067 0.22986057
-0.15153266 -0.11768055 0.19338301 0.105635166 -0.29590786 -0.24299777 -0.26513684 -0.22730385
-0.0954309 -0.15269957 0.0028912972 0.1900837 0.042346463 -0.21740654 -0.24432191 -0.21222594
0.10058525 -0.2071167 -0.047610395 -0.24324279 -0.30324993 0.027163098 -0.10530245 -0.30838618
-0.1844329 0.0005115973 -0.042918693 -0.0041120243 0.17568387 -0.06099313 -0.28024736 0.05473154
-0.10934953 0.120990396 -0.16883117 0.16429402 0.24231604 0.10009108 -0.13789731 -0.04359191
0.18995492 -0.024785021 -0.15722738 -0.28299326 -0.05976533 0.18810911 -0.12275703 -0.03392258
-0.21619554 -0.0036100368 0.023548627 -0.09842755 0.22965226 0.057707027 0.0422061 -0.052370753
-0.24886458 -0.4358119 -0.094913 0.017687524 -0.16413215 -0.3556709 -0.29861465 0.26471546
0.34621376 0.16017775 -0.047318626 -0.21996473 -0.1994433 0.01972968 0.019973377 0.015205829
-0.34658492 0.16133246 0.11432568 0.2391584 -0.29806164 -0.3064648 -0.08753926 0.024688233
-0.30049032 -0.30100635 0.051568914 0.16233324 -0.08701654 -0.29466283 0.12409015 0.011821299
-0.26547197 -0.26084527 -0.16396174 -0.27611727 -0.16202614 -0.07886508 -0.014492749 0.030551216
0.1139919 -0.273978 -0.3988433 -0.05563988 0.24922554 0.10042902 0.01881306 -0.27752766
-0.222726 0.15517256 -0.058161452 -0.2613137 0.08357647 -0.021074286 -0.30236357 -0.16651814
-0.11798501 0.1946569 -0.110217765 -0.36425582 -0.12063883 -0.19846566 -0.32926106 -0.20641434
0.045946337 -0.26672032 -0.12507153 -0.09110876 0.21988806 0.09889168 0.25395137 -0.03860394
-0.014354426 0.0032128966 0.17182286 -0.12445224 -0.11886895 0.11291543 -0.23809586 -0.17044106
-0.21245627 0.10003245 -0.34368005 0.14876784 -0.07088757 0.034917228 0.10372234 -0.066890866
-0.24818826 -0.038745634 0.016289616 0.39494365 -0.15751643 -0.104560465 -0.048015933 0.036820017
0.0128467 -0.041281752 -0.0058358805 -0.08778051 0.007780128 -0.011769847 -0.09018858 0.043378945
-0.2648442 -0.091502644 -0.29836306 0.07037688 0.028190877 0.19099517 0.079527065 -0.115467295
-0.08784516 -0.14921063 -0.3130123 -0.27856773 0.005531544 -0.08713344 -0.31382388 0.2038004
0.3128059 0.2851573 0.15151058 -0.15998937 0.2540868 -0.15967607 -0.08111534 -0.11191702
00000000: e517 5e3e 703c 85bd b9a7 80be 2759 be3d
00000010: 2e2f d3bc 8634 d53d 0440 633e fa1f 793e
00000020: e7e2 12be 220d 68be 59b0 9ebd 93b9 903e
00000030: 8d9a f7bc b81d 4dbe 3164 ea3b f9b3 59be
00000040: fd63 0c3e 8632 b93c 9af1 d7bd b1c2 433c
00000050: 5707 583e a358 45be 1f9a 07bd 5d7b 91bd
00000060: 0103 78be 29e9 96be 28f7 35be 160d 1e3c
00000070: 72bf 89bc d430 86bd 46a2 92be e0bd 8cbd
00000080: 677c c63c 041c 5cbe 3fa6 6f3e f096 60be
00000090: 57b3 52be 6f8b 38bd 64fc cabe e2fb 9cbe
000000a0: 5985 68be 2f82 723d 6fb2 92be 85fb 89be
000000b0: 11d5 d63d b7de 0cbe be64 f8bd 8b60 923e
000000c0: fa47 f93d 79d6 cdbc 46d9 09be 28fc 213e
000000d0: 5608 06bd 83a6 85be 139f ed3d 5d1f 80bc
000000e0: 380e 87be 7724 3abd 14c1 9e3d fa45 85be
000000f0: 3dd9 3b3d ab67 113b ae50 c4bd 312e 20be
00000100: 173d 3fbe 30e9 253d f753 74be 755e 96be
00000110: 5045 21be 3a8c b93c bdd8 813e 9260 6b3e
00000120: 612b 1bbe 8002 f1bd 3206 463e 4057 d83d
00000130: 3c81 97be 68d4 78be 04c0 87be 57c2 68be
00000140: 4771 c3bd 475d 1cbe eb7b 3d3b 4da5 423e
00000150: 7c73 2d3d d29f 5ebe 862f 7abe c251 59be
00000160: a4ff cd3d 6616 54be 1e03 43bd a314 79be
00000170: 9343 9bbe 2585 de3c d0a8 d7bd cbe4 9dbe
00000180: fadb 3cbe b71c 063a 83cb 2fbd 29be 86bb
00000190: 79e6 333e efd3 79bd 957c 8fbe 2e2e 603d
000001a0: a5f2 dfbd d0c9 f73d 14e2 2cbe b13c 283e
000001b0: b221 783e 8dfc cc3d f434 0dbe 6e8d 32bd
000001c0: 8b83 423e f509 cbbc 3700 21be 7ee4 90be
000001d0: 7ecc 74bd ad9f 403e 0a68 fbbd 67f2 0abd
000001e0: 5d62 5dbe 5e96 6cbb 0de9 c03c 6294 c9bd
000001f0: f629 6b3e 345e 6c3d 4ee0 2c3d b782 56bd
00000200: 5bd6 7ebe bd22 dfbe bf61 c2bd 6de5 903c
00000210: 4212 28be 7f1a b6be 05e4 98be c988 873e
00000220: ee42 b13e a305 243e 2dd1 41bd 6f3e 61be
00000230: dd3a 4cbe 23a0 a13c 359f a33c df21 793c
00000240: 9473 b1be 5634 253e 9523 ea3d f1e5 743e
00000250: 899b 98be f4e8 9cbe c947 b3bd fa3e ca3c
00000260: ded9 99be 811d 9abe ed39 533d af3a 263e
00000270: ba35 b2bd 0cde 96be fa22 fe3d 1fae 413c
00000280: f1eb 87be 838d 85be 96e5 27be 3e5f 8dbe
00000290: 2eea 25be 0484 a1bd ff72 6dbc 8b46 fa3c
000002a0: 9674 e93d d846 8cbe 3035 ccbe a5e6 63bd
000002b0: fb34 7f3e bbad cd3d d91d 9a3c 1b18 8ebe
000002c0: 4912 64be 8ee5 1e3e b43a 6ebd e9ca 85be
000002d0: 242a ab3d fba3 acbc 66cf 9abe bb83 2abe
000002e0: 20a2 f1bd 2354 473e dab9 e1bd bd7f babe
000002f0: 7e11 f7bd 953a 4bbe e894 a8be 485e 53be
00000300: 3a32 3c3d 918f 88be c012 00be 3b97 babd
00000310: 562a 613e b987 ca3d ea05 823e 2a1f 1ebd
00000320: d42e 6bbc 768f 523b 55f2 2f3e d1e0 febd
00000330: 9071 f3bd 3440 e73d 67cf 73be 1a88 2ebe
00000340: 238e 59be d0dd cc3d d5f6 afbe 9956 183e
00000350: 812d 91bd 5e05 0f3d 616c d43d 14fe 88bd
00000360: 1025 7ebe beb3 1ebd cd71 853c 0e36 ca3e
00000370: fd4b 21be cc23 d6bd 5bac 44bd 96d0 163d
00000380: f77a 523c 0e17 29bd ea3a bfbb 45c6 b3bd
00000390: 72f0 fe3b 51d6 40bc cab4 b8bd 1fae 313d
000003a0: a999 87be bd65 bbbd 0bc3 98be c121 903d
000003b0: 8ef0 e63c 3d94 433e 16df a23d 1e7a ecbd
000003c0: 2ae8 b3bd acca 18be 2643 a0be 6ea0 8ebe
000003d0: f441 b53b 0473 b2bd 86ad a0be 0db1 503e
000003e0: 1828 a03e 2300 923e 9725 1b3e 41d4 23be
000003f0: aa17 823e 2082 23be cd1f a6bd c034 e5bd

fc_layers.6.bias f4 [32]
-0.12444122 -0.3210073 -0.022332855 -0.059763927 0.289227 -0.35192436 -0.20063068 -0.09292043
-0.24305627 -0.04982373 0.052332655 -0.24118643 0.12604739 0.13697644 -0.14410248 0.07442437
0.28810513 -0.03636472 -0.08087313 0.13797377 0.5440849 -0.22254065 0.12935665 0.23807502
0.07743733 -0.47223476 -0.037014257 -0.0033032442 -0.10921076 0.41999188 0.5838973 0.23089221
00000000: 0adb febd 125b a4be 64f3 b6bc 05cb 74bd
00000010: 9015 943e 6e2f b4be 2172 4dbe 114d bebd
00000020: bee3 78be f813 4cbd c45a 563d 93f9 76be
00000030: 9112 013e 8d43 0c3e 9a8f 13be ce6b 983d
00000040: 8482 933e 2cf3 14bd d0a0 a5bd ff48 0d3e
00000050: 2649 0b3f b2e1 63be 1276 043e f0c9 733e
00000060: 7697 9e3d c1c8 f1be 439c 17bd 3e7b 58bb
00000070: e4a9 dfbd 2d09 d73e 4b7a 153f 026f 6c3e

fc_layers.8.weight f4 [4, 32]
-0.1960653 -0.11673935 -0.18167637 0.22882235 -0.02010653 -0.076447755 -0.34910694 -0.036429375
-0.20263298 -0.17976493 0.28642172 -0.09345164 -0.19470091 -0.01964928 -0.16051018 -0.07090376
0.13224639 0.025048465 0.12061889 0.23362574 0.30114862 0.30305934 -0.12010262 0.13073808
0.014323084 -0.19345732 -0.00974267 0.19227497 -0.010616858 0.089799896 0.2728704 -0.62115604
-0.47129878 -0.15812445 -0.20278382 -0.2083478 -0.67519283 -0.29558188 -0.15440543 0.0499157
0.08716283 0.064651 0.25525072 0.08860293 0.063962035 0.1717031 -0.12314703 -0.21711174
0.19835821 0.11779486 0.13478924 0.1294215 0.27828828 -0.04898142 0.16081668 0.16829833
-0.12803204 -0.29511184 -0.09935207 0.12987836 0.00940535 0.22160321 0.23271261 -0.16120453
0.051171903 -0.070074335 -0.03977932 0.036431838 -0.17626147 0.3106389 -0.2896975 -0.2576246
-0.028765747 0.04250131 -0.048845287 -0.0845848 0.089453325 -0.080925524 -0.24603494 0.020273615
-0.0962243 0.025201075 0.15769885 0.029128397 0.2706826 0.2587014 0.22282845 -0.19989932
0.19373825 -0.20841415 0.10425047 0.04958022 -0.14745201 0.19657844 0.42084458 -0.75790805
-0.10911369 0.046630148 -0.13173196 -0.25881612 -0.3749006 -0.21535182 -0.087985374 0.086902715
0.18297274 -0.17335384 0.24646519 0.20662288 0.14254639 0.09465709 0.35192826 -0.22743963
0.12458397 0.12988383 0.22758089 0.028763037 0.17912859 0.09845446 -0.22403318 0.18949991
-0.0012760239 -0.2982002 -0.1517023 0.036704943 0.21849209 0.23242018 -0.05093635 -0.1431445
00000000: 58c5 48be 0a15 efbd 5f09 3abe 6850 6a3e
00000010: 73b6 a4bc a490 9cbd 25be b2be f836 15bd
00000020: 057f 4fbe 4c14 38be dea5 923e 9363 bfbd
00000030: ad5f 47be 87f7 a0bc c85c 24be fe35 91bd
00000040: 996b 073e 7032 cd3c 0907 f73d 963b 6f3e
00000050: 2730 9a3e 982a 9b3e 5df8 f5bd 34e0 053e
00000060: 5eab 6a3c ad19 46be b89f 1fbc bbe3 443e
00000070: 54f2 2dbc 02e9 b73d abb5 8b3e 1504 1fbf
00000080: 134e f1be 60eb 21be 90a6 4fbe 2059 55be
00000090: 70d9 2cbf 8256 97be 751c 1ebe 6874 4c3d
000000a0: 6d82 b23d be67 843d 39b0 823e 7475 b53d
000000b0: 87fe 823d f0d2 2f3e 8334 fcbd 8a52 5ebe
000000c0: 6a1e 4b3e 6e3e f13d 3106 0a3e 1287 043e
000000d0: cd7b 8e3e bea0 48bd 21ad 243e 6656 2c3e
000000e0: d51a 03be e618 97be 1979 cbbd d5fe 043e
000000f0: e618 1a3c f4eb 623e 374c 6e3e cd12 25be
00000100: a199 513d 2283 8fbd a4ef 22bd 8d39 153d
00000110: e37d 34be 100c 9f3e 3b53 94be 5fe7 83be
00000120: 25a6 ebbc db15 2e3d ff11 48bd cc3a adbd
00000130: 4e33 b73d 48bc a5bd 95f0 7bbe da14 a63c
00000140: 3f11 c5bd 7c72 ce3c cf7b 213e ad9e ee3c
00000150: e996 8a3e 8374 843e 242d 643e 68b2 4cbe
00000160: 5263 463e 856a 55be 4581 d53d a114 4b3d
00000170: a9fd 16be dc4b 493e f178 d73e 4306 42bf
00000180: 0077 dfbd 41ff 3e3d bee4 06be 8c83 84be
00000190: f9f2 bfbe 3085 5cbe ad31 b4bd 0dfa b13d
000001a0: 355d 3b3e ab83 31be 5f61 7c3e f394 533e
000001b0: aef7 113e 94db c13d f12f b43e efe5 68be
000001c0: e125 ff3d 4400 053e f70a 693e 76a0 eb3c
000001d0: 7c6d 373e 7ea2 c93d f468 65be 440c 423e
000001e0: 4240 a7ba b2ad 98be d957 1bbe ec57 163d
000001f0: 64bc 5f3e 8eff 6d3e a2a2 50bd 7994 12be

fc_layers.8.bias f4 [4]
0.2144573 0.24425216 0.26179236 0.41598454
00000000: b29a 5b3e 3d1d 7a3e a609 863e edfb d43e
