output/dqn/model/4x4/7000.pth (torch, 53468 bytes, 8 tensors)

fc_layers.0.weight f4 [128, 16]
0	0x3e0a3456	0.13496527
1	0x3e5652cd	0.20930023
2	0x3ca58c00	0.020208359
3	0x3e87034a	0.26369697
4	0x3eecb488	0.46231484
5	0xbdf07980	-0.11741924
6	0x3f0309bb	0.5118672
7	0x3ef109a6	0.47077674
8	0x3e41510e	0.18878576
9	0x3ee0f46c	0.4393648
10	0xbee7b8e7	-0.45258257
11	0xbee8d780	-0.45476913
12	0x3f103651	0.5633288
13	0x3f06f1c1	0.5271264
14	0x3dbf47b8	0.09339851
15	0x3e9a4158	0.30127978
16	0xbe7510b8	-0.23932159
17	0xbce36f37	-0.027762992
18	0x3dd5ec3c	0.10445449
19	0xbefb98ea	-0.49140102
20	0x3e5958b6	0.21225247
21	0x3ef85736	0.48504037
22	0xbec8db20	-0.3922968
23	0xbf0b5f2a	-0.54442084
24	0x3ea8bf74	0.32958567
25	0xbe092f40	-0.1339693
26	0xbea79746	-0.327326
27	0xbd1d9620	-0.03847325
28	0x3f16e9ab	0.589503
29	0x3ee3b6a7	0.4447529
30	0xbd7398f1	-0.05947203
31	0xbe07886e	-0.13235638
32	0xbe07e1db	-0.13269751
33	0xbee1b152	-0.44080597
34	0xbda5b04c	-0.080902666
35	0x3e0215c2	0.12703612
36	0xbeb70885	-0.35748687
37	0x3ecead9e	0.40366834
38	0x3ec0b653	0.37639102
39	0xbe28e5fa	-0.16493979
40	0xbd5cab23	-0.053874146
41	0x3e702e04	0.23455054
42	0x3ea6c1c2	0.325697
43	0xbdd153c0	-0.10221052
44	0x3eafd6fe	0.34343714
45	0xbf123231	-0.57107836
46	0x3e915bc3	0.2839032
47	0x3da08100	0.07837105
48	0xbee45afd	-0.4460067
49	0x3e80aa35	0.25129858
50	0xbf089e09	-0.5336614
51	0xbe144514	-0.14479476
52	0xbe5d7392	-0.21626118
53	0x3e9f954a	0.31168586
54	0xbf0d88de	-0.5528697
55	0xbea20bd8	-0.3164966
56	0x3ef6a991	0.48176244
57	0x3e10e802	0.14151004
58	0x3e56b1a6	0.20966205
59	0x3e988e48	0.29796052
60	0xbe91bf28	-0.28466153
61	0x3ea559f6	0.32295197
62	0x3e63ab30	0.22233272
63	0xbde35018	-0.11099261
64	0x3c9c0107	0.019043459
65	0x3ecfe162	0.4060164
66	0x3e535a70	0.20639968
67	0xbf078361	-0.52934843
68	0xbf1a1d5c	-0.6020105
69	0x3ef79c96	0.48361653
70	0xbee33ba4	-0.4438144
71	0xbe6a62e0	-0.2288928
72	0x3ea667ae	0.32500976
73	0xbe171bc2	-0.14756683
74	0x3ea949dc	0.33064163
75	0xbe3c67bc	-0.18398947
76	0xbda66158	-0.081240356
77	0xbe9ca947	-0.30597898
78	0x3e835354	0.25649512
79	0x3f059da5	0.5219367
80	0xbedf83da	-0.43655282
81	0xbe55a9a0	-0.20865488
82	0xbe2284cc	-0.1587097
83	0x3e89049f	0.26761338
84	0xbf0516dc	-0.51988006
85	0x3ea5679a	0.32305604
86	0x3dcfa258	0.101383865
87	0xbc8fbea0	-0.017546952
88	0x3eb2882e	0.34869522
89	0x3e700b72	0.23441866
90	0xbe6d684e	-0.2318432
91	0xbe1f82b2	-0.155772
92	0x3d5ab460	0.053394675
93	0x3e7166bd	0.23574348
94	0x3d8b5698	0.06803626
95	0xbf0ba1ac	-0.54543567
96	0xbe3b025f	-0.18262623
97	0xbe52ce63	-0.20586543
98	0xbe886a59	-0.26643637
99	0xbf0ca288	-0.54935503
100	0x3d28fdb9	0.041257594
101	0x3e7ffdb0	0.24999118
102	0xbf0fcf35	-0.5617555
103	0xbe141dae	-0.14464447
104	0xbe591a92	-0.21201542
105	0xbe86e552	-0.26346833
106	0x3e771031	0.2412727
107	0x3edb110a	0.42786437
108	0xbdab2068	-0.083557904
109	0xbd95c9ce	-0.07313882
110	0x3e3b8dbf	0.1831579
111	0x3e5d9498	0.21638715
112	0xbcabd2c0	-0.020974517
113	0xbea4d8aa	-0.32196552
114	0xbef8321f	-0.4847574
115	0xbef78672	-0.4834476
116	0x3b334c00	0.0027358532
117	0xbe697ff0	-0.2280271
118	0x3efd64af	0.49490878
119	0xbd49de70	-0.0492844
120	0x3e4f7a1e	0.20261428
121	0xbedbd94c	-0.42939222
122	0x3e238c17	0.15971409
123	0x3ebe4044	0.37158406
124	0xbe6c22c4	-0.23060137
125	0x3f068aa2	0.52555287
126	0x3dcc1ee0	0.099668264
127	0xbf19cdf8	-0.6007991
128	0x3d9040d0	0.07043612
129	0x3f20067a	0.6250988
130	0xbdc2d098	-0.09512442
131	0xbecc5fa8	-0.3991673
132	0xbe0caef6	-0.13738617
133	0xbefb897b	-0.49128327
134	0xbe338e12	-0.17534664
135	0xbedc1578	-0.4298513
136	0xbf076e18	-0.52902365
137	0x3ed795fd	0.4210662
138	0xbe4dd2ce	-0.20099947
139	0x3e68f25c	0.22748703
140	0xbef9e538	-0.48807693
141	0xbeb4cebf	-0.35313985
142	0x3eb96aea	0.3621438
143	0xbdf60128	-0.12011939
144	0x3d961eed	0.073301174
145	0xbf1688cc	-0.58802485
146	0xbf14d18e	-0.58132255
147	0xbf00095f	-0.500143
148	0xbe046e7a	-0.12932768
149	0x3eda4c66	0.42636412
150	0xbedde2c8	-0.43337083
151	0xbef59d58	-0.47971606
152	0xbd33a26c	-0.04385607
153	0x3e03c4e8	0.12868083
154	0x3e558a01	0.20853426
155	0xbe1c2b98	-0.15251005
156	0xbdfcd440	-0.12345171
157	0x3e9cf407	0.30654928
158	0xbd9dba64	-0.07701567
159	0xbf0ad8df	-0.5423717
160	0xbcc1399c	-0.02358704
161	0xbda8fe40	-0.08251619
162	0xbf1036da	-0.56333697
163	0xbe271686	-0.16317186
164	0xbefc5164	-0.49280846
165	0x3e96c776	0.29449052
166	0x3d0ee972	0.0348906
167	0x3ec8bd2e	0.39206833
168	0x3d2301a7	0.039796498
169	0x3e9abee7	0.30223772
170	0x3eaa6fcc	0.3328842
171	0x3d9074f0	0.07053554
172	0x3e9972a6	0.29970282
173	0xbf0692c5	-0.525677
174	0x3e878c0c	0.26474035
175	0x3e86bb4a	0.26314765
176	0x3dd03e5f	0.10168146
177	0x3d2f7bf7	0.04284283
178	0xbe53e460	-0.20692587
179	0xbea35793	-0.3190275
180	0x3e8fb98d	0.28071252
181	0xbe81925a	-0.2530697
182	0x3edd5360	0.43227673
183	0x3e20a998	0.15689695
184	0x3e81f5d9	0.2538288
185	0x3eb69b51	0.35665372
186	0xbdfc8b38	-0.12331241
187	0xbe18cd04	-0.14921957
188	0x3ef418f6	0.47675294
189	0xbae3d770	-0.0017382931
190	0xbe2f252a	-0.1710402
191	0xbcba9540	-0.022776246
192	0xbf108908	-0.56459093
193	0x3e5f1c2f	0.21788095
194	0x3e526b13	0.20548658
195	0xbf0cf97e	-0.55068195
196	0x3ee4de5f	0.44700906
197	0x3d4df530	0.050282657
198	0xbe2262e8	-0.15858042
199	0xbeafb92d	-0.34320965
200	0xbf1bb0bc	-0.6081655
201	0x3e68ca4c	0.2273342
202	0x3ee5407f	0.4477577
203	0xbe1c0810	-0.1523745
204	0xbec6a1a8	-0.3879521
205	0xbeda4e96	-0.4263808
206	0x3ed8bf47	0.42333433
207	0xbced9e60	-0.029006183
208	0x3ea14baa	0.3150304
209	0x3ec46760	0.3836012
210	0xbec7a9d0	-0.38996744
211	0x3e36769f	0.17818688
212	0x3ef10424	0.47073472
213	0x3ece24ca	0.40262443
214	0x3eb0cdf7	0.3453214
215	0x3ea84ae6	0.32869643
216	0x3f03f570	0.5154638
217	0x3e040db2	0.1289585
218	0xbe9d825a	-0.30763513
219	0xbd13c520	-0.036076665
220	0x3f100adf	0.5626659
221	0x3e171485	0.14753921
222	0xbe136794	-0.1439498
223	0xbdd4a830	-0.10383642
224	0xbf06b072	-0.52612984
225	0x3ef7961d	0.48356715
226	0xbebcf8fc	-0.3690871
227	0x3c3aa8c0	0.011392772
228	0xbe8a48ed	-0.27008763
229	0x3ed7492e	0.4204802
230	0xbea18416	-0.31546086
231	0x3f0b38a1	0.54383284
232	0x3f056bd5	0.52117664
233	0x3eb99b47	0.3625128
234	0xbf12a4d2	-0.57282746
235	0x3e9e1382	0.30874258
236	0xbe5b01e0	-0.21387434
237	0xbe4a06ae	-0.1972911
238	0xbe9bd031	-0.30432275
239	0x3ecce392	0.40017372
240	0xbc8093fe	-0.015695568
241	0x3d9af952	0.07567085
242	0x3e16e12d	0.14734335
243	0xbebcad4c	-0.36850965
244	0x3d873f08	0.06603819
245	0x3e4d6668	0.20058596
246	0x3ea70207	0.32618734
247	0x3e74dc00	0.23912048
248	0xbf16e0f6	-0.58937013
249	0x3d9510d9	0.07278604
250	0x3d9fd7c1	0.07804824
251	0x3ebd2ca2	0.36948115
252	0x3e3b952c	0.18318623
253	0x3f01d75b	0.5071923
254	0xbde4e57d	-0.11176584
255	0xbd113830	-0.035453975

fc_layers.0.bias f4 [128]
0	0xbe87f76f	-0.26555964
1	0xbd96c636	-0.073620245
2	0xbe4d9e18	-0.20079839
3	0xbca78c4d	-0.020452643
4	0xbe2eb822	-0.17062429
5	0xbeb3dee5	-0.35130993
6	0x3d065f62	0.032805808
7	0xbe8aabfc	-0.2708434
8	0xbe0fd3bd	-0.14045615
9	0xbda1f1a2	-0.07907416
10	0xbe30f539	-0.17281045
11	0xbe11e2dc	-0.14246696
12	0xbe850113	-0.25977382
13	0xbe2733c2	-0.16328338
14	0xbcd3bab4	-0.025845863
15	0xbdad1014	-0.08450332
16	0xbc8be28b	-0.017075798
17	0xbdf3ba32	-0.11900748
18	0xbe1a1289	-0.15046133
19	0xbe73b1d9	-0.23798312
20	0xbe82ee33	-0.25572357
21	0xbe2524f1	-0.16127373
22	0xbe0651e9	-0.13117184
23	0xbe032ff0	-0.12811255
24	0xbe063c07	-0.13108836
25	0x3ceddfa4	0.029037304
26	0xbe8c467e	-0.2739753
27	0x3c9990a6	0.018745732
28	0xbe3ac2dc	-0.18238395
29	0x3df613e5	0.12015513
30	0xbea0ba9d	-0.31392375
31	0xbdda4d3c	-0.106592625
32	0xbec24385	-0.37942138
33	0xbbde265a	-0.006779474
34	0xbe46c495	-0.19410928
35	0xbdc730a7	-0.097260766
36	0xbe9dfddc	-0.30857742
37	0xbda0b2cd	-0.078466035
38	0xbd552aa0	-0.052042603
39	0xbeab6f43	-0.33483323
40	0xbc108b6e	-0.008822305
41	0xbe8c4fa7	-0.2740452
42	0xbea1c421	-0.31594947
43	0xbdd9a9d9	-0.10628099
44	0xbe239e26	-0.15978298
45	0xbe014223	-0.12622885
46	0xbe1d14dd	-0.1533999
47	0xbeabbdf1	-0.3354335
48	0x3d34d419	0.044147585
49	0xbde4cc9a	-0.11171837
50	0xbe2eec66	-0.17082366
51	0xbe2e1de3	-0.17003588
52	0xbe517b62	-0.20457223
53	0xbe558093	-0.20849828
54	0x3cc29577	0.023752911
55	0xbe031d65	-0.12804182
56	0xbe51e67e	-0.20498082
57	0xbe92276e	-0.28545707
58	0xbe022d5d	-0.12712617
59	0xbe51252d	-0.20424338
60	0xbd932910	-0.071855664
61	0xbe1a3db7	-0.15062605
62	0xbe8757c4	-0.26434147
63	0xbe4076e3	-0.18795352
64	0xbd4dc9df	-0.050241347
65	0xbe95d271	-0.29262117
66	0xbda28029	-0.07934601
67	0xbe63b02a	-0.2223517
68	0x3e2bb883	0.16769604
69	0xbdf7ed88	-0.12105852
70	0xbde5b807	-0.11216741
71	0xbe9585e1	-0.29203704
72	0xbe313a08	-0.17307293
73	0xbdd3e8df	-0.10347151
74	0xbdda8756	-0.106703445
75	0xbd1bfe86	-0.03808453
76	0xbe486448	-0.19569504
77	0xbd902a6d	-0.07039342
78	0xbe1deda6	-0.15422687
79	0xbe8b8a87	-0.27254125
80	0xbe33d4c1	-0.17561628
81	0xbe8223d5	-0.25417963
82	0xbe5cc0b9	-0.21557893
83	0xbe70638f	-0.23475479
84	0xbe1022f6	-0.14075837
85	0xbe4e0afb	-0.20121376
86	0xbe6c47a3	-0.23074202
87	0xbda63df4	-0.08117285
88	0xbe88a88f	-0.266911
89	0xbe2b638a	-0.1673719
90	0xbc65fe28	-0.014037646
91	0xbed66253	-0.4187189
92	0xbd9eba7f	-0.07750415
93	0xbcbe4312	-0.023225341
94	0xbdeb4b22	-0.1148894
95	0xbeb2565d	-0.34831515
96	0xbe05bcb6	-0.13060269
97	0xbce8a596	-0.02839927
98	0xbe5feaf8	-0.21866977
99	0xbcc4b3eb	-0.024011573
100	0xbe035190	-0.12824082
101	0xbd18929d	-0.037249196
102	0xbe06fdcc	-0.13182753
103	0xbea59f5c	-0.32348144
104	0xbe8cfd26	-0.27536887
105	0xbe3290fd	-0.17438121
106	0xbd9394e5	-0.07206134
107	0xbc08061d	-0.008302239
108	0xbdaf55ac	-0.085612625
109	0x3e19dcad	0.15025587
110	0x3d6f3eb7	0.05840942
111	0xbe880469	-0.26565865
112	0xbe7f45f5	-0.2492903
113	0xbe4088e4	-0.1880222
114	0xbe542fee	-0.20721409
115	0xbe90d9ee	-0.28291267
116	0xbdff7cb5	-0.12474958
117	0xbdaab41b	-0.08335134
118	0xbe60d9cd	-0.21958084
119	0xbd01be72	-0.031675763
120	0xbea19c56	-0.31564587
121	0xbebd322a	-0.36952335
122	0xbe5f23a5	-0.21790941
123	0xbe33c7f3	-0.17556743
124	0xbe83b805	-0.25726333
125	0xbe11215d	-0.14172883
126	0xbd85cd5c	-0.0653331
127	0xbe6ea0df	-0.23303555

fc_layers.3.weight f4 [64, 128]
0	0x3dcdfe1e	0.10058235
1	0xbe3354e7	-0.17512856
2	0xbe0fe1d4	-0.1405099
3	0xbe44e6ab	-0.19228618
4	0xbdd59f92	-0.10430826
5	0x3d880e27	0.06643324
6	0x3c75ab09	0.014994391
7	0xbcb9bcb9	-0.022672998
8	0x3d3aa2c4	0.04556538
9	0xbac35898	-0.0014903722
10	0xbd844c42	-0.064598575
11	0xbdabcb15	-0.08388344
12	0xbe893d22	-0.26804453
13	0xbc4a3aad	-0.012343091
14	0xbda347aa	-0.07972653
15	0xbe28dad7	-0.16489731
16	0x3d7da241	0.061922316
17	0xbd7574c8	-0.059925824
18	0x3d9b6b5b	0.07588836
19	0xba19ac8b	-0.0005862198
20	0xbe655f84	-0.22399718
21	0x3cbca691	0.023028644
22	0x3bc94a5a	0.0061428966
23	0xbdf02bbc	-0.11727092
24	0xbd856012	-0.065124646
25	0xbe2a540e	-0.16633627
26	0xbdd5f560	-0.10447192
27	0xbddbe1c5	-0.107364215
28	0xbe18fcbf	-0.14940165
29	0xbdbd3644	-0.09238866
30	0x3dd8e0d0	0.105897546
31	0xbd32834b	-0.043582242
32	0x3dcbb6c9	0.09946973
33	0xbd30fdd8	-0.043210834
34	0xbdf5cc03	-0.12001803
35	0x3db05752	0.08610405
36	0xbdeef0d4	-0.11667028
37	0xbe4ff0a8	-0.20306647
38	0x3d8d10ac	0.068879455
39	0xbe6e0563	-0.23244242
40	0xbdae8629	-0.08521683
41	0xbe594799	-0.21218719
42	0xbe5d16da	-0.21590748
43	0xbd93e8bf	-0.07222127
44	0xbe02cb66	-0.12772903
45	0x3c898098	0.016784951
46	0x3d01bb88	0.031672984
47	0xbda5930c	-0.080846876
48	0xbd0aa380	-0.033847332
49	0xbe2c9b44	-0.16856104
50	0x3e030fb9	0.12798966
51	0xbd8b8ce1	-0.0681398
52	0x3db04246	0.08606391
53	0xbe4e4c47	-0.20146285
54	0xbe4f7090	-0.20257783
55	0x3dbb7401	0.09152985
56	0xbe663e8c	-0.22484797
57	0xbe2d8a28	-0.16947234
58	0xbe3d6594	-0.1849578
59	0x3e22fc2d	0.1591651
60	0x3dc4a8a7	0.096024804
61	0xbe20f6cc	-0.15719146
62	0xbe007896	-0.12546
63	0x3d56cb55	0.052440006
64	0xbe4a60d3	-0.19763498
65	0x3d186785	0.0372081
66	0xbd78cc25	-0.060741562
67	0xbdbd20c0	-0.09234762
68	0xbe581660	-0.21102285
69	0xbde1f03d	-0.1103215
70	0x3d6ba88a	0.05753378
71	0x3e4f83b6	0.20265087
72	0xbdad12c0	-0.08450842
73	0xbd06a127	-0.03286853
74	0xbe46fa4f	-0.19431423
75	0xbe61bbff	-0.22044371
76	0xbc94bca4	-0.018156357
77	0x3de18791	0.11012185
78	0xbd942d68	-0.07235223
79	0x3dbd44f8	0.0924167
80	0xbe53b203	-0.20673375
81	0x3d31bcb0	0.043392837
82	0x3e091c33	0.13389663
83	0xbe20ce24	-0.15703636
84	0x3e073b3a	0.13206187
85	0xbe24d018	-0.16095006
86	0xbda606a9	-0.08106739
87	0x3d288367	0.04114094
88	0xbd85b6e4	-0.06529024
89	0xbe4734d7	-0.1945375
90	0x3da31b48	0.07964188
91	0xbd7d64b0	-0.0618636
92	0xbd515db8	-0.051114768
93	0xbdc654a2	-0.09684111
94	0xbae12ac3	-0.0017178882
95	0xbdc77803	-0.09739687
96	0x3b55bd04	0.0032613883
97	0xbe147813	-0.1449893
98	0xbe593698	-0.21212232
99	0x3d8d80b2	0.06909312
100	0x3e0e07f0	0.13870215
101	0x3d396841	0.04526544
102	0xbd8f60d4	-0.070008904
103	0x3e2bf22b	0.16791598
104	0xbe87b62e	-0.2650618
105	0xbe41f3ac	-0.1894061
106	0xbc38c9a3	-0.011278543
107	0x3d5ee1f5	0.05441471
108	0xbdb96cef	-0.090539806
109	0xbde6e24d	-0.11273632
110	0xbc8403a3	-0.016115015
111	0x3dcd603a	0.100281194
112	0xbe3fa200	-0.18714142
113	0xbd305e13	-0.043058466
114	0xbd20e4de	-0.039280765
115	0xbe722399	-0.23646392
116	0xbe30afd9	-0.1725458
117	0xbd22fc80	-0.039791584
118	0xbe2f9f3b	-0.17150585
119	0xbe6b531a	-0.2298092
120	0x3e14023f	0.14453982
121	0x3dee91f1	0.1164893
122	0xbd96e32c	-0.07367548
123	0xbdd2529f	-0.10269665
124	0xbe5c67a6	-0.21523914
125	0xbe54fdef	-0.20799993
126	0xbdf56f32	-0.119840994
127	0xbe375f14	-0.17907363
128	0xbd5cdcb6	-0.053921424
129	0x3e867d78	0.262676
130	0xbd069813	-0.032859873
131	0x3d842cb0	0.06453836
132	0x3e8fe609	0.2810519
133	0xbd419365	-0.047259707
134	0xbc2aaac8	-0.010416694
135	0x3d7021a2	0.058625825
136	0xbe943e00	-0.28953552
137	0xbd698cec	-0.05701916
138	0xbe366a0f	-0.17813896
139	0xbd7f3065	-0.062302012
140	0xbdda1b96	-0.10649793
141	0x3e051e62	0.12999871
142	0x3d37cc12	0.04487235
143	0xbe34ddee	-0.17662784
144	0xbdb67e0e	-0.08910762
145	0x3dd81af5	0.10552017
146	0xbe3a6ebd	-0.18206306
147	0xbdb0b777	-0.08628743
148	0xbed7732c	-0.42080057
149	0x3e448f07	0.19195186
150	0xbd9511f2	-0.072788134
151	0x3cca6d58	0.024710342
152	0xbe48a1aa	-0.1959292
153	0x3d226d21	0.039654855
154	0x3dcf9db5	0.10137502
155	0xbe4fe521	-0.2030225
156	0x3d6e7ae7	0.058222678
157	0x3e0f9961	0.14023353
158	0xbe27d335	-0.16389163
159	0xbe501c35	-0.2032326
160	0x3d1d57b8	0.038413733
161	0xbd619f26	-0.055083416
162	0xbdfa62dc	-0.12225887
163	0xbe585ea5	-0.21129854
164	0xbe878375	-0.2646748
165	0xbe19755b	-0.14986174
166	0xbeb04741	-0.34429362
167	0xbe261906	-0.16220483
168	0xbd2fd0e1	-0.04292381
169	0xbeb85eb3	-0.3600975
170	0xbd885b3a	-0.06658025
171	0x3dd4e83d	0.103958584
172	0xbe43f951	-0.19138075
173	0xbe927a2b	-0.28608832
174	0xbd95d7b3	-0.07316532
175	0xbe7677ea	-0.24069181
176	0xbda1b92a	-0.07896645
177	0x3e0eccdb	0.13945334
178	0x3db30f61	0.08743168
179	0xbe95b4b5	-0.2923943
180	0x3db766d9	0.089551635
181	0x3dc9419c	0.09826967
182	0xbda9e520	-0.08295655
183	0xbd86e140	-0.06585932
184	0x3e2e5892	0.17025974
185	0xbe64d58f	-0.22347091
186	0xbe5a36a9	-0.21309914
187	0x3e3d5fe9	0.18493618
188	0x3e03051c	0.12794918
189	0xbea7592d	-0.32685223
190	0xbe28ce9e	-0.16485068
191	0x3c2a5e6d	0.010398489
192	0xbde507f9	-0.11183161
193	0x3b720d8c	0.0036934344
194	0xbdf67697	-0.12034338
195	0xbda9199f	-0.0825684
196	0xbe83fb2c	-0.25777566
197	0xbdc72a29	-0.09724838
198	0xbe757392	-0.23969868
199	0x3e150ae9	0.14554943
200	0xbd216c60	-0.039409995
201	0xbd76a711	-0.06021792
202	0x3bedc2ce	0.0072558885
203	0xbe1cc297	-0.15308605
204	0xbec031c7	-0.37537977
205	0xbe484c5e	-0.19560382
206	0xbdcd289d	-0.10017512
207	0xbd41fe84	-0.047361866
208	0xbdd36b97	-0.103232555
209	0x3d93b0c9	0.072114535
210	0xbe4bf934	-0.19919282
211	0xbe626211	-0.22107722
212	0xbea9ab7c	-0.33138645
213	0x3bab89bb	0.0052349246
214	0xbe0ed229	-0.13947357
215	0xbe4ecf74	-0.20196325
216	0xbd8a8ee4	-0.067655355
217	0xbdfc2ff4	-0.12313834
218	0x3dbdf342	0.09274913
219	0xbdd7c670	-0.10535896
220	0xbb84eb51	-0.004056372
221	0x3e51fbfd	0.20506282
222	0xbe3c1cae	-0.18370315
223	0x3d1714ab	0.036884945
224	0x3df85ef9	0.121274896
225	0xbe4a92de	-0.19782588
226	0x3e180081	0.14843942
227	0x3d8c8568	0.06861383
228	0xbd1079ff	-0.035272595
229	0xbce43e73	-0.02786181
230	0x3dd81d7d	0.105524994
231	0x3da57916	0.08079736
232	0xbe6a725c	-0.22895187
233	0x3d43bb01	0.047785763
234	0xbd22d3fa	-0.039752938
235	0xbe63c088	-0.22241414
236	0xbdf95fd4	-0.12176481
237	0xbe1faaf7	-0.15592562
238	0x3e584198	0.21118772
239	0xbe3b8573	-0.18312626
240	0xbe3172b6	-0.17328915
241	0x3d8fd45e	0.07022928
242	0xbe45e437	-0.19325338
243	0xbe1588e1	-0.14602996
244	0xbd0f723c	-0.03502105
245	0xbdfac996	-0.12245481
246	0x3de53354	0.11191431
247	0xbd9d6cdf	-0.07686781
248	0x3e2df04a	0.16986194
249	0x3d9c7cf8	0.076410234
250	0xbe6417b4	-0.22274667
251	0xbe1f5e4b	-0.15563314
252	0x3d64c3b1	0.05585069
253	0x3e3d5d5a	0.18492642
254	0xbdc0b5d7	-0.09409683
255	0xbe89c166	-0.26905364

fc_layers.3.bias f4 [64]
0	0xbda0f20b	-0.07858666
1	0xbdaa5a09	-0.08317954
2	0x3dc8765e	0.09788202
3	0xbd2ec47d	-0.042667855
4	0xbe020135	-0.12695773
5	0x3dd890e0	0.10574508
6	0xbd63cf12	-0.0556174
7	0xbe0f2783	-0.13979916
8	0xbc4a0a95	-0.0123316245
9	0x3e8345fd	0.25639334
10	0xbc70d19a	-0.01469841
11	0x3d749c32	0.059719272
12	0xba0b2624	-0.00053081126
13	0xbdcfe59b	-0.10151216
14	0xbe0c769c	-0.13717121
15	0x3e0260f2	0.12732294
16	0x3e2f38ef	0.17111562
17	0xbe34c130	-0.1765182
18	0x3d8dbfbd	0.06921337
19	0xbc8be6ee	-0.01707789
20	0x3d1e14d4	0.038594082
21	0x3e14141e	0.14460799
22	0xbd513f87	-0.051085975
23	0xbd9ec6a1	-0.07752729
24	0xbe463a0b	-0.19358079
25	0xbd185689	-0.0371919
26	0x3da69ec1	0.08135749
27	0x3ca0ee9f	0.019645033
28	0xbdd14412	-0.102180615
29	0x3cf8112f	0.030281631
30	0xbde9ed9c	-0.114222735
31	0x3de54cba	0.11196275
32	0x3d94821e	0.072513804
33	0x3db99d78	0.09063238
34	0xbd92a2bd	-0.07159946
35	0xbe38ea3d	-0.18058105
36	0xbd974aa5	-0.07387284
37	0x3e15b199	0.1461853
38	0x3dad230f	0.084539525
39	0x3c0a238d	0.0084313275
40	0xbe55e397	-0.208876
41	0xbd0d9dfe	-0.0345745
42	0x3e41d09a	0.18927231
43	0xbe3e63dd	-0.18592782
44	0xbe28a54b	-0.16469304
45	0xbd1ea080	-0.038727283
46	0xbd848ba8	-0.0647195
47	0x3e0cc7c2	0.13748077
48	0xbd4e2f70	-0.05033821
49	0xbca3b744	-0.019984849
50	0x3aa99f25	0.0012941106
51	0xbc4ce1c4	-0.012504999
52	0xbe31e008	-0.17370617
53	0x3d14be8e	0.03631454
54	0xbd46be6b	-0.04852144
55	0x3d8d7b1b	0.06908246
56	0x3de6cbc6	0.112693354
57	0xbd8ec9cc	-0.069720834
58	0xbd772fbb	-0.060348254
59	0x3da91200	0.08255386
60	0xbe3fb607	-0.18721782
61	0x3cde97c8	0.027171984
62	0x3d0410c0	0.032242537
63	0x3dde974a	0.108687

fc_layers.6.weight f4 [32, 64]
0	0x3e5e17e5	0.21688803
1	0xbdbd735d	-0.092505194
2	0xbe8d2e9a	-0.27574617
3	0x3d761b2d	0.06008451
4	0xbcd32f2e	-0.025779333
5	0x3e018ccc	0.12651366
6	0x3e580b4e	0.21098062
7	0x3e791ffa	0.24328604
8	0xbe1e9af7	-0.15488802
9	0xbe780a5d	-0.24222703
10	0xbd9eb059	-0.077484794
11	0x3e8b1a68	0.27168584
12	0xbcf79a8d	-0.030225063
13	0xbe4d1db8	-0.20030868
14	0x3bea6431	0.007153057
15	0xbe52d40e	-0.20588705
16	0x3dd810a2	0.105500475
17	0x3cb93286	0.0226071
18	0xbdb85b0d	-0.090017416
19	0xbc49576a	-0.012288908
20	0x3e619f90	0.22033525
21	0xbe465f42	-0.19372275
22	0xbca77825	-0.020443032
23	0xbdc122da	-0.094304755
24	0xbe780301	-0.24219896
25	0xbe96e929	-0.29474762
26	0xbe3814dc	-0.17976707
27	0x3c7c6e2a	0.0154071245
28	0xbc89bf72	-0.016814921
29	0xbdb9c767	-0.09071236
30	0xbe97314d	-0.295298
31	0xbd923ff9	-0.07141108
32	0x3d11fbf8	0.035640687
33	0xbe33c0c7	-0.17554007
34	0x3e6fa63f	0.23403262
35	0xbe6096f0	-0.21932578
36	0xbe52b357	-0.20576225
37	0xbc63e4ce	-0.013909532
38	0xbecafc64	-0.39645684
39	0xbe9cfbe2	-0.3066092
40	0xbe688559	-0.22707118
41	0x3d72822f	0.059206184
42	0xbe97b297	-0.2962844
43	0xbe89fb85	-0.26949707
44	0x3dd6d511	0.10489858
45	0xbe0cdeb7	-0.13756834
46	0xbdc9217d	-0.098208405
47	0x3e951776	0.29119462
48	0x3df947fa	0.121719316
49	0xbcbdbfc5	-0.023162732
50	0xbe20c163	-0.15698771
51	0x3e195448	0.14973557
52	0xbd060856	-0.032722794
53	0xbe8ecb49	-0.2788947
54	0x3df4ea61	0.11958767
55	0xbca39a6f	-0.0199711
56	0xbe9a36f2	-0.30120045
57	0xbd3a2477	-0.04544493
58	0x3d9ec114	0.077516705
59	0xbe8e98b9	-0.27850893
60	0x3d3bd93d	0.04586147
61	0x3ace9e01	0.0015763642
62	0xbdec4aea	-0.11537726
63	0xbe3031ab	-0.17206447
64	0xbe3f3d17	-0.18675648
65	0x3d25e930	0.040505588
66	0xbe7453f7	-0.23860155
67	0xbe965e75	-0.2936894
68	0xbe214550	-0.15749097
69	0x3cb98c3a	0.022649873
70	0x3e81d8bd	0.2536067
71	0x3e6b6092	0.22986057
72	0xbe1b2b61	-0.15153266
73	0xbdf10280	-0.11768055
74	0x3e460632	0.19338301
75	0x3dd85740	0.105635166
76	0xbe97813c	-0.29590786
77	0xbe78d468	-0.24299777
78	0xbe87c004	-0.26513684
79	0xbe68c257	-0.22730385
80	0xbdc37147	-0.0954309
81	0xbe1c5d47	-0.15269957
82	0x3b3d7beb	0.0028912972
83	0x3e42a54d	0.1900837
84	0x3d2d737c	0.042346463
85	0xbe5e9fd2	-0.21740654
86	0xbe7a2f86	-0.24432191
87	0xbe5951c2	-0.21222594
88	0x3dcdffa4	0.10058525
89	0xbe541666	-0.2071167
90	0xbd43031e	-0.047610395
91	0xbe7914a3	-0.24324279
92	0xbe9b4393	-0.30324993
93	0x3cde8525	0.027163098
94	0xbdd7a8d0	-0.10530245
95	0xbe9de4cb	-0.30838618
96	0xbe3cdbfa	-0.1844329
97	0x3a061cb7	0.0005115973
98	0xbd2fcb83	-0.042918693
99	0xbb86be29	-0.0041120243
100	0x3e33e679	0.17568387
101	0xbd79d3ef	-0.06099313
102	0xbe8f7c95	-0.28024736
103	0x3d602e2e	0.05473154
104	0xbddff2a5	-0.10934953
105	0x3df7c9d0	0.120990396
106	0xbe2ce214	-0.16883117
107	0x3e283cb1	0.16429402
108	0x3e7821b2	0.24231604
109	0x3dccfc8d	0.10009108
110	0xbe0d34f4	-0.13789731
111	0xbd328d6e	-0.04359191
112	0x3e42838b	0.18995492
113	0xbccb09f5	-0.024785021
114	0xbe210037	-0.15722738
115	0xbe90e47e	-0.28299326
116	0xbd74cc7e	-0.05976533
117	0x3e409fad	0.18810911
118	0xbdfb680a	-0.12275703
119	0xbd0af267	-0.03392258
120	0xbe5d625d	-0.21619554
121	0xbb6c965e	-0.0036100368
122	0x3cc0e90d	0.023548627
123	0xbdc99462	-0.09842755
124	0x3e6b29f6	0.22965226
125	0x3d6c5e34	0.057707027
126	0x3d2ce04e	0.0422061
127	0xbd5682b7	-0.052370753
128	0xbe7ed65b	-0.24886458
129	0xbed8b21d	-0.4232339
130	0xbdeb74c0	-0.11496878
131	0x3c90e56d	0.017687524
132	0xbe281242	-0.16413215
133	0xbec0373b	-0.37542138
134	0xbe98e405	-0.29861465
135	0x3e8788c9	0.26471546
136	0x3ea7fba4	0.32809174
137	0x3e2d812a	0.16943803
138	0xbd63389d	-0.055473913
139	0xbe750e30	-0.23931193
140	0xbe4c3add	-0.1994433
141	0x3ca1a023	0.01972968
142	0x3ca39f35	0.019973377
143	0x3b29f3b3	0.002593261
144	0xbec15365	-0.37758937
145	0x3e253456	0.16133246
146	0x3deef09d	0.11666987
147	0x3e81f54f	0.25382468
148	0xbe9a9f89	-0.3019984
149	0xbe9e54ca	-0.30924064
150	0xbdce8282	-0.10083486
151	0xbc46f01c	-0.0121422075
152	0xbe99d9de	-0.30049032
153	0xbe9a1d81	-0.30100635
154	0x3cb9b676	0.022670012
155	0x3e107a92	0.14109257
156	0xbdb235ba	-0.08701654
157	0xbe9ab3f0	-0.30215406
158	0x3dfe22fa	0.12409015
159	0xbb8a644d	-0.0042233826
160	0xbe8b55e5	-0.2721397
161	0xbe5e581b	-0.21713297
162	0xbe27e596	-0.16396174
163	0xbe8d5f3e	-0.27611727
164	0xbe25ea2e	-0.16202614
165	0xbdedff1a	-0.116209224
166	0xbc1c5b81	-0.009543301
167	0x3d56d6d1	0.05245096
168	0x3de97496	0.1139919
169	0xbe8c46d8	-0.273978
170	0xbec2ac97	-0.380223
171	0xbd63e6a5	-0.05563988
172	0x3e7f34fb	0.24922554
173	0x3dcddcb9	0.10051865
174	0x3ca6499d	0.020298773
175	0xbe8efaf0	-0.27925825
176	0xbe633acd	-0.221904
177	0x3e358a7d	0.1772861
178	0xbd6e3ab4	-0.058161452
179	0xbe86377c	-0.26214206
180	0x3dab2a24	0.08357647
181	0xbcda590b	-0.026653787
182	0xbe9db7be	-0.30804247
183	0xbe1a969d	-0.15096517
184	0xbdbbc04f	-0.09167539
185	0x3e475423	0.1946569
186	0xbde1b9da	-0.110217765
187	0xbec45551	-0.3834634
188	0xbdf7117e	-0.12063883
189	0xbe5468f1	-0.20743157
190	0xbea72c75	-0.32651106
191	0xbe711951	-0.23544814
192	0x3d3c323a	0.045946337
193	0xbe888f91	-0.26672032
194	0xbe05b276	-0.13056359
195	0xbdda199a	-0.10649414
196	0x3e612a56	0.21988806
197	0x3e18453a	0.14870158
198	0x3e8205ea	0.25395137
199	0xbd1e1f2a	-0.03860394
200	0xba53de82	-0.00080821675
201	0x3c9dff57	0.019286795
202	0x3e2ff255	0.17182286
203	0xbde44316	-0.11145608
204	0xbdf37190	-0.11886895
205	0x3de74034	0.11291543
206	0xbe73cf67	-0.23809586
207	0xbe2d93bd	-0.16950889
208	0xbe667bb3	-0.22508125
209	0x3dccddd0	0.10003245
210	0xbeaffffd	-0.3437499
211	0x3e194800	0.14968872
212	0xbd4b2df2	-0.049604364
213	0x3c59af1e	0.01328638
214	0x3e00c4c1	0.12575056
215	0xbd4ab146	-0.049485467
216	0xbe7e2510	-0.24818826
217	0xbd0bb549	-0.034108434
218	0x3c57371f	0.0131357005
219	0x3ed92987	0.42414495
220	0xbe214bfd	-0.15751643
221	0xbdeb9527	-0.11503058
222	0xbd44ac5b	-0.048015933
223	0x3d2e5e53	0.042570423
224	0x3ca37cef	0.019957034
225	0xbd125bb6	-0.035731994
226	0xbbbf3aea	-0.0058358805
227	0xbdb3c645	-0.08778051
228	0x3bfef072	0.007780128
229	0x3cea2c08	0.028585449
230	0xbdb50382	-0.0883856
231	0x3d254560	0.040349364
232	0xbe8799a9	-0.2648442
233	0xbdbb65bd	-0.091502644
234	0xbe95416c	-0.29151475
235	0x3d9021c1	0.07037688
236	0x3ce6f08e	0.028190877
237	0x3e63fa52	0.22263458
238	0x3d980fee	0.07424913
239	0xbe08bb7e	-0.13352773
240	0xbd8c2a13	-0.068439625
241	0xbe0eee08	-0.13957989
242	0xbea04326	-0.3130123
243	0xbe8ea06e	-0.27856773
244	0x3bb541f4	0.005531544
245	0xbdf04c8a	-0.11733349
246	0xbe901ebb	-0.28148445
247	0x3e38627e	0.18006322
248	0x3ea2cd75	0.31797376
249	0x3e920023	0.2851573
250	0x3e1b2597	0.15151058
251	0xbe1d235a	-0.15345517
252	0x3e8217aa	0.2540868
253	0xbe2a0eb3	-0.1660717
254	0xbde13e7a	-0.109982446
255	0xbddfc5e5	-0.10926417

fc_layers.6.bias f4 [32]
0	0xbdd90767	-0.10597115
1	0xbea45b12	-0.3210073
2	0xbc5c2654	-0.0134368725
3	0xbd55b0a9	-0.05217043
4	0x3e911e6a	0.28343517
5	0xbebaa9b8	-0.3645761
6	0xbe3d7f05	-0.18505485
7	0xbdc34aec	-0.095357746
8	0xbe79f049	-0.24408068
9	0xbd6c3571	-0.057668153
10	0x3d3dfef1	0.04638571
11	0xbe82ebf1	-0.25570634
12	0x3e05c779	0.13064374
13	0x3e105375	0.14094336
14	0xbe0e8523	-0.13917975
15	0x3da4d007	0.080474906
16	0x3e97c392	0.29641396
17	0xbd17b17f	-0.037034508
18	0xbda14e18	-0.07876223
19	0x3e1758d6	0.14779982
20	0x3f0cc1ba	0.54983103
21	0xbe7e4922	-0.24832585
22	0x3e1264d9	0.14296283
23	0x3e749327	0.23884259
24	0x3dc82101	0.0977192
25	0xbeeceb46	-0.4627325
26	0xbd1651b0	-0.036698997
27	0xbbcb5dd3	-0.006206253
28	0xbddd0a20	-0.10792947
29	0x3ed61a59	0.41816977
30	0x3f15b050	0.58472157
31	0x3e70d01f	0.23516892

fc_layers.8.weight f4 [4, 32]
0	0xbe36053f	-0.17775439
1	0xbdef150a	-0.11673935
2	0xbe4f38d9	-0.2023653
3	0x3e77918b	0.24176614
4	0xbc5801ad	-0.013183993
5	0xbd9c90a4	-0.076447755
6	0xbeacf868	-0.3378327
7	0xbd0a1e2b	-0.033720177
8	0xbe5b6573	-0.21425419
9	0xbe5b7251	-0.21430327
10	0x3e917d68	0.2841599
11	0xbdbf5ed0	-0.09344256
12	0xbe419587	-0.18904696
13	0xbccc9e57	-0.024977846
14	0xbe1f1439	-0.15535058
15	0xbceaaab4	-0.02864585
16	0x3e0260d9	0.12732257
17	0x3c0dbd3a	0.008651072
18	0x3dca6f79	0.09884543
19	0x3e69f115	0.22845872
20	0x3e9cb365	0.30605617
21	0x3e945d54	0.28977454
22	0xbde53947	-0.111925654
23	0x3e00b90d	0.12570591
24	0x3d058881	0.032600883
25	0xbe4ab3f8	-0.19795215
26	0x3c51c7f6	0.012804022
27	0x3e37fabb	0.1796674
28	0xbd1b0336	-0.03784486
29	0x3dc63d51	0.09679664
30	0x3e8cef8a	0.27526504
31	0xbf212d43	-0.6295969
32	0xbf054526	-0.5205864
33	0xbe21eb60	-0.15812445
34	0xbe577436	-0.21040425
35	0xbe6a9210	-0.22907281
36	0xbf2e2124	-0.6801932
37	0xbe975682	-0.29558188
38	0xbe115972	-0.14194277
39	0x3d4d69db	0.05014978
40	0x3de64e1f	0.11245369
41	0x3d59c39b	0.05316506
42	0x3e82ea8e	0.25569576
43	0x3d98e1ca	0.07464941
44	0x3d70adb7	0.058759417
45	0x3e2c7e6d	0.16845103
46	0xbe00e6af	-0.12587999
47	0xbe7ff3a5	-0.24995287
48	0x3e4f1e0c	0.20226306
49	0x3db80c8f	0.0898677
50	0x3df48084	0.11938575
51	0x3e097643	0.1342402
52	0x3e9039c5	0.28169075
53	0xbcc9c7b7	-0.024631364
54	0x3e301e28	0.17199004
55	0x3e337781	0.17526056
56	0xbe2e159e	-0.17000434
57	0xbe976812	-0.29571587
58	0xbde151d4	-0.110019356
59	0x3e13fae6	0.14451179
60	0x3aef82ff	0.0018273293
61	0x3e67c6d2	0.22634438
62	0x3e6e5032	0.2327278
63	0xbe27e6b8	-0.16396606
64	0x3d41424b	0.047182363
65	0xbd8f8322	-0.070074335
66	0xbcf3853e	-0.02972662
67	0x3cc7ab97	0.024373813
68	0xbe21110a	-0.15729156
69	0x3e989190	0.29798555
70	0xbe946a90	-0.2898755
71	0xbe822311	-0.2541738
72	0xbcd6ad55	-0.026205698
73	0x3d484eb5	0.048903186
74	0xbd4ced36	-0.05003091
75	0xbdc1ed9d	-0.09469149
76	0x3dac3c4a	0.08409937
77	0xbdaf64f9	-0.08564181
78	0xbe800ec6	-0.2501127
79	0x3c9a34a0	0.018823922
80	0xbdd27f2f	-0.102781646
81	0x3ca9b1c0	0.02071464
82	0x3e288ccf	0.16459964
83	0x3c9a52fb	0.018838396
84	0x3e8622ba	0.2619837
85	0x3e787144	0.24261957
86	0x3e7f38a1	0.24923946
87	0xbe50d05c	-0.20391983
88	0x3e46c703	0.19411854
89	0xbe643bde	-0.22288463
90	0x3dc9c854	0.09852663
91	0x3d014fe4	0.03157033
92	0xbe052ded	-0.130058
93	0x3e3e7908	0.18600857
94	0x3ed5d633	0.41764984
95	0xbf409359	-0.75224835
96	0xbdfb1503	-0.12259867
97	0x3d3eff41	0.046630148
98	0xbdeb0f00	-0.114774704
99	0xbe816fd9	-0.25280645
100	0xbec192cc	-0.3780731
101	0xbe5c8530	-0.21535182
102	0xbd2b62b4	-0.041842178
103	0x3dad422f	0.08459889
104	0x3e145038	0.14483726
105	0xbe1da759	-0.1539587
106	0x3e762bfa	0.24040213
107	0x3e5394f3	0.20662288
108	0x3e10fd5a	0.14159146
109	0x3da592e8	0.08084661
110	0x3ea03719	0.31292036
111	0xbe54660d	-0.20742054
112	0x3e07f899	0.13278426
113	0x3e050044	0.12988383
114	0x3e50a6c1	0.20376112
115	0x3d06ce66	0.03291168
116	0x3e3d26bc	0.18471807
117	0x3dc7f587	0.097636275
118	0xbe802729	-0.25029877
119	0x3e36d83e	0.17855927
120	0x3c64a3bd	0.013955054
121	0xbe901a00	-0.28144836
122	0xbdd717a5	-0.10502557
123	0x3d1615cc	0.03664188
124	0x3e5b9036	0.21441731
125	0x3e60f85b	0.2196974
126	0xbd29c9ff	-0.041452404
127	0xbe17230b	-0.14759462

fc_layers.8.bias f4 [4]
0	0x3e5e796a	0.21726003
1	0x3e7f01ed	0.24903078
2	0x3e8a882e	0.27057022
3	0x3edf2682	0.43584067
