output/dqn/model/4x4/7500.pth (torch, 53468 bytes, 8 tensors)

fc_layers.0.weight f4 [128, 16]
0	0x3e0a3456	0.13496527
1	0x3e5652cd	0.20930023
2	0x3ca58c00	0.020208359
3	0x3e70e2ef	0.23524068
4	0x3efd9f5c	0.49535644
5	0xbdf07980	-0.11741924
6	0x3f04ab38	0.5182376
7	0x3ef109a6	0.47077674
8	0x3e41510e	0.18878576
9	0x3eef31e3	0.46717748
10	0xbee7b8e7	-0.45258257
11	0xbee8d780	-0.45476913
12	0x3f103651	0.5633288
13	0x3f086c6e	0.5329045
14	0x3dbf47b8	0.09339851
15	0x3e9a4158	0.30127978
16	0xbe7510b8	-0.23932159
17	0xbce36f37	-0.027762992
18	0x3dcac1ee	0.099002704
19	0xbefb98ea	-0.49140102
20	0x3e59c4de	0.21266505
21	0x3ef85736	0.48504037
22	0xbec8db20	-0.3922968
23	0xbf0b5f2a	-0.54442084
24	0x3ea23655	0.31682077
25	0xbe092f40	-0.1339693
26	0xbea79746	-0.327326
27	0xbd1d9620	-0.03847325
28	0x3f16e9ab	0.589503
29	0x3ed80167	0.4218857
30	0xbd7398f1	-0.05947203
31	0xbe07886e	-0.13235638
32	0xbe07e1db	-0.13269751
33	0xbee1b152	-0.44080597
34	0xbda5b04c	-0.080902666
35	0x3e0215c2	0.12703612
36	0xbeb70885	-0.35748687
37	0x3ecead9e	0.40366834
38	0x3ec5bf10	0.38622332
39	0xbe28e5fa	-0.16493979
40	0xbd5cab23	-0.053874146
41	0x3e566c2c	0.20939702
42	0x3eb0340d	0.34414712
43	0xbdd153c0	-0.10221052
44	0x3eafd6fe	0.34343714
45	0xbf123231	-0.57107836
46	0x3e950ee9	0.29112938
47	0x3da08100	0.07837105
48	0xbee45afd	-0.4460067
49	0x3e781e6d	0.24230357
50	0xbf089e09	-0.5336614
51	0xbe144514	-0.14479476
52	0xbe5d7392	-0.21626118
53	0x3e9f954a	0.31168586
54	0xbf0d88de	-0.5528697
55	0xbea20bd8	-0.3164966
56	0x3ee9a462	0.45633227
57	0x3e1e0ede	0.15435359
58	0x3e3ad5b6	0.18245587
59	0x3e988e48	0.29796052
60	0xbe91bf28	-0.28466153
61	0x3ea0e19a	0.3142212
62	0x3e71d2ff	0.23615645
63	0xbde35018	-0.11099261
64	0x3c9c0107	0.019043459
65	0x3ed22d6e	0.41050285
66	0x3e5f48fd	0.21805187
67	0xbf078361	-0.52934843
68	0xbf1a1d5c	-0.6020105
69	0x3ef79c96	0.48361653
70	0xbee33ba4	-0.4438144
71	0xbe6a62e0	-0.2288928
72	0x3ea63907	0.32465383
73	0xbe171bc2	-0.14756683
74	0x3ea5e5fb	0.32402024
75	0xbe3c67bc	-0.18398947
76	0xbda66158	-0.081240356
77	0xbe9ca947	-0.30597898
78	0x3e847ae7	0.25875017
79	0x3f059da5	0.5219367
80	0xbedf83da	-0.43655282
81	0xbe55a9a0	-0.20865488
82	0xbe2284cc	-0.1587097
83	0x3e89049f	0.26761338
84	0xbf0516dc	-0.51988006
85	0x3ea5679a	0.32305604
86	0x3dcfa258	0.101383865
87	0xbc8fbea0	-0.017546952
88	0x3eb2882e	0.34869522
89	0x3e700b72	0.23441866
90	0xbe6d684e	-0.2318432
91	0xbe1f82b2	-0.155772
92	0x3d5ab460	0.053394675
93	0x3e7166bd	0.23574348
94	0x3d8b5698	0.06803626
95	0xbf0ba1ac	-0.54543567
96	0xbe3b025f	-0.18262623
97	0xbe52ce63	-0.20586543
98	0xbe886a59	-0.26643637
99	0xbf0ca288	-0.54935503
100	0x3d6ece2e	0.058302097
101	0x3e7ffdb0	0.24999118
102	0xbf0fcf35	-0.5617555
103	0xbe141dae	-0.14464447
104	0xbe591a92	-0.21201542
105	0xbe86e552	-0.26346833
106	0x3e6ed6ac	0.23324078
107	0x3edb110a	0.42786437
108	0xbdab2068	-0.083557904
109	0xbd95c9ce	-0.07313882
110	0x3e35634a	0.17713657
111	0x3e5d9498	0.21638715
112	0xbcabd2c0	-0.020974517
113	0xbea4d8aa	-0.32196552
114	0xbef8321f	-0.4847574
115	0xbef78672	-0.4834476
116	0x3b334c00	0.0027358532
117	0xbe697ff0	-0.2280271
118	0x3effb15a	0.49939996
119	0xbd49de70	-0.0492844
120	0x3e4f7a1e	0.20261428
121	0xbedbd94c	-0.42939222
122	0x3e238c17	0.15971409
123	0x3ebe4044	0.37158406
124	0xbe6c22c4	-0.23060137
125	0x3f063c5d	0.5243586
126	0x3dcc1ee0	0.099668264
127	0xbf19cdf8	-0.6007991
128	0x3d9040d0	0.07043612
129	0x3f1f5d96	0.62252176
130	0xbdc2d098	-0.09512442
131	0xbecc5fa8	-0.3991673
132	0xbe0caef6	-0.13738617
133	0xbefb897b	-0.49128327
134	0xbe338e12	-0.17534664
135	0xbedc1578	-0.4298513
136	0xbf076e18	-0.52902365
137	0x3ed72e50	0.4202752
138	0xbe4dd2ce	-0.20099947
139	0x3e68f25c	0.22748703
140	0xbef9e538	-0.48807693
141	0xbeb4cebf	-0.35313985
142	0x3eb36999	0.35041502
143	0xbdf60128	-0.12011939
144	0x3d8bc108	0.06823927
145	0xbf1688cc	-0.58802485
146	0xbf14d18e	-0.58132255
147	0xbf00095f	-0.500143
148	0xbe046e7a	-0.12932768
149	0x3eda4c66	0.42636412
150	0xbedde2c8	-0.43337083
151	0xbef59d58	-0.47971606
152	0xbd33a26c	-0.04385607
153	0x3e09942d	0.13435431
154	0x3e3f50f5	0.18683226
155	0xbe1c2b98	-0.15251005
156	0xbdfcd440	-0.12345171
157	0x3e992ca7	0.2991688
158	0xbd9dba64	-0.07701567
159	0xbf0ad8df	-0.5423717
160	0xbcc1399c	-0.02358704
161	0xbda8fe40	-0.08251619
162	0xbf1036da	-0.56333697
163	0xbe271686	-0.16317186
164	0xbefc5164	-0.49280846
165	0x3e96c776	0.29449052
166	0x3d0ee972	0.0348906
167	0x3ec8bd2e	0.39206833
168	0x3d2301a7	0.039796498
169	0x3e93a206	0.28834552
170	0x3eaf7625	0.34269825
171	0x3d9074f0	0.07053554
172	0x3e9972a6	0.29970282
173	0xbf0692c5	-0.525677
174	0x3e89dc2c	0.2692579
175	0x3e86bb4a	0.26314765
176	0x3dd03e5f	0.10168146
177	0x3d2f7bf7	0.04284283
178	0xbe53e460	-0.20692587
179	0xbea35793	-0.3190275
180	0x3ea46ad4	0.32112753
181	0xbe81925a	-0.2530697
182	0x3ede7813	0.43450984
183	0x3e20a998	0.15689695
184	0x3e6cdd76	0.23131356
185	0x3eb854ec	0.3600229
186	0xbdfc8b38	-0.12331241
187	0xbe18cd04	-0.14921957
188	0x3ef418f6	0.47675294
189	0xbae3d770	-0.0017382931
190	0xbe2f252a	-0.1710402
191	0xbcba9540	-0.022776246
192	0xbf108908	-0.56459093
193	0x3e5f1c2f	0.21788095
194	0x3e526b13	0.20548658
195	0xbf0cf97e	-0.55068195
196	0x3eee294c	0.46515882
197	0x3d4df530	0.050282657
198	0xbe2262e8	-0.15858042
199	0xbeafb92d	-0.34320965
200	0xbf1bb0bc	-0.6081655
201	0x3e68ca4c	0.2273342
202	0x3ee484b7	0.44632503
203	0xbe1c0810	-0.1523745
204	0xbec6a1a8	-0.3879521
205	0xbeda4e96	-0.4263808
206	0x3ed6ab3c	0.41927516
207	0xbced9e60	-0.029006183
208	0x3ea037e0	0.3129263
209	0x3ecc7357	0.39931747
210	0xbec7a9d0	-0.38996744
211	0x3e2b4bb2	0.16728094
212	0x3eec8a9b	0.46199498
213	0x3ece24ca	0.40262443
214	0x3ead0cec	0.3379892
215	0x3ea84ae6	0.32869643
216	0x3f024f9b	0.5090272
217	0x3e040db2	0.1289585
218	0xbe9d825a	-0.30763513
219	0xbd13c520	-0.036076665
220	0x3f100adf	0.5626659
221	0x3e171485	0.14753921
222	0xbe136794	-0.1439498
223	0xbdd4a830	-0.10383642
224	0xbf06b072	-0.52612984
225	0x3ef136dd	0.4711217
226	0xbebcf8fc	-0.3690871
227	0x3c3aa8c0	0.011392772
228	0xbe8a48ed	-0.27008763
229	0x3ed7492e	0.4204802
230	0xbea18416	-0.31546086
231	0x3f0b38a1	0.54383284
232	0x3f09ec48	0.5387616
233	0x3eb7d35b	0.3590344
234	0xbf12a4d2	-0.57282746
235	0x3e9e1382	0.30874258
236	0xbe5b01e0	-0.21387434
237	0xbe4a06ae	-0.1972911
238	0xbe9bd031	-0.30432275
239	0x3ecce392	0.40017372
240	0xbc8093fe	-0.015695568
241	0x3d9af952	0.07567085
242	0x3e0efc3e	0.1396341
243	0xbebcad4c	-0.36850965
244	0x3d873f08	0.06603819
245	0x3e4d6668	0.20058596
246	0x3ea4380e	0.32074016
247	0x3e74dc00	0.23912048
248	0xbf16e0f6	-0.58937013
249	0x3d9510d9	0.07278604
250	0x3d9fd7c1	0.07804824
251	0x3ebd2ca2	0.36948115
252	0x3e3b952c	0.18318623
253	0x3efbf030	0.49206686
254	0xbde4e57d	-0.11176584
255	0xbd113830	-0.035453975

fc_layers.0.bias f4 [128]
0	0xbe73f25a	-0.23822919
1	0xbdc8ccae	-0.098046646
2	0xbe546b86	-0.20744142
3	0xbcdbbd51	-0.026823672
4	0xbe284218	-0.16431463
5	0xbeb3dee5	-0.35130993
6	0x3cb6666e	0.02226564
7	0xbe87b36f	-0.26504084
8	0xbe1515f9	-0.14559163
9	0xbda23de2	-0.079219595
10	0xbe3619b4	-0.17783242
11	0xbe1bf259	-0.15229167
12	0xbe850812	-0.2598272
13	0xbe2d7d08	-0.16942227
14	0xbc5e2e0b	-0.013560782
15	0xbdc6003b	-0.09668013
16	0xbc932787	-0.017963184
17	0xbe00984e	-0.125581
18	0xbe030175	-0.12793525
19	0xbe7b7bfb	-0.24559014
20	0xbe861a89	-0.2619212
21	0xbe3694ff	-0.17830275
22	0xbe10bf1a	-0.141354
23	0xbe099cb6	-0.13438687
24	0xbe075ad0	-0.13218236
25	0x3c99bc47	0.018766535
26	0xbe9294e3	-0.28629217
27	0x3cdc23f5	0.026872614
28	0xbe445e3e	-0.19176576
29	0x3e1bb3cc	0.15205306
30	0xbe8dc0ce	-0.2768616
31	0xbe03ee2d	-0.12883826
32	0xbec5c6ff	-0.38628384
33	0x3b79fd17	0.0038145238
34	0xbe42d375	-0.19025977
35	0xbde836ae	-0.11338554
36	0xbeaadd01	-0.33371738
37	0xbd9d09b5	-0.07667867
38	0xbd304f4e	-0.04304438
39	0xbea5ccda	-0.32382852
40	0xbc0ba47e	-0.008523105
41	0xbe8f321a	-0.27967912
42	0xbea00a64	-0.31257927
43	0xbdebec73	-0.115197085
44	0xbe00f66d	-0.12594004
45	0xbdebf76e	-0.11521803
46	0xbe21379e	-0.15743873
47	0xbeaf83af	-0.34280154
48	0x3d25cfca	0.040481366
49	0xbde85387	-0.113440566
50	0xbe140f3f	-0.14458941
51	0xbe1ec2b6	-0.15503964
52	0xbe70a105	-0.23498924
53	0xbe561d49	-0.20909609
54	0x3c8db562	0.017298404
55	0xbde4a677	-0.11164563
56	0xbe458755	-0.19289906
57	0xbe90dca4	-0.28293335
58	0xbe0ff537	-0.14058386
59	0xbe4d624e	-0.20057032
60	0xbd377395	-0.044787962
61	0xbe1b13a6	-0.15144214
62	0xbe86604e	-0.2624535
63	0xbe56118e	-0.20905134
64	0xbd72819f	-0.059205648
65	0xbe983fe4	-0.29736245
66	0xbd7db45c	-0.061939582
67	0xbe6b8e66	-0.2300354
68	0x3e3cc05c	0.18432754
69	0xbdf7ed88	-0.12105852
70	0xbdf83113	-0.12118735
71	0xbe9af070	-0.30261564
72	0xbe4a7fc0	-0.19775295
73	0xbdb59573	-0.08866396
74	0xbdc5c442	-0.09656574
75	0xbd2add0a	-0.041714706
76	0xbe490f8d	-0.19634838
77	0xbd8dc0d7	-0.06921547
78	0xbe2014ff	-0.1563301
79	0xbe8e4e3b	-0.2779406
80	0xbe371ae8	-0.17881358
81	0xbe808543	-0.2510167
82	0xbe672972	-0.22574404
83	0xbe80181b	-0.2501839
84	0xbe1de398	-0.15418851
85	0xbe55473d	-0.20827956
86	0xbe68944c	-0.22712821
87	0xbd976780	-0.07392788
88	0xbe8a4fd9	-0.27014044
89	0xbe2c8ba9	-0.16850151
90	0xbd266007	-0.040618923
91	0xbecedf2e	-0.40404648
92	0xbdc17d97	-0.094477825
93	0xbd2a392d	-0.041558433
94	0xbdfbd7e0	-0.12297034
95	0xbeb4bd69	-0.35300758
96	0xbdc892d1	-0.09793628
97	0xbd055235	-0.0325491
98	0xbe70348f	-0.2345755
99	0xbcd95d1b	-0.026533654
100	0xbe06d340	-0.13166523
101	0xbd1d9d06	-0.038479827
102	0xbe139f94	-0.14416343
103	0xbea4dbf6	-0.32199067
104	0xbe846349	-0.25857
105	0xbe3a01a4	-0.18164688
106	0xbd82ee00	-0.06393051
107	0xbcef19cf	-0.029187111
108	0xbdc2b9c8	-0.09508091
109	0x3e10f25b	0.14154951
110	0x3d3e67b5	0.04648562
111	0xbe916cf3	-0.28403434
112	0xbe84adbb	-0.25913796
113	0xbe42b850	-0.19015622
114	0xbe62abd7	-0.22135864
115	0xbe920858	-0.2852199
116	0xbe08c4f7	-0.13356386
117	0xbdf1d40b	-0.11808022
118	0xbe666c98	-0.22502363
119	0xbd571ed7	-0.052519646
120	0xbe997e5e	-0.29979223
121	0xbebeb5bf	-0.37248036
122	0xbe6f0690	-0.23342347
123	0xbe2f1ffd	-0.17102046
124	0xbe8ac730	-0.27105093
125	0xbe20edf0	-0.15715766
126	0xbdb79bfd	-0.08965299
127	0xbe6b5a93	-0.2298377

fc_layers.3.weight f4 [64, 128]
0	0x3dcdfe1e	0.10058235
1	0xbe3354e7	-0.17512856
2	0xbe0fe1d4	-0.1405099
3	0xbe44e6ab	-0.19228618
4	0xbdd59f92	-0.10430826
5	0x3d880e27	0.06643324
6	0x3c75ab09	0.014994391
7	0xbcb9bcb9	-0.022672998
8	0x3d3aa2c4	0.04556538
9	0xbac35898	-0.0014903722
10	0xbd844c42	-0.064598575
11	0xbdabcb15	-0.08388344
12	0xbe893d22	-0.26804453
13	0xbc4a3aad	-0.012343091
14	0xbda347aa	-0.07972653
15	0xbe28dad7	-0.16489731
16	0x3d7da241	0.061922316
17	0xbd7574c8	-0.059925824
18	0x3d9b6b5b	0.07588836
19	0xba19ac8b	-0.0005862198
20	0xbe655f84	-0.22399718
21	0x3cbca691	0.023028644
22	0x3bc94a5a	0.0061428966
23	0xbdf02bbc	-0.11727092
24	0xbd856012	-0.065124646
25	0xbe2a540e	-0.16633627
26	0xbdd5f560	-0.10447192
27	0xbddbe1c5	-0.107364215
28	0xbe18fcbf	-0.14940165
29	0xbdbd3644	-0.09238866
30	0x3dd8e0d0	0.105897546
31	0xbd32834b	-0.043582242
32	0x3dcbb6c9	0.09946973
33	0xbd30fdd8	-0.043210834
34	0xbdf5cc03	-0.12001803
35	0x3db05752	0.08610405
36	0xbdeef0d4	-0.11667028
37	0xbe4ff0a8	-0.20306647
38	0x3d8d10ac	0.068879455
39	0xbe6e0563	-0.23244242
40	0xbdae8629	-0.08521683
41	0xbe594799	-0.21218719
42	0xbe5d16da	-0.21590748
43	0xbd93e8bf	-0.07222127
44	0xbe02cb66	-0.12772903
45	0x3c898098	0.016784951
46	0x3d01bb88	0.031672984
47	0xbda5930c	-0.080846876
48	0xbd0aa380	-0.033847332
49	0xbe2c9b44	-0.16856104
50	0x3e030fb9	0.12798966
51	0xbd8b8ce1	-0.0681398
52	0x3db04246	0.08606391
53	0xbe4e4c47	-0.20146285
54	0xbe4f7090	-0.20257783
55	0x3dbb7401	0.09152985
56	0xbe663e8c	-0.22484797
57	0xbe2d8a28	-0.16947234
58	0xbe3d6594	-0.1849578
59	0x3e22fc2d	0.1591651
60	0x3dc4a8a7	0.096024804
61	0xbe20f6cc	-0.15719146
62	0xbe007896	-0.12546
63	0x3d56cb55	0.052440006
64	0xbe4a60d3	-0.19763498
65	0x3d186785	0.0372081
66	0xbd78cc25	-0.060741562
67	0xbdbd20c0	-0.09234762
68	0xbe581660	-0.21102285
69	0xbde1f03d	-0.1103215
70	0x3d6ba88a	0.05753378
71	0x3e4f83b6	0.20265087
72	0xbdad12c0	-0.08450842
73	0xbd06a127	-0.03286853
74	0xbe46fa4f	-0.19431423
75	0xbe61bbff	-0.22044371
76	0xbc94bca4	-0.018156357
77	0x3de18791	0.11012185
78	0xbd942d68	-0.07235223
79	0x3dbd44f8	0.0924167
80	0xbe53b203	-0.20673375
81	0x3d31bcb0	0.043392837
82	0x3e091c33	0.13389663
83	0xbe20ce24	-0.15703636
84	0x3e073b3a	0.13206187
85	0xbe24d018	-0.16095006
86	0xbda606a9	-0.08106739
87	0x3d288367	0.04114094
88	0xbd85b6e4	-0.06529024
89	0xbe4734d7	-0.1945375
90	0x3da31b48	0.07964188
91	0xbd7d64b0	-0.0618636
92	0xbd515db8	-0.051114768
93	0xbdc654a2	-0.09684111
94	0xbae12ac3	-0.0017178882
95	0xbdc77803	-0.09739687
96	0x3b55bd04	0.0032613883
97	0xbe147813	-0.1449893
98	0xbe593698	-0.21212232
99	0x3d8d80b2	0.06909312
100	0x3e0e07f0	0.13870215
101	0x3d396841	0.04526544
102	0xbd8f60d4	-0.070008904
103	0x3e2bf22b	0.16791598
104	0xbe87b62e	-0.2650618
105	0xbe41f3ac	-0.1894061
106	0xbc38c9a3	-0.011278543
107	0x3d5ee1f5	0.05441471
108	0xbdb96cef	-0.090539806
109	0xbde6e24d	-0.11273632
110	0xbc8403a3	-0.016115015
111	0x3dcd603a	0.100281194
112	0xbe3fa200	-0.18714142
113	0xbd305e13	-0.043058466
114	0xbd20e4de	-0.039280765
115	0xbe722399	-0.23646392
116	0xbe30afd9	-0.1725458
117	0xbd22fc80	-0.039791584
118	0xbe2f9f3b	-0.17150585
119	0xbe6b531a	-0.2298092
120	0x3e14023f	0.14453982
121	0x3dee91f1	0.1164893
122	0xbd96e32c	-0.07367548
123	0xbdd2529f	-0.10269665
124	0xbe5c67a6	-0.21523914
125	0xbe54fdef	-0.20799993
126	0xbdf56f32	-0.119840994
127	0xbe375f14	-0.17907363
128	0xbd5cdcb6	-0.053921424
129	0x3e76a42d	0.24086066
130	0xbd069813	-0.032859873
131	0x3d82a7c6	0.063796565
132	0x3e9125db	0.28349194
133	0xbd419365	-0.047259707
134	0xbc2aaac8	-0.010416694
135	0x3d7021a2	0.058625825
136	0xbe943e00	-0.28953552
137	0xbd698cec	-0.05701916
138	0xbe366a0f	-0.17813896
139	0xbd458424	-0.048221722
140	0xbdda1b96	-0.10649793
141	0x3dfa18be	0.122117504
142	0x3d5d1f4e	0.053984933
143	0xbe34ddee	-0.17662784
144	0xbdb67e0e	-0.08910762
145	0x3dcc9dab	0.0999101
146	0xbe3a6ebd	-0.18206306
147	0xbdb0b777	-0.08628743
148	0xbed7732c	-0.42080057
149	0x3e4b7791	0.1986983
150	0xbd9511f2	-0.072788134
151	0x3cca6d58	0.024710342
152	0xbe48a1aa	-0.1959292
153	0x3d26f3aa	0.04075972
154	0x3dcf9db5	0.10137502
155	0xbe4fe521	-0.2030225
156	0x3d9347c1	0.0719142
157	0x3e1977e1	0.14987136
158	0xbe27d335	-0.16389163
159	0xbe501c35	-0.2032326
160	0x3d1d57b8	0.038413733
161	0xbd619f26	-0.055083416
162	0xbdfa62dc	-0.12225887
163	0xbe585ea5	-0.21129854
164	0xbe878375	-0.2646748
165	0xbe19755b	-0.14986174
166	0xbeb04741	-0.34429362
167	0xbe261906	-0.16220483
168	0xbd3390f5	-0.043839414
169	0xbeb85eb3	-0.3600975
170	0xbd72d0bd	-0.0592811
171	0x3e01f49c	0.12690967
172	0xbe43f951	-0.19138075
173	0xbe927a2b	-0.28608832
174	0xbd95d7b3	-0.07316532
175	0xbe7677ea	-0.24069181
176	0xbdbb6064	-0.091492444
177	0x3e0883ab	0.13331477
178	0x3db30f61	0.08743168
179	0xbe95b4b5	-0.2923943
180	0x3dccb008	0.09994513
181	0x3dc9419c	0.09826967
182	0xbda21b62	-0.07915379
183	0xbd86e140	-0.06585932
184	0x3e3d9a86	0.18515977
185	0xbe64d58f	-0.22347091
186	0xbe5a36a9	-0.21309914
187	0x3e42e3b7	0.19032179
188	0x3e06d42e	0.13166878
189	0xbea7592d	-0.32685223
190	0xbe28ce9e	-0.16485068
191	0x3c2a5e6d	0.010398489
192	0xbdcfc075	-0.1014413
193	0x3b720d8c	0.0036934344
194	0xbdf67697	-0.12034338
195	0xbda9199f	-0.0825684
196	0xbe88f3ef	-0.26748607
197	0xbdc72a29	-0.09724838
198	0xbe757392	-0.23969868
199	0x3e150ae9	0.14554943
200	0xbd52c57b	-0.051457863
201	0xbd76a711	-0.06021792
202	0x3bedc2ce	0.0072558885
203	0xbe1cc297	-0.15308605
204	0xbec031c7	-0.37537977
205	0xbe484c5e	-0.19560382
206	0xbdcd289d	-0.10017512
207	0xbd41fe84	-0.047361866
208	0xbdd36b97	-0.103232555
209	0x3d3e38da	0.046440937
210	0xbe4bf934	-0.19919282
211	0xbe626211	-0.22107722
212	0xbea9ab7c	-0.33138645
213	0x3cd96401	0.026536943
214	0xbe0ed229	-0.13947357
215	0xbe4ecf74	-0.20196325
216	0xbda457f8	-0.08024591
217	0xbe07f044	-0.13275248
218	0x3dc1a8cb	0.09456023
219	0xbdd7c670	-0.10535896
220	0xbc97bf72	-0.018523905
221	0x3e591252	0.21198395
222	0xbe48bd24	-0.19603401
223	0x3d1714ab	0.036884945
224	0x3e074418	0.1320957
225	0xbe4a92de	-0.19782588
226	0x3e1273d8	0.14302003
227	0x3d8856a9	0.06657154
228	0xbd1079ff	-0.035272595
229	0xbcc6211e	-0.024185713
230	0x3dea062d	0.11426959
231	0x3da57916	0.08079736
232	0xbe6a725c	-0.22895187
233	0x3d43bb01	0.047785763
234	0xbd2bbd0a	-0.04192833
235	0xbe6facbc	-0.23405737
236	0xbe02c22e	-0.12769386
237	0xbe1faaf7	-0.15592562
238	0x3e5ac298	0.21363294
239	0xbe3b8573	-0.18312626
240	0xbe3172b6	-0.17328915
241	0x3d8fd45e	0.07022928
242	0xbe45e437	-0.19325338
243	0xbe1588e1	-0.14602996
244	0xbd0f723c	-0.03502105
245	0xbdfac996	-0.12245481
246	0x3de53354	0.11191431
247	0xbd9d6cdf	-0.07686781
248	0x3e21111e	0.15729186
249	0x3d9c7cf8	0.076410234
250	0xbe6417b4	-0.22274667
251	0xbe1f5e4b	-0.15563314
252	0x3d64c3b1	0.05585069
253	0x3e3eb274	0.18622762
254	0xbd92d015	-0.07168595
255	0xbe89c166	-0.26905364

fc_layers.3.bias f4 [64]
0	0xbda0f20b	-0.07858666
1	0xbda768bd	-0.08174274
2	0x3dd0ee92	0.10201754
3	0xbd8573b0	-0.06516206
4	0xbe020135	-0.12695773
5	0x3de5d2d2	0.112218514
6	0xbd63cf12	-0.0556174
7	0xbe0f2783	-0.13979916
8	0xbc41e0e4	-0.011833403
9	0x3e862389	0.26198986
10	0x3c024ab3	0.00795238
11	0x3d4c61a0	0.04989779
12	0xbb34e053	-0.0027599528
13	0xbdec4455	-0.11536471
14	0xbe13e1aa	-0.14441553
15	0x3dd35d62	0.10320546
16	0x3e338904	0.17532736
17	0xbe34c130	-0.1765182
18	0x3d5ffc7d	0.05468415
19	0xbc9730b3	-0.018455839
20	0x3d03132f	0.032000717
21	0x3e2afa95	0.16697152
22	0xbd86f3f3	-0.06589498
23	0xbda32db3	-0.07967701
24	0xbe463a0b	-0.19358079
25	0xbc760f9a	-0.015018368
26	0x3d9f63e9	0.07782728
27	0x3cf49881	0.029857876
28	0xbdc08b24	-0.09401539
29	0x3ce21e82	0.027602438
30	0xbde9ed9c	-0.114222735
31	0x3ddd4010	0.108032346
32	0x3db8c16d	0.09021268
33	0x3d94b46f	0.072609775
34	0xbd92a2bd	-0.07159946
35	0xbe38ea3d	-0.18058105
36	0xbd974aa5	-0.07387284
37	0x3e091b78	0.13389385
38	0x3dc04219	0.09387607
39	0x3d0bd8b7	0.034142222
40	0xbe55e397	-0.208876
41	0xbc5cb21c	-0.013470199
42	0x3e4a302d	0.1974494
43	0xbe3e63dd	-0.18592782
44	0xbe28a54b	-0.16469304
45	0xbd288fc0	-0.041152716
46	0xbd511186	-0.051042102
47	0x3e0eb4ca	0.13936153
48	0xbd81c3b0	-0.063361526
49	0xbcf06971	-0.029347153
50	0x3aded613	0.0017001055
51	0xbc03882d	-0.008028072
52	0xbe31e008	-0.17370617
53	0x3d4c55e6	0.049886607
54	0xbc98266a	-0.018573005
55	0x3d68850f	0.05676752
56	0x3df6530c	0.12027559
57	0xbd878f9f	-0.066191904
58	0xbd772fbb	-0.060348254
59	0x3d95302f	0.07284581
60	0xbe3fb607	-0.18721782
61	0x3cca55a8	0.024699047
62	0x3cc8bf7c	0.02450537
63	0x3dcb6367	0.09931069

fc_layers.6.weight f4 [32, 64]
0	0x3e5e17e5	0.21688803
1	0xbdc20c58	-0.09475011
2	0xbe8d3407	-0.27578756
3	0x3d1c312b	0.038132828
4	0xbcd32f2e	-0.025779333
5	0x3e1121b5	0.14173014
6	0x3e580b4e	0.21098062
7	0x3e791ffa	0.24328604
8	0xbe1ecc03	-0.15507512
9	0xbe7306fb	-0.23733132
10	0xbd9eb059	-0.077484794
11	0x3e8b93cd	0.272612
12	0xbcf79a8d	-0.030225063
13	0xbe4d1db8	-0.20030868
14	0x3c10ab72	0.008829938
15	0xbe3f8bea	-0.18705717
16	0x3dca2303	0.09869959
17	0x3cb93286	0.0226071
18	0xbd74b9d7	-0.059747543
19	0xbd175618	-0.03694734
20	0x3e6a0656	0.2285398
21	0xbe537521	-0.2065015
22	0xbca77825	-0.020443032
23	0xbdf9e969	-0.122027226
24	0xbe780301	-0.24219896
25	0xbe96e929	-0.29474762
26	0xbe40f5bc	-0.1884374
27	0x3d11e42b	0.03561799
28	0xbc89bf72	-0.016814921
29	0xbdc35f04	-0.09539607
30	0xbe97314d	-0.295298
31	0xbd8e50e2	-0.06949021
32	0x3d1de1f4	0.038545564
33	0xbe36a790	-0.17837358
34	0x3e6fa63f	0.23403262
35	0xbe6096f0	-0.21932578
36	0xbe52b357	-0.20576225
37	0x3ccffc21	0.02538878
38	0xbecd0ea9	-0.40050247
39	0xbea244d9	-0.31693152
40	0xbe688559	-0.22707118
41	0x3d5ad9b1	0.053430263
42	0xbe951304	-0.2911607
43	0xbe89fb85	-0.26949707
44	0x3dd6d511	0.10489858
45	0xbe32ae8f	-0.17449401
46	0xbde5e4a2	-0.11225249
47	0x3e9b4d19	0.30332258
48	0x3e099fa4	0.13439804
49	0xbc57effc	-0.013179775
50	0xbe351a4b	-0.17685811
51	0x3e0deb8e	0.13859388
52	0xbd060856	-0.032722794
53	0xbe90dac8	-0.28291917
54	0x3e1daa1c	0.15396923
55	0xbc6fd01b	-0.014637019
56	0xbe9f5fac	-0.3112768
57	0xbd3a2477	-0.04544493
58	0x3d9ec114	0.077516705
59	0xbe95ecbe	-0.29282182
60	0x3d3bd93d	0.04586147
61	0x3c2e4088	0.010635503
62	0xbdd213e9	-0.10257704
63	0xbe3301ed	-0.17481203
64	0xbe3f3d17	-0.18675648
65	0x3d25e930	0.040505588
66	0xbe7453f7	-0.23860155
67	0xbe965e75	-0.2936894
68	0xbe214550	-0.15749097
69	0x3cb98c3a	0.022649873
70	0x3e81d8bd	0.2536067
71	0x3e6b6092	0.22986057
72	0xbe1b2b61	-0.15153266
73	0xbdf10280	-0.11768055
74	0x3e460632	0.19338301
75	0x3dd85740	0.105635166
76	0xbe97813c	-0.29590786
77	0xbe78d468	-0.24299777
78	0xbe87c004	-0.26513684
79	0xbe68c257	-0.22730385
80	0xbdc37147	-0.0954309
81	0xbe1c5d47	-0.15269957
82	0x3b3d7beb	0.0028912972
83	0x3e394007	0.1809083
84	0x3cf419aa	0.029797394
85	0xbe5e9fd2	-0.21740654
86	0xbe7a2f86	-0.24432191
87	0xbe5951c2	-0.21222594
88	0x3dcdffa4	0.10058525
89	0xbe541666	-0.2071167
90	0xbd43031e	-0.047610395
91	0xbe7914a3	-0.24324279
92	0xbe9b4393	-0.30324993
93	0x3cde8525	0.027163098
94	0xbdd7a8d0	-0.10530245
95	0xbe9de4cb	-0.30838618
96	0xbe3cdbfa	-0.1844329
97	0xbc253935	-0.01008444
98	0xbd2fcb83	-0.042918693
99	0xbb86be29	-0.0041120243
100	0x3e33e679	0.17568387
101	0xbd79d3ef	-0.06099313
102	0xbe8f7c95	-0.28024736
103	0x3d390e66	0.045179747
104	0xbddff2a5	-0.10934953
105	0x3df7c9d0	0.120990396
106	0xbe2ce214	-0.16883117
107	0x3e283cb1	0.16429402
108	0x3e7821b2	0.24231604
109	0x3dccfc8d	0.10009108
110	0xbe0d34f4	-0.13789731
111	0xbd6411f7	-0.055681195
112	0x3e42838b	0.18995492
113	0xbccb09f5	-0.024785021
114	0xbe210037	-0.15722738
115	0xbe90e47e	-0.28299326
116	0xbd74cc7e	-0.05976533
117	0x3e33b797	0.17550503
118	0xbdfb680a	-0.12275703
119	0xbd0af267	-0.03392258
120	0xbe5d625d	-0.21619554
121	0xbb6c965e	-0.0036100368
122	0x3cc0e90d	0.023548627
123	0xbdc99462	-0.09842755
124	0x3e6b29f6	0.22965226
125	0x3d6c5e34	0.057707027
126	0x3d2ce04e	0.0422061
127	0xbd5682b7	-0.052370753
128	0xbe7ed65b	-0.24886458
129	0xbed8b21d	-0.4232339
130	0xbe12b07f	-0.1432514
131	0x3cf8ee1e	0.03038698
132	0xbe281242	-0.16413215
133	0xbed02788	-0.4065516
134	0xbe98e405	-0.29861465
135	0x3e8788c9	0.26471546
136	0x3ea9e568	0.33182836
137	0x3e3bb87f	0.18332098
138	0xbd9cfc7e	-0.076653466
139	0xbe745aa3	-0.238627
140	0xbe4c3add	-0.1994433
141	0x3ca1a023	0.01972968
142	0x3ca39f35	0.019973377
143	0xbcb4c240	-0.022065282
144	0xbec15f79	-0.37768152
145	0x3e253456	0.16133246
146	0x3e0114f8	0.12605655
147	0x3e886ff6	0.2664792
148	0xbea60141	-0.32422832
149	0xbea0a7dd	-0.3137807
150	0xbddcc372	-0.10779466
151	0xbcb78e57	-0.02240674
152	0xbe99d9de	-0.30049032
153	0xbe909cba	-0.28244573
154	0xbb6bf17b	-0.0036002088
155	0x3db4739f	0.088111155
156	0xbdb235ba	-0.08701654
157	0xbe9ab3f0	-0.30215406
158	0x3dfe22fa	0.12409015
159	0xbd731c2b	-0.059353035
160	0xbe8552b4	-0.2603966
161	0xbe59619f	-0.21228646
162	0xbe27e596	-0.16396174
163	0xbe8d5f3e	-0.27611727
164	0xbe25ea2e	-0.16202614
165	0xbe19a5f7	-0.15004717
166	0xbd096406	-0.033542655
167	0x3d1fe3e8	0.039035708
168	0x3de97496	0.1139919
169	0xbe927b9d	-0.28609934
170	0xbec2ac97	-0.380223
171	0xbd63e6a5	-0.05563988
172	0x3e7f34fb	0.24922554
173	0x3dc4f49f	0.0961697
174	0xbc3fdbc4	-0.011710111
175	0xbe975b68	-0.29561925
176	0xbe5aa4b0	-0.21351886
177	0x3e26144e	0.16218683
178	0xbd6e3ab4	-0.058161452
179	0xbe86f088	-0.26355386
180	0x3dab2a24	0.08357647
181	0xbd801a66	-0.06255035
182	0xbe921877	-0.2853429
183	0xbe141c80	-0.14463997
184	0xbdc43d9f	-0.09582066
185	0x3e536f9d	0.20648046
186	0xbde1b9da	-0.110217765
187	0xbec5db65	-0.38643947
188	0xbdf7117e	-0.12063883
189	0xbe71e78b	-0.23623483
190	0xbec2c3a9	-0.38039902
191	0xbe8d7bbe	-0.2763347
192	0x3d3c323a	0.045946337
193	0xbe888f91	-0.26672032
194	0xbdee44c2	-0.11634208
195	0xbdd27263	-0.10275724
196	0x3e612a56	0.21988806
197	0x3e33af79	0.17547406
198	0x3e8205ea	0.25395137
199	0xbd1e1f2a	-0.03860394
200	0x3b3acfb9	0.002850516
201	0x3d23f7f6	0.040031396
202	0x3e2ff255	0.17182286
203	0xbdf088f5	-0.117448725
204	0xbdf37190	-0.11886895
205	0x3de74034	0.11291543
206	0xbe73cf67	-0.23809586
207	0xbe22603d	-0.15857024
208	0xbe70b604	-0.23506933
209	0x3dccddd0	0.10003245
210	0xbeaac85d	-0.3335599
211	0x3e1bee73	0.1522768
212	0xbd2a212d	-0.041535545
213	0x3cfd1f3c	0.030898683
214	0x3df24a1f	0.11830544
215	0xbd27fa2d	-0.04101007
216	0xbe7e2510	-0.24818826
217	0xbd083372	-0.033252187
218	0xbb598a70	-0.0033194087
219	0x3ee7a19c	0.45240486
220	0xbe214bfd	-0.15751643
221	0xbdde9016	-0.10867326
222	0xbd44ac5b	-0.048015933
223	0x3d0f9109	0.035050426
224	0x3cccb64d	0.024989272
225	0xbc99bf89	-0.018768089
226	0xbbbf3aea	-0.0058358805
227	0xbdb3c645	-0.08778051
228	0x3bfef072	0.007780128
229	0x3d5efbb8	0.054439276
230	0xbde74789	-0.11292941
231	0x3d32d9a5	0.043664593
232	0xbe8799a9	-0.2648442
233	0xbddbb353	-0.10727563
234	0xbe94d45e	-0.29068273
235	0x3d9021c1	0.07037688
236	0x3ce6f08e	0.028190877
237	0x3e64e581	0.22353174
238	0x3d9bf224	0.07614544
239	0xbe0b7ff1	-0.13623025
240	0xbd6f6ac9	-0.058451448
241	0xbe0f466e	-0.1399171
242	0xbea04326	-0.3130123
243	0xbe8d803d	-0.276369
244	0x3bb541f4	0.005531544
245	0xbdff0f71	-0.12454117
246	0xbe811886	-0.25214022
247	0x3e217e8f	0.15770935
248	0x3e9faff1	0.3118892
249	0x3e920023	0.2851573
250	0x3e1b2597	0.15151058
251	0xbe1ef854	-0.15524417
252	0x3e8217aa	0.2540868
253	0xbe2a0eb3	-0.1660717
254	0xbe053e87	-0.13012134
255	0xbdf0539f	-0.117346995

fc_layers.6.bias f4 [32]
0	0xbda70ed4	-0.08157125
1	0xbead0103	-0.33789834
2	0xbb509a9f	-0.0031830443
3	0xbd58cedd	-0.052931655
4	0x3e900017	0.2812507
5	0xbebf66bb	-0.37383065
6	0xbe331a86	-0.17490587
7	0xbdc27213	-0.09494414
8	0xbe7375e4	-0.2377544
9	0xbd5f39b3	-0.054498386
10	0x3d41502b	0.047195595
11	0xbe78acf0	-0.2428472
12	0x3e0ad76a	0.13558736
13	0x3e0f70c6	0.14007863
14	0xbdde192d	-0.10844646
15	0x3da1d31e	0.079015955
16	0x3e9af335	0.30263677
17	0xbd2c08b9	-0.042000506
18	0xbd983cf3	-0.074335
19	0x3e21e2d9	0.15809192
20	0x3f0d30b0	0.55152416
21	0xbe830de7	-0.25596544
22	0x3e19e229	0.1502768
23	0x3e757b56	0.2397283
24	0x3dd2d1e9	0.102939434
25	0xbee894b0	-0.4542594
26	0xbd222392	-0.039584704
27	0xbc4c1b26	-0.012457645
28	0xbe078c6d	-0.13237162
29	0x3eda3bd3	0.42623767
30	0x3f15e67c	0.58554816
31	0x3e6088e4	0.2192722

fc_layers.8.weight f4 [4, 32]
0	0xbe326c96	-0.17424235
1	0xbdef150a	-0.11673935
2	0xbe616912	-0.22012737
3	0x3e8aa3c1	0.2707806
4	0xbc1afb4b	-0.009459327
5	0xbd9c90a4	-0.076447755
6	0xbea81cdb	-0.32834515
7	0xbcbfe94f	-0.02342668
8	0xbe506ac1	-0.20353223
9	0xbe801bdc	-0.25021255
10	0x3e920594	0.2851988
11	0xbdbf5ed0	-0.09344256
12	0xbe1de5a8	-0.15419638
13	0xbcbec36b	-0.023286542
14	0xbe1c1f20	-0.15246248
15	0xbd07586c	-0.03304331
16	0x3dfcc8e3	0.123430036
17	0x3b99d788	0.004694883
18	0x3dd5f368	0.10446817
19	0x3e6ff3fe	0.2343292
20	0x3e9ba84a	0.30401832
21	0x3e99a6b2	0.3000999
22	0xbd926774	-0.07148638
23	0x3e019d22	0.12657598
24	0x3d7bdcf1	0.061490003
25	0xbe4ab3f8	-0.19795215
26	0x3b400df1	0.0029305185
27	0x3e1c003f	0.15234469
28	0xbceaa62a	-0.028643686
29	0x3dc7535f	0.09732699
30	0x3e8b5850	0.27215815
31	0xbf139f4b	-0.57664937
32	0xbf0abfe0	-0.5419903
33	0xbe21eb60	-0.15812445
34	0xbe60ec5a	-0.21965161
35	0xbe8c51a2	-0.2740603
36	0xbf2f99e1	-0.68594176
37	0xbe975682	-0.29558188
38	0xbe0b3f02	-0.13598254
39	0x3d40a679	0.04703376
40	0x3dac96bc	0.08427188
41	0x3d342fa2	0.04399074
42	0x3e81909a	0.25305635
43	0x3d8fb168	0.070162594
44	0x3d84a29f	0.0647633
45	0x3e2b634f	0.16737102
46	0xbde2f396	-0.110816166
47	0xbe878e86	-0.26475924
48	0x3e51c1fa	0.20484152
49	0x3d9b3c46	0.075798556
50	0x3d9d6428	0.07685119
51	0x3e04056c	0.12892693
52	0x3e9116ff	0.28337857
53	0xbccfc561	-0.025362672
54	0x3e35f05d	0.17767473
55	0x3e3414db	0.1758608
56	0xbe4966e6	-0.19668159
57	0xbe956829	-0.2918103
58	0xbdc02fef	-0.093841426
59	0x3e13124b	0.14362447
60	0xbbf5806f	-0.007492117
61	0x3e6fbb3f	0.23411272
62	0x3e6e72b7	0.23285948
63	0xbe378a77	-0.17923914
64	0x3d3c8dcb	0.04603366
65	0xbd6b3b97	-0.057429876
66	0xbd002dc3	-0.03129364
67	0x3cb57c91	0.022154124
68	0xbe1056d2	-0.1409562
69	0x3e9773f5	0.29580656
70	0xbe94f949	-0.2909644
71	0xbe7ae63d	-0.24501891
72	0xbca499df	-0.020092903
73	0x3d22d312	0.039752074
74	0xbd44f013	-0.048080515
75	0xbd7c8691	-0.06165177
76	0x3da1c17d	0.07898233
77	0xbdb160f0	-0.086610675
78	0xbe770432	-0.24122694
79	0x3cbbd28a	0.022927541
80	0xbde00581	-0.1093855
81	0x3cda5ca9	0.026655512
82	0x3e36ad96	0.17839655
83	0x3c127dba	0.008941108
84	0x3e873de1	0.26414397
85	0x3e706818	0.23477209
86	0x3e822813	0.254212
87	0xbe712e2a	-0.23552766
88	0x3e429c8c	0.1900503
89	0xbe5f5f0c	-0.21813601
90	0x3da99d78	0.08281988
91	0x3c9f38f4	0.019436337
92	0xbe014f50	-0.12627912
93	0x3e3aa13a	0.18225566
94	0x3ed64f9a	0.41857606
95	0xbf3ba862	-0.73303807
96	0xbe1dd3b3	-0.15412788
97	0x3d3b770b	0.045767825
98	0xbda0be42	-0.07848789
99	0xbe74a7a0	-0.23892069
100	0xbec860c9	-0.3913634
101	0xbe5c8530	-0.21535182
102	0xbd2ef75b	-0.042716365
103	0x3da57ee9	0.08080847
104	0x3de01811	0.1094209
105	0xbdfb3582	-0.12266065
106	0x3e640ddd	0.22270913
107	0x3e5394f3	0.20662288
108	0x3e152eb2	0.14568594
109	0x3d8b9406	0.068153426
110	0x3e9db344	0.3080083
111	0xbe43ccf8	-0.19121158
112	0x3e0d8904	0.13821799
113	0x3df779f5	0.12083808
114	0x3e487f8a	0.19579902
115	0x3d143315	0.036181528
116	0x3e4319f2	0.19052866
117	0x3dcfc76b	0.10145458
118	0xbe93546b	-0.28775343
119	0x3e1fce85	0.15606125
120	0xbc287f90	-0.0102843195
121	0xbe8f96a4	-0.28044617
122	0xbdcb738a	-0.09934147
123	0x3c9f2b4d	0.019429827
124	0x3e54833a	0.20753184
125	0x3e513814	0.20431548
126	0xbcd78a23	-0.026310986
127	0xbe2b3b92	-0.16721943

fc_layers.8.bias f4 [4]
0	0x3e60c2fc	0.2194938
1	0x3e7fb3e7	0.24970971
2	0x3e88fcad	0.26755276
3	0x3ee3e3ee	0.44509834
