output/dqn/model/4x4/8000.pth (torch, 53468 bytes, 8 tensors)

fc_layers.0.weight f4 [128, 16]
0	0x3e0a3456	0.13496527
1	0x3e5652cd	0.20930023
2	0x3ca58c00	0.020208359
3	0x3e644dfd	0.22295375
4	0x3eed24ae	0.46317047
5	0xbdf07980	-0.11741924
6	0x3efffeb6	0.49999017
7	0x3ef109a6	0.47077674
8	0x3e41510e	0.18878576
9	0x3ef67c87	0.48141882
10	0xbee7b8e7	-0.45258257
11	0xbee8d780	-0.45476913
12	0x3f103651	0.5633288
13	0x3f0666d4	0.52500653
14	0x3dbf47b8	0.09339851
15	0x3e9a4158	0.30127978
16	0xbe7510b8	-0.23932159
17	0xbce36f37	-0.027762992
18	0x3dd33ca3	0.103143
19	0xbefb98ea	-0.49140102
20	0x3e372105	0.1788369
21	0x3ef85736	0.48504037
22	0xbec8db20	-0.3922968
23	0xbf0b5f2a	-0.54442084
24	0x3ea833d7	0.3285205
25	0xbe092f40	-0.1339693
26	0xbea79746	-0.327326
27	0xbd1d9620	-0.03847325
28	0x3f16e9ab	0.589503
29	0x3ed35ed7	0.41283295
30	0xbd7398f1	-0.05947203
31	0xbe07886e	-0.13235638
32	0xbe07e1db	-0.13269751
33	0xbee1b152	-0.44080597
34	0xbda5b04c	-0.080902666
35	0x3e0215c2	0.12703612
36	0xbeb70885	-0.35748687
37	0x3ecead9e	0.40366834
38	0x3eb8d971	0.36103395
39	0xbe28e5fa	-0.16493979
40	0xbd5cab23	-0.053874146
41	0x3e49d31e	0.19709441
42	0x3eb242b0	0.34816504
43	0xbdd153c0	-0.10221052
44	0x3eafd6fe	0.34343714
45	0xbf123231	-0.57107836
46	0x3e8afe3c	0.2714709
47	0x3da08100	0.07837105
48	0xbee45afd	-0.4460067
49	0x3e7271d4	0.23676234
50	0xbf089e09	-0.5336614
51	0xbe144514	-0.14479476
52	0xbe5d7392	-0.21626118
53	0x3e9f954a	0.31168586
54	0xbf0d88de	-0.5528697
55	0xbea20bd8	-0.3164966
56	0x3efdafea	0.49548274
57	0x3e198fa1	0.14996196
58	0x3e49d43f	0.19709872
59	0x3e988e48	0.29796052
60	0xbe91bf28	-0.28466153
61	0x3e9ef2e0	0.31044674
62	0x3e62228b	0.2208349
63	0xbde35018	-0.11099261
64	0x3c9c0107	0.019043459
65	0x3ec5a4c0	0.38602257
66	0x3e4d0343	0.20020775
67	0xbf078361	-0.52934843
68	0xbf1a1d5c	-0.6020105
69	0x3ef79c96	0.48361653
70	0xbee33ba4	-0.4438144
71	0xbe6a62e0	-0.2288928
72	0x3ebbeea1	0.36705497
73	0xbe171bc2	-0.14756683
74	0x3ea7eb58	0.3279674
75	0xbe3c67bc	-0.18398947
76	0xbda66158	-0.081240356
77	0xbe9ca947	-0.30597898
78	0x3e82856c	0.25492418
79	0x3f059da5	0.5219367
80	0xbedf83da	-0.43655282
81	0xbe55a9a0	-0.20865488
82	0xbe2284cc	-0.1587097
83	0x3e89049f	0.26761338
84	0xbf0516dc	-0.51988006
85	0x3ea5679a	0.32305604
86	0x3dcfa258	0.101383865
87	0xbc8fbea0	-0.017546952
88	0x3eb2882e	0.34869522
89	0x3e700b72	0.23441866
90	0xbe6d684e	-0.2318432
91	0xbe1f82b2	-0.155772
92	0x3d5ab460	0.053394675
93	0x3e7166bd	0.23574348
94	0x3d8b5698	0.06803626
95	0xbf0ba1ac	-0.54543567
96	0xbe3b025f	-0.18262623
97	0xbe52ce63	-0.20586543
98	0xbe886a59	-0.26643637
99	0xbf0ca288	-0.54935503
100	0x3d513491	0.05107552
101	0x3e7ffdb0	0.24999118
102	0xbf0fcf35	-0.5617555
103	0xbe141dae	-0.14464447
104	0xbe591a92	-0.21201542
105	0xbe86e552	-0.26346833
106	0x3e79edf8	0.24407184
107	0x3edb110a	0.42786437
108	0xbdab2068	-0.083557904
109	0xbd95c9ce	-0.07313882
110	0x3e229e5d	0.15880723
111	0x3e5d9498	0.21638715
112	0xbcabd2c0	-0.020974517
113	0xbea4d8aa	-0.32196552
114	0xbef8321f	-0.4847574
115	0xbef78672	-0.4834476
116	0x3b334c00	0.0027358532
117	0xbe697ff0	-0.2280271
118	0x3ef41798	0.4767425
119	0xbd49de70	-0.0492844
120	0x3e4f7a1e	0.20261428
121	0xbedbd94c	-0.42939222
122	0x3e238c17	0.15971409
123	0x3ebe4044	0.37158406
124	0xbe6c22c4	-0.23060137
125	0x3efc31b7	0.4925668
126	0x3dcc1ee0	0.099668264
127	0xbf19cdf8	-0.6007991
128	0x3d9040d0	0.07043612
129	0x3f189bd1	0.59612757
130	0xbdc2d098	-0.09512442
131	0xbecc5fa8	-0.3991673
132	0xbe0caef6	-0.13738617
133	0xbefb897b	-0.49128327
134	0xbe338e12	-0.17534664
135	0xbedc1578	-0.4298513
136	0xbf076e18	-0.52902365
137	0x3ee18a7f	0.44050977
138	0xbe4dd2ce	-0.20099947
139	0x3e68f25c	0.22748703
140	0xbef9e538	-0.48807693
141	0xbeb4cebf	-0.35313985
142	0x3eaddb83	0.33956537
143	0xbdf60128	-0.12011939
144	0x3de22715	0.110426106
145	0xbf1688cc	-0.58802485
146	0xbf14d18e	-0.58132255
147	0xbf00095f	-0.500143
148	0xbe046e7a	-0.12932768
149	0x3eda4c66	0.42636412
150	0xbedde2c8	-0.43337083
151	0xbef59d58	-0.47971606
152	0xbd33a26c	-0.04385607
153	0x3e2e57ca	0.17025676
154	0x3e4b4cf5	0.19853576
155	0xbe1c2b98	-0.15251005
156	0xbdfcd440	-0.12345171
157	0x3e949d60	0.29026318
158	0xbd9dba64	-0.07701567
159	0xbf0ad8df	-0.5423717
160	0xbcc1399c	-0.02358704
161	0xbda8fe40	-0.08251619
162	0xbf1036da	-0.56333697
163	0xbe271686	-0.16317186
164	0xbefc5164	-0.49280846
165	0x3e96c776	0.29449052
166	0x3d0ee972	0.0348906
167	0x3ec8bd2e	0.39206833
168	0x3d2301a7	0.039796498
169	0x3ea1d11d	0.31604853
170	0x3eb78a10	0.3584752
171	0x3d9074f0	0.07053554
172	0x3e9972a6	0.29970282
173	0xbf0692c5	-0.525677
174	0x3e777f73	0.24169712
175	0x3e86bb4a	0.26314765
176	0x3dd03e5f	0.10168146
177	0x3d2f7bf7	0.04284283
178	0xbe53e460	-0.20692587
179	0xbea35793	-0.3190275
180	0x3e9d8e94	0.3077284
181	0xbe81925a	-0.2530697
182	0x3edc315a	0.43006402
183	0x3e20a998	0.15689695
184	0x3e556622	0.20839742
185	0x3eaf8296	0.34279317
186	0xbdfc8b38	-0.12331241
187	0xbe18cd04	-0.14921957
188	0x3ef418f6	0.47675294
189	0xbae3d770	-0.0017382931
190	0xbe2f252a	-0.1710402
191	0xbcba9540	-0.022776246
192	0xbf108908	-0.56459093
193	0x3e5f1c2f	0.21788095
194	0x3e526b13	0.20548658
195	0xbf0cf97e	-0.55068195
196	0x3ee532c2	0.44765288
197	0x3d4df530	0.050282657
198	0xbe2262e8	-0.15858042
199	0xbeafb92d	-0.34320965
200	0xbf1bb0bc	-0.6081655
201	0x3e68ca4c	0.2273342
202	0x3ee859fc	0.45381153
203	0xbe1c0810	-0.1523745
204	0xbec6a1a8	-0.3879521
205	0xbeda4e96	-0.4263808
206	0x3ecbe67e	0.3982429
207	0xbced9e60	-0.029006183
208	0x3e95cb96	0.29256886
209	0x3ec9467d	0.3931159
210	0xbec7a9d0	-0.38996744
211	0x3e241226	0.16022548
212	0x3ee1b05a	0.44079858
213	0x3ece24ca	0.40262443
214	0x3ea15615	0.31510988
215	0x3ea84ae6	0.32869643
216	0x3f072b40	0.5280037
217	0x3e040db2	0.1289585
218	0xbe9d825a	-0.30763513
219	0xbd13c520	-0.036076665
220	0x3f100adf	0.5626659
221	0x3e171485	0.14753921
222	0xbe136794	-0.1439498
223	0xbdd4a830	-0.10383642
224	0xbf06b072	-0.52612984
225	0x3eda9508	0.42691827
226	0xbebcf8fc	-0.3690871
227	0x3d2880fd	0.041138638
228	0xbe8a48ed	-0.27008763
229	0x3ed7492e	0.4204802
230	0xbea18416	-0.31546086
231	0x3f0b38a1	0.54383284
232	0x3f19040f	0.5977182
233	0x3ec764c0	0.38944054
234	0xbf12a4d2	-0.57282746
235	0x3e9e1382	0.30874258
236	0xbe5b01e0	-0.21387434
237	0xbe4a06ae	-0.1972911
238	0xbe9bd031	-0.30432275
239	0x3ecce392	0.40017372
240	0xbc8093fe	-0.015695568
241	0x3d9af952	0.07567085
242	0x3e00a4a7	0.1256281
243	0xbebcad4c	-0.36850965
244	0x3d873f08	0.06603819
245	0x3e4d6668	0.20058596
246	0x3eac0107	0.33594534
247	0x3e74dc00	0.23912048
248	0xbf16e0f6	-0.58937013
249	0x3d9510d9	0.07278604
250	0x3d9fd7c1	0.07804824
251	0x3ebd2ca2	0.36948115
252	0x3e3b952c	0.18318623
253	0x3ee7c8f3	0.452705
254	0xbde4e57d	-0.11176584
255	0xbd113830	-0.035453975

fc_layers.0.bias f4 [128]
0	0xbe7987d9	-0.24368228
1	0xbdc57a5c	-0.09642479
2	0xbe758cc9	-0.23979487
3	0xbcb9c8dd	-0.022678787
4	0xbe101188	-0.14069188
5	0xbeb3dee5	-0.35130993
6	0x3bebd9f1	0.0071976115
7	0xbe9a5e3a	-0.30150014
8	0xbe0b9bfc	-0.13633722
9	0xbd4ba90f	-0.049721774
10	0xbe360705	-0.17776115
11	0xbe3e0389	-0.18556036
12	0xbe9016a3	-0.2814227
13	0xbe29cfb9	-0.16583146
14	0x3d4d4c22	0.050121434
15	0xbdfacab1	-0.122456916
16	0xbd39a3b4	-0.045322135
17	0xbdd96cd9	-0.10616464
18	0xbe0183a7	-0.12647878
19	0xbe7d4ae6	-0.24735603
20	0xbe9362fc	-0.28786457
21	0xbe564bd1	-0.20927359
22	0xbe09974a	-0.13436618
23	0xbdcf9c27	-0.101372056
24	0xbe0cef01	-0.13763048
25	0x3d6c7e08	0.05773738
26	0xbe976d2e	-0.29575485
27	0x3c82a6a7	0.015948607
28	0xbe64646c	-0.22303933
29	0x3e3e5c21	0.18589832
30	0xbe83ed4d	-0.25766984
31	0xbe0f0988	-0.1396848
32	0xbec9f172	-0.3944202
33	0xbcac82f4	-0.021058537
34	0xbe47e4fc	-0.19520944
35	0xbdfc81ea	-0.12329467
36	0xbea7f9ec	-0.32807863
37	0xbdb80909	-0.08986098
38	0xbcdebfe9	-0.02719112
39	0xbeaa1afe	-0.33223718
40	0x3b18248c	0.0023215143
41	0xbe8b25c2	-0.27177244
42	0xbe947bc6	-0.29000682
43	0xbdf3ebd7	-0.11910217
44	0xbdc2cccf	-0.095117204
45	0xbddc5539	-0.107584424
46	0xbe23e901	-0.16006853
47	0xbeb012dd	-0.34389392
48	0x3d3b1b75	0.045680482
49	0xbda2a449	-0.07941491
50	0xbe191db2	-0.14952734
51	0xbe14976e	-0.14510891
52	0xbe96e7a0	-0.2947359
53	0xbe6118e1	-0.21982147
54	0x3d19a161	0.03750742
55	0xbde0e4d9	-0.10981149
56	0xbe1bbea2	-0.1520944
57	0xbe93a88e	-0.28839535
58	0xbdffcd46	-0.12490325
59	0xbe306710	-0.17226815
60	0x3bdeb2a8	0.0067962
61	0xbe1dd898	-0.15414655
62	0xbe70fdb1	-0.23534276
63	0xbe4c0fe3	-0.19927935
64	0xbce83a40	-0.028348088
65	0xbe96076d	-0.2930254
66	0xbd087a77	-0.033319917
67	0xbe80b03f	-0.25134465
68	0x3e2143d6	0.15748534
69	0xbdf7ed88	-0.12105852
70	0xbe05cec6	-0.13067159
71	0xbe9ac4b2	-0.30228192
72	0xbe48384d	-0.19552727
73	0xbdd303d7	-0.10303467
74	0xbde2d01b	-0.11074849
75	0xbdb31ab8	-0.087453306
76	0xbe518808	-0.20462048
77	0xbdbad229	-0.09122116
78	0xbe2ba676	-0.16762719
79	0xbe7e4291	-0.2483008
80	0xbe20a323	-0.15687232
81	0xbe504043	-0.20337014
82	0xbe727a00	-0.23679352
83	0xbe79dd5a	-0.24400845
84	0xbe39376f	-0.18087552
85	0xbe495d24	-0.19664437
86	0xbe6c1957	-0.23056541
87	0xbddae5e8	-0.106883824
88	0xbe84707e	-0.25867075
89	0xbe1fe031	-0.15612866
90	0xbcc10d5c	-0.02356594
91	0xbec010de	-0.3751287
92	0xbe1a7e1b	-0.15087168
93	0xbd48f034	-0.0490572
94	0xbe0114a8	-0.12605536
95	0xbeb12151	-0.3459573
96	0xbdaff8fc	-0.08592412
97	0xbcf07c38	-0.029356107
98	0xbe7b54a2	-0.24544004
99	0xbc2addf5	-0.010428895
100	0xbe061285	-0.13093002
101	0xbc480694	-0.0122086
102	0xbe1d08b5	-0.15335353
103	0xbea905ab	-0.33012137
104	0xbe8332fd	-0.25624838
105	0xbe39e015	-0.18151887
106	0xbd53e5a7	-0.051732685
107	0xbc72332d	-0.014782709
108	0xbe09fc81	-0.13475229
109	0x3e1c8ee3	0.15288882
110	0x3d06d795	0.03292044
111	0xbe9165d8	-0.28398013
112	0xbe7bafa0	-0.24578714
113	0xbe3b891d	-0.18314023
114	0xbe800e8f	-0.25011107
115	0xbe97e98f	-0.2967038
116	0xbe28634d	-0.1644413
117	0xbe18131a	-0.14851037
118	0xbe6550a0	-0.22394037
119	0xbda5a311	-0.08087743
120	0xbe9f2891	-0.31085637
121	0xbec94d5a	-0.39316827
122	0xbe71ffd0	-0.23632741
123	0xbe1e743e	-0.1547403
124	0xbe895af9	-0.2682722
125	0xbe3fc69d	-0.18728109
126	0xbe004e74	-0.12529927
127	0xbe86f8c4	-0.26361668

fc_layers.3.weight f4 [64, 128]
0	0x3dcdfe1e	0.10058235
1	0xbe3354e7	-0.17512856
2	0xbe0fe1d4	-0.1405099
3	0xbe44e6ab	-0.19228618
4	0xbdd59f92	-0.10430826
5	0x3d880e27	0.06643324
6	0x3c75ab09	0.014994391
7	0xbcb9bcb9	-0.022672998
8	0x3d3aa2c4	0.04556538
9	0xbac35898	-0.0014903722
10	0xbd844c42	-0.064598575
11	0xbdabcb15	-0.08388344
12	0xbe893d22	-0.26804453
13	0xbc4a3aad	-0.012343091
14	0xbda347aa	-0.07972653
15	0xbe28dad7	-0.16489731
16	0x3d7da241	0.061922316
17	0xbd7574c8	-0.059925824
18	0x3d9b6b5b	0.07588836
19	0xba19ac8b	-0.0005862198
20	0xbe655f84	-0.22399718
21	0x3cbca691	0.023028644
22	0x3bc94a5a	0.0061428966
23	0xbdf02bbc	-0.11727092
24	0xbd856012	-0.065124646
25	0xbe2a540e	-0.16633627
26	0xbdd5f560	-0.10447192
27	0xbddbe1c5	-0.107364215
28	0xbe18fcbf	-0.14940165
29	0xbdbd3644	-0.09238866
30	0x3dd8e0d0	0.105897546
31	0xbd32834b	-0.043582242
32	0x3dcbb6c9	0.09946973
33	0xbd30fdd8	-0.043210834
34	0xbdf5cc03	-0.12001803
35	0x3db05752	0.08610405
36	0xbdeef0d4	-0.11667028
37	0xbe4ff0a8	-0.20306647
38	0x3d8d10ac	0.068879455
39	0xbe6e0563	-0.23244242
40	0xbdae8629	-0.08521683
41	0xbe594799	-0.21218719
42	0xbe5d16da	-0.21590748
43	0xbd93e8bf	-0.07222127
44	0xbe02cb66	-0.12772903
45	0x3c898098	0.016784951
46	0x3d01bb88	0.031672984
47	0xbda5930c	-0.080846876
48	0xbd0aa380	-0.033847332
49	0xbe2c9b44	-0.16856104
50	0x3e030fb9	0.12798966
51	0xbd8b8ce1	-0.0681398
52	0x3db04246	0.08606391
53	0xbe4e4c47	-0.20146285
54	0xbe4f7090	-0.20257783
55	0x3dbb7401	0.09152985
56	0xbe663e8c	-0.22484797
57	0xbe2d8a28	-0.16947234
58	0xbe3d6594	-0.1849578
59	0x3e22fc2d	0.1591651
60	0x3dc4a8a7	0.096024804
61	0xbe20f6cc	-0.15719146
62	0xbe007896	-0.12546
63	0x3d56cb55	0.052440006
64	0xbe4a60d3	-0.19763498
65	0x3d186785	0.0372081
66	0xbd78cc25	-0.060741562
67	0xbdbd20c0	-0.09234762
68	0xbe581660	-0.21102285
69	0xbde1f03d	-0.1103215
70	0x3d6ba88a	0.05753378
71	0x3e4f83b6	0.20265087
72	0xbdad12c0	-0.08450842
73	0xbd06a127	-0.03286853
74	0xbe46fa4f	-0.19431423
75	0xbe61bbff	-0.22044371
76	0xbc94bca4	-0.018156357
77	0x3de18791	0.11012185
78	0xbd942d68	-0.07235223
79	0x3dbd44f8	0.0924167
80	0xbe53b203	-0.20673375
81	0x3d31bcb0	0.043392837
82	0x3e091c33	0.13389663
83	0xbe20ce24	-0.15703636
84	0x3e073b3a	0.13206187
85	0xbe24d018	-0.16095006
86	0xbda606a9	-0.08106739
87	0x3d288367	0.04114094
88	0xbd85b6e4	-0.06529024
89	0xbe4734d7	-0.1945375
90	0x3da31b48	0.07964188
91	0xbd7d64b0	-0.0618636
92	0xbd515db8	-0.051114768
93	0xbdc654a2	-0.09684111
94	0xbae12ac3	-0.0017178882
95	0xbdc77803	-0.09739687
96	0x3b55bd04	0.0032613883
97	0xbe147813	-0.1449893
98	0xbe593698	-0.21212232
99	0x3d8d80b2	0.06909312
100	0x3e0e07f0	0.13870215
101	0x3d396841	0.04526544
102	0xbd8f60d4	-0.070008904
103	0x3e2bf22b	0.16791598
104	0xbe87b62e	-0.2650618
105	0xbe41f3ac	-0.1894061
106	0xbc38c9a3	-0.011278543
107	0x3d5ee1f5	0.05441471
108	0xbdb96cef	-0.090539806
109	0xbde6e24d	-0.11273632
110	0xbc8403a3	-0.016115015
111	0x3dcd603a	0.100281194
112	0xbe3fa200	-0.18714142
113	0xbd305e13	-0.043058466
114	0xbd20e4de	-0.039280765
115	0xbe722399	-0.23646392
116	0xbe30afd9	-0.1725458
117	0xbd22fc80	-0.039791584
118	0xbe2f9f3b	-0.17150585
119	0xbe6b531a	-0.2298092
120	0x3e14023f	0.14453982
121	0x3dee91f1	0.1164893
122	0xbd96e32c	-0.07367548
123	0xbdd2529f	-0.10269665
124	0xbe5c67a6	-0.21523914
125	0xbe54fdef	-0.20799993
126	0xbdf56f32	-0.119840994
127	0xbe375f14	-0.17907363
128	0xbd5cdcb6	-0.053921424
129	0x3e8035b4	0.25040972
130	0xbd069813	-0.032859873
131	0x3d9a0a58	0.07521504
132	0x3e8ff407	0.28115866
133	0xbd419365	-0.047259707
134	0xbc2aaac8	-0.010416694
135	0x3d7021a2	0.058625825
136	0xbe943e00	-0.28953552
137	0xbd698cec	-0.05701916
138	0xbe366a0f	-0.17813896
139	0xbd37e045	-0.044891614
140	0xbdda1b96	-0.10649793
141	0x3e0bfc67	0.13670503
142	0x3d8c7fcb	0.06860312
143	0xbe34ddee	-0.17662784
144	0xbdd04a14	-0.10170379
145	0x3dd099c0	0.101855755
146	0xbe3a6ebd	-0.18206306
147	0xbdb0b777	-0.08628743
148	0xbed7732c	-0.42080057
149	0x3e41ab96	0.18913111
150	0xbd9511f2	-0.072788134
151	0x3cca6d58	0.024710342
152	0xbe48a1aa	-0.1959292
153	0x3d5f16b8	0.054465026
154	0x3dcf9db5	0.10137502
155	0xbe4fe521	-0.2030225
156	0x3dbde3f0	0.09271991
157	0x3e12f10b	0.14349763
158	0xbe27d335	-0.16389163
159	0xbe501c35	-0.2032326
160	0x3d1d57b8	0.038413733
161	0xbda35948	-0.079760134
162	0xbdfa62dc	-0.12225887
163	0xbe651fbb	-0.22375385
164	0xbe97f631	-0.29680017
165	0xbe19755b	-0.14986174
166	0xbeb04741	-0.34429362
167	0xbe261906	-0.16220483
168	0xbd3390f5	-0.043839414
169	0xbec25556	-0.3795573
170	0xbd4de8fd	-0.050271023
171	0x3e0fd02a	0.14044252
172	0xbe43f951	-0.19138075
173	0xbe927a2b	-0.28608832
174	0xbd95d7b3	-0.07316532
175	0xbe7677ea	-0.24069181
176	0xbdbb6064	-0.091492444
177	0x3e175f05	0.14782341
178	0x3db30f61	0.08743168
179	0xbe95b4b5	-0.2923943
180	0x3deee65d	0.11665032
181	0x3dc9419c	0.09826967
182	0xbd8f4a2c	-0.06996569
183	0xbd86e140	-0.06585932
184	0x3e3b728c	0.18305415
185	0xbe64d58f	-0.22347091
186	0xbe5a36a9	-0.21309914
187	0x3e582da1	0.21111156
188	0x3e0b94a0	0.13630915
189	0xbea7592d	-0.32685223
190	0xbe28ce9e	-0.16485068
191	0x3c2a5e6d	0.010398489
192	0xbdbdc22e	-0.092655525
193	0x3b720d8c	0.0036934344
194	0xbdf67697	-0.12034338
195	0xbda9199f	-0.0825684
196	0xbe88f3ef	-0.26748607
197	0xbdc72a29	-0.09724838
198	0xbe812912	-0.25226647
199	0x3e150ae9	0.14554943
200	0xbd52c57b	-0.051457863
201	0xbd76a711	-0.06021792
202	0x3bedc2ce	0.0072558885
203	0xbe1cc297	-0.15308605
204	0xbec69e04	-0.3879243
205	0xbe5c6e29	-0.21526398
206	0xbdcd289d	-0.10017512
207	0xbd41fe84	-0.047361866
208	0xbdfac273	-0.122441195
209	0x3cee7f61	0.029113473
210	0xbe4bf934	-0.19919282
211	0xbe626211	-0.22107722
212	0xbeaff752	-0.34368378
213	0x3cd3f683	0.025874382
214	0xbe20bea7	-0.15697728
215	0xbe671da1	-0.22569896
216	0xbda457f8	-0.08024591
217	0xbe27dd38	-0.16392982
218	0x3df2076d	0.118178226
219	0xbdd7c670	-0.10535896
220	0xbbdd89bb	-0.0067608035
221	0x3e6d9c03	0.23204045
222	0xbe48bd24	-0.19603401
223	0x3d1714ab	0.036884945
224	0x3e112f8b	0.14178292
225	0xbe4a92de	-0.19782588
226	0x3e1bd209	0.15216841
227	0x3da9d0df	0.08291792
228	0xbd1079ff	-0.035272595
229	0xbbd7d7e6	-0.0065870164
230	0x3e02ed14	0.1278575
231	0x3da57916	0.08079736
232	0xbe6a725c	-0.22895187
233	0x3d43bb01	0.047785763
234	0xbd2bbd0a	-0.04192833
235	0xbe853729	-0.26018646
236	0xbdefa236	-0.11700861
237	0xbe1faaf7	-0.15592562
238	0x3e678bc5	0.22611912
239	0xbe3b8573	-0.18312626
240	0xbe3172b6	-0.17328915
241	0x3d8fd45e	0.07022928
242	0xbe48af19	-0.19598044
243	0xbe223300	-0.15839767
244	0xbd8d474f	-0.06898367
245	0xbdfac996	-0.12245481
246	0x3d9c12c6	0.07620768
247	0xbd9d6cdf	-0.07686781
248	0x3e21111e	0.15729186
249	0x3d9c7cf8	0.076410234
250	0xbe6417b4	-0.22274667
251	0xbe1f5e4b	-0.15563314
252	0x3d64c3b1	0.05585069
253	0x3e325d17	0.17418323
254	0xbd83bcd5	-0.06432501
255	0xbe9b78b2	-0.3036552

fc_layers.3.bias f4 [64]
0	0xbda0f20b	-0.07858666
1	0xbd8777cb	-0.066146456
2	0x3dc4a816	0.09602372
3	0xbdd08a56	-0.101826355
4	0xbe020135	-0.12695773
5	0x3e0a93c2	0.13532928
6	0xbd2ffcb8	-0.04296562
7	0xbe0f2783	-0.13979916
8	0x3c5963f3	0.013268459
9	0x3e8bbabb	0.27290902
10	0x3cf75314	0.030190982
11	0x3d84c1cb	0.064822756
12	0x3c1fbb76	0.009749284
13	0xbdec4455	-0.11536471
14	0xbe13e1aa	-0.14441553
15	0x3e0388ca	0.1284515
16	0x3e2f24bb	0.17103855
17	0xbe34c130	-0.1765182
18	0x3de807ff	0.1132965
19	0x3cd1ead5	0.025624672
20	0x3c28e639	0.010308796
21	0x3e107da8	0.14110434
22	0xbd8eb03d	-0.069672085
23	0xbd8e8796	-0.06959455
24	0xbe463a0b	-0.19358079
25	0xbd12bb88	-0.035823375
26	0x3db1142f	0.08646428
27	0x3ccaf81f	0.024776516
28	0xbdc43462	-0.09580304
29	0x3d17c70b	0.037055057
30	0xbde9ed9c	-0.114222735
31	0x3dfa4935	0.122209944
32	0x3dbc28ca	0.091874674
33	0x3d81c5c4	0.06336549
34	0xbd92a2bd	-0.07159946
35	0xbe38ea3d	-0.18058105
36	0xbd974aa5	-0.07387284
37	0x3dc35f1c	0.09539625
38	0x3da69c13	0.081352375
39	0x3d9a85a0	0.07545018
40	0xbe55e397	-0.208876
41	0xbd12a1cd	-0.035798836
42	0x3e4764db	0.19472067
43	0xbe3e63dd	-0.18592782
44	0xbe352a13	-0.17691831
45	0xbc8193ca	-0.015817542
46	0xbcef7e51	-0.029235037
47	0x3e0ac6ed	0.13552447
48	0xbd93efce	-0.072234735
49	0xbaf9d99b	-0.0019062044
50	0x3d00219b	0.03128205
51	0xbb8d0de5	-0.004304635
52	0xbe31e008	-0.17370617
53	0x3cdb67aa	0.02678283
54	0xbd30a655	-0.043127377
55	0x3d839d22	0.06426455
56	0x3de580c3	0.112062
57	0xbd878f9f	-0.066191904
58	0xbd772fbb	-0.060348254
59	0x3d6bfca0	0.05761397
60	0xbe3fb607	-0.18721782
61	0x3d20998d	0.039208937
62	0x3c83a69b	0.016070655
63	0x3dd297d9	0.10282869

fc_layers.6.weight f4 [32, 64]
0	0x3e5e17e5	0.21688803
1	0xbdc20c58	-0.09475011
2	0xbe8d6798	-0.27618098
3	0x3d1c312b	0.038132828
4	0xbcd32f2e	-0.025779333
5	0x3ddf6b3c	0.10909125
6	0x3e580b4e	0.21098062
7	0x3e791ffa	0.24328604
8	0xbe1548e2	-0.14578584
9	0xbe69bf28	-0.22826827
10	0xbd9eb059	-0.077484794
11	0x3e8b4f4c	0.27208936
12	0xbcf79a8d	-0.030225063
13	0xbe4d1db8	-0.20030868
14	0x3c10ab72	0.008829938
15	0xbe28c53a	-0.16481486
16	0x3dca2303	0.09869959
17	0x3cb93286	0.0226071
18	0xbd844606	-0.064586684
19	0xbd310831	-0.043220703
20	0x3e6032fa	0.21894446
21	0xbe54b5ec	-0.20772523
22	0xbca77825	-0.020443032
23	0xbe0f09da	-0.13968602
24	0xbe780301	-0.24219896
25	0xbe96e929	-0.29474762
26	0xbe3e5f4c	-0.1859104
27	0x3c77e649	0.015130588
28	0xbc89bf72	-0.016814921
29	0xbdc35f04	-0.09539607
30	0xbe97314d	-0.295298
31	0xbd77a446	-0.060459398
32	0x3d09ee81	0.03367472
33	0xbe42d576	-0.19026741
34	0x3e6fa63f	0.23403262
35	0xbe6096f0	-0.21932578
36	0xbe52b357	-0.20576225
37	0x3d10f2b4	0.03538771
38	0xbecd7c8f	-0.40134093
39	0xbea16e9f	-0.3152971
40	0xbe688559	-0.22707118
41	0x3d2f09dd	0.042734016
42	0xbe9094a7	-0.28238413
43	0xbe89fb85	-0.26949707
44	0x3dd6d511	0.10489858
45	0xbe4ad151	-0.1980641
46	0xbde5e4a2	-0.11225249
47	0x3e92c859	0.28668478
48	0x3e099fa4	0.13439804
49	0xbd612a38	-0.054971904
50	0xbe34efbe	-0.1766958
51	0x3e0f66ba	0.14004031
52	0xbd060856	-0.032722794
53	0xbe85c41e	-0.26126188
54	0x3e12b89f	0.1432824
55	0xbc0c95da	-0.008580649
56	0xbeb03906	-0.34418505
57	0xbd3a2477	-0.04544493
58	0x3d9ec114	0.077516705
59	0xbe94fade	-0.29097646
60	0x3d3bd93d	0.04586147
61	0x3afb2fe7	0.0019164056
62	0xbdcebda9	-0.100947686
63	0xbe432e3e	-0.19060609
64	0xbe3f3d17	-0.18675648
65	0x3d25e930	0.040505588
66	0xbe7453f7	-0.23860155
67	0xbe965e75	-0.2936894
68	0xbe214550	-0.15749097
69	0x3cb98c3a	0.022649873
70	0x3e81d8bd	0.2536067
71	0x3e6b6092	0.22986057
72	0xbe1b2b61	-0.15153266
73	0xbdf10280	-0.11768055
74	0x3e460632	0.19338301
75	0x3dd85740	0.105635166
76	0xbe97813c	-0.29590786
77	0xbe78d468	-0.24299777
78	0xbe87c004	-0.26513684
79	0xbe68c257	-0.22730385
80	0xbdc37147	-0.0954309
81	0xbe1c5d47	-0.15269957
82	0x3b3d7beb	0.0028912972
83	0x3e2f092d	0.17093344
84	0x3cf419aa	0.029797394
85	0xbe5e9fd2	-0.21740654
86	0xbe7a2f86	-0.24432191
87	0xbe5951c2	-0.21222594
88	0x3dcdffa4	0.10058525
89	0xbe541666	-0.2071167
90	0xbd43031e	-0.047610395
91	0xbe7914a3	-0.24324279
92	0xbe9b4393	-0.30324993
93	0x3cde8525	0.027163098
94	0xbdd7a8d0	-0.10530245
95	0xbe9de4cb	-0.30838618
96	0xbe3cdbfa	-0.1844329
97	0xbc836661	-0.016040029
98	0xbd2fcb83	-0.042918693
99	0xbb86be29	-0.0041120243
100	0x3e33e679	0.17568387
101	0xbd79d3ef	-0.06099313
102	0xbe8f7c95	-0.28024736
103	0x3d0c7081	0.03428698
104	0xbddff2a5	-0.10934953
105	0x3df7c9d0	0.120990396
106	0xbe2ce214	-0.16883117
107	0x3e283cb1	0.16429402
108	0x3e7821b2	0.24231604
109	0x3dccfc8d	0.10009108
110	0xbe0d34f4	-0.13789731
111	0xbd6411f7	-0.055681195
112	0x3e42838b	0.18995492
113	0xbccb09f5	-0.024785021
114	0xbe210037	-0.15722738
115	0xbe90e47e	-0.28299326
116	0xbd74cc7e	-0.05976533
117	0x3e33b797	0.17550503
118	0xbdfb680a	-0.12275703
119	0xbd0af267	-0.03392258
120	0xbe5d625d	-0.21619554
121	0xbb6c965e	-0.0036100368
122	0x3cc0e90d	0.023548627
123	0xbdc99462	-0.09842755
124	0x3e6b29f6	0.22965226
125	0x3d6c5e34	0.057707027
126	0x3d2ce04e	0.0422061
127	0xbd5682b7	-0.052370753
128	0xbe7ed65b	-0.24886458
129	0xbed8b21d	-0.4232339
130	0xbe1bd72a	-0.15218797
131	0x3d0c1e22	0.034208424
132	0xbe281242	-0.16413215
133	0xbefcd479	-0.49380854
134	0xbe98e405	-0.29861465
135	0x3e8788c9	0.26471546
136	0x3eb51755	0.35369363
137	0x3e631727	0.221768
138	0xbdb35fec	-0.0875853
139	0xbe8de95c	-0.27717102
140	0xbe4c3add	-0.1994433
141	0x3ca1a023	0.01972968
142	0x3ca39f35	0.019973377
143	0xbda2a4f3	-0.07941618
144	0xbec174ce	-0.37784427
145	0x3e253456	0.16133246
146	0x3e395eb2	0.1810253
147	0x3e999b8d	0.30001488
148	0xbec3701a	-0.38171464
149	0xbe997069	-0.29968575
150	0xbddcf1a5	-0.107882775
151	0xbd6307b8	-0.055427283
152	0xbe99d9de	-0.30049032
153	0xbe90abce	-0.28256077
154	0xbcb8e790	-0.022571355
155	0x3d15a629	0.036535416
156	0xbdb235ba	-0.08701654
157	0xbeb75099	-0.3580368
158	0x3dfe22fa	0.12409015
159	0xbd8f96a0	-0.07011151
160	0xbe4b0dd1	-0.1982949
161	0xbe636c28	-0.22209227
162	0xbe27e596	-0.16396174
163	0xbe8d5f3e	-0.27611727
164	0xbe25ea2e	-0.16202614
165	0xbe1b5b9b	-0.15171663
166	0xbdab8875	-0.083756365
167	0x3cbe11dd	0.023201877
168	0x3de97496	0.1139919
169	0xbe95ede1	-0.2928305
170	0xbeca025e	-0.3945493
171	0xbd63e6a5	-0.05563988
172	0x3e7f34fb	0.24922554
173	0x3ca4d7f5	0.020122508
174	0xbd067889	-0.032829795
175	0xbea67e98	-0.32518458
176	0xbe5aa4b0	-0.21351886
177	0x3e239647	0.15975295
178	0xbd6e3ab4	-0.058161452
179	0xbe644892	-0.22293308
180	0x3dab2a24	0.08357647
181	0xbd63b512	-0.055592604
182	0xbe890bbb	-0.26766762
183	0xbe0c6657	-0.13710915
184	0xbde4c49c	-0.11170313
185	0x3e536f9d	0.20648046
186	0xbde1b9da	-0.110217765
187	0xbeca5e08	-0.39524865
188	0xbdf7117e	-0.12063883
189	0xbe80d4f0	-0.25162458
190	0xbebd414a	-0.36963874
191	0xbe8adf63	-0.27123556
192	0x3d3c323a	0.045946337
193	0xbe9770c3	-0.29578218
194	0xbdee4803	-0.11634829
195	0xbdd550f5	-0.10415832
196	0x3e612a56	0.21988806
197	0x3e2b6dbc	0.16741079
198	0x3e8205ea	0.25395137
199	0xbd1e1f2a	-0.03860394
200	0x3a426358	0.0007415316
201	0x3cc5498b	0.02408292
202	0x3e2fac8b	0.17155664
203	0xbdffc688	-0.12489039
204	0xbdeb455e	-0.1148784
205	0x3de74034	0.11291543
206	0xbe73cf67	-0.23809586
207	0xbe20e7f8	-0.15713489
208	0xbe752374	-0.23939306
209	0x3dccddd0	0.10003245
210	0xbeb4fc24	-0.35348618
211	0x3e121441	0.14265539
212	0xbd248ea0	-0.04017508
213	0x3cd29b13	0.02570871
214	0x3df24a1f	0.11830544
215	0xbd27c4c7	-0.040959146
216	0xbe7e2510	-0.24818826
217	0xbd358fb5	-0.044326503
218	0x3c44882b	0.011995356
219	0x3ee3c5c3	0.44486818
220	0xbe214bfd	-0.15751643
221	0xbdde9016	-0.10867326
222	0xbd44ac5b	-0.048015933
223	0x3d1a7b50	0.037715256
224	0x3cbbf62d	0.022944534
225	0xbcfaf3f8	-0.030633911
226	0xbbbf3aea	-0.0058358805
227	0xbdb3c645	-0.08778051
228	0x3bfef072	0.007780128
229	0x3d205e6d	0.03915255
230	0xbdd17654	-0.102276474
231	0x3d1d5092	0.038406916
232	0xbe8799a9	-0.2648442
233	0xbdd08efa	-0.101835206
234	0xbe93af66	-0.28844756
235	0x3d9021c1	0.07037688
236	0x3ce6f08e	0.028190877
237	0x3e61bbeb	0.22044341
238	0x3d9df3f2	0.077125445
239	0xbe19c5c8	-0.15016854
240	0xbd82ad3d	-0.06380699
241	0xbe0829de	-0.13297221
242	0xbeab4794	-0.33453047
243	0xbe7fe3d1	-0.24989249
244	0x3bb541f4	0.005531544
245	0xbe003723	-0.12521033
246	0xbe88120a	-0.26576263
247	0x3e46ef5b	0.19427244
248	0x3e9bca2f	0.3042769
249	0x3e920023	0.2851573
250	0x3e1b2597	0.15151058
251	0xbe1c2220	-0.15247393
252	0x3e8217aa	0.2540868
253	0xbe35306b	-0.17694251
254	0xbe03a0ad	-0.12854262
255	0xbdfcffb3	-0.12353458

fc_layers.6.bias f4 [32]
0	0xbdbb2e04	-0.09139636
1	0xbead8c92	-0.3389631
2	0x3d198f3c	0.037490115
3	0xbd8bdbb2	-0.06829013
4	0x3e8d962d	0.27653638
5	0xbebf66bb	-0.37383065
6	0xbe35c8cf	-0.17752384
7	0xbda15c69	-0.07878954
8	0xbe762092	-0.24035862
9	0xbc298de8	-0.0103487745
10	0x3d207463	0.039173495
11	0xbe858ed1	-0.26085523
12	0x3e130342	0.14356712
13	0x3e1927fc	0.14956659
14	0xbdfb0e13	-0.12258544
15	0x3d99047b	0.07471558
16	0x3e9f128b	0.31068835
17	0xbd1a16d8	-0.03761944
18	0xbd89164e	-0.066937074
19	0x3e2716ba	0.16317263
20	0x3f0ea5d6	0.55721796
21	0xbe941cba	-0.28928167
22	0x3e24a200	0.16077423
23	0x3e77c03a	0.24194422
24	0x3dd0a0dd	0.10186932
25	0xbee1cdbd	-0.44102278
26	0xbd31cb94	-0.043407038
27	0xbbf0a0b6	-0.007343377
28	0xbdc2b8f7	-0.095079355
29	0x3ede487d	0.4341468
30	0x3f172a78	0.5904918
31	0x3e5c2aae	0.21500656

fc_layers.8.weight f4 [4, 32]
0	0xbe2eb4f8	-0.17061222
1	0xbdef150a	-0.11673935
2	0xbe9123ce	-0.2834763
3	0x3e94ae5e	0.29039282
4	0x3c036478	0.008019559
5	0xbd9c90a4	-0.076447755
6	0xbea776b2	-0.32707745
7	0xbc6ea192	-0.014564889
8	0xbe50975c	-0.20370239
9	0xbea6e597	-0.32597038
10	0x3e966fab	0.2938207
11	0xbdbf5ed0	-0.09344256
12	0xbe2c40b0	-0.16821551
13	0xbd03dee7	-0.032194998
14	0xbe1cddf8	-0.1531905
15	0xbd93c425	-0.07215146
16	0x3df3702b	0.11886629
17	0xbcb532ec	-0.022119008
18	0x3d954a54	0.072895676
19	0x3e6db160	0.23212194
20	0x3e9e0fb9	0.3087137
21	0x3e9a9608	0.3019259
22	0xbd6ed99f	-0.05831301
23	0x3e1381e7	0.14405023
24	0x3d89e14c	0.06732425
25	0xbe4ab3f8	-0.19795215
26	0xbd460fda	-0.04835496
27	0x3e01f7f9	0.1269225
28	0xbd7fd130	-0.062455356
29	0x3dfd5520	0.12369752
30	0x3e84ff9f	0.25976273
31	0xbf10e64a	-0.56601393
32	0xbf0c2e11	-0.5475779
33	0xbe21eb60	-0.15812445
34	0xbe5555b8	-0.2083348
35	0xbe806df8	-0.250839
36	0xbf2f1cae	-0.68403137
37	0xbe975682	-0.29558188
38	0xbe021307	-0.12702571
39	0x3d619046	0.05506923
40	0x3db531a8	0.08847362
41	0x3d2e8325	0.042605538
42	0x3e79b619	0.24385871
43	0x3d86ec64	0.06588057
44	0x3d4501ea	0.04809753
45	0x3e2cb110	0.16864419
46	0xbde2e4ec	-0.1107882
47	0xbe87445e	-0.26419348
48	0x3e5103ea	0.2041165
49	0x3d9ea19e	0.0774567
50	0x3ddd7ab9	0.10814423
51	0x3e0abdb4	0.13548928
52	0x3e91832e	0.28420395
53	0xbcb67da8	-0.022276714
54	0x3e4228f1	0.1896093
55	0x3e335a74	0.17514974
56	0xbe436857	-0.19082771
57	0xbe95bf75	-0.29247633
58	0xbdd5859e	-0.10425876
59	0x3de8f5d1	0.11375011
60	0x3d04dd9b	0.032437902
61	0x3e6ea17d	0.2330379
62	0x3e71782c	0.23580998
63	0xbe416846	-0.18887433
64	0x3d4ec871	0.050484125
65	0xbd6b3b97	-0.057429876
66	0xbd729467	-0.05922356
67	0x3c904182	0.017609362
68	0xbdfc79b0	-0.123278975
69	0x3e9773f5	0.29580656
70	0xbe947300	-0.28993988
71	0xbe8a90b3	-0.27063522
72	0xbcb204d5	-0.02173082
73	0x3cb48ad0	0.022038847
74	0xbd81828b	-0.06323727
75	0xbd7c8691	-0.06165177
76	0x3d920eda	0.07131739
77	0xbdf4b8f9	-0.11949343
78	0xbe7218db	-0.23642294
79	0x3cb3a9a1	0.021931471
80	0xbe1d3c7f	-0.15355109
81	0x35bfd180	1.4291581e-06
82	0x3e3115be	0.1729345
83	0x3b6f3a14	0.0036503123
84	0x3e8cf55e	0.2753095
85	0x3e5088ce	0.20364687
86	0x3e8cae23	0.27476606
87	0xbe6e1648	-0.23250687
88	0x3e3dcbf4	0.18534833
89	0xbe57c99a	-0.21072999
90	0x3dacd1e8	0.08438474
91	0x3ca3ff0d	0.020019079
92	0xbe1a2a9b	-0.15055315
93	0x3e5ff9c6	0.21872625
94	0x3ed996da	0.42497903
95	0xbf3a5a76	-0.7279428
96	0xbe1cb8af	-0.15304826
97	0x3d393798	0.045219034
98	0xbdaf8d7c	-0.08571908
99	0xbe6f3d10	-0.23363137
100	0xbec548b5	-0.38532034
101	0xbe5c8530	-0.21535182
102	0xbd332998	-0.04374084
103	0x3d8e61b3	0.069522284
104	0x3daf234c	0.08551654
105	0xbd867f4a	-0.06567247
106	0x3e6513ec	0.22370881
107	0x3e5394f3	0.20662288
108	0x3e172ff3	0.14764385
109	0x3d7f7c48	0.062374383
110	0x3e926cbb	0.2859858
111	0xbe3c2a1a	-0.18375435
112	0x3e0a5143	0.13507561
113	0x3df779f5	0.12083808
114	0x3e347c14	0.17625457
115	0x3d0aa8be	0.03385233
116	0x3e4f354a	0.20235172
117	0x3dc4383c	0.09581038
118	0xbe964313	-0.2934805
119	0x3e17fbe6	0.14842185
120	0xbc210556	-0.009827932
121	0xbe8f8350	-0.2802987
122	0xbde22f33	-0.11044159
123	0x3b858bb1	0.0040754904
124	0x3e38b0d7	0.18036209
125	0x3e509b78	0.20371807
126	0xbc4dc792	-0.012559788
127	0xbe269826	-0.16268978

fc_layers.8.bias f4 [4]
0	0x3e5ec7d1	0.21755911
1	0x3e826edc	0.25475204
2	0x3e7b475b	0.24538939
3	0x3ee068ad	0.4382986
