output/dqn/model/4x4/8500.pth (torch, 53468 bytes, 8 tensors)

fc_layers.0.weight f4 [128, 16]
0	0x3e0a3456	0.13496527
1	0x3e5652cd	0.20930023
2	0x3ca58c00	0.020208359
3	0x3e644dfd	0.22295375
4	0x3eef10b0	0.4669242
5	0xbdf07980	-0.11741924
6	0x3efa5356	0.48891705
7	0x3ef109a6	0.47077674
8	0x3e41510e	0.18878576
9	0x3ef76f2e	0.4832701
10	0xbee7b8e7	-0.45258257
11	0xbee8d780	-0.45476913
12	0x3f103651	0.5633288
13	0x3f034959	0.51283795
14	0x3dbf47b8	0.09339851
15	0x3e9a4158	0.30127978
16	0xbe7510b8	-0.23932159
17	0xbce36f37	-0.027762992
18	0x3de6a15b	0.11261245
19	0xbefb98ea	-0.49140102
20	0x3e3f6c21	0.18693592
21	0x3ef85736	0.48504037
22	0xbec8db20	-0.3922968
23	0xbf0b5f2a	-0.54442084
24	0x3eaa38c1	0.33246425
25	0xbe092f40	-0.1339693
26	0xbea79746	-0.327326
27	0xbd1d9620	-0.03847325
28	0x3f16e9ab	0.589503
29	0x3ed1ab68	0.40951085
30	0xbd7398f1	-0.05947203
31	0xbe07886e	-0.13235638
32	0xbe07e1db	-0.13269751
33	0xbee1b152	-0.44080597
34	0xbda5b04c	-0.080902666
35	0x3e0215c2	0.12703612
36	0xbeb70885	-0.35748687
37	0x3ecead9e	0.40366834
38	0x3eb31195	0.34974352
39	0xbe28e5fa	-0.16493979
40	0xbd5cab23	-0.053874146
41	0x3e49d31e	0.19709441
42	0x3eb687e9	0.35650566
43	0xbdd153c0	-0.10221052
44	0x3eafd6fe	0.34343714
45	0xbf123231	-0.57107836
46	0x3e8d9eca	0.2766021
47	0x3da08100	0.07837105
48	0xbee45afd	-0.4460067
49	0x3e773295	0.2414039
50	0xbf089e09	-0.5336614
51	0xbe144514	-0.14479476
52	0xbe5d7392	-0.21626118
53	0x3e9f954a	0.31168586
54	0xbf0d88de	-0.5528697
55	0xbea20bd8	-0.3164966
56	0x3efc8e69	0.493274
57	0x3e12a958	0.14322412
58	0x3e3c7145	0.18402584
59	0x3e988e48	0.29796052
60	0xbe91bf28	-0.28466153
61	0x3e94884e	0.29010242
62	0x3e5f9a5e	0.2183623
63	0xbde35018	-0.11099261
64	0x3c9c0107	0.019043459
65	0x3eb73833	0.35785064
66	0x3e4d7450	0.20063901
67	0xbf078361	-0.52934843
68	0xbf1a1d5c	-0.6020105
69	0x3ef79c96	0.48361653
70	0xbee33ba4	-0.4438144
71	0xbe6a62e0	-0.2288928
72	0x3ebb9498	0.36636806
73	0xbe171bc2	-0.14756683
74	0x3e9c696c	0.3054918
75	0xbe3c67bc	-0.18398947
76	0xbda66158	-0.081240356
77	0xbe9ca947	-0.30597898
78	0x3e76a3e2	0.24085954
79	0x3f059da5	0.5219367
80	0xbedf83da	-0.43655282
81	0xbe55a9a0	-0.20865488
82	0xbe2284cc	-0.1587097
83	0x3e89049f	0.26761338
84	0xbf0516dc	-0.51988006
85	0x3ea5679a	0.32305604
86	0x3dcfa258	0.101383865
87	0xbc8fbea0	-0.017546952
88	0x3eb2882e	0.34869522
89	0x3e700b72	0.23441866
90	0xbe6d684e	-0.2318432
91	0xbe1f82b2	-0.155772
92	0x3d5ab460	0.053394675
93	0x3e7166bd	0.23574348
94	0x3d8b5698	0.06803626
95	0xbf0ba1ac	-0.54543567
96	0xbe3b025f	-0.18262623
97	0xbe52ce63	-0.20586543
98	0xbe886a59	-0.26643637
99	0xbf0ca288	-0.54935503
100	0x3d4ee797	0.05051383
101	0x3e7ffdb0	0.24999118
102	0xbf0fcf35	-0.5617555
103	0xbe141dae	-0.14464447
104	0xbe591a92	-0.21201542
105	0xbe86e552	-0.26346833
106	0x3e7efb9b	0.24900667
107	0x3edb110a	0.42786437
108	0xbdab2068	-0.083557904
109	0xbd95c9ce	-0.07313882
110	0x3e1616e9	0.14657177
111	0x3e5d9498	0.21638715
112	0xbcabd2c0	-0.020974517
113	0xbea4d8aa	-0.32196552
114	0xbef8321f	-0.4847574
115	0xbef78672	-0.4834476
116	0x3b334c00	0.0027358532
117	0xbe697ff0	-0.2280271
118	0x3eed076b	0.46294722
119	0xbd49de70	-0.0492844
120	0x3e4f7a1e	0.20261428
121	0xbedbd94c	-0.42939222
122	0x3e238c17	0.15971409
123	0x3ebe4044	0.37158406
124	0xbe6c22c4	-0.23060137
125	0x3f01c1b7	0.5068621
126	0x3dcc1ee0	0.099668264
127	0xbf19cdf8	-0.6007991
128	0x3d9040d0	0.07043612
129	0x3f0fcde7	0.5617356
130	0xbdc2d098	-0.09512442
131	0xbecc5fa8	-0.3991673
132	0xbe0caef6	-0.13738617
133	0xbefb897b	-0.49128327
134	0xbe338e12	-0.17534664
135	0xbedc1578	-0.4298513
136	0xbf076e18	-0.52902365
137	0x3ee30de6	0.4434654
138	0xbe4dd2ce	-0.20099947
139	0x3e68f25c	0.22748703
140	0xbef9e538	-0.48807693
141	0xbeb4cebf	-0.35313985
142	0x3ea08559	0.31351736
143	0xbdf60128	-0.12011939
144	0x3dc1b051	0.09457458
145	0xbf1688cc	-0.58802485
146	0xbf14d18e	-0.58132255
147	0xbf00095f	-0.500143
148	0xbe046e7a	-0.12932768
149	0x3eda4c66	0.42636412
150	0xbedde2c8	-0.43337083
151	0xbef59d58	-0.47971606
152	0xbd33a26c	-0.04385607
153	0x3e3badb8	0.18327987
154	0x3e49f1b2	0.19721106
155	0xbe1c2b98	-0.15251005
156	0xbdfcd440	-0.12345171
157	0x3e962d6f	0.29331538
158	0xbd9dba64	-0.07701567
159	0xbf0ad8df	-0.5423717
160	0xbcc1399c	-0.02358704
161	0xbda8fe40	-0.08251619
162	0xbf1036da	-0.56333697
163	0xbe271686	-0.16317186
164	0xbefc5164	-0.49280846
165	0x3e96c776	0.29449052
166	0x3d0ee972	0.0348906
167	0x3ec8bd2e	0.39206833
168	0x3d2301a7	0.039796498
169	0x3eb320f9	0.34986094
170	0x3eb297ca	0.3488143
171	0x3d9074f0	0.07053554
172	0x3e9972a6	0.29970282
173	0xbf0692c5	-0.525677
174	0x3e6b3306	0.22968683
175	0x3e86bb4a	0.26314765
176	0x3dd03e5f	0.10168146
177	0x3d2f7bf7	0.04284283
178	0xbe53e460	-0.20692587
179	0xbea35793	-0.3190275
180	0x3e9e810a	0.30957824
181	0xbe81925a	-0.2530697
182	0x3ed11ad9	0.40840796
183	0x3e20a998	0.15689695
184	0x3e53363d	0.20626159
185	0x3eb822b0	0.35963964
186	0xbdfc8b38	-0.12331241
187	0xbe18cd04	-0.14921957
188	0x3ef418f6	0.47675294
189	0xbae3d770	-0.0017382931
190	0xbe2f252a	-0.1710402
191	0xbcba9540	-0.022776246
192	0xbf108908	-0.56459093
193	0x3e5f1c2f	0.21788095
194	0x3e526b13	0.20548658
195	0xbf0cf97e	-0.55068195
196	0x3ee31f3c	0.44359767
197	0x3d4df530	0.050282657
198	0xbe2262e8	-0.15858042
199	0xbeafb92d	-0.34320965
200	0xbf1bb0bc	-0.6081655
201	0x3e68ca4c	0.2273342
202	0x3ee84063	0.45361623
203	0xbe1c0810	-0.1523745
204	0xbec6a1a8	-0.3879521
205	0xbeda4e96	-0.4263808
206	0x3ec23330	0.37929678
207	0xbced9e60	-0.029006183
208	0x3e96e5ee	0.29472297
209	0x3ed8e1b8	0.4235971
210	0xbec7a9d0	-0.38996744
211	0x3e241226	0.16022548
212	0x3ee9900c	0.45617712
213	0x3ece24ca	0.40262443
214	0x3ea181ca	0.31544334
215	0x3ea84ae6	0.32869643
216	0x3f0373d0	0.5134859
217	0x3e040db2	0.1289585
218	0xbe9d825a	-0.30763513
219	0xbd13c520	-0.036076665
220	0x3f100adf	0.5626659
221	0x3e171485	0.14753921
222	0xbe136794	-0.1439498
223	0xbdd4a830	-0.10383642
224	0xbf06b072	-0.52612984
225	0x3ecf7ccc	0.405249
226	0xbebcf8fc	-0.3690871
227	0x3cb1b26c	0.021691523
228	0xbe8a48ed	-0.27008763
229	0x3ed7492e	0.4204802
230	0xbea18416	-0.31546086
231	0x3f0b38a1	0.54383284
232	0x3f18241a	0.59430087
233	0x3ec6a8b7	0.38800594
234	0xbf12a4d2	-0.57282746
235	0x3e9e1382	0.30874258
236	0xbe5b01e0	-0.21387434
237	0xbe4a06ae	-0.1972911
238	0xbe9bd031	-0.30432275
239	0x3ecce392	0.40017372
240	0xbc8093fe	-0.015695568
241	0x3d9af952	0.07567085
242	0x3e0d10ec	0.13775986
243	0xbebcad4c	-0.36850965
244	0x3d873f08	0.06603819
245	0x3e4d6668	0.20058596
246	0x3ea52918	0.32257915
247	0x3e74dc00	0.23912048
248	0xbf16e0f6	-0.58937013
249	0x3d9510d9	0.07278604
250	0x3d9fd7c1	0.07804824
251	0x3ebd2ca2	0.36948115
252	0x3e3b952c	0.18318623
253	0x3eef25a0	0.46708393
254	0xbde4e57d	-0.11176584
255	0xbd113830	-0.035453975

fc_layers.0.bias f4 [128]
0	0xbe7fdb07	-0.24985896
1	0xbdc84cab	-0.09780248
2	0xbe75842a	-0.23976198
3	0xbd2d2b56	-0.042277656
4	0xbe265264	-0.16242367
5	0xbeb3dee5	-0.35130993
6	0xbb876baf	-0.00413271
7	0xbe97dd1b	-0.29660878
8	0xbe156fbe	-0.14593408
9	0xbd1cbdf2	-0.038267083
10	0xbe256b9b	-0.1615433
11	0xbe369e22	-0.1783376
12	0xbe98d133	-0.29847106
13	0xbe255bed	-0.16148348
14	0x3d3b2f7e	0.04569959
15	0xbde4e71b	-0.11176892
16	0xbd9cf13b	-0.076631986
17	0xbe03b52e	-0.12862083
18	0xbdf7cf92	-0.12100138
19	0xbe81bebd	-0.25340834
20	0xbe9dffb4	-0.30859149
21	0xbe2a5b4d	-0.16636391
22	0xbe143312	-0.14472607
23	0xbdc145e4	-0.09437159
24	0xbe2186e6	-0.15774116
25	0x3d4a3153	0.049363445
26	0xbe97db6a	-0.29659587
27	0x3c13ecb5	0.009028603
28	0xbe648613	-0.2231677
29	0x3e3e361b	0.18575327
30	0xbe85bbf7	-0.26119968
31	0xbe0e3393	-0.13886862
32	0xbece3b3a	-0.4027956
33	0xbc0f8a9d	-0.008761075
34	0xbe5b024c	-0.21387595
35	0xbe067b19	-0.13132896
36	0xbeadb881	-0.33929828
37	0xbdc4b4c4	-0.09604791
38	0xbd261b05	-0.04055311
39	0xbeb4441f	-0.35208222
40	0x3c6a874b	0.014314483
41	0xbe8a4eb9	-0.27013186
42	0xbe98906e	-0.2979769
43	0xbdd3f774	-0.10349932
44	0xbd977ab4	-0.07396451
45	0xbdf0eb09	-0.117635794
46	0xbe217e18	-0.15770757
47	0xbeb49cfe	-0.35276026
48	0x3d7c2bec	0.061565325
49	0xbdefb76f	-0.11704909
50	0xbe1876d0	-0.14889073
51	0xbe08d074	-0.13360769
52	0xbe974fd7	-0.295531
53	0xbe6fac1b	-0.23405497
54	0x3cad8ab2	0.0211843
55	0xbe144c91	-0.14482333
56	0xbe266fe6	-0.16253623
57	0xbea1f26c	-0.31630266
58	0xbde2295a	-0.110430434
59	0xbe41e849	-0.18936266
60	0xbc8406fd	-0.016116614
61	0xbe2faf84	-0.17156798
62	0xbe682dc9	-0.22673716
63	0xbe48bf6c	-0.19604272
64	0xbd7c2abd	-0.061564196
65	0xbe8c0c2d	-0.2735304
66	0xbd2e0a77	-0.04249045
67	0xbe7f98fe	-0.24960706
68	0x3e347014	0.1762088
69	0xbdf7ed88	-0.12105852
70	0xbe1424ec	-0.1446721
71	0xbeacb003	-0.33728036
72	0xbe4a3b66	-0.19749221
73	0xbdcf453d	-0.10120628
74	0xbdd9f933	-0.10643234
75	0xbdef2088	-0.11676127
76	0xbe63ad1c	-0.22234005
77	0xbe0291b8	-0.127509
78	0xbe33eeb2	-0.17571524
79	0xbe83ccf4	-0.25742304
80	0xbe2033eb	-0.15644805
81	0xbe47a186	-0.1949521
82	0xbe7611f8	-0.24030292
83	0xbe63fedd	-0.22265191
84	0xbe47c04c	-0.19506949
85	0xbe60bb6a	-0.21946493
86	0xbe50df6b	-0.20397727
87	0xbdd67413	-0.10471358
88	0xbe705d68	-0.23473132
89	0xbe3b7b9c	-0.18308872
90	0xbd49a370	-0.04922813
91	0xbebe3f9d	-0.37157908
92	0xbe1a3e35	-0.15062793
93	0xbd558d53	-0.05213673
94	0xbe0049ac	-0.12528104
95	0xbebb4527	-0.36576197
96	0xbdd00eb7	-0.10159057
97	0xbc917048	-0.017753735
98	0xbe870faa	-0.26379138
99	0xbd0e3e5c	-0.03472744
100	0xbe164c7a	-0.14677611
101	0xbd475924	-0.048668995
102	0xbe2f4435	-0.17115863
103	0xbeadcbca	-0.3394454
104	0xbe889489	-0.26675823
105	0xbe2f344e	-0.17109796
106	0xbd1f89d1	-0.03894979
107	0x39ba02c6	0.0003547875
108	0xbe246793	-0.16055135
109	0x3e232e38	0.159356
110	0x3cd2523c	0.025673978
111	0xbe948f89	-0.2901576
112	0xbe80aa67	-0.25130007
113	0xbe402427	-0.18763791
114	0xbe7447c3	-0.238555
115	0xbe9cb80e	-0.30609173
116	0xbe44725c	-0.1918425
117	0xbe378084	-0.17920119
118	0xbe69e269	-0.22840275
119	0xbda9dd83	-0.08294203
120	0xbeaebbe2	-0.34127718
121	0xbec737e5	-0.38909832
122	0xbe837145	-0.25672355
123	0xbe139a70	-0.14414382
124	0xbe8cecd8	-0.27524447
125	0xbe370a0c	-0.17874926
126	0xbe02692f	-0.12735437
127	0xbe86d576	-0.26334733

fc_layers.3.weight f4 [64, 128]
0	0x3dcdfe1e	0.10058235
1	0xbe3354e7	-0.17512856
2	0xbe0fe1d4	-0.1405099
3	0xbe44e6ab	-0.19228618
4	0xbdd59f92	-0.10430826
5	0x3d880e27	0.06643324
6	0x3c75ab09	0.014994391
7	0xbcb9bcb9	-0.022672998
8	0x3d3aa2c4	0.04556538
9	0xbac35898	-0.0014903722
10	0xbd844c42	-0.064598575
11	0xbdabcb15	-0.08388344
12	0xbe893d22	-0.26804453
13	0xbc4a3aad	-0.012343091
14	0xbda347aa	-0.07972653
15	0xbe28dad7	-0.16489731
16	0x3d7da241	0.061922316
17	0xbd7574c8	-0.059925824
18	0x3d9b6b5b	0.07588836
19	0xba19ac8b	-0.0005862198
20	0xbe655f84	-0.22399718
21	0x3cbca691	0.023028644
22	0x3bc94a5a	0.0061428966
23	0xbdf02bbc	-0.11727092
24	0xbd856012	-0.065124646
25	0xbe2a540e	-0.16633627
26	0xbdd5f560	-0.10447192
27	0xbddbe1c5	-0.107364215
28	0xbe18fcbf	-0.14940165
29	0xbdbd3644	-0.09238866
30	0x3dd8e0d0	0.105897546
31	0xbd32834b	-0.043582242
32	0x3dcbb6c9	0.09946973
33	0xbd30fdd8	-0.043210834
34	0xbdf5cc03	-0.12001803
35	0x3db05752	0.08610405
36	0xbdeef0d4	-0.11667028
37	0xbe4ff0a8	-0.20306647
38	0x3d8d10ac	0.068879455
39	0xbe6e0563	-0.23244242
40	0xbdae8629	-0.08521683
41	0xbe594799	-0.21218719
42	0xbe5d16da	-0.21590748
43	0xbd93e8bf	-0.07222127
44	0xbe02cb66	-0.12772903
45	0x3c898098	0.016784951
46	0x3d01bb88	0.031672984
47	0xbda5930c	-0.080846876
48	0xbd0aa380	-0.033847332
49	0xbe2c9b44	-0.16856104
50	0x3e030fb9	0.12798966
51	0xbd8b8ce1	-0.0681398
52	0x3db04246	0.08606391
53	0xbe4e4c47	-0.20146285
54	0xbe4f7090	-0.20257783
55	0x3dbb7401	0.09152985
56	0xbe663e8c	-0.22484797
57	0xbe2d8a28	-0.16947234
58	0xbe3d6594	-0.1849578
59	0x3e22fc2d	0.1591651
60	0x3dc4a8a7	0.096024804
61	0xbe20f6cc	-0.15719146
62	0xbe007896	-0.12546
63	0x3d56cb55	0.052440006
64	0xbe4a60d3	-0.19763498
65	0x3d186785	0.0372081
66	0xbd78cc25	-0.060741562
67	0xbdbd20c0	-0.09234762
68	0xbe581660	-0.21102285
69	0xbde1f03d	-0.1103215
70	0x3d6ba88a	0.05753378
71	0x3e4f83b6	0.20265087
72	0xbdad12c0	-0.08450842
73	0xbd06a127	-0.03286853
74	0xbe46fa4f	-0.19431423
75	0xbe61bbff	-0.22044371
76	0xbc94bca4	-0.018156357
77	0x3de18791	0.11012185
78	0xbd942d68	-0.07235223
79	0x3dbd44f8	0.0924167
80	0xbe53b203	-0.20673375
81	0x3d31bcb0	0.043392837
82	0x3e091c33	0.13389663
83	0xbe20ce24	-0.15703636
84	0x3e073b3a	0.13206187
85	0xbe24d018	-0.16095006
86	0xbda606a9	-0.08106739
87	0x3d288367	0.04114094
88	0xbd85b6e4	-0.06529024
89	0xbe4734d7	-0.1945375
90	0x3da31b48	0.07964188
91	0xbd7d64b0	-0.0618636
92	0xbd515db8	-0.051114768
93	0xbdc654a2	-0.09684111
94	0xbae12ac3	-0.0017178882
95	0xbdc77803	-0.09739687
96	0x3b55bd04	0.0032613883
97	0xbe147813	-0.1449893
98	0xbe593698	-0.21212232
99	0x3d8d80b2	0.06909312
100	0x3e0e07f0	0.13870215
101	0x3d396841	0.04526544
102	0xbd8f60d4	-0.070008904
103	0x3e2bf22b	0.16791598
104	0xbe87b62e	-0.2650618
105	0xbe41f3ac	-0.1894061
106	0xbc38c9a3	-0.011278543
107	0x3d5ee1f5	0.05441471
108	0xbdb96cef	-0.090539806
109	0xbde6e24d	-0.11273632
110	0xbc8403a3	-0.016115015
111	0x3dcd603a	0.100281194
112	0xbe3fa200	-0.18714142
113	0xbd305e13	-0.043058466
114	0xbd20e4de	-0.039280765
115	0xbe722399	-0.23646392
116	0xbe30afd9	-0.1725458
117	0xbd22fc80	-0.039791584
118	0xbe2f9f3b	-0.17150585
119	0xbe6b531a	-0.2298092
120	0x3e14023f	0.14453982
121	0x3dee91f1	0.1164893
122	0xbd96e32c	-0.07367548
123	0xbdd2529f	-0.10269665
124	0xbe5c67a6	-0.21523914
125	0xbe54fdef	-0.20799993
126	0xbdf56f32	-0.119840994
127	0xbe375f14	-0.17907363
128	0xbd5cdcb6	-0.053921424
129	0x3e7252c3	0.23664384
130	0xbd069813	-0.032859873
131	0x3d9cb5d0	0.076518655
132	0x3e90e29a	0.28297883
133	0xbd419365	-0.047259707
134	0xbc2aaac8	-0.010416694
135	0x3d7021a2	0.058625825
136	0xbe943e00	-0.28953552
137	0xbd698cec	-0.05701916
138	0xbe366a0f	-0.17813896
139	0xbd3fd89f	-0.046837445
140	0xbdda1b96	-0.10649793
141	0x3e0a974b	0.13534276
142	0x3d95921a	0.07303257
143	0xbe34ddee	-0.17662784
144	0xbe04a4e7	-0.1295353
145	0x3dda5399	0.10660476
146	0xbe3a6ebd	-0.18206306
147	0xbdb0b777	-0.08628743
148	0xbee36b47	-0.44417784
149	0x3e3dcd82	0.18535426
150	0xbd9511f2	-0.072788134
151	0x3cca6d58	0.024710342
152	0xbe48a1aa	-0.1959292
153	0x3d4a356e	0.04936736
154	0x3dcf9db5	0.10137502
155	0xbe4fe521	-0.2030225
156	0x3dc41245	0.09573797
157	0x3e0fad7b	0.14031021
158	0xbe27d335	-0.16389163
159	0xbe501c35	-0.2032326
160	0x3d1d57b8	0.038413733
161	0xbdd24574	-0.102671534
162	0xbdfa62dc	-0.12225887
163	0xbe6ed048	-0.2332164
164	0xbe9ba85e	-0.3040189
165	0xbe19755b	-0.14986174
166	0xbeb04741	-0.34429362
167	0xbe328381	-0.17432977
168	0xbd3390f5	-0.043839414
169	0xbecaacd4	-0.39584982
170	0xbd5c0042	-0.053711183
171	0x3e0d34d3	0.13789682
172	0xbe43f951	-0.19138075
173	0xbe927a2b	-0.28608832
174	0xbd95d7b3	-0.07316532
175	0xbe7677ea	-0.24069181
176	0xbdd54082	-0.104126945
177	0x3e1b0491	0.1513846
178	0x3db30f61	0.08743168
179	0xbe95b4b5	-0.2923943
180	0x3de8da90	0.113698125
181	0x3dc9419c	0.09826967
182	0xbd976446	-0.073921725
183	0xbda0a4f9	-0.07843966
184	0x3e467cc0	0.19383526
185	0xbe64d58f	-0.22347091
186	0xbe5a36a9	-0.21309914
187	0x3e520b3f	0.20512103
188	0x3e1227cd	0.14272995
189	0xbea18434	-0.31546175
190	0xbe28ce9e	-0.16485068
191	0x3c2a5e6d	0.010398489
192	0xbdc5d93c	-0.09660575
193	0x3b720d8c	0.0036934344
194	0xbe083167	-0.13300095
195	0xbda9199f	-0.0825684
196	0xbe9db79d	-0.30804148
197	0xbdc72a29	-0.09724838
198	0xbe8b1c33	-0.27169952
199	0x3e150ae9	0.14554943
200	0xbd82e901	-0.06392098
201	0xbd951822	-0.072799936
202	0x3bedc2ce	0.0072558885
203	0xbe1cc297	-0.15308605
204	0xbed20709	-0.41020992
205	0xbe5aed17	-0.21379505
206	0xbdcd289d	-0.10017512
207	0xbd41fe84	-0.047361866
208	0xbe1bb6c0	-0.15206432
209	0x3cdd2ac4	0.026997931
210	0xbe4bf934	-0.19919282
211	0xbe626211	-0.22107722
212	0xbeb514b8	-0.3536737
213	0x3cd3f683	0.025874382
214	0xbe3c787e	-0.18405339
215	0xbe734ab6	-0.23758969
216	0xbda457f8	-0.08024591
217	0xbe4ca74c	-0.19985694
218	0x3debf734	0.1152176
219	0xbdd7c670	-0.10535896
220	0xbbdd9523	-0.0067621632
221	0x3e6b6310	0.22987008
222	0xbe559b66	-0.20860061
223	0x3d1714ab	0.036884945
224	0x3e0fb90d	0.14035435
225	0xbe4a92de	-0.19782588
226	0x3e1bd209	0.15216841
227	0x3da9fe6c	0.0830048
228	0xbd1079ff	-0.035272595
229	0xbbc360b3	-0.005962455
230	0x3e01bf7b	0.126707
231	0x3da57916	0.08079736
232	0xbe6a725c	-0.22895187
233	0x3d43bb01	0.047785763
234	0xbd5f28a3	-0.054482114
235	0xbe947a35	-0.28999487
236	0xbdef884f	-0.11695921
237	0xbe1faaf7	-0.15592562
238	0x3e675310	0.2259028
239	0xbe3b8573	-0.18312626
240	0xbe3172b6	-0.17328915
241	0x3d8fd45e	0.07022928
242	0xbe5a117d	-0.21295734
243	0xbe41658b	-0.18886392
244	0xbd8d474f	-0.06898367
245	0xbdfac996	-0.12245481
246	0x3d566c36	0.05234929
247	0xbd9d6cdf	-0.07686781
248	0x3e14285f	0.14468525
249	0x3d9c7cf8	0.076410234
250	0xbe6417b4	-0.22274667
251	0xbe2c1195	-0.16803582
252	0x3d64c3b1	0.05585069
253	0x3e388b27	0.18021832
254	0xbd705a2d	-0.05867975
255	0xbea12300	-0.31472015

fc_layers.3.bias f4 [64]
0	0xbda0f20b	-0.07858666
1	0xbd8b73f0	-0.06809223
2	0x3dbff3d8	0.093726814
3	0xbda69c70	-0.08135307
4	0xbe020135	-0.12695773
5	0x3e1a0c5d	0.15043779
6	0xbd2ffcb8	-0.04296562
7	0xbe0f2783	-0.13979916
8	0x3c3e2167	0.011604643
9	0x3e9084d0	0.28226328
10	0x3d05e366	0.032687567
11	0x3d9b20fd	0.075746514
12	0x3b141ea0	0.0022601262
13	0xbdec4455	-0.11536471
14	0xbe13e1aa	-0.14441553
15	0x3e090ad0	0.13383031
16	0x3e341397	0.17585598
17	0xbe34c130	-0.1765182
18	0x3dcc160b	0.09965142
19	0x3c674693	0.014115947
20	0x3cdeace1	0.027182044
21	0x3e08c3bc	0.13355917
22	0xbda6911d	-0.08133147
23	0xbd9fb531	-0.077982314
24	0xbe463a0b	-0.19358079
25	0xbc5755cc	-0.013143014
26	0x3dbc91a1	0.09207464
27	0x3d308734	0.04309769
28	0xbdcda908	-0.10042006
29	0x3d2d78e5	0.042351622
30	0xbde9ed9c	-0.114222735
31	0x3de738e5	0.11290149
32	0x3db221d5	0.08697859
33	0x3d950f27	0.07278281
34	0xbdac4e54	-0.084133774
35	0xbe45e0dd	-0.1932406
36	0xbd974aa5	-0.07387284
37	0x3dde7a1a	0.10863133
38	0x3da4655d	0.08027146
39	0x3d81eaec	0.06343636
40	0xbe55e397	-0.208876
41	0xbce5933f	-0.028024314
42	0x3e57d7a3	0.21078353
43	0xbe3e63dd	-0.18592782
44	0xbe353961	-0.1769767
45	0xbd20b6d8	-0.039236873
46	0xbc9f40a1	-0.019439997
47	0x3e0cc344	0.13746363
48	0xbda8573f	-0.08219766
49	0x3c12ab06	0.008951908
50	0x3c8249d4	0.015904345
51	0x3c6bb931	0.014387415
52	0xbe31e008	-0.17370617
53	0x3ccb2a6a	0.024800498
54	0xbd3735c8	-0.044729024
55	0x3d81c659	0.0633666
56	0x3df27f70	0.11840713
57	0xbd878f9f	-0.066191904
58	0xbd772fbb	-0.060348254
59	0x3d715a5d	0.058924068
60	0xbe3fb607	-0.18721782
61	0x3ccc1956	0.024914425
62	0x3c49f875	0.012327303
63	0x3dde752f	0.10862195

fc_layers.6.weight f4 [32, 64]
0	0x3e5e17e5	0.21688803
1	0xbdc20c58	-0.09475011
2	0xbe85acf1	-0.26108506
3	0x3d1c312b	0.038132828
4	0xbcd32f2e	-0.025779333
5	0x3db4ca7a	0.08827682
6	0x3e580b4e	0.21098062
7	0x3e791ffa	0.24328604
8	0xbe15a68f	-0.14614318
9	0xbe26cb28	-0.16288435
10	0xbd9eb059	-0.077484794
11	0x3e8b0c10	0.2715764
12	0xbc2bb2fd	-0.010479686
13	0xbe4d1db8	-0.20030868
14	0x3c10ab72	0.008829938
15	0xbe045a4e	-0.12925074
16	0x3db01b84	0.08598998
17	0x3cb93286	0.0226071
18	0xbd88ffdf	-0.066894285
19	0xbd15caca	-0.036570348
20	0x3e62089f	0.22073601
21	0xbe53b051	-0.20672728
22	0xbca77825	-0.020443032
23	0xbe0e54c1	-0.13899519
24	0xbe780301	-0.24219896
25	0xbe96e929	-0.29474762
26	0xbe127fad	-0.14306517
27	0x3c31b125	0.010845457
28	0xbc89bf72	-0.016814921
29	0xbddd5d5e	-0.10808824
30	0xbe97314d	-0.295298
31	0xbd2492c1	-0.040179018
32	0x3ccb2dfd	0.024802202
33	0xbe3f56cb	-0.18685453
34	0x3e6fa63f	0.23403262
35	0xbe6096f0	-0.21932578
36	0xbe52b357	-0.20576225
37	0x3d2a221d	0.04153644
38	0xbec597ba	-0.3859232
39	0xbea7c176	-0.32764786
40	0xbe688559	-0.22707118
41	0x3d30b909	0.043145213
42	0xbe8224fe	-0.25418848
43	0xbe89fb85	-0.26949707
44	0x3dd6d511	0.10489858
45	0xbe4ad151	-0.1980641
46	0xbde64909	-0.11244399
47	0x3e8c9761	0.27459243
48	0x3e099fa4	0.13439804
49	0xbdc2abb1	-0.09505404
50	0xbe34efbe	-0.1766958
51	0x3e04f1ee	0.12982914
52	0xbd060856	-0.032722794
53	0xbe82e6f6	-0.25566834
54	0x3e0948a9	0.13406624
55	0xbc0e7233	-0.008694219
56	0xbeb4abe6	-0.35287398
57	0xbd3a2477	-0.04544493
58	0x3d9ec114	0.077516705
59	0xbe8fb1d5	-0.28065363
60	0x3d3bd93d	0.04586147
61	0x3bd5d605	0.0065257573
62	0xbdd73f19	-0.10510082
63	0xbe3974f6	-0.18111023
64	0xbe3f3d17	-0.18675648
65	0x3d25e930	0.040505588
66	0xbe7453f7	-0.23860155
67	0xbe965e75	-0.2936894
68	0xbe214550	-0.15749097
69	0x3cb98c3a	0.022649873
70	0x3e81d8bd	0.2536067
71	0x3e6b6092	0.22986057
72	0xbe1b2b61	-0.15153266
73	0xbdf10280	-0.11768055
74	0x3e460632	0.19338301
75	0x3dd85740	0.105635166
76	0xbe97813c	-0.29590786
77	0xbe78d468	-0.24299777
78	0xbe87c004	-0.26513684
79	0xbe68c257	-0.22730385
80	0xbdc37147	-0.0954309
81	0xbe1c5d47	-0.15269957
82	0x3b3d7beb	0.0028912972
83	0x3e2f092d	0.17093344
84	0x3cf419aa	0.029797394
85	0xbe5e9fd2	-0.21740654
86	0xbe7a2f86	-0.24432191
87	0xbe5951c2	-0.21222594
88	0x3dcdffa4	0.10058525
89	0xbe541666	-0.2071167
90	0xbd43031e	-0.047610395
91	0xbe7914a3	-0.24324279
92	0xbe9b4393	-0.30324993
93	0x3cde8525	0.027163098
94	0xbdd7a8d0	-0.10530245
95	0xbe9de4cb	-0.30838618
96	0xbe3cdbfa	-0.1844329
97	0xbc836661	-0.016040029
98	0xbd2fcb83	-0.042918693
99	0xbb86be29	-0.0041120243
100	0x3e33e679	0.17568387
101	0xbd79d3ef	-0.06099313
102	0xbe8f7c95	-0.28024736
103	0x3d0c7081	0.03428698
104	0xbddff2a5	-0.10934953
105	0x3df7c9d0	0.120990396
106	0xbe2ce214	-0.16883117
107	0x3e283cb1	0.16429402
108	0x3e7821b2	0.24231604
109	0x3dccfc8d	0.10009108
110	0xbe0d34f4	-0.13789731
111	0xbd6411f7	-0.055681195
112	0x3e42838b	0.18995492
113	0xbccb09f5	-0.024785021
114	0xbe210037	-0.15722738
115	0xbe90e47e	-0.28299326
116	0xbd74cc7e	-0.05976533
117	0x3e33b797	0.17550503
118	0xbdfb680a	-0.12275703
119	0xbd0af267	-0.03392258
120	0xbe5d625d	-0.21619554
121	0xbb6c965e	-0.0036100368
122	0x3cc0e90d	0.023548627
123	0xbdc99462	-0.09842755
124	0x3e6b29f6	0.22965226
125	0x3d6c5e34	0.057707027
126	0x3d2ce04e	0.0422061
127	0xbd5682b7	-0.052370753
128	0xbe7ed65b	-0.24886458
129	0xbede4317	-0.4341056
130	0xbe1fa2db	-0.15589468
131	0x3cfc9005	0.030830393
132	0xbe281242	-0.16413215
133	0xbf086ec9	-0.53294045
134	0xbe98e405	-0.29861465
135	0x3e8788c9	0.26471546
136	0x3eb0075b	0.34380612
137	0x3e4df0e6	0.20111427
138	0xbde9f0ed	-0.11422906
139	0xbe954001	-0.29150394
140	0xbe3f66a0	-0.18691492
141	0x3ca1a023	0.01972968
142	0x3ca39f35	0.019973377
143	0xbdd581ff	-0.104251854
144	0xbecc9030	-0.39953756
145	0x3e253456	0.16133246
146	0x3e33ca28	0.17557585
147	0x3e978264	0.29591668
148	0xbec35f23	-0.3815852
149	0xbe9af920	-0.30268192
150	0xbdef7626	-0.11692457
151	0xbd99e323	-0.07514026
152	0xbe99d9de	-0.30049032
153	0xbe90abce	-0.28256077
154	0xbd55eb3e	-0.052226298
155	0x3d01ced7	0.0316914
156	0xbdb235ba	-0.08701654
157	0xbeb862cf	-0.36012885
158	0x3dfe22fa	0.12409015
159	0xbdb892de	-0.09012388
160	0xbe461ad5	-0.19346173
161	0xbe71a634	-0.23598558
162	0xbe319224	-0.17340904
163	0xbe8d5f3e	-0.27611727
164	0xbe25ea2e	-0.16202614
165	0xbe314519	-0.17311515
166	0xbe079d30	-0.13243556
167	0x3ce5de59	0.028060125
168	0x3de97496	0.1139919
169	0xbe95ede1	-0.2928305
170	0xbeca025e	-0.3945493
171	0xbd63e6a5	-0.05563988
172	0x3e7f34fb	0.24922554
173	0x3c0ea73e	0.008706866
174	0xbd01dc19	-0.031704042
175	0xbeae993a	-0.34101278
176	0xbe44ec4b	-0.19230764
177	0x3e13885e	0.14407489
178	0xbd1e5505	-0.0386553
179	0xbe728ba8	-0.23686087
180	0x3dab2a24	0.08357647
181	0xbd4986c4	-0.04920079
182	0xbe90743f	-0.2821369
183	0xbe398eb8	-0.18120849
184	0xbe0bfcd8	-0.13670671
185	0x3e536f9d	0.20648046
186	0xbde1b9da	-0.110217765
187	0xbec7f207	-0.3905184
188	0xbdf7117e	-0.12063883
189	0xbe8f0d54	-0.27939856
190	0xbec05708	-0.375664
191	0xbe921cb4	-0.28537524
192	0x3d3c323a	0.045946337
193	0xbe9e7e0c	-0.3095554
194	0xbdee4803	-0.11634829
195	0xbdae4fc9	-0.085113116
196	0x3e612a56	0.21988806
197	0x3e1f37fa	0.15548697
198	0x3e8205ea	0.25395137
199	0xbd1e1f2a	-0.03860394
200	0xbd088abc	-0.033335432
201	0xbaad82cc	-0.0013237833
202	0x3e2fac8b	0.17155664
203	0xbe04e9ae	-0.12979767
204	0xbe0f7b3d	-0.14011855
205	0x3de74034	0.11291543
206	0xbe73cf67	-0.23809586
207	0xbe082fee	-0.13299534
208	0xbe6ddce5	-0.23228796
209	0x3dccddd0	0.10003245
210	0xbebe6cf6	-0.37192506
211	0x3e15f201	0.14643098
212	0xbcda96d1	-0.026683243
213	0x3cc9480e	0.024570491
214	0x3df24a1f	0.11830544
215	0xbd25e56c	-0.040501997
216	0xbe7e2510	-0.24818826
217	0xbd2cfcb8	-0.0422332
218	0x3d12956b	0.035787027
219	0x3ee1346a	0.439853
220	0xbe214bfd	-0.15751643
221	0xbdde9016	-0.10867326
222	0xbd44ac5b	-0.048015933
223	0x3d00e602	0.031469353
224	0x3cb1d9a6	0.021710228
225	0xbd602e68	-0.054731756
226	0xbbbf3aea	-0.0058358805
227	0xbda5461f	-0.08070015
228	0x3bfef072	0.007780128
229	0x3d0a893d	0.033822287
230	0xbe005ae0	-0.12534666
231	0x3cee09bf	0.029057382
232	0xbe8799a9	-0.2648442
233	0xbdd054e8	-0.101724446
234	0xbe89830e	-0.268578
235	0x3d9021c1	0.07037688
236	0x3ce6f08e	0.028190877
237	0x3e5a564e	0.21321985
238	0x3d8910fd	0.066926934
239	0xbe2a08dc	-0.16604942
240	0xbd587353	-0.052844357
241	0xbe218909	-0.15774931
242	0xbea4d95f	-0.3219709
243	0xbe7f7059	-0.24945201
244	0x3bb541f4	0.005531544
245	0xbe08a389	-0.13343634
246	0xbe8e8757	-0.2783763
247	0x3e7434c1	0.23848249
248	0x3e92b194	0.28651106
249	0x3e920023	0.2851573
250	0x3e1b2597	0.15151058
251	0xbe210632	-0.1572502
252	0x3e8217aa	0.2540868
253	0xbe35306b	-0.17694251
254	0xbdd7a152	-0.10528816
255	0xbde08ba8	-0.10964137

fc_layers.6.bias f4 [32]
0	0xbddee51f	-0.10883545
1	0xbead8c92	-0.3389631
2	0x3d6eec9a	0.05833111
3	0xbd728ae7	-0.0592145
4	0x3e8b5b83	0.27218255
5	0xbeb8e600	-0.36112976
6	0xbe31c90b	-0.17361848
7	0xbdb0ce6e	-0.08633123
8	0xbe75c20d	-0.23999806
9	0xbc33b258	-0.010967813
10	0x3ce929d1	0.028462322
11	0xbe8c88e6	-0.27448195
12	0x3e1abb60	0.1511054
13	0x3e19c94f	0.150182
14	0xbde006a2	-0.10938765
15	0x3d8a976d	0.067671634
16	0x3e9b96dd	0.30388537
17	0xbaa42d92	-0.0012525788
18	0xbd93a95a	-0.072100356
19	0x3e2a4625	0.1662832
20	0x3f1128e0	0.56702995
21	0xbe94d4de	-0.29068655
22	0x3e2940a2	0.16528562
23	0x3e6ca796	0.23110804
24	0x3dd95b9d	0.10613177
25	0xbedba003	-0.42895517
26	0xbd4655f5	-0.04842182
27	0xbc046041	-0.008079589
28	0xbd9709ae	-0.07374893
29	0x3edfc247	0.4370291
30	0x3f193891	0.5985194
31	0x3e5c011e	0.21484801

fc_layers.8.weight f4 [4, 32]
0	0xbe2f3ba6	-0.17112598
1	0xbdef150a	-0.11673935
2	0xbe9d51c6	-0.3072645
3	0x3e8e5ae5	0.27803722
4	0x3c4d80de	0.012542931
5	0xbd9c90a4	-0.076447755
6	0xbeaf36d9	-0.34221533
7	0xbc92fc7f	-0.017942665
8	0xbe48477f	-0.19558524
9	0xbeb0aef5	-0.34508482
10	0x3e9836c0	0.2972927
11	0xbdbf5ed0	-0.09344256
12	0xbe35c4cd	-0.17750855
13	0xbd12bace	-0.035822682
14	0xbe0cd11e	-0.13751647
15	0xbda11e0a	-0.078670576
16	0x3de84998	0.11342162
17	0xbd1b9be0	-0.03799045
18	0x3d839c66	0.06426315
19	0x3e654148	0.22388184
20	0x3ea05af3	0.3131939
21	0x3e9a9608	0.3019259
22	0xbd810693	-0.06300082
23	0x3e1b6978	0.15176952
24	0x3d93249e	0.071847185
25	0xbe5f53b8	-0.2180928
26	0xbd6b52b9	-0.057451937
27	0x3de9a4eb	0.11408409
28	0xbd9e65c3	-0.07734253
29	0x3e022ffb	0.12713616
30	0x3e863eac	0.2621969
31	0xbf0dac84	-0.5534136
32	0xbf0755f3	-0.52865523
33	0xbe21eb60	-0.15812445
34	0xbe5a90d8	-0.21344316
35	0xbe5a6e26	-0.21331081
36	0xbf31b503	-0.69416827
37	0xbe975682	-0.29558188
38	0xbdfa9a30	-0.1223644
39	0x3d38eca7	0.045147564
40	0x3d9686aa	0.07349904
41	0x3cc6735f	0.024224935
42	0x3e756339	0.23963632
43	0x3d69a8c0	0.0570457
44	0x3d32e4f2	0.04367537
45	0x3e2b99ed	0.16757937
46	0xbdc93792	-0.09825052
47	0xbe8a82d6	-0.27052945
48	0x3e5102d7	0.2041124
49	0x3d49e648	0.04929188
50	0x3de020eb	0.109437786
51	0x3e0f4152	0.13989761
52	0x3e93356c	0.28751695
53	0xb8a81fea	-8.016809e-05
54	0x3e3a944d	0.18220635
55	0x3e32cbfc	0.17460626
56	0xbe4e7028	-0.20159972
57	0xbe965aa2	-0.29366022
58	0xbdcfb6a4	-0.10142258
59	0x3dd811ea	0.10550292
60	0x3d085b36	0.03329011
61	0x3e70f512	0.23530987
62	0x3e73b9af	0.23801301
63	0xbe52879f	-0.20559548
64	0x3d4bbee1	0.049742583
65	0xbd6b3b97	-0.057429876
66	0xbd59702c	-0.05308549
67	0x3c5d8855	0.013521274
68	0xbdfd1a69	-0.12358553
69	0x3e9773f5	0.29580656
70	0xbe936791	-0.28789952
71	0xbe86e38f	-0.26345488
72	0xbbe1d23a	-0.006891516
73	0x3cd7056d	0.026247704
74	0xbcc9e240	-0.024644017
75	0xbd7c8691	-0.06165177
76	0x3d92c304	0.071661025
77	0xbdd16964	-0.1022518
78	0xbe65f476	-0.22456536
79	0x3cbca710	0.02302888
80	0xbe11360e	-0.14180776
81	0xbba0731d	-0.004896535
82	0x3e3db4e6	0.18526039
83	0x3b3b4a35	0.0028578166
84	0x3e8f18fc	0.2794875
85	0x3e4eb938	0.20187843
86	0x3e8c7bca	0.27438194
87	0xbe70a3df	-0.23500012
88	0x3e3f7938	0.18698585
89	0xbe4d5140	-0.20050526
90	0x3d9acfd0	0.07559168
91	0x3d19efcf	0.037582215
92	0xbe0b649e	-0.13612601
93	0x3e610245	0.21973522
94	0x3edb314b	0.42811045
95	0xbf3d114c	-0.7385452
96	0xbe1aa769	-0.15102924
97	0x3d393798	0.045219034
98	0xbd262051	-0.040558163
99	0xbe68bd32	-0.22728422
100	0xbebf7f39	-0.3740175
101	0xbe696795	-0.2279342
102	0xbce1ef0b	-0.027579805
103	0x3d6f661f	0.058447
104	0x3daf234c	0.08551654
105	0x3ccc65e4	0.024950929
106	0x3e3d0a70	0.18461013
107	0x3e4698da	0.19394246
108	0x3e0a1520	0.13484621
109	0x3d683cd6	0.056698643
110	0x3e98903e	0.29797548
111	0xbe0f6419	-0.14003028
112	0x3e13c188	0.14429295
113	0x3e41b9c9	0.18918528
114	0x3e3468e8	0.17618144
115	0x3cf8cc9f	0.030371008
116	0x3e4cca66	0.19999084
117	0x3dc8cd43	0.098047756
118	0xbe9e4b1d	-0.30916682
119	0x3dd83f48	0.10558945
120	0xbc37a897	-0.011209629
121	0xbe8f8350	-0.2802987
122	0xbdb4cb21	-0.08827806
123	0x3caa186e	0.020763602
124	0x3e8d8915	0.27643648
125	0x3e58cd45	0.21172054
126	0x3ca6d6cb	0.020366093
127	0xbe3747c9	-0.17898478

fc_layers.8.bias f4 [4]
0	0x3e5f4b5e	0.21806094
1	0x3e853d91	0.26023534
2	0x3e7c221e	0.2462239
3	0x3ee124da	0.43973428
