output/dqn/model/4x4/9000.pth (torch, 53468 bytes, 8 tensors)

fc_layers.0.weight f4 [128, 16]
000000 56 34 0a 3e cd 52 56 3e 00 8c a5 3c fd 4d 64 3e
       0.13496527 0.20930023 0.020208359 0.22295375
000010 d1 f4 f8 3e 80 79 f0 bd c3 31 fd 3e a6 09 f1 3e
       0.4862428 -0.11741924 0.49452028 0.47077674
000020 0e 51 41 3e b7 b4 e6 3e e7 b8 e7 be 80 d7 e8 be
       0.18878576 0.4505975 -0.45258257 -0.45476913
000030 51 36 10 3f 56 24 fc 3e b8 47 bf 3d 58 41 9a 3e
       0.5633288 0.49246472 0.09339851 0.30127978
000040 b8 10 75 be 37 6f e3 bc 8f 48 c4 3d ea 98 fb be
       -0.23932159 -0.027762992 0.09584152 -0.49140102
000050 39 27 44 3e 36 57 f8 3e 20 db c8 be 2a 5f 0b bf
       0.19155587 0.48504037 -0.3922968 -0.54442084
000060 62 f4 b9 3e 40 2f 09 be 46 97 a7 be 20 96 1d bd
       0.36319262 -0.1339693 -0.327326 -0.03847325
000070 ab e9 16 3f e1 65 c8 3e f1 98 73 bd 6e 88 07 be
       0.589503 0.39140227 -0.05947203 -0.13235638
000080 db e1 07 be 52 b1 e1 be 4c b0 a5 bd c2 15 02 3e
       -0.13269751 -0.44080597 -0.080902666 0.12703612
000090 85 08 b7 be 9e ad ce 3e ea e7 b7 3e fa e5 28 be
       -0.35748687 0.40366834 0.35919124 -0.16493979
0000a0 23 ab 5c bd 1e d3 49 3e aa 27 a7 3e c0 53 d1 bd
       -0.053874146 0.19709441 0.3264745 -0.10221052
0000b0 fe d6 af 3e 31 32 12 bf 41 db 98 3e 00 81 a0 3d
       0.34343714 -0.57107836 0.29854777 0.07837105
0000c0 fd 5a e4 be da 21 6d 3e 09 9e 08 bf 14 45 14 be
       -0.4460067 0.23157445 -0.5336614 -0.14479476
0000d0 92 73 5d be 4a 95 9f 3e de 88 0d bf d8 0b a2 be
       -0.21626118 0.31168586 -0.5528697 -0.3164966
0000e0 87 f5 02 3f ba fd 36 3e 8b 79 3e 3e 48 8e 98 3e
       0.51155895 0.17870227 0.18601052 0.29796052
0000f0 28 bf 91 be eb 59 96 3e ce e1 61 3e 18 50 e3 bd
       -0.28466153 0.29365477 0.22058794 -0.11099261
000100 07 01 9c 3c 74 00 a6 3e 42 5c 38 3e 61 83 07 bf
       0.019043459 0.3242222 0.18003944 -0.52934843
000110 5c 1d 1a bf 96 9c f7 3e a4 3b e3 be e0 62 6a be
       -0.6020105 0.48361653 -0.4438144 -0.2288928
000120 1d d8 be 3e c2 1b 17 be 88 ef 9e 3e bc 67 3c be
       0.37274256 -0.14756683 0.31042123 -0.18398947
000130 58 61 a6 bd 47 a9 9c be 32 b1 6d 3e a5 9d 05 3f
       -0.081240356 -0.30597898 0.23212126 0.5219367
000140 da 83 df be a0 a9 55 be cc 84 22 be 9f 04 89 3e
       -0.43655282 -0.20865488 -0.1587097 0.26761338
000150 dc 16 05 bf 9a 67 a5 3e 58 a2 cf 3d a0 be 8f bc
       -0.51988006 0.32305604 0.101383865 -0.017546952
000160 2e 88 b2 3e 72 0b 70 3e 4e 68 6d be b2 82 1f be
       0.34869522 0.23441866 -0.2318432 -0.155772
000170 60 b4 5a 3d bd 66 71 3e 98 56 8b 3d ac a1 0b bf
       0.053394675 0.23574348 0.06803626 -0.54543567
000180 5f 02 3b be 63 ce 52 be 59 6a 88 be 88 a2 0c bf
       -0.18262623 -0.20586543 -0.26643637 -0.54935503
000190 68 ee 11 3d b0 fd 7f 3e 35 cf 0f bf ae 1d 14 be
       0.035627753 0.24999118 -0.5617555 -0.14464447
0001a0 92 1a 59 be 52 e5 86 be 5a 08 74 3e 0a 11 db 3e
       -0.21201542 -0.26346833 0.23831311 0.42786437
0001b0 68 20 ab bd ce c9 95 bd 28 89 07 3e 98 94 5d 3e
       -0.083557904 -0.07313882 0.13235915 0.21638715
0001c0 c0 d2 ab bc aa d8 a4 be 1f 32 f8 be 72 86 f7 be
       -0.020974517 -0.32196552 -0.4847574 -0.4834476
0001d0 00 4c 33 3b f0 7f 69 be 55 f4 e5 3e 70 de 49 bd
       0.0027358532 -0.2280271 0.44912973 -0.0492844
0001e0 1e 7a 4f 3e 4c d9 db be 17 8c 23 3e 44 40 be 3e
       0.20261428 -0.42939222 0.15971409 0.37158406
0001f0 c4 22 6c be ea 2d 01 3f e0 1e cc 3d f8 cd 19 bf
       -0.23060137 0.50460684 0.099668264 -0.6007991
000200 d0 40 90 3d 70 74 fe 3e 98 d0 c2 bd a8 5f cc be
       0.07043612 0.4969821 -0.09512442 -0.3991673
000210 f6 ae 0c be 7b 89 fb be 12 8e 33 be 78 15 dc be
       -0.13738617 -0.49128327 -0.17534664 -0.4298513
000220 18 6e 07 bf 08 2b f0 3e ce d2 4d be 5c f2 68 3e
       -0.52902365 0.4690783 -0.20099947 0.22748703
000230 38 e5 f9 be bf ce b4 be 0b aa 8f 3e 28 01 f6 bd
       -0.48807693 -0.35313985 0.2805942 -0.12011939
000240 ab 70 ed 3d cc 88 16 bf 8e d1 14 bf 5f 09 00 bf
       0.11593755 -0.58802485 -0.58132255 -0.500143
000250 7a 6e 04 be 66 4c da 3e c8 e2 dd be 58 9d f5 be
       -0.12932768 0.42636412 -0.43337083 -0.47971606
000260 6c a2 33 bd 95 cf fe 3d dd 17 4e 3e 98 2b 1c be
       -0.04385607 0.12441937 0.2012629 -0.15251005
000270 40 d4 fc bd 0d c3 9e 3e 64 ba 9d bd df d8 0a bf
       -0.12345171 0.31008187 -0.07701567 -0.5423717
000280 9c 39 c1 bc 40 fe a8 bd da 36 10 bf 86 16 27 be
       -0.02358704 -0.08251619 -0.56333697 -0.16317186
000290 64 51 fc be 76 c7 96 3e 72 e9 0e 3d 2e bd c8 3e
       -0.49280846 0.29449052 0.0348906 0.39206833
0002a0 a7 01 23 3d 54 a7 b1 3e af 38 b7 3e f0 74 90 3d
       0.039796498 0.34697974 0.35785434 0.07053554
0002b0 a6 72 99 3e c5 92 06 bf 3b ab 6b 3e 4a bb 86 3e
       0.29970282 -0.525677 0.23014538 0.26314765
0002c0 5f 3e d0 3d f7 7b 2f 3d 60 e4 53 be 93 57 a3 be
       0.10168146 0.04284283 -0.20692587 -0.3190275
0002d0 23 ce a2 3e 5a 92 81 be 4b c0 d2 3e 98 a9 20 3e
       0.31797895 -0.2530697 0.41162333 0.15689695
0002e0 2d f9 64 3e f8 03 a8 3e 38 8b fc bd 04 cd 18 be
       0.22360678 0.32815528 -0.12331241 -0.14921957
0002f0 f6 18 f4 3e 70 d7 e3 ba 2a 25 2f be 40 95 ba bc
       0.47675294 -0.0017382931 -0.1710402 -0.022776246
000300 08 89 10 bf 2f 1c 5f 3e 13 6b 52 3e 7e f9 0c bf
       -0.56459093 0.21788095 0.20548658 -0.55068195
000310 d3 85 db 3e 30 f5 4d 3d e8 62 22 be 2d b9 af be
       0.42875537 0.050282657 -0.15858042 -0.34320965
000320 bc b0 1b bf 4c ca 68 3e 31 9e e9 3e 10 08 1c be
       -0.6081655 0.2273342 0.45628503 -0.1523745
000330 a8 a1 c6 be 96 4e da be 5e 30 c1 3e 60 9e ed bc
       -0.3879521 -0.4263808 0.37732214 -0.029006183
000340 30 d1 98 3e 29 d7 c2 3e d0 a9 c7 be 26 12 24 3e
       0.29847097 0.3805478 -0.38996744 0.16022548
000350 27 30 ee 3e ca 24 ce 3e 1a 69 9d 3e e6 4a a8 3e
       0.46521112 0.40262443 0.3074425 0.32869643
000360 88 45 ff 3e b2 0d 04 3e 5a 82 9d be 20 c5 13 bd
       0.49857736 0.1289585 -0.30763513 -0.036076665
000370 df 0a 10 3f 85 14 17 3e 94 67 13 be 30 a8 d4 bd
       0.5626659 0.14753921 -0.1439498 -0.10383642
000380 72 b0 06 bf 1c 51 a4 3e fc f8 bc be 53 f1 15 3d
       -0.52612984 0.32093132 -0.3690871 0.036607098
000390 ed 48 8a be 2e 49 d7 3e 16 84 a1 be a1 38 0b 3f
       -0.27008763 0.4204802 -0.31546086 0.54383284
0003a0 53 8a 15 3f b4 8b d0 3e d2 a4 12 bf 82 13 9e 3e
       0.5841419 0.40731585 -0.57282746 0.30874258
0003b0 e0 01 5b be ae 06 4a be 31 d0 9b be 92 e3 cc 3e
       -0.21387434 -0.1972911 -0.30432275 0.40017372
0003c0 fe 93 80 bc 52 f9 9a 3d ac 2c f5 3d 4c ad bc be
       -0.015695568 0.07567085 0.11971411 -0.36850965
0003d0 08 3f 87 3d 68 66 4d 3e 49 ef a3 3e 00 dc 74 3e
       0.06603819 0.20058596 0.32018498 0.23912048
0003e0 f6 e0 16 bf d9 10 95 3d c1 d7 9f 3d a2 2c bd 3e
       -0.58937013 0.07278604 0.07804824 0.36948115
0003f0 2c 95 3b 3e eb ea e3 3e 7d e5 e4 bd 30 38 11 bd
       0.18318623 0.44515166 -0.11176584 -0.035453975

fc_layers.0.bias f4 [128]
000000 e0 26 91 be a5 9c e3 bd 89 c8 6b be c9 28 e9 bb
       -0.28349972 -0.11113862 -0.23025717 -0.0071154577
000010 6b a9 35 be e5 de b3 be 44 85 b6 bc 0d 6b 9d be
       -0.17740409 -0.35130993 -0.022280343 -0.30745736
000020 30 8d 0d be 61 33 a0 bd 7c 20 27 be 83 6b 49 be
       -0.1382339 -0.078223 -0.16320986 -0.19669919
000030 8c 85 9a be 53 40 3c be 87 8f 64 3d ad 42 09 be
       -0.30180013 -0.18383913 0.05580094 -0.13404341
000040 1c 67 ac bd b7 98 0b be 3d 33 fd bd c7 4e 89 be
       -0.08418104 -0.13632475 -0.123632886 -0.26817915
000050 ff d8 9f be 22 a9 40 be b8 aa 44 be 6b ea ea bd
       -0.31220242 -0.18814519 -0.19205749 -0.11470493
000060 d3 c2 1d be 35 2a dc 3b ac a5 96 be 99 c7 c2 ba
       -0.15406351 0.0067188987 -0.29423273 -0.001486051
000070 e9 39 39 be 0c 22 1c 3e b9 a4 8b be 72 42 03 be
       -0.18088497 0.15247363 -0.2727411 -0.12818316
000080 ee 6a d2 be 19 e8 13 bd 2d 0d 62 be e2 26 1c be
       -0.41097206 -0.036110017 -0.22075339 -0.15249208
000090 4a 0e a9 be ca b5 ff bd 6c ea 1d bd 08 18 b5 be
       -0.33018714 -0.124858454 -0.03855364 -0.35369897
0000a0 13 e2 f2 bc a5 ae 8e be 15 de 97 be ae 19 c5 bd
       -0.029648816 -0.27867618 -0.29661623 -0.09624039
0000b0 3a cd 9b bd be 17 c0 bd e1 81 1e be 8c c9 b7 be
       -0.07607503 -0.093795285 -0.15479232 -0.35895956
0000c0 a9 51 99 3c 12 5c bf bd 46 bb 12 be e8 5d 16 be
       0.018715696 -0.09343733 -0.14329252 -0.1468426
0000d0 cf ae 92 be 81 01 6d be ef 0d 68 3c 8e d9 10 be
       -0.28648993 -0.23145105 0.014163478 -0.1414549
0000e0 08 d3 50 be c6 9f 9d be 38 26 a7 bd fd 6f 2a be
       -0.20393002 -0.3078596 -0.081615865 -0.16644283
0000f0 2a b6 fb bb 32 57 29 be 87 6d 8a be 24 0e 32 be
       -0.0076816278 -0.16537169 -0.27036688 -0.17388207
000100 ad ad 79 bd b4 ea 9e be 86 7a 4b bd ce 51 81 be
       -0.060956646 -0.3103844 -0.049677394 -0.25257725
000110 31 58 26 3e 88 ed f7 bd cf 3f 23 be 85 0a a5 be
       0.1624458 -0.12105852 -0.1594231 -0.32234588
000120 b1 2b 3f be 54 fe c4 bd 8c 0a d7 bd ab b5 a0 bd
       -0.1866901 -0.09618822 -0.105000585 -0.078471504
000130 ab 19 6d be 8a 23 e7 bd 8c de 26 be 0a c1 88 be
       -0.23154323 -0.112860754 -0.16295832 -0.26709777
000140 33 2d 20 be 4a e8 76 be 1a 35 85 be 19 4c 87 be
       -0.15642242 -0.24112049 -0.26017076 -0.26425245
000150 dc 6d 50 be 1f 74 59 be 5e bf 43 be d8 94 bc bd
       -0.20354408 -0.21235703 -0.1911597 -0.09208077
000160 99 c1 8d be 64 bb 37 be d5 83 d8 bc 2d fa c0 be
       -0.27686766 -0.17942578 -0.02643005 -0.3769087
000170 3c 62 27 be be 13 91 bd b0 ab fb bd 94 3c c1 be
       -0.16346067 -0.07083844 -0.12288606 -0.3774153
000180 13 2a 02 be 40 74 62 bd e1 db 79 be c1 f4 d2 bc
       -0.12711363 -0.055286646 -0.24400283 -0.025751473
000190 33 cb 2e be a1 90 7e bd 82 1c 19 be 87 8a b3 be
       -0.17069702 -0.062149648 -0.14952281 -0.35066625
0001a0 e3 dd 80 be 13 e7 49 be 68 8f 31 bd b9 2c 4c 3b
       -0.25169286 -0.19717054 -0.043349653 0.0031154586
0001b0 72 eb 1c be be 77 04 3e 88 57 cf 3c 0e 65 93 be
       -0.1532419 0.12936303 0.025310293 -0.28788036
0001c0 18 97 83 be 19 06 50 be 63 09 7e be f9 d9 a1 be
       -0.25701213 -0.20314826 -0.24808268 -0.31611612
0001d0 43 00 2a be 39 a1 31 be 0c e3 6d be 87 36 b8 bd
       -0.16601662 -0.17346658 -0.23231143 -0.08994775
0001e0 95 9a a3 be e5 12 bf be c3 39 8a be a7 ec 1a be
       -0.31953874 -0.37319103 -0.26997194 -0.15129338
0001f0 f7 d1 8e be 95 bb 1a be ee 8d 05 be 47 f2 8b be
       -0.27894565 -0.1511062 -0.13042423 -0.2733328

fc_layers.3.weight f4 [64, 128]
000000 1e fe cd 3d e7 54 33 be d4 e1 0f be ab e6 44 be
       0.10058235 -0.17512856 -0.1405099 -0.19228618
000010 92 9f d5 bd 27 0e 88 3d 09 ab 75 3c b9 bc b9 bc
       -0.10430826 0.06643324 0.014994391 -0.022672998
000020 c4 a2 3a 3d 98 58 c3 ba 42 4c 84 bd 15 cb ab bd
       0.04556538 -0.0014903722 -0.064598575 -0.08388344
000030 22 3d 89 be ad 3a 4a bc aa 47 a3 bd d7 da 28 be
       -0.26804453 -0.012343091 -0.07972653 -0.16489731
000040 41 a2 7d 3d c8 74 75 bd 5b 6b 9b 3d 8b ac 19 ba
       0.061922316 -0.059925824 0.07588836 -0.0005862198
000050 84 5f 65 be 91 a6 bc 3c 5a 4a c9 3b bc 2b f0 bd
       -0.22399718 0.023028644 0.0061428966 -0.11727092
000060 12 60 85 bd 0e 54 2a be 60 f5 d5 bd c5 e1 db bd
       -0.065124646 -0.16633627 -0.10447192 -0.107364215
000070 bf fc 18 be 44 36 bd bd d0 e0 d8 3d 4b 83 32 bd
       -0.14940165 -0.09238866 0.105897546 -0.043582242
000080 c9 b6 cb 3d d8 fd 30 bd 03 cc f5 bd 52 57 b0 3d
       0.09946973 -0.043210834 -0.12001803 0.08610405
000090 d4 f0 ee bd a8 f0 4f be ac 10 8d 3d 63 05 6e be
       -0.11667028 -0.20306647 0.068879455 -0.23244242
0000a0 29 86 ae bd 99 47 59 be da 16 5d be bf e8 93 bd
       -0.08521683 -0.21218719 -0.21590748 -0.07222127
0000b0 66 cb 02 be 98 80 89 3c 88 bb 01 3d 0c 93 a5 bd
       -0.12772903 0.016784951 0.031672984 -0.080846876
0000c0 80 a3 0a bd 44 9b 2c be b9 0f 03 3e e1 8c 8b bd
       -0.033847332 -0.16856104 0.12798966 -0.0681398
0000d0 46 42 b0 3d 47 4c 4e be 90 70 4f be 01 74 bb 3d
       0.08606391 -0.20146285 -0.20257783 0.09152985
0000e0 8c 3e 66 be 28 8a 2d be 94 65 3d be 2d fc 22 3e
       -0.22484797 -0.16947234 -0.1849578 0.1591651
0000f0 a7 a8 c4 3d cc f6 20 be 96 78 00 be 55 cb 56 3d
       0.096024804 -0.15719146 -0.12546 0.052440006
000100 d3 60 4a be 85 67 18 3d 25 cc 78 bd c0 20 bd bd
       -0.19763498 0.0372081 -0.060741562 -0.09234762
000110 60 16 58 be 3d f0 e1 bd 8a a8 6b 3d b6 83 4f 3e
       -0.21102285 -0.1103215 0.05753378 0.20265087
000120 c0 12 ad bd 27 a1 06 bd 4f fa 46 be ff bb 61 be
       -0.08450842 -0.03286853 -0.19431423 -0.22044371
000130 a4 bc 94 bc 91 87 e1 3d 68 2d 94 bd f8 44 bd 3d
       -0.018156357 0.11012185 -0.07235223 0.0924167
000140 03 b2 53 be b0 bc 31 3d 33 1c 09 3e 24 ce 20 be
       -0.20673375 0.043392837 0.13389663 -0.15703636
000150 3a 3b 07 3e 18 d0 24 be a9 06 a6 bd 67 83 28 3d
       0.13206187 -0.16095006 -0.08106739 0.04114094
000160 e4 b6 85 bd d7 34 47 be 48 1b a3 3d b0 64 7d bd
       -0.06529024 -0.1945375 0.07964188 -0.0618636
000170 b8 5d 51 bd a2 54 c6 bd c3 2a e1 ba 03 78 c7 bd
       -0.051114768 -0.09684111 -0.0017178882 -0.09739687
000180 04 bd 55 3b 13 78 14 be 98 36 59 be b2 80 8d 3d
       0.0032613883 -0.1449893 -0.21212232 0.06909312
000190 f0 07 0e 3e 41 68 39 3d d4 60 8f bd 2b f2 2b 3e
       0.13870215 0.04526544 -0.070008904 0.16791598
0001a0 2e b6 87 be ac f3 41 be a3 c9 38 bc f5 e1 5e 3d
       -0.2650618 -0.1894061 -0.011278543 0.05441471
0001b0 ef 6c b9 bd 4d e2 e6 bd a3 03 84 bc 3a 60 cd 3d
       -0.090539806 -0.11273632 -0.016115015 0.100281194
0001c0 00 a2 3f be 13 5e 30 bd de e4 20 bd 99 23 72 be
       -0.18714142 -0.043058466 -0.039280765 -0.23646392
0001d0 d9 af 30 be 80 fc 22 bd 3b 9f 2f be 1a 53 6b be
       -0.1725458 -0.039791584 -0.17150585 -0.2298092
0001e0 3f 02 14 3e f1 91 ee 3d 2c e3 96 bd 9f 52 d2 bd
       0.14453982 0.1164893 -0.07367548 -0.10269665
0001f0 a6 67 5c be ef fd 54 be 32 6f f5 bd 14 5f 37 be
       -0.21523914 -0.20799993 -0.119840994 -0.17907363
000200 b6 dc 5c bd 94 24 86 3e 13 98 06 bd d5 24 83 3d
       -0.053921424 0.26199782 -0.032859873 0.064035095
000210 ca d9 96 3e 65 93 41 bd d0 b3 15 bc a2 21 70 3d
       0.29463035 -0.047259707 -0.009137109 0.058625825
000220 00 3e 94 be ec 8c 69 bd 0f 6a 36 be 18 1c 2d bd
       -0.28953552 -0.05701916 -0.17813896 -0.04226312
000230 65 1a d9 bd 94 84 08 3e db d8 ad 3d ee dd 34 be
       -0.106007375 0.13331825 0.084886275 -0.17662784
000240 b6 8c 07 be 17 b3 18 3e bd 6e 3a be 77 b7 b0 bd
       -0.1323727 0.14912067 -0.18206306 -0.08628743
000250 2c bb eb be f8 cc 48 3e f2 11 95 bd b2 8b ce 3c
       -0.46041238 0.1960944 -0.072788134 0.025213096
000260 aa a1 48 be 64 3f 43 3d b5 9d cf 3d 65 e4 5c be
       -0.1959292 0.047667876 0.10137502 -0.215715
000270 1c 7d d6 3d 0c 53 1a 3e 35 d3 27 be 18 7e 4f be
       0.104730815 0.15070742 -0.16389163 -0.20262945
000280 b8 57 1d 3d 35 cb f2 bd dc 62 fa bd ab 81 7b be
       0.038413733 -0.11855165 -0.12225887 -0.24561183
000290 78 65 9f be 5b 75 19 be 41 47 b0 be 81 83 32 be
       -0.31132102 -0.14986174 -0.34429362 -0.17432977
0002a0 f5 90 33 bd 32 aa d0 be bc c1 1f bd dd c8 29 3e
       -0.043839414 -0.4075485 -0.03900312 0.1658053
0002b0 51 f9 43 be 2b 7a 92 be 27 b8 77 bd ea 77 76 be
       -0.19138075 -0.28608832 -0.060478356 -0.24069181
0002c0 0f 03 d4 bd f8 c8 33 3e 61 0f b3 3d b5 b4 95 be
       -0.10352146 0.17557132 0.08743168 -0.2923943
0002d0 98 1a 01 3e 9c 41 c9 3d 3a cd 94 bd f9 a4 a0 bd
       0.12607801 0.09826967 -0.07265706 -0.07843966
0002e0 7e 82 52 3e 8f d5 64 be a9 36 5a be 65 c5 60 3e
       0.20557591 -0.22347091 -0.21309914 0.219503
0002f0 b8 2a 27 3e 19 40 a3 be 9e ce 28 be af 3f 33 3c
       0.1632489 -0.3188484 -0.16485068 0.010940476
000300 43 ca b7 bd 50 2c 86 3c 67 31 08 be 9f 19 a9 bd
       -0.08974125 0.016378552 -0.13300095 -0.0825684
000310 39 36 a4 be 29 2a c7 bd 82 2b 91 be e9 0a 15 3e
       -0.3207262 -0.09724838 -0.28353506 0.14554943
000320 a0 e7 9c bd 22 18 95 bd ca 50 f5 3b 73 c0 29 be
       -0.076613665 -0.072799936 0.0074864374 -0.1657732
000330 87 f1 d9 be 90 d7 67 be 9d 28 cd bd 0a 87 3f bd
       -0.42567083 -0.22640824 -0.10017512 -0.046759643
000340 9b a3 33 be 8f 43 51 3d 34 f9 4b be 11 62 62 be
       -0.1754288 0.05108982 -0.19919282 -0.22107722
000350 b3 3d c0 be 83 f6 d3 3c 0c 1b 50 be 63 5a 83 be
       -0.37547073 0.025874382 -0.20322818 -0.25654897
000360 f8 57 a4 bd 1e b2 68 be 8b bd 03 3e 70 c6 d7 bd
       -0.08024591 -0.22724196 0.12865274 -0.10535896
000370 23 95 dd bb dd 4b 82 3e 66 9b 55 be ab 14 17 3d
       -0.0067621632 0.25448504 -0.20860061 0.036884945
000380 f6 82 17 3e de 92 4a be 09 d2 1b 3e 51 e9 cd 3d
       0.14796051 -0.19782588 0.15216841 0.10054267
000390 ff 79 10 bd 9d 66 b8 3b b4 45 13 3e 16 79 a5 3d
       -0.035272595 0.005627467 0.14382058 0.08079736
0003a0 33 71 77 be 01 bb 43 3d a3 28 5f bd 75 8b 9c be
       -0.24164276 0.047785763 -0.054482114 -0.30575147
0003b0 4f 88 ef bd f7 aa 1f be ed 2c 7d 3e 73 85 3b be
       -0.11695921 -0.15592562 0.24724169 -0.18312626
0003c0 6a bd 30 be d9 ee 90 3d fe b7 6d be 8b 65 41 be
       -0.17259756 0.070768066 -0.23214719 -0.18886392
0003d0 9d 05 bc bd 96 c9 fa bd 9d 77 05 3d df 6c 9d bd
       -0.09180758 -0.12245481 0.032584775 -0.07686781
0003e0 5f 28 14 3e f8 7c 9c 3d b4 17 64 be 95 11 2c be
       0.14468525 0.076410234 -0.22274667 -0.16803582
0003f0 b1 c3 64 3d 08 63 3d 3e b7 07 57 bd ec b7 a4 be
       0.05585069 0.18494809 -0.05249759 -0.3217157

fc_layers.3.bias f4 [64]
000000 0b f2 a0 bd 03 4d 6a bd 95 a1 c5 3d af e5 40 bd
       -0.07858666 -0.05720235 0.0964996 -0.047094043
000010 35 01 02 be 14 98 1f 3e fb 72 63 bd 83 27 0f be
       -0.12695773 0.15585357 -0.055529576 -0.13979916
000020 74 ad 0f bc 26 d4 92 3e 91 2b fc 3c 0e 1f b3 3d
       -0.008769382 0.2867748 0.030782493 0.087461576
000030 d1 98 3a bc 55 44 ec bd aa e1 13 be 4b 6d 0e 3e
       -0.011388973 -0.11536471 -0.14441553 0.1390888
000040 41 8b 2c 3e 30 c1 34 be 31 13 ad 3d 78 0b b0 3c
       0.16849996 -0.1765182 0.08450926 0.021489844
000050 1d c4 30 3d b6 1f 10 3e 1d 91 a6 bd e7 29 72 bd
       0.04315578 0.14074597 -0.08133147 -0.059121992
000060 0b 3a 46 be 1d 60 86 bc e8 0e b9 3d a1 82 44 3d
       -0.19358079 -0.016403252 0.09036046 0.04797614
000070 b3 cd e6 bd 06 ca 2b 3d 20 c1 01 be c1 45 0f 3e
       -0.11269703 0.04194071 -0.12671328 0.13991453
000080 01 b1 d3 3d e1 24 a0 3d 54 4e ac bd dd e0 45 be
       0.10336495 0.07819534 -0.084133774 -0.1932406
000090 a5 4a 97 bd 7f 67 d5 3d 16 da aa 3d b4 67 89 3d
       -0.07387284 0.10420131 0.08342378 0.06709233
0000a0 97 e3 55 be 89 29 8c bc 79 78 5c 3e dd 63 3e be
       -0.208876 -0.01710965 0.21530332 -0.18592782
0000b0 61 39 35 be 05 23 2a bd ec 4d 0a bd d4 b7 0b 3e
       -0.1769767 -0.041537303 -0.03376572 0.13644344
0000c0 3f 57 a8 bd 2f 02 1c 3c 3f ea 0c 3d 15 7b 9c 3c
       -0.08219766 0.009522005 0.034403082 0.019101659
0000d0 08 e0 31 be 85 df 1d 3c 08 bf 29 bd 40 64 6f 3d
       -0.17370617 0.009635811 -0.041441947 0.058445215
0000e0 be f7 ec 3d 9f 8f 87 bd bb 2f 77 bd 77 59 65 3d
       0.115706906 -0.066191904 -0.060348254 0.055993523
0000f0 07 b6 3f be cc 67 d3 3c de a2 38 3d cc 89 fa 3d
       -0.18721782 0.02580633 0.045077197 0.12233314

fc_layers.6.weight f4 [32, 64]
000000 e5 17 5e 3e 58 0c c2 bd e3 d6 7d be 65 fe 4f 3d
       0.21688803 -0.09475011 -0.24789004 0.05077972
000010 2e 2f d3 bc 58 e7 68 3d 4e 0b 58 3e fa 1f 79 3e
       -0.025779333 0.05686125 0.21098062 0.24328604
000020 ff 0b 24 be e9 c5 12 be 59 b0 9e bd 27 31 8b 3e
       -0.16020201 -0.14333309 -0.077484794 0.27185938
000030 64 12 29 bc b8 1d 4d be 72 ab 10 3c 16 8e e8 bd
       -0.010319326 -0.20030868 0.008829938 -0.11355226
000040 fc 25 b0 3d 86 32 b9 3c df ff 88 bd e2 aa 3c bd
       0.08600995 0.0226071 -0.066894285 -0.046061404
000050 eb ef 5d 3e 51 b0 53 be 25 78 a7 bc 24 39 0e be
       0.21673553 -0.20672728 -0.020443032 -0.13888985
000060 01 03 78 be 29 e9 96 be 6b a4 14 be 06 c0 b1 3c
       -0.24219896 -0.29474762 -0.14515845 0.02169801
000070 72 bf 89 bc f3 69 e1 bd 5a 06 93 be 60 1c a4 bc
       -0.016814921 -0.11006536 -0.28715783 -0.020033062
000080 42 72 93 3c 6a 10 30 be 3f a6 6f 3e f0 96 60 be
       0.017998818 -0.17193761 0.23403262 -0.21932578
000090 57 b3 52 be 1c 9b d9 3c 54 06 cc be bf f1 b0 be
       -0.20576225 0.02656322 -0.39848578 -0.34559438
0000a0 59 85 68 be 3f 61 49 3d 78 2e 82 be 85 fb 89 be
       -0.22707118 0.049165007 -0.25426078 -0.26949707
0000b0 11 d5 d6 3d 51 d1 4a be 09 49 e6 bd 4f e3 89 3e
       0.10489858 -0.1980641 -0.11244399 0.26931235
0000c0 a4 9f 09 3e 0a ff 11 be 16 40 36 be a9 c2 05 3e
       0.13439804 -0.14257446 -0.17797884 0.13062538
0000d0 56 08 06 bd 1f 1a 81 be 2c a5 ea 3d c8 5b 11 bc
       -0.032722794 -0.2521524 0.11457285 -0.00887198
0000e0 d9 a4 ba be 77 24 3a bd 14 c1 9e 3d 67 14 8d be
       -0.36453894 -0.04544493 0.077516705 -0.27554628
0000f0 3d d9 3b 3d 52 ac 00 3c 23 0d ef bd c3 3b 56 be
       0.04586147 0.007853584 -0.116724275 -0.20921235
000100 17 3d 3f be 30 e9 25 3d f7 53 74 be 75 5e 96 be
       -0.18675648 0.040505588 -0.23860155 -0.2936894
000110 50 45 21 be 3a 8c b9 3c bd d8 81 3e 92 60 6b 3e
       -0.15749097 0.022649873 0.2536067 0.22986057
000120 61 2b 1b be 80 02 f1 bd 32 06 46 3e 40 57 d8 3d
       -0.15153266 -0.11768055 0.19338301 0.105635166
000130 3c 81 97 be 68 d4 78 be 04 c0 87 be 57 c2 68 be
       -0.29590786 -0.24299777 -0.26513684 -0.22730385
000140 47 71 c3 bd 47 5d 1c be eb 7b 3d 3b 2d 09 2f 3e
       -0.0954309 -0.15269957 0.0028912972 0.17093344
000150 aa 19 f4 3c d2 9f 5e be 86 2f 7a be c2 51 59 be
       0.029797394 -0.21740654 -0.24432191 -0.21222594
000160 a4 ff cd 3d 66 16 54 be 1e 03 43 bd a3 14 79 be
       0.10058525 -0.2071167 -0.047610395 -0.24324279
000170 93 43 9b be 25 85 de 3c d0 a8 d7 bd cb e4 9d be
       -0.30324993 0.027163098 -0.10530245 -0.30838618
000180 fa db 3c be 61 66 83 bc 83 cb 2f bd 29 be 86 bb
       -0.1844329 -0.016040029 -0.042918693 -0.0041120243
000190 79 e6 33 3e ef d3 79 bd 95 7c 8f be 81 70 0c 3d
       0.17568387 -0.06099313 -0.28024736 0.03428698
0001a0 a5 f2 df bd d0 c9 f7 3d 14 e2 2c be b1 3c 28 3e
       -0.10934953 0.120990396 -0.16883117 0.16429402
0001b0 b2 21 78 3e 8d fc cc 3d f4 34 0d be f7 11 64 bd
       0.24231604 0.10009108 -0.13789731 -0.055681195
0001c0 8b 83 42 3e f5 09 cb bc 37 00 21 be 7e e4 90 be
       0.18995492 -0.024785021 -0.15722738 -0.28299326
0001d0 7e cc 74 bd 97 b7 33 3e 0a 68 fb bd 67 f2 0a bd
       -0.05976533 0.17550503 -0.12275703 -0.03392258
0001e0 5d 62 5d be 5e 96 6c bb 0d e9 c0 3c 62 94 c9 bd
       -0.21619554 -0.0036100368 0.023548627 -0.09842755
0001f0 f6 29 6b 3e 34 5e 6c 3d 4e e0 2c 3d b7 82 56 bd
       0.22965226 0.057707027 0.0422061 -0.052370753
000200 5b d6 7e be 50 92 e6 be c4 36 46 be 39 2c 10 3d
       -0.24886458 -0.45033503 -0.19356829 0.035198424
000210 42 12 28 be 35 11 0c bf 05 e4 98 be c9 88 87 3e
       -0.16413215 -0.54713756 -0.29861465 0.26471546
000220 45 c4 b3 3e fa c6 6a 3e e7 d9 fe bd a4 dd 89 be
       0.3511068 0.22927466 -0.12443905 -0.2692691
000230 a0 66 3f be 23 a0 a1 3c 35 9f a3 3c 93 47 1f be
       -0.18691492 0.01972968 0.019973377 -0.15554647
000240 9b ef d2 be 56 34 25 3e c6 a8 45 3e 99 20 ab 3e
       -0.4119843 0.16133246 0.19302663 0.33423308
000250 a7 1d c0 be 69 07 a8 be 26 76 ef bd 3c d6 f7 bd
       -0.37522623 -0.32818154 -0.11692457 -0.12101409
000260 de d9 99 be 08 f0 93 be b9 54 8d bd 33 ee 16 bc
       -0.30049032 -0.28894067 -0.06900925 -0.009212065
000270 ba 35 b2 bd 4a 35 b8 be fa 22 fe 3d e6 9d fc bd
       -0.08701654 -0.35978156 0.12409015 -0.12334804
000280 33 c5 27 be c4 75 69 be 24 92 31 be 3e 5f 8d be
       -0.1638382 -0.2279883 -0.17340904 -0.27611727
000290 2e ea 25 be 7e c4 3c be c9 ea 16 be 15 bd af 3c
       -0.16202614 -0.18434331 -0.14738001 0.021452466
0002a0 96 74 e9 3d e1 ed 95 be 11 5a ca be a5 e6 63 bd
       0.1139919 -0.2928305 -0.3952184 -0.05563988
0002b0 fb 34 7f 3e eb 02 ad 3b 9c 83 2a bd bf 97 a9 be
       0.24922554 0.005279889 -0.04162942 -0.33123586
0002c0 4b ec 44 be ff 5b e2 3d b9 95 3c bd 04 12 62 be
       -0.19230764 0.11052703 -0.046041224 -0.22077185
0002d0 24 2a ab 3d 0c 05 85 bd 00 1e 9c be 4a 98 83 be
       0.08357647 -0.06495103 -0.30491638 -0.25702125
0002e0 48 da 0c be 9d 6f 53 3e da b9 e1 bd 05 9e cc be
       -0.13755143 0.20648046 -0.110217765 -0.3996431
0002f0 7e 11 f7 bd da 70 9d be bc 16 cd be d7 85 a3 be
       -0.12063883 -0.3075016 -0.40056407 -0.3193805
000300 3a 32 3c 3d a4 d3 9e be 53 33 dd bd 9c dd b3 bd
       0.045946337 -0.31020844 -0.10800805 -0.08782503
000310 56 2a 61 3e 14 28 22 3e ea 05 82 3e 2a 1f 1e bd
       0.21988806 0.15835601 0.25395137 -0.03860394
000320 80 04 5b bc c4 9d e9 3b 48 d4 28 3e 56 43 04 be
       -0.013367772 0.007129403 0.16487229 -0.12916312
000330 3d 7b 0f be 34 40 e7 3d 67 cf 73 be 9c 50 0d be
       -0.14011855 0.11291543 -0.23809586 -0.13800281
000340 d6 f0 6e be d0 dd cc 3d a0 9d b5 be 12 ef 03 3e
       -0.23334059 0.10003245 -0.3547182 0.12884167
000350 e6 32 5f bc c9 01 ca 3c 1f 4a f2 3d b6 0e e4 bc
       -0.013622975 0.024659054 0.11830544 -0.027839046
000360 10 25 7e be 0b 37 34 bd 0b d1 b8 3c 32 d5 e6 3e
       -0.24818826 -0.043997806 0.022560617 0.4508453
000370 fd 4b 21 be 57 34 f6 bd 5b ac 44 bd 37 0c 53 3d
       -0.15751643 -0.12021702 -0.048015933 0.05152532
000380 2c f6 aa 3c 1e 1f 81 bd ea 3a bf bb 1f 46 a5 bd
       0.020869337 -0.06304763 -0.0058358805 -0.08070015
000390 72 f0 fe 3b 9e c3 e5 3c cf b2 06 be 63 27 e0 3c
       0.007780128 0.02804738 -0.13154148 0.027362531
0003a0 a9 99 87 be ae 2c a1 bd 81 fa 9a be c1 21 90 3d
       -0.2648442 -0.0786985 -0.30269244 0.07037688
0003b0 8e f0 e6 3c 6e d7 5c 3e 64 94 66 3d 62 e9 1e be
       0.028190877 0.21566555 0.05629386 -0.15518716
0003c0 53 73 58 bd 4a ff 20 be 98 ea a4 be 3a 57 7f be
       -0.052844357 -0.15722385 -0.3221023 -0.24935618
0003d0 f4 41 b5 3b c6 bb 12 be 9c bd 81 be 14 be 7f 3e
       0.005531544 -0.14329442 -0.25339973 0.24974853
0003e0 6c 04 9b 3e 23 00 92 3e 97 25 1b 3e 82 fb 25 be
       0.3027681 0.2851573 0.15151058 -0.16209224
0003f0 aa 17 82 3e fe 7e 3d be ae 29 01 be fb c6 fd bd
       0.2540868 -0.18505475 -0.12613556 -0.12391468

fc_layers.6.bias f4 [32]
000000 c2 ac f2 bd 92 8c ad be 46 76 98 3d b4 9a 9a bd
       -0.11849357 -0.3389631 0.07444434 -0.075490385
000010 db f3 89 3e df 2f bc be b4 c8 25 be 2b 50 a3 bd
       0.2694386 -0.36755273 -0.16189843 -0.07974275
000020 9f cf 75 be e1 1c ed bc c8 0d a0 3c 24 03 8b be
       -0.24004982 -0.028944435 0.019537821 -0.27150834
000030 c8 88 1e 3e 1d 9c 19 3e 46 5b c9 bd 9c b6 85 3d
       0.15481865 0.15000959 -0.09831862 0.065289706
000040 36 48 9a 3e ce ad 1e bc 04 e8 93 bd 63 7b 30 3e
       0.30133218 -0.009684993 -0.07221988 0.17234568
000050 c8 04 12 3f 2a af 8a be 3f 9a 26 3e b2 58 68 3e
       0.57038546 -0.27086765 0.16269778 0.22690085
000060 fc 72 df 3d 87 6b d3 be a2 e0 57 bd df 2c a7 bb
       0.109106034 -0.41292974 -0.05270446 -0.0051017846
000070 37 2e c6 bd 00 6e e1 3e 00 fc 18 3f fd 82 62 3e
       -0.096767835 0.44029236 0.5975952 0.2212028

fc_layers.8.weight f4 [4, 32]
000000 7d da 30 be 0a 15 ef bd f8 d0 a7 be 25 f6 96 3e
       -0.17270847 -0.11673935 -0.32776618 0.29484668
000010 e5 8f 3d 3c a4 90 9c bd 75 43 a8 be 85 b8 80 bc
       0.011569952 -0.076447755 -0.32863966 -0.015712986
000020 a7 9e 4e be e6 fb ad be 16 fa 91 3e d0 5e bf bd
       -0.20177709 -0.33981246 0.28511113 -0.09344256
000030 98 d5 41 be 4b 06 1a bd b6 a5 12 be f2 8e 40 bd
       -0.18929136 -0.037603658 -0.14321026 -0.047011323
000040 f4 be db 3d 89 1d 08 bd e4 cc 8f 3d 16 bd 5e 3e
       0.10729781 -0.033231292 0.07021502 0.21751818
000050 f5 95 9e 3e 08 96 9a 3e b1 8c 94 bd a9 eb 11 3e
       0.30973783 0.3019259 -0.07253397 0.14250053
000060 47 c9 a5 3d d2 a0 64 be 40 a5 04 bd 9d 96 e5 3d
       0.08095031 -0.22326973 -0.032384157 0.11210368
000070 64 a0 81 bd f5 2b f8 3d ac a5 85 3e 2f 73 14 bf
       -0.0632942 0.12117759 0.2610296 -0.57988256
000080 b0 53 04 bf 60 eb 21 be 7b 27 63 be bf 2c 49 be
       -0.51690197 -0.15812445 -0.2218303 -0.19645976
000090 26 51 33 bf 82 56 97 be 6d f7 d6 bd ed 35 43 3d
       -0.700457 -0.29558188 -0.104964115 0.04765885
0000a0 85 2f 7b 3d 03 67 07 3d 82 82 69 3e 29 7a 6c 3d
       0.061324615 0.033057224 0.22803691 0.05773369
0000b0 76 44 28 3d 0e b1 29 3e 4d 8b af bd 2e 29 89 be
       0.041080914 0.16571447 -0.085714914 -0.2678923
0000c0 bb e3 51 3e cd cd 10 3d 56 38 d9 3d b2 77 13 3e
       0.20497029 0.035352517 0.10606448 0.14401129
0000d0 46 6d 95 3e 6c c1 04 bb ef 67 3c 3e cb be 34 3e
       0.29184932 -0.002025689 0.18399023 0.17650907
0000e0 39 a3 52 be cd 76 94 be 2a 3d d7 bd 03 50 0e 3e
       -0.20570077 -0.28996888 -0.10509713 0.1389771
0000f0 5d 95 c9 3c f3 c5 74 3e d8 dd 76 3e c9 b2 5f be
       0.024607355 0.23903637 0.24108064 -0.21845545
000100 8a fc 69 3d 97 3b 6b bd 8e 1f 86 bd 14 e7 2f 3c
       0.057125606 -0.057429876 -0.06548987 0.010736246
000110 ee 5a e9 bd f5 73 97 3e 8e ce 91 be 96 df 8b be
       -0.113942966 0.29580656 -0.284779 -0.2731902
000120 5e 26 0f bd 3b b5 8d 3c 81 89 97 3c 91 86 7c bd
       -0.0349487 0.017298331 0.018498184 -0.06165177
000130 9a 47 77 3d 20 8c d1 bd 96 80 71 be 99 2b ba 3c
       0.06037102 -0.10231805 -0.23584208 0.022725867
000140 70 6b 0e be e1 84 3c bc 14 9f 38 3e 91 99 5c bc
       -0.13908172 -0.01150629 0.18029433 -0.013464347
000150 62 81 8d 3e 38 b9 4e 3e 55 78 9e 3e 19 45 63 be
       0.27637774 0.20187843 0.3095118 -0.22194327
000160 a0 56 3d 3e 40 51 4d be c9 7f 8e 3d 39 9f d3 3c
       0.18490076 -0.20050526 0.06957967 0.02583276
000170 7a ba 16 be cf d0 5f 3e c3 dd d9 3e 16 b9 3a bf
       -0.14719573 0.21856998 0.42552003 -0.7293867
000180 b9 6b 24 be 98 37 39 3d 57 ad 87 bd 52 ab 4d be
       -0.16056718 0.045219034 -0.06624859 -0.20084885
000190 03 e6 c2 be 8e 98 77 be 47 1e 23 bd 03 8d 47 3d
       -0.3806611 -0.24179289 -0.039823797 0.048718464
0001a0 4c 23 af 3d a7 29 49 bb 0a d7 46 3e 86 bc 38 3e
       0.08551654 -0.0030694993 0.19417968 0.18040666
0001b0 3f 3d 0d 3e fb 50 1a 3d c1 62 92 3e fd 3a 15 be
       0.13792895 0.037674885 0.28590968 -0.14573283
0001c0 ad e3 09 3e dd 94 3f 3e 3d 2f 2f 3e cc ae 13 3d
       0.13465758 0.1870913 0.17107864 0.03605537
0001d0 4d e7 5c 3e 94 25 bf 3d 81 c9 a0 be ff 34 ea 3d
       0.21572609 0.09333339 -0.31403735 0.114358895
0001e0 b7 07 27 3c b1 ea 8c be b2 75 8f bd 1e ab 63 3d
       0.01019471 -0.27522805 -0.070048705 0.055583112
0001f0 fc 55 79 3e 24 53 50 3e 96 22 68 3b 3d b0 3c be
       0.24349207 0.20344216 0.0035421005 -0.18426605

fc_layers.8.bias f4 [4]
000000 98 35 5e 3e ae 38 88 3e 71 9d 79 3e ef 74 e6 3e
       0.21700132 0.26605743 0.24376465 0.45011088
