output/dqn/model/4x4/9500.pth (torch, 53468 bytes, 8 tensors)

fc_layers.0.weight f4 [128, 16]
0.13496527 0.20930023 0.020208359 0.22295375 0.5040701 -0.11741924 0.5045273 0.47077674
0.18878576 0.4147305 -0.45258257 -0.45476913 0.5633288 0.5170815 0.09339851 0.30127978
-0.23932159 -0.027762992 0.09584152 -0.49140102 0.22632195 0.48504037 -0.3922968 -0.54442084
0.33515716 -0.1339693 -0.327326 -0.03847325 0.589503 0.38760835 -0.05947203 -0.13235638
-0.13269751 -0.44080597 -0.080902666 0.12703612 -0.35748687 0.40366834 0.34399387 -0.16493979
-0.053874146 0.19709441 0.31889674 -0.10221052 0.34343714 -0.57107836 0.3157913 0.07837105
-0.4460067 0.21560043 -0.5336614 -0.14479476 -0.21626118 0.31168586 -0.5528697 -0.3164966
0.48357144 0.18865633 0.15985376 0.29796052 -0.28466153 0.31257147 0.17623684 -0.11099261
0.019043459 0.33115232 0.17171785 -0.52934843 -0.6020105 0.48361653 -0.4438144 -0.2288928
0.3361126 -0.14756683 0.28628302 -0.18398947 -0.081240356 -0.30597898 0.22148302 0.5219367
-0.43655282 -0.20865488 -0.1587097 0.26761338 -0.51988006 0.32305604 0.101383865 -0.017546952
0.34869522 0.23441866 -0.2318432 -0.155772 0.053394675 0.23574348 0.06803626 -0.54543567
-0.18262623 -0.20586543 -0.26643637 -0.54935503 0.028065065 0.24999118 -0.5617555 -0.14464447
-0.21201542 -0.26346833 0.23524065 0.42786437 -0.083557904 -0.07313882 0.11465594 0.21638715
-0.020974517 -0.32196552 -0.4847574 -0.4834476 0.0027358532 -0.2280271 0.4430303 -0.0492844
0.20261428 -0.42939222 0.15971409 0.37158406 -0.23060137 0.49085522 0.099668264 -0.6007991
0.07043612 0.48637065 -0.09512442 -0.3991673 -0.13738617 -0.49128327 -0.17534664 -0.4298513
-0.52902365 0.5196449 -0.20099947 0.22748703 -0.48807693 -0.35313985 0.24962749 -0.12011939
0.13326798 -0.58802485 -0.58132255 -0.500143 -0.12932768 0.42636412 -0.43337083 -0.47971606
-0.04385607 0.09934405 0.19981374 -0.15251005 -0.12345171 0.28364345 -0.07701567 -0.5423717
-0.02358704 -0.08251619 -0.56333697 -0.16317186 -0.49280846 0.29449052 0.0348906 0.39206833
0.039796498 0.34784555 0.35705668 0.07053554 0.29970282 -0.525677 0.22434664 0.26314765
0.10168146 0.04284283 -0.20692587 -0.3190275 0.33805093 -0.2530697 0.40024063 0.15689695
0.20653787 0.29976594 -0.12331241 -0.14921957 0.47675294 -0.0017382931 -0.1710402 -0.022776246
-0.56459093 0.21788095 0.20548658 -0.55068195 0.44414493 0.050282657 -0.15858042 -0.34320965
-0.6081655 0.2273342 0.44354516 -0.1523745 -0.3879521 -0.4263808 0.3842391 -0.029006183
0.3154781 0.41781226 -0.38996744 0.14768846 0.45663443 0.40262443 0.31558844 0.32869643
0.4733862 0.1289585 -0.30763513 -0.036076665 0.5626659 0.14753921 -0.1439498 -0.10383642
-0.52612984 0.33017784 -0.3690871 0.060112722 -0.27008763 0.4204802 -0.31546086 0.54383284
0.6150696 0.37852675 -0.57282746 0.30874258 -0.21387434 -0.1972911 -0.30432275 0.40017372
-0.015695568 0.07567085 0.11971411 -0.36850965 0.06603819 0.20058596 0.29422155 0.23912048
-0.58937013 0.07278604 0.07804824 0.36948115 0.18318623 0.43482623 -0.11176584 -0.035453975
00000000: 5634 0a3e cd52 563e 008c a53c fd4d 643e
00000010: bd0a 013f 8079 f0bd b328 013f a609 f13e
00000020: 0e51 413e 8e57 d43e e7b8 e7be 80d7 e8be
00000030: 5136 103f 745f 043f b847 bf3d 5841 9a3e
00000040: b810 75be 376f e3bc 8f48 c43d ea98 fbbe
00000050: f1c0 673e 3657 f83e 20db c8be 2a5f 0bbf
00000060: b899 ab3e 402f 09be 4697 a7be 2096 1dbd
00000070: abe9 163f 9a74 c63e f198 73bd 6e88 07be
00000080: dbe1 07be 52b1 e1be 4cb0 a5bd c215 023e
00000090: 8508 b7be 9ead ce3e f71f b03e fae5 28be
000000a0: 23ab 5cbd 1ed3 493e 6f46 a33e c053 d1bd
000000b0: fed6 af3e 3132 12bf 66af a13e 0081 a03d
000000c0: fd5a e4be 5cc6 5c3e 099e 08bf 1445 14be
000000d0: 9273 5dbe 4a95 9f3e de88 0dbf d80b a2be
000000e0: ad96 f73e 202f 413e b4b0 233e 488e 983e
000000f0: 28bf 91be 5e09 a03e 6e77 343e 1850 e3bd
00000100: 0701 9c3c cc8c a93e ced6 2f3e 6183 07bf
00000110: 5c1d 1abf 969c f73e a43b e3be e062 6abe
00000120: f316 ac3e c21b 17be b093 923e bc67 3cbe
00000130: 5861 a6bd 47a9 9cbe 72cc 623e a59d 053f
00000140: da83 dfbe a0a9 55be cc84 22be 9f04 893e
00000150: dc16 05bf 9a67 a53e 58a2 cf3d a0be 8fbc
00000160: 2e88 b23e 720b 703e 4e68 6dbe b282 1fbe
00000170: 60b4 5a3d bd66 713e 9856 8b3d aca1 0bbf
00000180: 5f02 3bbe 63ce 52be 596a 88be 88a2 0cbf
00000190: b5e8 e53c b0fd 7f3e 35cf 0fbf ae1d 14be
000001a0: 921a 59be 52e5 86be ede2 703e 0a11 db3e
000001b0: 6820 abbd cec9 95bd bcd0 ea3d 9894 5d3e
000001c0: c0d2 abbc aad8 a4be 1f32 f8be 7286 f7be
000001d0: 004c 333b f07f 69be ded4 e23e 70de 49bd
000001e0: 1e7a 4f3e 4cd9 dbbe 178c 233e 4440 be3e
000001f0: c422 6cbe 6051 fb3e e01e cc3d f8cd 19bf
00000200: d040 903d 9305 f93e 98d0 c2bd a85f ccbe
00000210: f6ae 0cbe 7b89 fbbe 128e 33be 7815 dcbe
00000220: 186e 07bf 7307 053f ced2 4dbe 5cf2 683e
00000230: 38e5 f9be bfce b4be 599e 7f3e 2801 f6bd
00000240: 6777 083e cc88 16bf 8ed1 14bf 5f09 00bf
00000250: 7a6e 04be 664c da3e c8e2 ddbe 589d f5be
00000260: 6ca2 33bd e574 cb3d f99b 4c3e 982b 1cbe
00000270: 40d4 fcbd b739 913e 64ba 9dbd dfd8 0abf
00000280: 9c39 c1bc 40fe a8bd da36 10bf 8616 27be
00000290: 6451 fcbe 76c7 963e 72e9 0e3d 2ebd c83e
000002a0: a701 233d d018 b23e 22d0 b63e f074 903d
000002b0: a672 993e c592 06bf 20bb 653e 4abb 863e
000002c0: 5f3e d03d f77b 2f3d 60e4 53be 9357 a3be
000002d0: 0315 ad3e 5a92 81be 57ec cc3e 98a9 203e
000002e0: aa7e 533e ec7a 993e 388b fcbd 04cd 18be
000002f0: f618 f43e 70d7 e3ba 2a25 2fbe 4095 babc
00000300: 0889 10bf 2f1c 5f3e 136b 523e 7ef9 0cbf
00000310: f766 e33e 30f5 4d3d e862 22be 2db9 afbe
00000320: bcb0 1bbf 4cca 683e 5a18 e33e 1008 1cbe
00000330: a8a1 c6be 964e dabe fdba c43e 609e edbc
00000340: 5886 a13e 7deb d53e d0a9 c7be a53b 173e
00000350: fdcb e93e ca24 ce3e cf94 a13e e64a a83e
00000360: ad5f f23e b20d 043e 5a82 9dbe 20c5 13bd
00000370: df0a 103f 8514 173e 9467 13be 30a8 d4bd
00000380: 72b0 06bf 120d a93e fcf8 bcbe c238 763d
00000390: ed48 8abe 2e49 d73e 1684 a1be a138 0b3f
000003a0: 3475 1d3f 42ce c13e d2a4 12bf 8213 9e3e
000003b0: e001 5bbe ae06 4abe 31d0 9bbe 92e3 cc3e
000003c0: fe93 80bc 52f9 9a3d ac2c f53d 4cad bcbe
000003d0: 083f 873d 6866 4d3e 35a4 963e 00dc 743e
000003e0: f6e0 16bf d910 953d c1d7 9f3d a22c bd3e
000003f0: 2c95 3b3e 8ba1 de3e 7de5 e4bd 3038 11bd

fc_layers.0.bias f4 [128]
-0.285396 -0.10846626 -0.2182893 -0.038134597 -0.19981146 -0.35130993 -0.03849667 -0.3168942
-0.1329385 -0.11106371 -0.17448598 -0.22290987 -0.29552785 -0.15902756 0.03602131 -0.15544568
-0.08621835 -0.1657938 -0.136417 -0.26832688 -0.30699673 -0.15903991 -0.20258395 -0.10917276
-0.20657064 0.0026927204 -0.31607816 -0.0023380427 -0.2157812 0.17137848 -0.26264405 -0.1410872
-0.4381921 -0.050125558 -0.22111295 -0.18162699 -0.38174018 -0.13818581 -0.04036703 -0.36305997
-0.06349154 -0.3172197 -0.28059557 -0.11135519 -0.08880188 -0.07242556 -0.17197731 -0.36329722
-0.00862546 -0.087270245 -0.15304163 -0.14616667 -0.276574 -0.23667614 -0.003100267 -0.15513125
-0.21503179 -0.32355785 -0.08126204 -0.15451959 -0.014803872 -0.19608821 -0.27775234 -0.19018978
-0.06601368 -0.35595927 -0.050909843 -0.27429944 0.15821308 -0.12105852 -0.16071253 -0.33080855
-0.21498883 -0.11126757 -0.12853095 -0.0948264 -0.25396463 -0.11783863 -0.15417147 -0.277049
-0.19109258 -0.28365237 -0.2790893 -0.2694006 -0.22312224 -0.21331853 -0.20979261 -0.12510157
-0.31444815 -0.17002085 -0.030363576 -0.41831157 -0.162491 -0.08390235 -0.11407669 -0.38949454
-0.117983796 -0.06889883 -0.2335521 -0.051675342 -0.17924747 -0.0726012 -0.1593345 -0.37948114
-0.25934368 -0.2156799 -0.08197327 -0.022272263 -0.16465001 0.115142696 -0.017720668 -0.30898985
-0.28324628 -0.20298253 -0.27937984 -0.31257045 -0.1603661 -0.13945337 -0.26546106 -0.1086128
-0.3319891 -0.3954856 -0.29954013 -0.15978149 -0.28650197 -0.14524557 -0.16548659 -0.29249537
00000000: 6d1f 92be 8f23 debd 3b87 5fbe 0633 1cbd
00000010: 609b 4cbe e5de b3be afae 1dbd f53f a2be
00000020: 0821 08be 5f75 e3bd 74ac 32be 7c42 64be
00000030: 6d4f 97be 1fd8 22be 158b 133d 272d 1fbe
00000040: 3f93 b0bd dac5 29be e6b0 0bbe 2462 89be
00000050: ad2e 9dbe 5cdb 22be 2b72 4fbe f895 dfbd
00000060: 4187 53be 5a78 303b ffd4 a1be d939 19bb
00000070: bff5 5cbe d77d 2f3e 4879 86be 2a79 10be
00000080: b75a e0be 7550 4dbd 6f6b 62be 6dfc 39be
00000090: 7373 c3be 9580 0dbe e657 25bd ffe2 b9be
000000a0: da07 82bd 9f6a a2be 39aa 8fbe 310e e4bd
000000b0: c3dd b5bd da53 94bd d21a 30be 1802 babe
000000c0: cd51 0dbc beba b2bd f2b6 1cbe b7ac 15be
000000d0: 1b9b 8dbe 3b5b 72be d92d 4bbb bada 1ebe
000000e0: 4b31 5cbe 60a9 a5be b66c a6bd 623a 1ebe
000000f0: f18b 72bc 59cb 48be 8e35 8ebe 1cc1 42be
00000100: 2e32 87bd 4b40 b6be d786 50bd fa70 8cbe
00000110: 9c02 223e 88ed f7bd d391 24be bd5f a9be
00000120: 0826 5cbe 40e0 e3bd 9e9d 03be 5834 c2bd
00000130: a707 82be 6155 f1bd 20df 1dbe 5ed9 8dbe
00000140: c6ad 43be e23a 91be cbe4 8ebe e0ee 89be
00000150: 287a 64be 2c70 5abe e0d3 56be a01a 00be
00000160: 59ff a0be f219 2ebe 09bd f8bc ef2c d6be
00000170: 0a64 26be ffd4 abbd 0aa1 e9bd d46b c7be
00000180: 7da1 f1bd d41a 8dbd 4828 6fbe 86a9 53bd
00000190: a68c 37be f0af 94bd 9528 23be 5a4b c2be
000001a0: b2c8 84be 31db 5cbe 9ae1 a7bd 5274 b6bc
000001b0: 039a 28be efcf eb3d ef2a 91bc eb33 9ebe
000001c0: a805 91be a7da 4fbe e00a 8fbe 3c09 a0be
000001d0: 0337 24be ddcc 0ebe 83ea 87be 6370 debd
000001e0: 7afa a9be 177d cabe 535d 99be c29d 23be
000001f0: 63b0 92be 41bb 14be 5175 29be f4c1 95be

fc_layers.3.weight f4 [64, 128]
0.10058235 -0.17512856 -0.1405099 -0.19228618 -0.10430826 0.06643324 0.014994391 -0.022672998
0.04556538 -0.0014903722 -0.064598575 -0.08388344 -0.26804453 -0.012343091 -0.07972653 -0.16489731
0.061922316 -0.059925824 0.07588836 -0.0005862198 -0.22399718 0.023028644 0.0061428966 -0.11727092
-0.065124646 -0.16633627 -0.10447192 -0.107364215 -0.14940165 -0.09238866 0.105897546 -0.043582242
0.09946973 -0.043210834 -0.12001803 0.08610405 -0.11667028 -0.20306647 0.068879455 -0.23244242
-0.08521683 -0.21218719 -0.21590748 -0.07222127 -0.12772903 0.016784951 0.031672984 -0.080846876
-0.033847332 -0.16856104 0.12798966 -0.0681398 0.08606391 -0.20146285 -0.20257783 0.09152985
-0.22484797 -0.16947234 -0.1849578 0.1591651 0.096024804 -0.15719146 -0.12546 0.052440006
-0.19763498 0.0372081 -0.060741562 -0.09234762 -0.21102285 -0.1103215 0.05753378 0.20265087
-0.08450842 -0.03286853 -0.19431423 -0.22044371 -0.018156357 0.11012185 -0.07235223 0.0924167
-0.20673375 0.043392837 0.13389663 -0.15703636 0.13206187 -0.16095006 -0.08106739 0.04114094
-0.06529024 -0.1945375 0.07964188 -0.0618636 -0.051114768 -0.09684111 -0.0017178882 -0.09739687
0.0032613883 -0.1449893 -0.21212232 0.06909312 0.13870215 0.04526544 -0.070008904 0.16791598
-0.2650618 -0.1894061 -0.011278543 0.05441471 -0.090539806 -0.11273632 -0.016115015 0.100281194
-0.18714142 -0.043058466 -0.039280765 -0.23646392 -0.1725458 -0.039791584 -0.17150585 -0.2298092
0.14453982 0.1164893 -0.07367548 -0.10269665 -0.21523914 -0.20799993 -0.119840994 -0.17907363
-0.05368352 0.2547248 -0.03842259 0.07808395 0.29636094 -0.047259707 -0.009139657 0.040456176
-0.28953552 -0.05701916 -0.17813896 -0.052362524 -0.10601013 0.14096068 0.09399522 -0.18925147
-0.1323727 0.13982005 -0.18206306 -0.08628743 -0.46041238 0.22267094 -0.072788134 0.01918193
-0.20849036 0.053759236 0.10137502 -0.22088152 0.12492325 0.16712531 -0.16389163 -0.20263211
0.038413733 -0.12455194 -0.12225887 -0.2500752 -0.31132102 -0.14986174 -0.34429362 -0.17432977
-0.06182734 -0.40823758 -0.023366058 0.17369711 -0.19138075 -0.28608832 -0.060478356 -0.24069181
-0.10352419 0.17750838 0.08743168 -0.2923943 0.14478557 0.092729114 -0.07246507 -0.06881979
0.20828202 -0.22347091 -0.21309914 0.24643226 0.1812312 -0.3342317 -0.16485068 0.010937717
-0.08659684 0.016378552 -0.13300095 -0.0825684 -0.3300635 -0.09724838 -0.28353506 0.14554943
-0.07661653 -0.072799936 -0.0025362747 -0.17983393 -0.42567083 -0.23294935 -0.10017512 -0.04676238
-0.1755114 0.057058807 -0.19982655 -0.22107722 -0.37547073 0.025874382 -0.20322818 -0.25857806
-0.08024591 -0.2272447 0.13866733 -0.10535896 -0.0067621632 0.26554188 -0.20860061 0.036884945
0.1504239 -0.19792661 0.15243983 0.10555313 -0.047916733 0.02559394 0.14593948 0.08079736
-0.24474202 0.047785763 -0.054482114 -0.3070901 -0.10171492 -0.15592562 0.24325193 -0.18312626
-0.17260022 0.07076532 -0.22179979 -0.18886392 -0.09180758 -0.12245481 0.030764455 -0.07686781
0.14468525 0.076410234 -0.2224216 -0.16803582 0.050349515 0.19141014 -0.05540309 -0.32319546
00000000: 1efe cd3d e754 33be d4e1 0fbe abe6 44be
00000010: 929f d5bd 270e 883d 09ab 753c b9bc b9bc
00000020: c4a2 3a3d 9858 c3ba 424c 84bd 15cb abbd
00000030: 223d 89be ad3a 4abc aa47 a3bd d7da 28be
00000040: 41a2 7d3d c874 75bd 5b6b 9b3d 8bac 19ba
00000050: 845f 65be 91a6 bc3c 5a4a c93b bc2b f0bd
00000060: 1260 85bd 0e54 2abe 60f5 d5bd c5e1 dbbd
00000070: bffc 18be 4436 bdbd d0e0 d83d 4b83 32bd
00000080: c9b6 cb3d d8fd 30bd 03cc f5bd 5257 b03d
00000090: d4f0 eebd a8f0 4fbe ac10 8d3d 6305 6ebe
000000a0: 2986 aebd 9947 59be da16 5dbe bfe8 93bd
000000b0: 66cb 02be 9880 893c 88bb 013d 0c93 a5bd
000000c0: 80a3 0abd 449b 2cbe b90f 033e e18c 8bbd
000000d0: 4642 b03d 474c 4ebe 9070 4fbe 0174 bb3d
000000e0: 8c3e 66be 288a 2dbe 9465 3dbe 2dfc 223e
000000f0: a7a8 c43d ccf6 20be 9678 00be 55cb 563d
00000100: d360 4abe 8567 183d 25cc 78bd c020 bdbd
00000110: 6016 58be 3df0 e1bd 8aa8 6b3d b683 4f3e
00000120: c012 adbd 27a1 06bd 4ffa 46be ffbb 61be
00000130: a4bc 94bc 9187 e13d 682d 94bd f844 bd3d
00000140: 03b2 53be b0bc 313d 331c 093e 24ce 20be
00000150: 3a3b 073e 18d0 24be a906 a6bd 6783 283d
00000160: e4b6 85bd d734 47be 481b a33d b064 7dbd
00000170: b85d 51bd a254 c6bd c32a e1ba 0378 c7bd
00000180: 04bd 553b 1378 14be 9836 59be b280 8d3d
00000190: f007 0e3e 4168 393d d460 8fbd 2bf2 2b3e
000001a0: 2eb6 87be acf3 41be a3c9 38bc f5e1 5e3d
000001b0: ef6c b9bd 4de2 e6bd a303 84bc 3a60 cd3d
000001c0: 00a2 3fbe 135e 30bd dee4 20bd 9923 72be
000001d0: d9af 30be 80fc 22bd 3b9f 2fbe 1a53 6bbe
000001e0: 3f02 143e f191 ee3d 2ce3 96bd 9f52 d2bd
000001f0: a667 5cbe effd 54be 326f f5bd 145f 37be
00000200: 40e3 5bbd 4a6b 823e 0161 1dbd 7aea 9f3d
00000210: 9fbc 973e 6593 41bd 80be 15bc 60b5 253d
00000220: 003e 94be ec8c 69bd 0f6a 36be 167a 56bd
00000230: d71b d9bd ff57 103e 9180 c03d 23cb 41be
00000240: b68c 07be fd2c 0f3e bd6e 3abe 77b7 b0bd
00000250: 2cbb ebbe da03 643e f211 95bd 6c23 9d3c
00000260: 7f7e 55be a532 5c3d b59d cf3d c42e 62be
00000270: c3d7 ff3d e622 2b3e 35d3 27be cb7e 4fbe
00000280: b857 1d3d 1615 ffbd dc62 fabd db09 80be
00000290: 7865 9fbe 5b75 19be 4147 b0be 8183 32be
000002a0: aa3e 7dbd 8404 d1be 2d6a bfbc a8dd 313e
000002b0: 51f9 43be 2b7a 92be 27b8 77bd ea77 76be
000002c0: 7e04 d4bd c2c4 353e 610f b33d b5b4 95be
000002d0: ab42 143e c3e8 bd3d 9168 94bd 64f1 8cbd
000002e0: e247 553e 8fd5 64be a936 5abe bd58 7c3e
000002f0: ac94 393e 6b20 abbe 9ece 28be 1c34 333c
00000300: af59 b1bd 502c 863c 6731 08be 9f19 a9bd
00000310: 15fe a8be 292a c7bd 822b 91be e90a 153e
00000320: 21e9 9cbd 2218 95bd a137 26bb 6326 38be
00000330: 87f1 d9be 468a 6ebe 9d28 cdbd e989 3fbd
00000340: 43b9 33be 7fb6 693d 559f 4cbe 1162 62be
00000350: b33d c0be 83f6 d33c 0c1b 50be 5864 84be
00000360: f857 a4bd d6b2 68be cffe 0d3e 70c6 d7bd
00000370: 2395 ddbb 1bf5 873e 669b 55be ab14 173d
00000380: b908 1a3e 46ad 4abe 3019 1c3e 3d2c d83d
00000390: 5644 44bd 62aa d13c 2971 153e 1679 a53d
000003a0: a79d 7abe 01bb 433d a328 5fbd ea3a 9dbe
000003b0: e94f d0bd f7aa 1fbe 0917 793e 7385 3bbe
000003c0: 1dbe 30be 68ed 903d 7c1f 63be 8b65 41be
000003d0: 9d05 bcbd 96c9 fabd bd05 fc3c df6c 9dbd
000003e0: 5f28 143e f87c 9c3d 7dc2 63be 9511 2cbe
000003f0: 4b3b 4e3d 0501 443e 5aee 62bd e079 a5be

fc_layers.3.bias f4 [64]
-0.07858666 -0.04911694 0.09588121 -0.044963 -0.12695773 0.15432037 -0.041242994 -0.13979916
-0.02590537 0.28758752 0.020774692 0.07847632 -0.011388973 -0.11536471 -0.14441553 0.11983427
0.1508782 -0.1765182 0.020755954 0.027341757 0.047877446 0.13641801 -0.08133147 -0.019332627
-0.19358079 0.011305882 0.08362227 0.03406678 -0.11261799 0.055005297 -0.12671328 0.15202029
0.09855205 0.09155691 -0.084133774 -0.1932406 -0.07387284 0.12067947 0.07341291 0.042052153
-0.208876 -0.007926858 0.19701393 -0.18592782 -0.1769767 -0.035319068 -0.022313932 0.14619008
-0.08219766 0.026622381 0.019286256 0.03425504 -0.17370617 0.00019421682 -0.038922668 0.06656166
0.117291674 -0.066191904 -0.060348254 0.06578465 -0.19298808 0.016983422 0.03447961 0.09767851
00000000: 0bf2 a0bd d82e 49bd 5e5d c43d 1f2b 38bd
00000010: 3501 02be 2906 1e3e 6aee 28bd 8327 0fbe
00000020: 8037 d4bc ac3e 933e b02f aa3c 31b8 a03d
00000030: d198 3abc 5544 ecbd aae1 13be ab6b f53d
00000040: d17f 1a3e 30c1 34be 6408 aa3c d2fb df3c
00000050: 241b 443d 2ab1 0b3e 1d91 a6bd 755f 9ebc
00000060: 0b3a 46be 4e3c 393c 2742 ab3d 9c89 0b3d
00000070: 43a4 e6bd 3c4d 613d 20c1 01be 35ab 1b3e
00000080: a8d5 c93d 3082 bb3d 544e acbd dde0 45be
00000090: a54a 97bd cc26 f73d 8259 963d e13e 2c3d
000000a0: 97e3 55be a7df 01bc 05be 493e dd63 3ebe
000000b0: 6139 35be baaa 10bd b5cb b6bc dab2 153e
000000c0: 3f57 a8bd 2e17 da3c 36fe 9d3c 034f 0c3d
000000d0: 08e0 31be aea6 4b39 606d 1fbd 7b51 883d
000000e0: 9e36 f03d 9f8f 87bd bb2f 77bd 1aba 863d
000000f0: ab9e 45be d120 8b3c 7e3a 0d3d ac0b c83d

fc_layers.6.weight f4 [32, 64]
0.21688803 -0.08352179 -0.23171309 0.05077972 -0.025779333 0.05757463 0.21098062 0.24328604
-0.19210115 -0.08150594 -0.077484794 0.28532442 -0.010319326 -0.20030868 0.008829938 -0.11069471
0.08590506 0.0226071 -0.054439932 -0.048026867 0.21061729 -0.20683102 -0.020443032 -0.13888985
-0.24219896 -0.28617093 -0.114974685 0.01524232 -0.016814921 -0.11006536 -0.28715783 0.02942992
0.007831228 -0.1747681 0.23403262 -0.21932578 -0.20576225 2.4302873e-05 -0.42045996 -0.34559438
-0.22707118 0.08968445 -0.23968932 -0.26949707 0.10489858 -0.1980641 -0.123495236 0.2900278
0.13439804 -0.15880086 -0.17797884 0.14634433 -0.032722794 -0.2521524 0.12507711 0.010877191
-0.38170922 -0.04544493 0.077516705 -0.26847288 0.04586147 0.002695203 -0.08622046 -0.2260668
-0.18675648 0.040505588 -0.23860155 -0.2936894 -0.15749097 0.022649873 0.2536067 0.22986057
-0.15153266 -0.11768055 0.19338301 0.105635166 -0.29590786 -0.24299777 -0.26513684 -0.22730385
-0.0954309 -0.15269957 0.0028912972 0.17093344 0.029797394 -0.21740654 -0.24432191 -0.21222594
0.10058525 -0.2071167 -0.047610395 -0.24324279 -0.30324993 0.027163098 -0.10530245 -0.30838618
-0.1844329 -0.016040029 -0.042918693 -0.0041120243 0.17568387 -0.06099313 -0.28024736 0.03428698
-0.10934953 0.120990396 -0.16883117 0.16429402 0.24231604 0.10009108 -0.13789731 -0.055681195
0.18995492 -0.024785021 -0.15722738 -0.28299326 -0.05976533 0.17550503 -0.12275703 -0.03392258
-0.21619554 -0.0036100368 0.023548627 -0.09842755 0.22965226 0.057707027 0.0422061 -0.052370753
-0.24886458 -0.45044687 -0.21103019 0.035198424 -0.16413215 -0.5413977 -0.29861465 0.26471546
0.3337695 0.21790236 -0.12736234 -0.2746304 -0.18691492 0.01972968 0.019973377 -0.15591466
-0.41104376 0.16133246 0.16548742 0.302643 -0.39635652 -0.3394421 -0.11692457 -0.19517806
-0.30049032 -0.32215235 -0.0901943 5.763932e-05 -0.08701654 -0.35978156 0.12409015 -0.20982273
-0.22830272 -0.18854551 -0.17340904 -0.27611727 -0.16202614 -0.17151113 -0.14704193 0.057397295
0.1139919 -0.31282845 -0.39573306 -0.05563988 0.24922554 0.012278842 -0.021885324 -0.3184295
-0.19230764 0.03014331 -0.05531271 -0.19051428 0.08357647 -0.043425165 -0.31457412 -0.2786911
-0.1548751 0.20648046 -0.110217765 -0.3976331 -0.12063883 -0.31250575 -0.39465892 -0.29223132
0.045946337 -0.3111285 -0.10800805 -0.103457525 0.21988806 0.120789565 0.25395137 -0.03860394
-0.03201326 -0.012671763 0.16487229 -0.15298675 -0.14011855 0.11291543 -0.23809586 -0.10671275
-0.23378089 0.10003245 -0.37307355 0.13217893 -0.0068459576 0.035222225 0.11830544 -0.084203094
-0.24818826 -0.07666258 0.02974068 0.43313533 -0.15751643 -0.11398825 -0.048015933 0.0542519
0.042889796 -0.06998288 -0.0058358805 -0.08070015 0.007780128 0.0037321402 -0.15199715 0.029509576
-0.2648442 -0.08687243 -0.33919942 0.07037688 0.028190877 0.22224414 0.027904373 -0.16279949
-0.052844357 -0.15798102 -0.33608454 -0.23410311 0.005531544 -0.16192263 -0.24164225 0.23354965
0.29274806 0.2851573 0.15151058 -0.14303377 0.22990875 -0.17248125 -0.09693788 -0.1480418
00000000: e517 5e3e 790d abbd 3246 6dbe 65fe 4f3d
00000010: 2e2f d3bc 60d3 6b3d 4e0b 583e fa1f 793e
00000020: 2ab6 44be 96ec a6bd 59b0 9ebd 0b16 923e
00000030: 6412 29bc b81d 4dbe 72ab 103c e8b3 e2bd
00000040: feee af3d 8632 b93c 68fc 5ebd d2b7 44bd
00000050: 0fac 573e 83cb 53be 2578 a7bc 2439 0ebe
00000060: 0103 78be ff84 92be d977 ebbd ecba 793c
00000070: 72bf 89bc f369 e1bd 5a06 93be 0417 f13c
00000080: 8d4e 003c 69f6 32be 3fa6 6f3e f096 60be
00000090: 57b3 52be 06de cb37 8746 d7be bff1 b0be
000000a0: 5985 68be 7bac b73d 1e71 75be 85fb 89be
000000b0: 11d5 d63d 51d1 4abe 12eb fcbd 867e 943e
000000c0: a49f 093e b19c 22be 1640 36be 4adb 153e
000000d0: 5608 06bd 1f1a 81be 3714 003e 3f36 323c
000000e0: 646f c3be 7724 3abd 14c1 9e3d 4775 89be
000000f0: 3dd9 3b3d 01a2 303b 5a94 b0bd 0e7e 67be
00000100: 173d 3fbe 30e9 253d f753 74be 755e 96be
00000110: 5045 21be 3a8c b93c bdd8 813e 9260 6b3e
00000120: 612b 1bbe 8002 f1bd 3206 463e 4057 d83d
00000130: 3c81 97be 68d4 78be 04c0 87be 57c2 68be
00000140: 4771 c3bd 475d 1cbe eb7b 3d3b 2d09 2f3e
00000150: aa19 f43c d29f 5ebe 862f 7abe c251 59be
00000160: a4ff cd3d 6616 54be 1e03 43bd a314 79be
00000170: 9343 9bbe 2585 de3c d0a8 d7bd cbe4 9dbe
00000180: fadb 3cbe 6166 83bc 83cb 2fbd 29be 86bb
00000190: 79e6 333e efd3 79bd 957c 8fbe 8170 0c3d
000001a0: a5f2 dfbd d0c9 f73d 14e2 2cbe b13c 283e
000001b0: b221 783e 8dfc cc3d f434 0dbe f711 64bd
000001c0: 8b83 423e f509 cbbc 3700 21be 7ee4 90be
000001d0: 7ecc 74bd 97b7 333e 0a68 fbbd 67f2 0abd
000001e0: 5d62 5dbe 5e96 6cbb 0de9 c03c 6294 c9bd
000001f0: f629 6b3e 345e 6c3d 4ee0 2c3d b782 56bd
00000200: 5bd6 7ebe f9a0 e6be 4c18 58be 392c 103d
00000210: 4212 28be 0a99 0abf 05e4 98be c988 873e
00000220: d6e3 aa3e cc21 5f3e 466b 02be 5b9c 8cbe
00000230: a066 3fbe 23a0 a13c 359f a33c 18a8 1fbe
00000240: 5474 d2be 5634 253e 8975 293e 06f4 9a3e
00000250: 3eef cabe 5bcb adbe 2676 efbd c2dc 47be
00000260: ded9 99be 27f1 a4be cab7 b8bd c0c1 7138
00000270: ba35 b2bd 4a35 b8be fa22 fe3d c5db 56be
00000280: 30c8 69be 1312 41be 2492 31be 3e5f 8dbe
00000290: 2eea 25be 9da0 2fbe 2992 16be 6d19 6b3d
000002a0: 9674 e93d 0d2b a0be 869d cabe a5e6 63bd
000002b0: fb34 7f3e 322d 493c da48 b3bc 3109 a3be
000002c0: 4bec 44be 1aef f63c 958f 62bd 2d16 43be
000002d0: 242a ab3d 96de 31bd dc0f a1be 9ab0 8ebe
000002e0: 9497 1ebe 9d6f 533e dab9 e1bd 9196 cbbe
000002f0: 7e11 f7bd c100 a0be bc10 cabe 589f 95be
00000300: 3a32 3c3d 3c4c 9fbe 5333 ddbd 8ae1 d3bd
00000310: 562a 613e 8560 f73d ea05 823e 2a1f 1ebd
00000320: 5620 03bd 3a9d 4fbc 48d4 283e 8fa8 1cbe
00000330: 3d7b 0fbe 3440 e73d 67cf 73be 378c dabd
00000340: 4264 6fbe d0dd cc3d 7f03 bfbe ea59 073e
00000350: 0e54 e0bb 2e45 103d 1f4a f23d ac72 acbd
00000360: 1025 7ebe 4501 9dbd baa2 f33c eac3 dd3e
00000370: fd4b 21be ac72 e9bd 5bac 44bd 3e37 5e3d
00000380: 36ad 2f3d 2f53 8fbd ea3a bfbb 1f46 a5bd
00000390: 72f0 fe3b ec96 743b 24a5 1bbe 11be f13c
000003a0: a999 87be 2cea b1bd 8cab adbe c121 903d
000003b0: 8ef0 e63c f893 633e b697 e43c e9b4 26be
000003c0: 5373 58bd c7c5 21be 4613 acbe bab8 6fbe
000003d0: f441 b53b 0ccf 25be 1171 77be a427 6f3e
000003e0: 13e3 953e 2300 923e 9725 1b3e 7277 12be
000003f0: 336d 6b3e ed9e 30be 5e87 c6bd 4598 17be

fc_layers.6.bias f4 [32]
-0.089441046 -0.3389631 0.05576441 -0.06256335 0.2792949 -0.38143033 -0.15166865 -0.07239773
-0.23851256 -0.039670907 0.012224121 -0.2841353 0.14429653 0.14306727 -0.07339094 0.054299783
0.29990086 -0.007597348 -0.06489987 0.17758845 0.5704774 -0.27934703 0.15329334 0.22404936
0.11550067 -0.40210816 -0.04953963 -0.031090688 -0.09187965 0.43537512 0.59876263 0.2132936
00000000: de2c b7bd 928c adbe 3969 643d 3721 80bd
00000010: beff 8e3e d64a c3be 074f 1bbe 4345 94bd
00000020: a33c 74be f67d 22bd ae47 483c 2f7a 91be
00000030: 78c2 133e 3a80 123e fd4d 96bd 7369 5e3d
00000040: 9b8c 993e 2df3 f8bb 39ea 84bd bfd9 353e
00000050: cf0a 123f 9306 8fbe eef8 1c3e 326d 653e
00000060: 9e8b ec3d 1fe1 cdbe 11ea 4abd e6b1 febc
00000070: 662b bcbd 7de9 de3e 8248 193f a369 5a3e

fc_layers.8.weight f4 [4, 32]
-0.1589831 -0.11673935 -0.32226077 0.27200595 0.017134327 -0.076447755 -0.31111524 -0.006370449
-0.18791755 -0.33136016 0.2806107 -0.09344256 -0.17777339 -0.027386501 -0.15052016 -0.031699404
0.11197262 0.0098850755 0.07759127 0.21470255 0.31207958 0.3019259 -0.04810252 0.14152206
0.1007783 -0.21417496 -0.036096856 0.098407 -0.043075595 0.12256238 0.26333314 -0.5808695
-0.57979614 -0.15812445 -0.19819441 -0.19182254 -0.7181347 -0.29558188 -0.09559624 0.069132626
0.026216166 0.057342798 0.22036003 0.055041753 0.052440368 0.15589939 -0.14010781 -0.2447609
0.20627496 0.03396877 0.07819315 0.13522655 0.29264632 -0.037408706 0.16711015 0.16923133
-0.21699502 -0.283546 -0.04567675 0.13829987 0.022797603 0.2391287 0.24139808 -0.22836003
0.04572676 -0.057429876 -0.079538055 -0.0013636514 -0.09350454 0.29580656 -0.281136 -0.27162138
-0.08243589 0.014539078 0.010832093 -0.06165177 0.05697146 -0.099251516 -0.24825738 0.023711758
-0.15324928 -0.035987426 0.163111 -0.017778797 0.2700106 0.18485026 0.3455091 -0.26761517
0.18471852 -0.19392943 0.058633626 0.046070755 -0.14782758 0.22285023 0.42394653 -0.7197309
-0.16056718 0.045219034 -0.054190442 -0.19587514 -0.38288713 -0.22692302 -0.039823797 0.045539197
0.08551654 0.00866471 0.21682666 0.16891026 0.12540165 0.024550086 0.2969338 -0.13609655
0.1367984 0.1782618 0.19525199 0.030199716 0.20374185 0.08988185 -0.31691146 0.09177586
0.010683911 -0.27522805 -0.09871007 0.06492324 0.23637654 0.2031692 0.01817897 -0.18435888
00000000: 77cc 22be 0a15 efbd 5dff a4be 5d44 8b3e
00000010: 4a5d 8c3c a490 9cbd 7f4a 9fbe 33bf d0bb
00000020: 756d 40be 0aa8 a9be 35ac 8f3e d05e bfbd
00000030: 3a0a 36be a859 e0bc f521 1abe 3cd7 01bd
00000040: e751 e53d 03f5 213c 2ce8 9e3d fcda 5b3e
00000050: e5c8 9f3e 0896 9a3e 2607 45bd 29eb 103e
00000060: da64 ce3d ae50 5bbe 4cda 13bd 9c89 c93d
00000070: 0970 30bd fc01 fb3d 9ad3 863e ddb3 14bf
00000080: 856d 14bf 60eb 21be 7af3 4abe 216d 44be
00000090: add7 37bf 8256 97be f6c7 c3bd 6895 8d3d
000000a0: 49c3 d63c 48e0 6a3d 0fa6 613e 7673 613d
000000b0: b6cb 563d 17a4 1f3e 6c78 0fbe 9aa2 7abe
000000c0: be39 533e d622 0b3d bb23 a03d d478 0a3e
000000d0: bdd5 953e df39 19bd ec1e 2b3e fa4a 2d3e
000000e0: f133 5ebe f12c 91be 8b17 3bbd 7b9e 0d3e
000000f0: 0ac2 ba3c 27de 743e 0f31 773e 36d7 69be
00000100: fc4b 3b3d 973b 6bbd d9e4 a2bd 8cbc b2ba
00000110: 4f7f bfbd f573 973e 0ff1 8fbe f511 8bbe
00000120: 26d4 a8bd 5035 6e3c 1779 313c 9186 7cbd
00000130: e85a 693d 6144 cbbd 2f37 7ebe 293f c23c
00000140: 61ed 1cbe 8d67 13bd 9206 273e d7a4 91bc
00000150: d43e 8a3e 6349 3d3e 92e6 b03e db04 89be
00000160: da26 3d3e 7095 46be d029 703d b0b4 3c3d
00000170: 1d60 17be da32 643e 850f d93e 4940 38bf
00000180: b96b 24be 9837 393d ccf6 5dbd 7e93 48be
00000190: c809 c4be 825e 68be 471e 23bd 4f87 3a3d
000001a0: 4c23 af3d 6ef6 0d3c cf07 5e3e d0f6 2c3e
000001b0: 4a69 003e 431d c93c b507 983e e55c 0bbe
000001c0: e114 0c3e 438a 363e 23f0 473e 6565 f73c
000001d0: b4a1 503e fa13 b83d 3842 a2be fbf4 bb3d
000001e0: 920b 2f3c b1ea 8cbe 8128 cabd 7af6 843d
000001f0: b10c 723e 960b 503e 10ec 943c 93c8 3cbe

fc_layers.8.bias f4 [4]
0.22131902 0.26930135 0.24090286 0.45361283
00000000: 74a1 623e dee1 893e 3daf 763e f13f e83e
